ae_models/best_basic_ae_checkpoint_in128_lat4_lr0.002_do0.001.pt (torch, 284811 bytes, 60 tensors)

encoder.0.weight f4 [64, 128]
000000 b1 8d 62 3e 84 7f 0c be d8 85 2c be 56 d1 f1 bc
       0.22124363 -0.13720518 -0.16847932 -0.029518764
000010 de 51 66 bd 3d 1f f8 3d 6a 4d 33 be 19 4c 1d 3e
       -0.05623042 0.12115333 -0.1751 0.1536106
000020 ef e3 88 3d bb 59 ab bd de 7d 1b 3e 0e ca 60 3e
       0.066841 -0.08366724 0.15184733 0.21952078
000030 85 1f 07 3d 19 6a 97 3e b8 6e 40 3e 2b 13 6c 3d
       0.032989044 0.29573134 0.18792236 0.057635467
000040 a5 1a 09 3e 5e cc 91 bd 92 10 48 3f 5c f7 5f 3e
       0.1338907 -0.07119058 0.78150284 0.21871704
000050 db 59 48 3d 1a 08 9a 3e d6 86 73 3e 43 09 b4 3c
       0.048913818 0.30084306 0.23781905 0.021977073
000060 17 f1 cf bd a0 56 9c 3e 86 c3 f4 bc b5 3a cf 3e
       -0.10153406 0.3053484 -0.02987839 0.40474477
000070 b3 bf ca 3e 0e 2d b4 3b 5a 3c c0 be 9f b3 cc 3e
       0.3959938 0.005498535 -0.37546045 0.3998079
000080 86 24 cb bd a3 5d 3b be 52 c9 bf 3e c4 32 29 3d
       -0.09919076 -0.18297438 0.37458283 0.04130818
000090 f2 7e 99 be 9f 65 98 3e 52 d5 05 be 62 19 06 be
       -0.29979664 0.2976503 -0.13069656 -0.1309562
0000a0 0f e9 30 3e 49 80 52 bd cb 34 46 be 2b c9 20 3e
       0.17276405 -0.051391874 -0.19356076 0.1570174
0000b0 69 cd 65 be 12 93 2f bd 28 d0 d1 3c 6c 0f f7 3d
       -0.22441639 -0.042864867 0.025611952 0.12063488
0000c0 15 e8 e9 bd 27 16 49 3d c1 05 94 3d 04 5d 07 be
       -0.11421219 0.04909339 0.0722766 -0.13219076
0000d0 f8 ed 01 3c 84 46 1a 3e 61 3c cc bd 19 7c 4e bd
       0.007930271 0.15065962 -0.09972454 -0.050411317
0000e0 78 6a 9b bd 30 2b 9a bd bc 8a 4e be fd 3e 88 be
       -0.07588667 -0.075277686 -0.2017011 -0.26610556
0000f0 18 1c 02 bd f7 55 d1 bd 49 53 64 be 25 90 38 be
       -0.031765074 -0.102214746 -0.22297396 -0.18023737
000100 7f f2 06 bf 00 3b a7 be 5d 57 de bd 85 0f 9a be
       -0.5271377 -0.326622 -0.10856507 -0.30089965
000110 c3 e1 a9 3d fd 3e 33 bd 85 8f 46 be 28 0d 39 3d
       0.08295014 -0.043761242 -0.19390686 0.045178562
000120 92 64 ab bc d3 02 50 be 6e 70 7a 3e 9b 74 99 bd
       -0.02092198 -0.20313577 0.24456951 -0.07492944
000130 a0 0b 0d be 14 b7 71 3e b0 95 a0 3d 47 6b 31 3e
       -0.13773966 0.23604995 0.078410506 0.1732608
000140 8e d2 bc 3d 87 59 0b bd ff a4 20 3e d0 6f fa bc
       0.092198476 -0.034020927 0.15687941 -0.030570894
000150 57 8e 2c be 6b 3a d7 3e 2f e3 b6 3e 5c b0 db bc
       -0.16851173 0.42036757 0.35720202 -0.026817493
000160 9f 89 f0 3e e2 b5 65 3e be d2 44 be 47 a5 24 3c
       0.46979997 0.22432664 -0.19221017 0.010049171
000170 9a 3d 55 3d cf d5 92 bd e8 cc 0f bc d0 19 a2 3d
       0.0520607 -0.07169687 -0.008776881 0.079150796
000180 78 32 27 3c 57 b8 56 be 59 d0 3e 3e ee 8c 14 bd
       0.010204904 -0.20968758 0.18634166 -0.036267214
000190 70 ee db be c7 72 76 3e 66 10 6e bd 21 30 c8 be
       -0.4295535 0.24067222 -0.058121108 -0.3909922
0001a0 1d 1a 6e 3e 16 16 27 bd 87 03 f9 be ca 92 69 be
       0.23252149 -0.040792547 -0.48635504 -0.22809902
0001b0 2c 77 ae bd ba f3 06 be ed a6 3c 3d 17 27 0b bd
       -0.08518824 -0.13178912 0.04605763 -0.033972826
0001c0 f0 8f f7 bd 9c a4 8c 3c 5c f1 a7 bc 48 3e a2 be
       -0.12088001 0.017168336 -0.020500831 -0.31688142
0001d0 7a 98 15 3e 6a 25 d8 3c d1 af 47 be ba 01 aa 3e
       0.14608946 0.026385028 -0.19500662 0.33204442
0001e0 8e 58 80 bd 66 23 9f be 9e 96 a1 3e 5a 6c 3d 3d
       -0.062668905 -0.31081694 0.31560224 0.04624591
0001f0 49 47 5d bc 97 f0 0c 3e 25 99 8c bd 0a 9c 7d 3d
       -0.013505765 0.13763653 -0.068651475 0.06191639
000200 17 3d 79 bd 78 e3 00 3d 33 1f 93 be b4 01 1f bd
       -0.060849275 0.03146693 -0.2873474 -0.038819984
000210 7d a7 1d 3e 28 0d a2 3e 32 73 f1 3a 38 fe 55 3b
       0.15395923 0.31650662 0.0018421172 0.0032652747
000220 c2 6d a4 bc 21 70 83 bd 18 92 bd 3e 3d 3e dd 3c
       -0.020071868 -0.06417871 0.37025523 0.027007217
000230 91 86 e7 bd 20 bf b8 3e 1e 17 ea 3d 9b df 2f be
       -0.113049634 0.36083317 0.114301905 -0.17175142
000240 dd 68 f4 3e 32 0b 04 3d d8 b2 83 3d 80 d3 ed 3e
       0.47736254 0.03223724 0.06430596 0.46450424
000250 bc 44 7d 3d 69 da 94 bd 8f 2c b1 3e 5e a0 1e bd
       0.06183313 -0.07268221 0.34604308 -0.038727157
000260 e4 7d 94 bd 2d b1 f2 3e e0 e4 cb 3d b4 5f d5 bd
       -0.07250574 0.474008 0.09955764 -0.104186445
000270 28 6b d9 3e 98 b0 6d be 12 7f c0 3c 35 41 91 3e
       0.42464566 -0.23211896 0.023498092 0.28370062
000280 10 78 26 3d 5d 2b a3 3c a4 91 90 3e 13 71 79 bd
       0.040641844 0.019918138 0.28236115 -0.06089885
000290 f6 6d 45 be 8c 23 9b 3e fd a2 04 3d d9 de 91 bd
       -0.19280228 0.30300558 0.032382 -0.07122583
0002a0 10 5b ac 3e 99 25 62 3e a7 e5 42 be 9f 78 8f 3e
       0.33663225 0.22084655 -0.19032918 0.28021714
0002b0 3d 28 12 3e 4e 11 93 ba de 0e 3d 3e e4 81 63 bd
       0.14273162 -0.0011220367 0.18462703 -0.055543795
0002c0 f9 f7 e2 bd 36 d2 16 3e 4f cf 63 3c 23 5c 2f 3d
       -0.11082453 0.14728627 0.013904407 0.042812478
0002d0 9d 99 67 3c e3 64 7f 3e 79 95 d6 bd 41 dc fa 3d
       0.014135745 0.24940829 -0.104777284 0.12249041
0002e0 11 8d da 3d 59 4c 31 3d 66 78 59 bd 31 56 0b 3e
       0.106714375 0.0432857 -0.053093337 0.13607098
0002f0 36 f5 de 3c da ad 03 be 79 8c c3 3e ee af dd bd
       0.027216535 -0.12859288 0.3819311 -0.108245715
000300 b4 b2 68 be 92 97 bb 3e 3f 7a 53 be a6 b0 9f be
       -0.2272442 0.36639076 -0.20652102 -0.3118946
000310 af 17 4c 3e c6 bb 62 bd 47 fc 73 be b4 52 04 3f
       0.1993091 -0.055354856 -0.23826705 0.51688695
000320 4f 32 bc bc a1 e0 cf be 0f a1 94 3d 38 c3 28 be
       -0.022973208 -0.40601066 0.07257282 -0.1648072
000330 bf 0e f8 be 00 b6 ff 3e 54 1b d1 bd bb 0b a7 be
       -0.4844875 0.49943542 -0.102102906 -0.32626137
000340 b7 72 96 3e 51 c9 cd bd 24 9b ba be 79 e0 a1 3e
       0.29384395 -0.10048164 -0.36446488 0.31616572
000350 1b 8b 3b bc b6 36 48 bf ed 0a 2c be 6f f3 22 be
       -0.01144674 -0.7820848 -0.16801043 -0.15913175
000360 88 79 08 bf 39 f7 c4 3d e8 85 7c 3d f5 28 50 bf
       -0.5331044 0.096174665 0.06165114 -0.81312495
000370 d0 53 84 be 3a 71 68 bd 95 b3 16 bf 44 96 ae bd
       -0.25845194 -0.056748606 -0.5886777 -0.08524755
000380 2d 0c 32 bf 9a 57 e7 be 4c c0 d5 be 90 d2 23 3f
       -0.6954983 -0.45184022 -0.41748273 0.6399317
000390 7c 92 d9 be f9 8c 6a be 2a 61 64 be 6f 93 b3 be
       -0.4249457 -0.2290534 -0.2230269 -0.3507342
0003a0 65 a1 61 be e8 d1 20 be 49 23 b4 be b1 dd 15 3d
       -0.22034223 -0.15705073 -0.3518317 0.036588375
0003b0 7f d5 45 be a8 b1 95 be 82 28 7a bd 2c 4a c1 bd
       -0.19319724 -0.29237103 -0.061073788 -0.09437975
0003c0 e5 15 a3 be 77 aa 3c bb fb 25 c7 3e 98 69 38 be
       -0.31852642 -0.0028788128 0.38896164 -0.18009031
0003d0 3d 9f 86 be f9 d1 83 be f4 d4 de 3c ea 54 bf be
       -0.26293364 -0.25746134 0.027201153 -0.37369472
0003e0 02 89 2b 3e 9f 74 cb 3e 15 39 10 bf 49 b5 02 be
       0.16751483 0.39737412 -0.563371 -0.12764467
0003f0 52 cc 0b 3e ab cf 57 be 66 6f 1b be 09 0f 8b 3e
       0.13652161 -0.21075313 -0.15179214 0.27159908

encoder.0.bias f4 [64]
000000 a1 17 04 3c 56 e7 c7 be f1 f4 80 be 5e 8b 15 bf
       0.008062274 -0.39043683 -0.25186875 -0.5841578
000010 54 37 a2 3c 24 4c b4 be 26 bd 0e bf c6 6b c8 be
       0.019801773 -0.3521434 -0.5575737 -0.39144725
000020 69 78 60 bc e5 13 2e bf a2 73 8e be 6d 3c 56 be
       -0.013700583 -0.67999107 -0.27822596 -0.20921488
000030 6b 20 a1 bd 46 af 6f be 26 ec 06 bf a7 55 62 be
       -0.07867511 -0.23406705 -0.52704084 -0.22102986
000040 92 b2 33 bf 0b cd ef be d7 cb d5 be 58 d6 c7 be
       -0.7019435 -0.46836123 -0.4175708 -0.3903072
000050 eb d6 cc be 4e 21 85 be da 5d 07 be 07 b5 e7 bd
       -0.4000772 -0.26001972 -0.13219395 -0.11313825
000060 0d 8a 8c be 71 46 d6 be 23 3b d7 be c6 9e 6d bd
       -0.27449074 -0.41850618 -0.42037305 -0.058012746
000070 66 62 b9 bd e4 3e 77 be fb d4 02 bf 95 c8 c8 bd
       -0.09051971 -0.24145085 -0.5110623 -0.09803883
000080 cb 61 16 bd 47 50 a7 be a7 f1 bd 3c 82 de f1 3d
       -0.036714356 -0.32678434 0.023186518 0.11810018
000090 8f 76 86 be 99 17 be be 33 78 6e be c7 69 4e bf
       -0.26262328 -0.3712738 -0.2328804 -0.80630153
0000a0 ca 9c 58 bf c9 f9 0d be ed b6 d9 be 50 70 1c bf
       -0.8461424 -0.13864817 -0.42522374 -0.61108875
0000b0 f2 fe b3 be c2 ae 20 bf f6 be a6 be e3 c0 3a be
       -0.35155445 -0.6276666 -0.32567567 -0.18237643
0000c0 15 d2 22 bf 03 d2 33 3e d5 de 1d be eb 37 4e c1
       -0.6360181 0.17560582 -0.15417035 -12.888652
0000d0 53 e2 e3 be 6b e3 20 bf 24 60 c7 bd b2 6e d6 be
       -0.4450861 -0.6284701 -0.09735134 -0.4188133
0000e0 12 8d 98 be 2c 45 28 bf 3c f2 37 be 79 48 04 be
       -0.29795128 -0.6573055 -0.17963499 -0.12918271
0000f0 12 23 61 bd fa 33 f9 bc df a4 01 bf 99 c4 90 3e
       -0.054965086 -0.030420292 -0.506422 0.28274992

encoder.1.weight f4 [32, 64]
000000 b4 50 83 3e b8 d4 18 be 28 63 16 be ce 6f 91 bd
       0.2564751 -0.14924896 -0.14686263 -0.07101403
000010 a4 c9 30 be 10 47 81 bd 2b ad 13 bc 71 04 7d bd
       -0.1726442 -0.06312382 -0.009013454 -0.061771814
000020 e9 bf b5 be e8 98 93 3d 7a a4 ac 3d 2c 72 59 be
       -0.35497978 0.07206899 0.08429809 -0.2123496
000030 73 a3 23 3c 1e bb c0 bd 3e e8 65 3e a2 46 ff bd
       0.0099877 -0.0941069 0.22451875 -0.12464644
000040 67 a8 89 3e 3c 11 0a be 65 e9 7b bd 75 c3 08 be
       0.26886293 -0.13483137 -0.06150188 -0.13355811
000050 89 95 7f be c8 d2 0f 3e 4e b2 e4 bc a4 1a 78 ba
       -0.24959387 0.1404525 -0.027917054 -0.0009464419
000060 50 c3 5c bc dc 66 ea 3d 7d 3a 17 be 74 70 c6 bd
       -0.0134743005 0.114454 -0.14768405 -0.096894175
000070 86 43 18 3f ca 8f 0e bf 7a f2 20 be f6 7c 19 be
       0.5947803 -0.55688155 -0.15717497 -0.14989075
000080 af 4e 4f be 3e 70 07 be 03 b4 2a be 65 3c 7d be
       -0.20244859 -0.13226411 -0.16670232 -0.2473007
000090 d8 22 f7 3e 2b 7c 94 be f8 3b 35 be a2 dd d9 3d
       0.4826877 -0.29000983 -0.17698658 0.10637976
0000a0 44 39 ca 3d aa 50 61 3e 0b 36 0e 3e 26 d8 2a be
       0.09874204 0.22003427 0.13887803 -0.16684017
0000b0 93 70 5d bd 4e af 12 3f b5 e3 9a be ee 93 70 3d
       -0.054062437 0.57298744 -0.30251852 0.058734827
0000c0 47 7c 35 be 32 a8 8d bd b8 0b f0 3d e8 da d9 3d
       -0.1772319 -0.06916846 0.11720985 0.10637456
0000d0 60 90 9d 3e 86 f7 10 bd 47 7a 2e 3e b6 ed 91 be
       0.30774212 -0.035392307 0.17038833 -0.28501672
0000e0 ae fb 27 3f 60 b8 98 3c 6c 05 88 be f3 aa e0 be
       0.6561841 0.018642604 -0.26566637 -0.43880424
0000f0 9f 70 98 bd 67 9b 0a 3f ba 90 00 3e 2c cb ba bd
       -0.07443356 0.54143375 0.12555209 -0.09120783
000100 c4 25 fd bd 46 36 9a be f5 fa 3e 3e df 59 c4 bd
       -0.12360719 -0.30119532 0.1865042 -0.09587454
000110 43 cd c8 be 35 54 a8 3e 03 cd e2 3c b9 6c 53 bd
       -0.39219102 0.32876745 0.027685648 -0.051617358
000120 f4 0e 3e be 5e a7 a9 be 77 46 b2 be 84 a6 8b be
       -0.18560392 -0.33135504 -0.34819385 -0.2727548
000130 65 d2 29 be 77 51 e5 3c c8 06 fc bd 6c 3d 4a be
       -0.16584165 0.027992947 -0.12305981 -0.19749993
000140 cb b2 50 bd 69 02 26 be bf 17 22 be 1d c7 be be
       -0.05095176 -0.16211857 -0.15829371 -0.37261286
000150 cc 02 cf bd 52 94 c0 3c 7f ef cb 3e f0 cd 0c bc
       -0.10107955 0.023508225 0.3983116 -0.008594021
000160 e8 09 d4 3e 22 72 4c be a6 3e 79 be 21 ff 59 be
       0.41413808 -0.19965413 -0.24340305 -0.2128873
000170 d1 c1 11 bf f5 50 57 be 79 a1 ae be ca 04 76 3e
       -0.56936365 -0.21026976 -0.3410757 0.24025264
000180 0c a6 4e be d1 9e 45 be f6 ca 9a bc 9f 80 f9 3e
       -0.2018053 -0.19298865 -0.018895607 0.48730943
000190 66 a7 be 3e 7c f3 38 be 42 20 a0 be 01 ec 11 be
       0.3723709 -0.18061632 -0.3127461 -0.14250185
0001a0 30 ea 2d be 0a 07 db be 2a c0 95 3e d8 0f 7a be
       -0.16983867 -0.42778808 0.29248172 -0.24420106
0001b0 ad 49 91 be 4d f2 37 be e7 d2 7b be 93 e8 9b 3e
       -0.28376523 -0.17963524 -0.24592172 0.30450878
0001c0 9e 75 82 3e 0a 26 3d bd 8d f8 29 be 7f 6a e7 3d
       0.2548036 -0.046178855 -0.16598721 0.112996094
0001d0 5f 51 3f be 7f 19 2a bd 37 06 bd ba b4 a0 73 be
       -0.18683384 -0.04152822 -0.0014421408 -0.23791772
0001e0 b4 46 ae bc 37 8a a5 bd dc 1d f4 bd e8 09 ab be
       -0.021273948 -0.08083003 -0.11919758 -0.33405995
0001f0 a4 9f 78 be ca 27 35 bf 5a dc d5 bc 41 b7 19 3f
       -0.24279648 -0.7076384 -0.026106048 0.6004525
000200 1d 38 40 be b2 6a bc 3d 8d 84 6f be 02 1e d8 bd
       -0.18771406 0.09200038 -0.23390408 -0.105525985
000210 d7 5b 92 bd 6e 0d 40 bd 37 11 90 3e 1a 93 cf bc
       -0.07146423 -0.046887808 0.28138134 -0.025338698
000220 0b 49 5c be fe 5a e4 3d 0f 30 90 be 72 30 86 be
       -0.21512239 0.11150168 -0.28161666 -0.26208836
000230 77 b9 b2 be 6e c9 ed be 9d 6a d5 3d ec 7b 28 be
       -0.34907123 -0.4644274 0.104207255 -0.16453522
000240 62 d4 eb 3e 50 bb 4f be bc 0d 2b be cb 77 09 be
       0.46060473 -0.20286298 -0.16704458 -0.13424604
000250 15 8c 29 bd d9 31 d0 bd 24 2d 45 be 77 30 cf 3d
       -0.04139336 -0.10165758 -0.19255501 0.10116666
000260 27 d4 22 be 80 25 06 be 9b 3a 05 be 32 b0 b0 be
       -0.15901242 -0.13100243 -0.13010637 -0.34509426
000270 19 4e 68 be f2 78 b2 be e2 62 2f be 77 2b b1 be
       -0.22686042 -0.348579 -0.17127565 -0.34603474
000280 12 13 0b bf 81 ee a5 be f4 91 db be 5a 8e b8 be
       -0.54325974 -0.32408527 -0.4288479 -0.36046106
000290 73 de fc 3d f6 f5 aa be 12 18 5b be 47 f5 2d be
       0.12347116 -0.33390778 -0.21395901 -0.16988097
0002a0 17 0f d9 bb 22 97 1e be c2 ae df 3e 67 38 16 be
       -0.0066241133 -0.1548734 0.43688017 -0.14669953
0002b0 12 0a 35 bc b2 87 5e be f0 42 f9 bd 76 4c 71 be
       -0.011049764 -0.21731451 -0.121709704 -0.23564324
0002c0 a9 10 5f 3e 67 75 3f bb 8f 72 d8 be 53 58 42 3d
       0.21783699 -0.0029214264 -0.422749 0.047447514
0002d0 a3 03 cd be 99 3e 86 3e 3a 7f 98 bf e8 5d 96 be
       -0.40041837 0.26219633 -1.1913826 -0.2936852
0002e0 7b 80 05 be 43 e8 32 be 1e 07 b2 be 6a 1b b8 be
       -0.13037293 -0.17471413 -0.34771055 -0.35958415
0002f0 fc 13 2d bf 52 bd 8f bb 6f e9 b5 be 95 ab 85 be
       -0.6760862 -0.0043865824 -0.35529658 -0.2610747
000300 ed b2 84 bd 02 da aa 3b 5f 64 0b bd d0 a5 ba be
       -0.0647944 0.005213977 -0.03403127 -0.3645463
000310 03 af 48 3d 9d d3 6f 3d ef 4a 8a be a4 b2 0d 3f
       0.04899503 0.05855142 -0.27010295 0.5535071
000320 ce 27 4d 3c 5a 8f be bd db f4 a1 bd f4 f0 c6 3c
       0.012521697 -0.09304686 -0.079080306 0.024284817
000330 5b 19 09 be ec 24 4d be 0d 87 ea bd 8b 18 50 bf
       -0.13388579 -0.20033616 -0.1145154 -0.8128745
000340 54 a0 b2 be 7c 0e d7 be 75 89 40 bf ba fa 5e bf
       -0.34887946 -0.42003238 -0.7520974 -0.8710133
000350 1e 4a 7c be 89 e6 99 be 43 04 12 bf 9b 0c 95 bd
       -0.24637648 -0.30058697 -0.5703775 -0.07277795
000360 cb aa 47 be 46 d0 8d bd 20 e6 22 be 18 12 4e be
       -0.19498746 -0.06924491 -0.15908098 -0.2012409
000370 bf 68 48 3c 8b 29 35 bd 5c cc 12 be ca 9f b9 3d
       0.012232005 -0.04422907 -0.1433577 0.090636805
000380 5d c2 96 be 6b ce 4d bd 1f 0e 83 be 5b 3a 0e bf
       -0.29445162 -0.050245684 -0.2559671 -0.55557793
000390 a6 ef 47 be 10 cc 5f bd 2a b9 9d bd e1 d5 29 be
       -0.19525012 -0.05463797 -0.07701333 -0.16585495
0003a0 52 0f 59 be aa 6d b5 be 26 49 5c be 89 03 e6 bc
       -0.2119725 -0.3543523 -0.21512279 -0.028077858
0003b0 46 07 f4 3d 11 1b ec 3c 91 f9 d4 bd 3f f8 2d be
       0.1191545 0.0288215 -0.103991635 -0.1698923
0003c0 1c 93 b3 3c b0 a3 fd bd f7 e1 ef bd 66 4c 7b 3e
       0.021920733 -0.123847365 -0.11713021 0.24540862
0003d0 8c 1c 1c bf df f6 3a be 1f c6 62 be 32 11 ae bd
       -0.6098106 -0.18258236 -0.2214589 -0.084993735
0003e0 89 a1 d2 bd 0a 67 28 3f bd 4f 82 3c f6 67 e7 bd
       -0.10284717 0.65782225 0.015907163 -0.11299126
0003f0 0e bd 91 be 00 6d 38 3d de dc 02 3e b5 fc 17 be
       -0.2846455 0.045025826 0.12779567 -0.14842494

encoder.1.bias f4 [32]
000000 29 aa 1e bf 0b 63 05 be ca d8 81 bd d3 c5 2c bf
       -0.61978394 -0.13026063 -0.06340177 -0.67489356
000010 f0 bd d3 bf 11 16 c3 bf 32 eb 45 bf b6 61 8e bf
       -1.6542339 -1.5241109 -0.77312005 -1.1123569
000020 6c d1 a1 bf c5 4d aa bf 79 eb b2 be de 0c 00 c0
       -1.2642035 -1.3304983 -0.34945276 -2.0007854
000030 03 ca 97 bf 12 38 0b be 53 9d 55 bf ca 4f 1e bf
       -1.1858524 -0.13595608 -0.8344318 -0.618405
000040 c5 46 52 bf d5 dc 26 be 36 39 6e be 00 2d b8 be
       -0.82139236 -0.16295178 -0.23264012 -0.35971832
000050 f6 31 8b bf ff 26 7d bf c0 24 16 bf a6 bc 31 bf
       -1.0874622 -0.9888763 -0.58649826 -0.6942848
000060 cd e1 86 bf 42 69 3b bf f0 cf 06 c0 b8 46 6b c0
       -1.0537659 -0.73207486 -2.1064415 -3.6761913
000070 3c f1 57 be a2 c6 ac bf d7 6a 10 3f 78 dd 76 3e
       -0.21088117 -1.3498118 0.56413025 0.24107921

encoder.2.weight f4 [16, 32]
000000 f9 14 19 bf b4 bd ca be 87 78 f8 be be cc d6 bc
       -0.59797627 -0.39597857 -0.48529455 -0.026220676
000010 b6 8e 45 be 2e a1 42 3e ad 51 04 bc 91 f4 08 3e
       -0.19292721 0.19006798 -0.008076114 0.13374545
000020 a1 b4 4b 3e a9 6f 8d be 3b e2 bb bf 87 ad 03 3d
       0.19893123 -0.27624252 -1.4678415 0.03214791
000030 22 f7 4d 3e 55 95 3b 3e 56 74 c4 3d 2c f8 85 bf
       0.20113805 0.18318684 0.09592502 -1.0466361
000040 bb fc 64 3e 41 99 07 c0 f1 b9 19 bf d0 58 05 bd
       0.22362034 -2.1187289 -0.6004935 -0.0325554
000050 0a f5 37 bf 64 8a 31 3e a7 c7 31 3e c3 74 3c be
       -0.71858275 0.17337948 0.17361318 -0.18403916
000060 a0 30 08 bf 93 77 52 bf a3 8f 86 3d 98 9b f5 3d
       -0.53199196 -0.82213706 0.06570365 0.11992568
000070 82 83 94 bf 7c f7 1b 3e 2e 61 53 bf 17 36 5d bf
       -1.1602633 0.15231127 -0.8257016 -0.8641066
000080 28 d3 29 be 97 27 88 bd 49 14 d9 bd d1 1e 21 be
       -0.16584456 -0.06648176 -0.10599572 -0.15734412
000090 12 9e 35 bf 5d 02 7d bd 95 fa 01 3e 5d df 72 be
       -0.7094432 -0.061769832 0.12693246 -0.23718019
0000a0 1d 4c ba 3c 37 cb 96 3d 8e 30 59 3e 94 db 0e 3f
       0.022741372 0.07362979 0.21209928 0.558038
0000b0 89 0e 62 be bf d1 be 3e 7f f5 02 3c 13 1e 24 be
       -0.22075857 0.372694 0.007993101 -0.16027097
0000c0 b9 d4 6b bd 62 38 ad 3e e8 0a ae 3d ee 1b 12 bc
       -0.057575915 0.3383208 0.08498174 -0.008917792
0000d0 24 90 94 bf e4 05 b4 be 68 d1 61 be 28 b0 a6 3e
       -1.1606488 -0.35160744 -0.22052538 0.32556272
0000e0 d3 c6 86 be ea 96 6f 3d 2b f4 72 3d 8e f4 f5 3e
       -0.26323566 0.058493532 0.059314888 0.48038143
0000f0 cc da 79 be 3d b3 4c 3e 6c 30 66 be a6 a9 9d bc
       -0.2439987 0.19990249 -0.22479409 -0.019245934
000100 91 85 55 be 2e 53 16 3e 68 72 ad 3e 41 b2 f4 3e
       -0.20851733 0.14680168 0.33876348 0.47792247
000110 80 6f 0a bd cc a8 ee bc 10 de 09 be c2 c2 d7 bd
       -0.03379774 -0.029133223 -0.13463616 -0.10535194
000120 d9 00 e2 bb 5b a5 08 3f fe 9c 87 3d de 89 5e be
       -0.0068970737 0.5337731 0.06621741 -0.2173228
000130 56 b9 8c 3e 0d 7b 7a 3e f4 cd ce 3c d1 2d 5f be
       0.2748515 0.24461003 0.02524469 -0.21794821
000140 d6 d7 fd bd e7 34 2c 3e 6b aa ae 3e 52 f4 6a 3e
       -0.12394683 0.16817056 0.34114394 0.22944763
000150 5c 73 a5 be 18 42 bc 3d 0d 7a 8f 3e 59 ba d8 bd
       -0.32314575 0.09192294 0.28022805 -0.10582418
000160 aa c5 1f 3e 08 ac b2 bd ae c1 ff 3e d3 f1 6a 3e
       0.15602747 -0.087242186 0.49952453 0.22943811
000170 40 c2 53 3d 35 db 6d be 79 97 93 be 41 cb 3b 3e
       0.051698923 -0.23228152 -0.28826502 0.18339254
000180 61 5a 60 bd e9 97 86 3e a6 d0 ae bb 36 84 c2 bf
       -0.054773692 0.26287773 -0.0053349314 -1.5196598
000190 16 e8 fe 3d 36 f2 ab 3e d3 81 3d be 4d 86 b2 3d
       0.12446611 0.3358323 -0.18506555 0.08717022
0001a0 dc f1 c1 be e0 a0 50 be f8 b3 4b be d2 f4 2c be
       -0.37879837 -0.20373869 -0.19892871 -0.16890267
0001b0 b0 ae 51 3e c8 74 ef 3e a4 2b ec 3c b4 69 bb 3e
       0.20476794 0.46768785 0.028829403 0.36604083
0001c0 c7 c9 88 bd 66 2b 04 c0 ea 1d aa be 68 61 ea 3e
       -0.06679111 -2.0651488 -0.33225948 0.4577744
0001d0 86 5b 70 bd 55 ea c1 bc 56 0c 2c bd de 4a 8d be
       -0.058681034 -0.023671309 -0.042003952 -0.27596182
0001e0 62 a5 30 3c 52 ce ce 3d b6 f6 d3 3d d6 6d ae 3e
       0.010781618 0.10097946 0.10349791 0.34068173
0001f0 49 97 9b bf 1e 50 56 3e 38 4d 77 be 69 e2 22 be
       -1.2155544 0.20929 -0.2415055 -0.15906681
000200 fa b6 9f bc da e6 be 3b 35 de fa be 33 43 2f 3e
       -0.01949643 0.0058258595 -0.48997656 0.17115478
000210 15 42 20 3f bb ba 52 3e 0f 9c 07 3e e8 4d 9a be
       0.62600833 0.20579045 0.13243125 -0.30137563
000220 2e fc 3d bf de 64 22 3e 27 2d 8f 3d be 43 17 3e
       -0.7421292 0.1585879 0.06991034 0.14771935
000230 3a 39 a7 3e ff 7a 79 bf a4 63 cb bf 4a 5a e6 3c
       0.32660848 -0.974533 -1.5889783 0.028119225
000240 cc 26 a8 bf f6 5e bf bf 80 2c 3a bf 6f b4 dd be
       -1.313684 -1.4950855 -0.7272415 -0.43301722
000250 b7 2c 3d be ab 20 2c be 4c 6a 7c bf 4b fb b1 3d
       -0.18474089 -0.16809337 -0.98599696 0.086905085
000260 3b 0e fe bc 08 7e d7 bd e8 8a 8d 3e 4d 04 4c 3d
       -0.031012645 -0.105220854 0.2764504 0.04980879
000270 3a 2f 8a bf 1b 9d ff 3d cb 9f 03 bf 04 fa d2 be
       -1.0795662 0.12481137 -0.514157 -0.41206372
000280 74 da 5e 3d 96 17 c0 3c 6d 2c 1b 3e e4 fc 3c bf
       0.054407552 0.023448747 0.15153666 -0.7382338
000290 75 52 84 3d 33 2e d2 3e bd be 9d 3e 9b 18 ec bd
       0.0646104 0.41050872 0.30809584 -0.115281306
0002a0 70 1f 9e 3e 52 34 64 3e f3 ee e7 bf 92 a5 d6 3c
       0.3088336 0.22285584 -1.8119797 0.026201997
0002b0 2e e9 51 be df 93 8d be 87 a7 e8 bd ac 4c 24 be
       -0.20499107 -0.2765188 -0.11360078 -0.16044873
0002c0 e9 d6 cc be 3a 23 0a 3e 34 b3 20 3d c2 3e 80 3e
       -0.40007713 0.1349 0.0392334 0.2504788
0002d0 bd 29 69 be b0 cd 34 bd cf 5b 1c bd 5c f8 52 3c
       -0.22769828 -0.04414147 -0.038173493 0.012876596
0002e0 f1 c5 cb 3d 02 b7 0e 3e 48 52 0c be 0e 41 95 3e
       0.09949864 0.13937 -0.13703263 0.29151195
0002f0 25 b0 ad bd 8f 5b 45 be 58 da b6 bd 9a aa 23 be
       -0.084808625 -0.19273208 -0.089283645 -0.15983048
000300 58 56 d6 bc 6f 0a 04 bf 84 da d5 be 1d 2b 30 bd
       -0.026164219 -0.5157842 -0.41768277 -0.043009866
000310 4a ad b6 bc 85 dc 86 3e 3f 09 08 bd b1 f1 92 bc
       -0.022299428 0.26340118 -0.033211943 -0.017937513
000320 92 0f c6 3e 31 52 0e bf 5e 02 07 c0 a2 ec aa 3e
       0.38683754 -0.55594164 -2.1095195 0.33383662
000330 49 c3 a8 bc 3b e8 b8 bd 5e 73 56 bd d9 b3 0d bf
       -0.020600932 -0.090286694 -0.052356116 -0.5535255
000340 35 dd 8f bd f9 48 25 c0 6b cb c2 be 6f 1b 14 3e
       -0.07024614 -2.582579 -0.3804582 0.1446359
000350 28 5b e6 be c7 d3 0e be 0e 95 85 3d 4a 35 16 bd
       -0.44991422 -0.13947974 0.065225706 -0.036671914
000360 82 06 52 bd 4a 2e 7c bd ac 5f 9a 3e e8 f9 b7 bd
       -0.051275738 -0.061567582 0.30151117 -0.08983213
000370 25 ce 10 c0 42 90 11 3e 08 15 0c bf 8c fa c0 3d
       -2.262582 0.14215186 -0.5471959 0.09422788
000380 05 7f 0c 3e 90 19 04 bf b1 f6 2b bf 08 45 12 bd
       0.13720329 -0.51601505 -0.67173296 -0.035710365
000390 06 d6 19 3e 0a 04 2e be 55 23 10 3e 55 a0 bb bd
       0.1502305 -0.16993728 0.14075978 -0.0916144
0003a0 6d 5c 11 be 12 2e 7b be e6 b1 f9 bf 40 2d 95 3e
       -0.14195414 -0.24529293 -1.9507415 0.29136086
0003b0 26 aa 60 be e0 7e 45 be b8 88 ae bd 1e 04 bc be
       -0.21939906 -0.1928668 -0.08522171 -0.3672189
0003c0 94 d8 82 3e 64 6a 21 c0 5c 74 01 3d 83 f7 65 3e
       0.2555586 -2.5221186 0.03160511 0.224577
0003d0 48 eb 84 be 12 c5 08 3d 4d 54 83 3e 49 d1 15 3e
       -0.25960755 0.033391066 0.25650254 0.14630617
0003e0 29 06 60 3e c9 e3 ba 3e d6 64 93 3c b4 92 75 3d
       0.2187735 0.3650191 0.017992418 0.05995436
0003f0 f7 65 5e 3d 29 13 94 3d 40 d3 cb bd 5d b3 1d be
       0.05429646 0.07230217 -0.09952402 -0.15400453

encoder.2.bias f4 [16]
000000 e7 4a 87 3c 6e 79 97 3f b7 fe 9b 3e 4e c0 c9 3e
       0.016515208 1.1833932 0.3046777 0.3940453
000010 26 89 a4 bd 7a 14 fa 3e 8f 50 6b be 16 27 51 be
       -0.080339715 0.48843747 -0.2297995 -0.20425066
000020 cd 0b f1 3e 32 83 77 bd 13 8c 58 bd ff 54 4b bf
       0.47079316 -0.060427852 -0.05286796 -0.7942657
000030 e2 c1 31 bf 0e ae 66 3e 9d 45 05 3f 85 55 2b 3f
       -0.69436467 0.22527334 0.52059346 0.6692737

encoder.3.weight f4 [8, 16]
000000 a0 9b 29 3f 10 5f 1b 3e 59 44 0d 3e 9b 79 4c 3e
       0.6625309 0.15172982 0.13795604 0.19968264
000010 6d 35 a7 be 6a 95 e7 bc 16 49 dc 3e 65 6d db bd
       -0.32657948 -0.028269488 0.4302451 -0.10714225
000020 88 d8 a5 3c dc a2 53 be b5 2f ac 3d f1 84 96 3c
       0.020244852 -0.20667595 0.08407537 0.018373938
000030 6e a6 53 3f 13 e8 49 c0 11 70 c4 3e ba b5 07 3e
       0.82675827 -3.1547897 0.3836675 0.13252917
000040 da a6 ce 3d 5b e7 35 3e ad 3c a3 3e a6 37 1c bf
       0.10090418 0.17764036 0.3188223 -0.6102241
000050 3e b2 cc 3d cc 73 ae be d2 dc 28 3f 4e d7 ea 3d
       0.099949345 -0.3407272 0.65961945 0.11466847
000060 95 0f 47 bd 0f b5 dc 3e e3 32 9d bd 93 ee 50 3e
       -0.048598845 0.43106887 -0.076757215 0.20403509
000070 15 b8 e3 3d e9 78 10 c0 16 10 36 3e e0 d5 81 3f
       0.11119095 -2.2573798 0.17779574 1.0143394
000080 a9 11 67 3b 7c f9 ca bc df a2 a9 bc 28 07 92 3e
       0.003525833 -0.024777167 -0.020707546 0.28521085
000090 f9 ab f7 be 19 bf 69 3c ce d9 eb 3e 3f cf 28 3f
       -0.48373392 0.014266753 0.4606461 0.6594123
0000a0 f6 b6 13 be d5 a2 1f bf ee 19 70 bd e0 af 99 3d
       -0.14425263 -0.62357837 -0.05861848 0.075042486
0000b0 aa 9c 3c be 24 fa ab bf af a6 3a c0 2f d5 95 3a
       -0.18419138 -1.3435712 -2.9164236 0.0011431332
0000c0 76 91 34 bd c1 f6 ea bd fc 82 a9 3e ea c8 c0 3d
       -0.044084035 -0.11472846 0.33107746 0.09413321
0000d0 3c 72 49 3f 1e d7 52 ba d1 aa 77 3e 0e 61 00 3e
       0.7868993 -0.0008042919 0.24186255 0.12537023
0000e0 14 24 59 bc 84 b8 90 3e f7 f3 b5 3f 69 99 04 3d
       -0.013253231 0.28265774 1.4215077 0.032372866
0000f0 23 59 20 be b5 ed fd 3d c9 05 ab 3e 06 d0 17 be
       -0.15659003 0.12398855 0.3340285 -0.14825448
000100 2f cc 30 bf fa a7 86 be 0e 2a 25 3e cb 70 62 be
       -0.6906156 -0.2630003 0.16129324 -0.2211334
000110 47 d7 b3 be cb 6c 0d 3d 9f f0 a7 bd 60 3f ac be
       -0.3512518 0.03452758 -0.08200192 -0.336421
000120 5d b4 04 3f 45 20 3b bf 27 8f 4d bf 9c 6c 08 be
       0.5183771 -0.73096114 -0.8029656 -0.13322681
000130 d0 bb 00 bf ca 13 9a bf d9 03 71 bf 5e 6d 36 bf
       -0.5028658 -1.2037289 -0.94146496 -0.7126063
000140 14 91 31 c0 5a 36 05 3f 4e 74 7e bc 9f 96 11 3f
       -2.7744799 0.5203606 -0.015530659 0.56870455
000150 e0 78 2f be 85 98 0d be d5 14 b2 be 84 0c 9d bf
       -0.17135954 -0.13827713 -0.3478152 -1.2269444
000160 75 72 8c 3e f2 be d3 bd 1f 0c 71 3d 2e 14 96 3d
       0.27431074 -0.10339154 0.05884945 0.07328068
000170 9f 7f 9c be 9e 02 c3 3d 3f 38 1b c0 9c 36 a3 3d
       -0.30566117 0.095219836 -2.425308 0.079694
000180 1a bb 53 c0 5e b0 b1 3d 64 ee 92 3e b5 6d 83 bd
       -3.3082948 0.086762175 0.28697503 -0.06417409
000190 1c 6c 58 bf ef 5e 09 3f 40 3f ff be 95 c6 08 3d
       -0.8453996 0.5366048 -0.49852943 0.033392508
0001a0 ab ff 1c be c0 85 cd bf 15 c5 fe 3c 6c 95 87 3e
       -0.15331905 -1.6056442 0.031099835 0.26481187
0001b0 c2 ea c7 3e 4f dc 0f c0 ec 56 13 c0 13 a8 42 be
       0.39046293 -2.2478216 -2.3021803 -0.19009428
0001c0 39 5f e6 3d 4c a4 8c be 70 30 02 bd 37 e2 06 3e
       0.11248631 -0.274691 -0.031784475 0.13172232
0001d0 71 33 bc 3e 88 c5 59 bc 16 20 32 bd 3e 2e 82 3e
       0.36757997 -0.013291724 -0.04348763 0.25425905
0001e0 3a 39 a1 3d 4a 4c e3 3e b5 89 53 bf c6 50 02 3f
       0.07872243 0.4439414 -0.82632 0.509045
0001f0 ae 4c 45 be 7c e2 27 3e 67 10 c4 3e a5 d5 0d 3e
       -0.19267532 0.1639499 0.38293764 0.1385103

encoder.3.bias f4 [8]
000000 cb 8b e4 3d 47 6a 85 3f 0a 02 ca bd 27 e6 02 3f
       0.11159476 1.0423058 -0.0986367 0.51132435
000010 f9 39 20 3e a9 b1 98 3e e5 6a 38 3e 18 67 9a be
       0.15647115 0.29823044 0.18009527 -0.3015678

encoder.4.weight f4 [4, 8]
000000 00 17 60 3e 9d a5 c8 3e be 3d e3 be a6 43 ad 3d
       0.21883774 0.39188853 -0.44383043 0.084601685
000010 62 3f 25 3e d4 49 39 3f 0d ca 92 be f6 a1 08 3f
       0.1613746 0.7237828 -0.28669778 0.5337213
000020 b2 eb 1d 3f 79 58 c6 3e c1 c8 5c 3f ff a1 1f bc
       0.6168777 0.38739374 0.86243826 -0.009743213
000030 13 e9 b4 be b5 c6 d9 bd f8 27 ef 3e 59 2c 02 3e
       -0.35334072 -0.106336035 0.4671018 0.1271223
000040 fa 0a 4c bc a8 16 a3 3e 59 0e 17 3e a3 fa 4f bc
       -0.012453789 0.31853223 0.14751567 -0.012694034
000050 21 8b a6 3f e0 d7 e3 3e 88 d6 96 3f f3 be d0 3b
       1.3011209 0.44500637 1.178422 0.006370419
000060 f4 47 19 3e 2e cf 78 3e 2f 60 d8 bb 70 01 47 3f
       0.14968854 0.24297783 -0.006603263 0.7773657
000070 76 c9 38 3e a1 8d 3a 3e 96 8a 95 3d 0a c4 bf be
       0.18045601 0.1821809 0.07301824 -0.37454253

encoder.4.bias f4 [4]
000000 9c 81 ba 3e 1f 7b 24 3f a4 5c e2 3e 03 35 d2 3e
       0.3642701 0.6425037 0.44211304 0.4105607

decoder.0.weight f4 [8, 4]
000000 c6 ae 18 be ea 0b 0e be 84 7a bd bd c4 16 13 3f
       -0.14910421 -0.13871732 -0.092518836 0.5745661
000010 85 02 ca 3e 28 87 c5 3d 65 61 5c bf a3 ca d7 3d
       0.39455047 0.0964492 -0.8608611 0.10536697
000020 03 b4 48 be 36 60 e4 3c da a5 06 3f bc 1b 50 3e
       -0.19599919 0.027877908 0.5259682 0.2032308
000030 a3 7b 43 3e 79 2c 87 3e d5 f9 70 3e 5b 86 5c bf
       0.19090132 0.26401117 0.23532803 -0.8614251
000040 4d 2c ac bd 67 2c c3 3e 9e ee 5d be 2a b6 81 3b
       -0.08406887 0.38119814 -0.21673056 0.003958483
000050 fc 07 68 3e 72 d4 35 bf ec d5 ce 3e 27 de 13 bd
       0.22659296 -0.7102729 0.40397584 -0.036100533
000060 df 0d 36 3f 10 ee 6f bd 01 58 24 3c 6b d8 e3 3d
       0.71114916 -0.058576643 0.010030747 0.11125263
000070 6d 19 1b be 8c 36 06 3f 45 68 97 be 38 ee d2 3c
       -0.15146418 0.5242698 -0.2957174 0.025748357

decoder.0.bias f4 [8]
000000 0c f8 0a be 33 a6 e7 3e 08 f7 80 be 52 b7 91 3e
       -0.13571185 0.45243987 -0.2518847 0.28460175
000010 ee aa 0e be 60 ab b7 3e af 91 84 be 11 88 cf 3d
       -0.13932392 0.35872936 -0.25892398 0.101333745

decoder.1.weight f4 [16, 8]
000000 76 f1 d6 bd 00 04 9a be 6a 62 c4 bc 9c 56 81 bc
       -0.10495274 -0.30081177 -0.023972709 -0.015788369
000010 25 8f da 3d 70 bd 01 3f f9 05 d2 bd d5 aa 2c 3f
       0.10671834 0.50679684 -0.102550454 0.6744817
000020 3f be 3e be 5e 5d 84 be a2 2b 19 3f 39 79 fa 3d
       -0.1862726 -0.25852484 0.59832203 0.12230153
000030 57 34 0d bf c5 6c dc be 1b 9e 1d 3e e3 c0 3d bf
       -0.5515799 -0.43051735 0.15392344 -0.74122447
000040 66 bc 6a 3b b9 99 62 bf 43 b0 98 3d 86 2f 38 3f
       0.003581786 -0.8851581 0.07455494 0.71947515
000050 e9 cc 84 3e 28 a6 71 bb 17 fa cd be 5f e1 9f 3e
       0.25937584 -0.0036872718 -0.40229866 0.31226632
000060 55 5e 02 bd c8 db fc 3e d7 51 34 bd 68 4a 60 3d
       -0.031828243 0.4938643 -0.04402336 0.05475846
000070 e8 50 e6 3f ee ad 42 3f b2 01 a4 be b4 7e 09 c0
       1.7993441 0.76046646 -0.32032543 -2.1483583
000080 c6 47 68 3f b2 97 b8 3e 3f 05 37 3e f5 8f 27 bf
       0.9073452 0.36053234 0.17873095 -0.65454036
000090 f2 45 a8 3d 36 1e ac 3b 7b ec bd bd 07 da 18 3e
       0.08216466 0.005252625 -0.09273621 0.14926921
0000a0 6e 22 6a be cf 2a 55 3d 8b 3d 15 be 59 16 5e 3f
       -0.22864696 0.05204278 -0.14574258 0.8675285
0000b0 86 be f3 bd 6d 22 81 3b 0b c6 f8 3c 52 09 84 be
       -0.11901574 0.0039408715 0.030367872 -0.2578836
0000c0 5c 8a 54 bd 14 ec d6 3e c4 cc 49 bf 2b ee a0 3e
       -0.051889762 0.41976988 -0.7882807 0.31431708
0000d0 c1 4c a9 3e 01 41 2a c0 5d 19 14 be 63 a1 d1 3e
       0.3306637 -2.6602175 -0.144628 0.4094344
0000e0 4f a3 cf bd f4 ed 17 3f 06 e1 c6 3e 4f 67 04 3e
       -0.101385705 0.5934746 0.38843554 0.12930034
0000f0 12 bf 2e bd 91 eb 1e c0 a3 12 af 3d ff df 67 be
       -0.042662688 -2.4831278 0.085484765 -0.22644041
000100 15 eb 2b be fa d1 9c 3e c3 f3 6a be e9 14 3c bf
       -0.16788895 0.3062895 -0.2294455 -0.73469406
000110 53 ce 86 bd c5 c6 9e 3e 65 dd ec 3e cf f0 04 be
       -0.06582322 0.31011024 0.4626266 -0.12982486
000120 05 af ca 3e c2 4a 93 bf d2 3e c7 bd 3f 53 01 3e
       0.39586654 -1.1507189 -0.09728779 0.12629412
000130 43 c0 b5 3c fd a9 01 3e 07 84 02 3f 6f c3 82 bd
       0.022186404 0.12662502 0.5098271 -0.06384932
000140 f4 37 11 be 69 6a 0c bf 3f 71 b0 3b 2b 74 fd 3c
       -0.141815 -0.5484987 0.0053845937 0.030939182
000150 b9 cd 87 3d 96 69 a3 bf b8 64 18 3f 82 7c f3 bc
       0.06631035 -1.2766597 0.59528685 -0.029722456
000160 a9 61 8d 3e e0 69 15 3f 1c 3d 97 bd b7 01 a8 3d
       0.2761357 0.5836468 -0.073847026 0.08203452
000170 69 0f 7d bf 8d b1 20 bf 92 b7 b3 3e 4c 35 9f bf
       -0.9885164 -0.6277092 0.3510099 -1.243814
000180 a7 c7 4f be 06 09 a8 be 0e 21 30 3e 91 52 5b be
       -0.20291005 -0.32819384 0.1720011 -0.21418215
000190 c4 c5 74 3e c1 f0 18 bf c9 46 3e 3d 4e 5d 0c 3f
       0.23903567 -0.5974236 0.046454225 0.5482987
0001a0 bc a3 6e be 36 29 51 bf e3 19 0f 3f d9 05 01 be
       -0.23304647 -0.8170351 0.55898875 -0.12599887
0001b0 35 c7 46 bd bd 60 b8 be da 4a f6 bc bb fc 32 be
       -0.048529822 -0.36011305 -0.030064989 -0.17479222
0001c0 b1 7e aa bd 4d 30 01 3f 47 87 04 bf 23 6c c3 3e
       -0.08324946 0.50464326 -0.51768917 0.3816844
0001d0 59 ed 49 bc 4b 3a 5f be ef 12 8e 3e 11 08 d4 bd
       -0.0123246545 -0.21799581 0.2774882 -0.10353101
0001e0 f7 3d 43 c0 78 f5 91 bd 47 e2 a0 3e 86 60 45 c0
       -3.050657 -0.071268976 0.31422636 -3.0840163
0001f0 12 02 3b 3e 8b df 10 be 0f 1f 97 3d d6 e3 0b 3d
       0.18262509 -0.14147775 0.07378971 0.03415283

decoder.1.bias f4 [16]
000000 17 99 14 3f 90 75 e4 3e 82 56 28 3f 55 0c ca be
       0.58046097 0.44620943 0.65757 -0.39462534
000010 65 d2 81 3f 25 a1 2a 3f 2a 77 93 3f 47 58 02 3c
       1.0142332 0.6665214 1.1520741 0.007955617
000020 99 47 6f bd 49 68 cf 3e 9e 38 3e 3f 95 0c e5 bd
       -0.05841789 0.4050925 0.7430514 -0.111840405
000030 80 fd 89 3e 73 ac 2b 3e ec 68 87 3f bd e7 1c 3f
       0.26951218 0.16765003 1.0578895 0.61291105

decoder.2.weight f4 [32, 16]
000000 3c a4 d7 be 71 ed 69 3e af b4 38 3e 30 23 28 bf
       -0.42117488 0.22844483 0.18037675 -0.6567869
000010 16 fd 2c 3e 58 2b fc 3e 04 31 63 3e 00 c1 2f 3f
       0.1689342 0.4925182 0.22186667 0.6865387
000020 32 5b d4 3d 04 95 b6 be 02 b3 eb 3d 85 3e a6 bf
       0.103689566 -0.35660565 0.115087524 -1.298783
000030 24 40 b5 be 97 0d 8a 3e dc fa c6 3e 7c 8a 83 3e
       -0.35400498 0.26963493 0.38863266 0.25691593
000040 a4 f3 4c 3e 93 7f 60 bd 51 9b 76 3e 9f eb 15 bf
       0.20014817 -0.054809164 0.24082686 -0.58562654
000050 13 57 af 3e 4f af 4f 3f 0c 89 f9 3c e0 de ff be
       0.3424612 0.81126875 0.030460857 -0.49974728
000060 15 f6 9b bd ca 2e 10 3f de 7f ab be f1 28 d7 3d
       -0.07615296 0.56321394 -0.33495992 0.10505856
000070 aa 97 d8 3c 5b cc 19 bf f4 a8 c8 be d3 8e 57 3f
       0.026439507 -0.60077447 -0.391914 0.8420231
000080 03 ec b2 3e eb d3 21 bf d8 81 d8 3e 01 f9 b4 be
       0.34945688 -0.63213986 0.42286563 -0.35346225
000090 12 28 9e bd 22 6e 1b 3e 6f 76 89 be 0b 6d 38 bf
       -0.077224866 0.15178731 -0.2684817 -0.72041386
0000a0 0e ae af 3e 7f aa a4 3d 76 29 31 bf 0a dc 39 3f
       0.3431248 0.08040332 -0.6920389 0.7260138
0000b0 37 0d c9 3e 00 a4 94 be a5 34 82 3e 3d ac 30 be
       0.39267895 -0.29031372 0.2543079 -0.17253204
0000c0 3a 14 41 3d f9 71 dc be 63 cb 0d 3f 21 96 35 3e
       0.04713843 -0.43055704 0.5538847 0.17733051
0000d0 03 7b a5 3d 1b 0e 0e 3f ee ba 3f bf 88 12 da 3e
       0.08080103 0.55490273 -0.7489461 0.42592263
0000e0 fa 0b 50 bf c9 0e fe 3e 89 e5 b0 be 71 fa a9 3e
       -0.81268275 0.49620655 -0.3455012 0.33198884
0000f0 a3 d1 2a bd 23 57 88 3e 4d f2 f5 be 09 26 89 3f
       -0.04170383 0.2662898 -0.48036423 1.0714732
000100 f2 32 a2 bd 6a b5 94 3e f6 51 c5 3e 32 20 a3 be
       -0.07919873 0.29044658 0.38539094 -0.318605
000110 ce 46 c8 be 6b 03 26 3f f0 ac 06 bd 8b a0 31 be
       -0.3911652 0.64848965 -0.03287977 -0.17346399
000120 ec 18 e4 be d3 9f e8 3d 1d 31 db 3e 81 fa 6f 3f
       -0.44550264 0.11358609 0.42810908 0.93741614
000130 36 b9 41 be 38 7e d2 bc 5e 51 20 be 64 80 ae 3e
       -0.18918309 -0.025694951 -0.15656039 0.3408233
000140 9b 74 d5 be a5 e3 2d c0 f4 de 27 3c 3d 8b e8 3e
       -0.41690525 -2.7170193 0.010246027 0.4541873
000150 75 41 89 3d 16 27 c5 3e 85 40 4a bf ad 45 fe 3e
       0.06701938 0.38506383 -0.790047 0.49662533
000160 af 0e c2 3e e8 5a 26 3e d1 93 11 3e 3e 1b cd 3d
       0.37901828 0.16245615 0.14216544 0.10014962
000170 67 82 a0 bf da 01 83 3f da 47 8c 3e 78 14 d3 3e
       -1.2539796 1.023494 0.27398568 0.41226554
000180 a0 30 a2 be 76 36 0f bb 27 c9 d2 be fa aa b5 bd
       -0.31677723 -0.002185253 -0.41169092 -0.08870502
000190 e2 6b 81 3f 54 24 51 bf 8b 1a 3f 3e c3 e8 77 bc
       1.0111048 -0.8169606 0.18662469 -0.015131178
0001a0 4b 86 c3 bd 52 ad b4 3e 87 b6 cc bc 5a 11 a2 3e
       -0.09547099 0.35288483 -0.02498938 0.31653863
0001b0 2b fb 49 be 29 37 a6 be d6 9f 4f be 6a d4 99 3e
       -0.19724719 -0.3246396 -0.20275816 0.30044872
0001c0 88 56 c4 bf 9c 98 d2 3d 11 f9 8c 3e b0 ee 9c bf
       -1.5338907 0.10283014 0.27533773 -1.2260342
0001d0 f7 2b 63 3d 6d da f4 3e 7d f7 cb bd 0d 84 8f 3e
       0.05546185 0.47822896 -0.09959314 0.28030434
0001e0 1e 63 0f 3f dd 75 8a be b5 f6 b6 3e a5 06 0e bf
       0.56010616 -0.27043048 0.35735098 -0.5547889
0001f0 96 a0 0d bf 96 c9 cb bd c3 89 b5 3e f7 a6 34 be
       -0.5532316 -0.09950559 0.35456666 -0.17641817
000200 7c 54 78 3e 59 81 10 bf 7f 18 f5 be 3b 6e 99 3e
       0.24250978 -0.5644737 -0.47870252 0.29966912
000210 13 d9 10 3e 32 bf d2 bd fc ff 24 bf 3a e3 bb 3d
       0.14145307 -0.10290374 -0.644531 0.091741994
000220 0a 93 41 bd 60 f2 88 3e fe 8d 71 3f 25 79 f0 be
       -0.047259368 0.26747417 0.9435729 -0.46967426
000230 5a 5b 8c 3e a3 8f 62 bd 3c 4d 06 3a 3f c3 19 be
       0.27413446 -0.055312764 0.0005123203 -0.15015887
000240 36 64 33 3e 95 0a d8 be a4 b3 fd 3e 87 69 33 c0
       0.17518696 -0.42195573 0.49551117 -2.8033159
000250 22 57 d5 be b9 65 2c be c9 d6 cb be f9 4e 02 bf
       -0.4166804 -0.16835679 -0.39812306 -0.5090175
000260 79 24 f4 3e 95 52 b6 3e 50 9c 6b 3e 62 1f 59 3f
       0.47684076 0.3560988 0.23008847 0.8481351
000270 50 8b 8f bc ef 22 2c bf 22 c8 35 3d 5d f2 52 be
       -0.017522484 -0.67240804 0.044380315 -0.20600267
000280 b8 96 fa 3e 81 18 6f be f1 25 de bc 34 22 1c 3f
       0.48943114 -0.23349191 -0.027117701 0.6098969
000290 ca 8c 72 3e 91 cb 34 bf d5 67 ef be 6b be a1 3e
       0.2368652 -0.7062312 -0.46758905 0.3159059
0002a0 14 bb 38 3e 4c b3 f6 bc 88 a1 a5 3e a8 50 d5 be
       0.18040115 -0.030114792 0.323498 -0.41663098
0002b0 b1 43 eb 3e 2f 6e 3d bd 70 68 c5 bf c4 56 1a bf
       0.45950082 -0.046247657 -1.5422497 -0.60288644
0002c0 2e de b5 3d 86 6b 0a bf 07 cb 24 bf 3b 62 61 be
       0.08880268 -0.5407032 -0.64372295 -0.22010128
0002d0 f8 82 92 be a9 bf e6 3e bd 31 56 3e 26 ea 6e bb
       -0.28615546 0.450681 0.20917411 -0.0036455481
0002e0 ff ff 14 be 37 ad 80 3f b4 3a 24 3e 64 59 46 be
       -0.1455078 1.0052861 0.16038018 -0.19370037
0002f0 1d 80 2b be 8f 3e 8c bd cf e3 8a 3e f9 7c 6f 3e
       -0.1674809 -0.068478696 0.2712693 0.23387517
000300 7c fd 71 3e 57 eb 61 be 2b 5e 00 bd a1 5d e8 3e
       0.23631853 -0.22062431 -0.031339806 0.45383933
000310 8d 0f 69 bf d9 47 58 bc f9 44 9a 3e 7e 4b 11 3f
       -0.91039354 -0.013200724 0.30130747 0.56755817
000320 7e c8 bd be 9d a0 36 bc 63 33 0a 3f 3a 01 5e bf
       -0.37067026 -0.011146692 0.5398466 -0.8672062
000330 2d 01 09 3f f7 e3 05 be 1d 87 31 be c3 be 43 3d
       0.5351742 -0.13075243 -0.17336698 0.047789346
000340 7e 03 72 3e 0b f7 30 bf e2 2a 68 be bf 47 25 3f
       0.23634145 -0.6912696 -0.22672608 0.645626
000350 c1 b5 62 3e ae e2 e5 bd 4b 14 19 3e 96 d8 b6 3d
       0.22139646 -0.11224876 0.14949147 0.08928029
000360 1e e0 88 bd ab 66 4c bf 37 36 bc 3e af 38 61 3e
       -0.06683372 -0.7984416 0.36760113 0.2199428
000370 ef 97 2e 3f 63 59 b8 be f9 5a ba 3e 73 80 62 be
       0.6820058 -0.36005697 0.36397532 -0.22119312
000380 e4 46 f7 bd 11 c1 1b 3f 60 07 72 3c 61 a7 8c bf
       -0.12074068 0.6084147 0.014772266 -1.098858
000390 40 47 10 be ab b5 2c 3d 78 61 0c 3f 56 09 99 be
       -0.1408968 0.04216544 0.54836226 -0.29889935
0003a0 ca 34 41 bf 34 fe fd 3e 43 06 54 be 9b ea 42 bd
       -0.75471175 0.49608004 -0.20705514 -0.04758702
0003b0 02 4b b2 bd 44 15 00 3f cb 6c 03 be 6d 6d 2a 3f
       -0.08705713 0.5003245 -0.1283447 0.6657322
0003c0 05 2a 20 bf 5d 34 35 bf 41 37 bb bf 3a 9a de bc
       -0.62564117 -0.70783025 -1.4626237 -0.02717315
0003d0 3b e1 12 3e 0c ca c3 be 57 84 60 bd 77 15 10 3f
       0.14343731 -0.38240087 -0.05481371 0.5628275
0003e0 ee 56 08 3f 8c 27 2b bd 0d d8 82 3e fd 15 9f 3e
       0.53257644 -0.04178576 0.2555546 0.31071463
0003f0 1f 9f d3 be a3 4b d1 bf 68 3e 0f 3f d6 97 74 be
       -0.41332337 -1.6351207 0.559546 -0.23886046

decoder.2.bias f4 [32]
000000 3a 9c d1 3f 7d 69 b4 3f f7 6e 2b 3f e8 50 04 40
       1.6375802 1.4094692 0.66966194 2.0674381
000010 31 23 c7 3e 6e cc c3 3f a0 6a 2f 3f 07 35 4f 3f
       0.38894036 1.5296762 0.6852207 0.8094029
000020 3b 6b a7 3f a4 77 d0 3f f7 0f c3 3f 79 ee 9b 3e
       1.3079599 1.6286511 1.5239247 0.30455378
000030 68 e7 68 3f ce d2 b7 3f 3a c8 b7 3f 00 07 d4 3e
       0.909781 1.4361207 1.4357979 0.4141159
000040 ca 29 e3 3f ea 42 46 b6 47 d7 10 3f 65 fe 9a 3e
       1.7747128 -2.9543248e-06 0.5657849 0.30272213
000050 f4 46 37 bd 24 05 0d 40 92 70 9d 3f ae bb 4f 3f
       -0.0447454 2.2034388 1.2299979 0.8114575
000060 88 f1 23 41 b7 7a 73 3f 60 1d 04 40 49 3a 0e 3f
       10.246468 0.95109123 2.064293 0.55557686
000070 4f 76 54 b5 e8 78 36 b5 f2 1b 2b 3e 55 ef 67 bf
       -7.9148316e-07 -6.7976225e-07 0.16709879 -0.90599567

decoder.3.weight f4 [64, 32]
000000 66 05 f0 b4 42 87 bf b3 99 59 a6 b5 ca d8 35 b5
       -4.4707411e-07 -8.918734e-08 -1.239404e-06 -6.7743224e-07
000010 4e 2f 4c b5 18 82 d2 33 09 a2 8e 34 d1 f4 04 b5
       -7.606476e-07 9.802551e-08 2.6567457e-07 -4.9530087e-07
000020 70 d7 46 b4 06 9d 2d b5 a8 31 d7 b2 65 9c eb b4
       -1.8518563e-07 -6.467602e-07 -2.5051875e-08 -4.3885953e-07
000030 f7 14 22 b5 22 42 37 b5 63 83 9e b4 1f 87 49 b5
       -6.038021e-07 -6.826905e-07 -2.952539e-07 -7.507496e-07
000040 51 17 bc b4 53 81 2f 34 0d 1f f0 b4 f1 41 63 b4
       -3.5034694e-07 1.6345193e-07 -4.4726076e-07 -2.1165012e-07
000050 e5 b3 cc b4 81 7e c0 34 47 42 66 b4 48 07 23 b5
       -3.8128852e-07 3.585483e-07 -2.1444531e-07 -6.073283e-07
000060 ea 99 e9 b5 4b 98 c8 b4 2e 6f 26 b5 18 59 2f b5
       -1.7404648e-06 -3.736371e-07 -6.2001607e-07 -6.532223e-07
000070 04 b9 76 b4 fd 2f 35 b4 5d 07 8d b3 c8 23 03 b6
       -2.2977844e-07 -1.6874397e-07 -6.5671635e-08 -1.9541349e-06
000080 21 26 d3 be 33 66 38 be 11 01 d7 3c 75 98 37 3f
       -0.41240028 -0.18007736 0.026245626 0.71717006
000090 9c 82 99 bf 92 e2 8e be 8c 53 a0 3e 01 c4 58 bd
       -1.1992984 -0.27907234 0.3131374 -0.0529213
0000a0 7c a2 b5 bd 2c 0c 80 bf 2b 85 1c 3e c9 2f 4b 3f
       -0.08868882 -1.0003715 0.15285175 0.7936979
0000b0 f0 70 09 bf 5c 75 12 3e ea 1f 78 be 46 b5 83 bf
       -0.53687954 0.14302582 -0.24230924 -1.0289695
0000c0 79 be 95 be 34 5a 11 b6 fb ae 92 bd b3 0c de 3d
       -0.29246882 -2.1659189e-06 -0.07162281 0.10842266
0000d0 7e b7 8d be 75 ba 51 3e da b8 f9 3e 06 8d 8f be
       -0.27679056 0.20481284 0.48773843 -0.2803728
0000e0 c0 b2 27 3e 8d 69 87 3c cc 0c b3 be 67 df 86 bc
       0.16376781 0.016529823 -0.349707 -0.016463948
0000f0 65 33 3e b6 74 e9 de b4 17 1a de 3d 96 02 b0 bd
       -2.8342122e-06 -4.1520582e-07 0.1084482 -0.08594243
000100 17 6a d8 3d 33 41 87 be 32 b4 25 be c4 06 3b bf
       0.1056711 -0.2641693 -0.1618202 -0.730572
000110 b1 11 00 bf 59 c4 82 bd e9 fa 3b 3e fc 4d 9c 3c
       -0.50026995 -0.063851066 0.18357433 0.019080155
000120 ba 5c 7b 3e 40 86 35 bf 94 9d 6d be b5 9a f5 bd
       0.24547091 -0.70907974 -0.23204643 -0.11992399
000130 06 7c 0a 3c 7c b4 57 3e ca ba 92 bd 32 b3 64 ba
       0.008452421 0.21064943 -0.071645334 -0.0008724212
000140 39 53 07 be 2f fa 1b b6 ea d2 ae 3d ab a3 5f be
       -0.1321534 -2.3242426e-06 0.085363224 -0.21839778
000150 56 c1 ea bd 6e f2 70 be 52 d9 c6 bc fd 77 a9 3d
       -0.11462657 -0.2352998 -0.024273548 0.08274839
000160 b2 55 2e c0 4d 12 db ba ed 99 c9 be 00 82 f0 3d
       -2.7239804 -0.0016713828 -0.3937525 0.117435455
000170 b4 d6 73 35 79 3a d0 b0 c8 08 37 be 84 46 95 3e
       9.083699e-07 -1.5150611e-09 -0.17874444 0.29155362
000180 9d 67 00 3f e0 4f 9a be 19 97 16 3e 12 a3 a8 bf
       0.501581 -0.30139065 0.14706077 -1.3174765
000190 5b 45 7e 3d b9 6e 19 bf 20 7f 59 be d8 49 1d be
       0.06207786 -0.59934574 -0.212399 -0.153602
0001a0 01 e3 11 3f 96 95 5c bf a1 55 7f be 4a 4c 86 bd
       0.56987005 -0.8616575 -0.24935009 -0.0655752
0001b0 38 e7 9a be fa e9 e3 3e ca 43 77 bf f2 d9 ec 3e
       -0.3025453 0.44514447 -0.9658781 0.4626003
0001c0 c6 5e a5 be 92 bd a8 35 bc fd 08 3f 36 79 a2 be
       -0.3229887 1.2572148e-06 0.5351217 -0.31733102
0001d0 31 8d 28 be 1b a2 61 be ee 5f a6 bf ff 61 23 be
       -0.1646011 -0.22034495 -1.2998025 -0.15955351
0001e0 f3 e1 03 bd d0 f9 fd 3e ff 61 6b bf 4d 2b 2f 3e
       -0.032197904 0.49604654 -0.91946405 0.17106362
0001f0 51 ff e9 34 a2 a8 24 33 f0 59 81 3f f0 5b 37 bf
       4.35854e-07 3.8337596e-08 1.0105572 -0.7162466
000200 dc e2 77 bd ae 3d be be 9d 33 c2 bf 8d 4e 9d be
       -0.060519084 -0.37156433 -1.5172001 -0.30723992
000210 d9 fd 05 bf cc 1a b4 3d 02 60 61 3e b8 24 05 bf
       -0.52340466 0.087941736 0.2200928 -0.52009153
000220 68 be ca 3e a9 bd ee 3d 41 7e b0 3e c2 b0 39 be
       0.39598393 0.116572686 0.34471324 -0.18133834
000230 fc 71 00 be 93 ab 75 be 76 0f 54 3e 49 b9 e5 3d
       -0.12543482 -0.23991232 0.20709023 0.11216981
000240 51 fa ad be 70 42 1d 35 99 5e 3e 3e 57 b5 6b be
       -0.3398004 5.8583737e-07 0.18590774 -0.23018394
000250 93 59 e6 3e 2c 1c 3b be 0f 00 c7 3e 75 85 b5 bf
       0.44990215 -0.18272465 0.38867232 -1.4181353
000260 5e 37 57 3e 44 e1 6a 3e f4 e8 9f bd bd 54 8a be
       0.21017215 0.22937495 -0.07808104 -0.27017775
000270 f8 33 45 36 21 37 cf 34 15 bd ff bd 3b 74 19 bf
       2.9385537e-06 3.8596866e-07 -0.124872364 -0.5994298
000280 0e 4d 31 bf e1 93 00 bf 1a ce 90 be 83 f3 d4 3e
       -0.692582 -0.50225645 -0.28282243 0.41592035
000290 db e4 c1 bf 89 c6 40 be 13 40 35 bf 17 8c 2f bf
       -1.5147966 -0.18825735 -0.70800894 -0.68573135
0002a0 b4 29 67 3e 96 61 1a 3e ec 7d b2 3e b7 b1 09 bf
       0.22574502 0.15076289 0.34861696 -0.53786796
0002b0 02 9c 35 bf dd 62 91 be c8 8e 23 bf 42 3b c2 bf
       -0.70941174 -0.2839574 -0.6388974 -1.5174334
0002c0 8c b4 fc 3e 20 f6 06 36 2a 84 d6 bd 3b 91 db 3e
       0.49356496 2.011082e-06 -0.10474427 0.4288424
0002d0 f4 09 fa be c1 70 c1 3e 10 be af 3e 2d 7d 3a bf
       -0.4883572 0.37781337 0.34324694 -0.72847253
0002e0 6e ca 48 3e f4 48 d6 3e 8e c3 e0 be 5a 33 39 bf
       0.19608471 0.41852534 -0.43899196 -0.7234398
0002f0 26 17 8a 34 8c 28 cb b3 d5 75 a3 3e 6e 4c 60 be
       2.5721346e-07 -9.4602996e-08 0.31925836 -0.21904156
000300 cd 4e 02 3d 7f c6 99 3e 99 f8 fe bd 47 8a 20 3f
       0.03181343 0.30034253 -0.1244976 0.62710994
000310 89 b9 b3 bf 0a ad ad bf e1 f6 b2 3e f7 5a 26 bf
       -1.4040996 -1.3568432 0.3495398 -0.6498255
000320 56 1e c2 3e b4 b6 a5 3d df ab 06 3e f8 ee 4c bf
       0.3791377 0.080914885 0.13151501 -0.8005214
000330 d7 98 1e bf bc 76 75 bf 96 bc 10 be 36 f9 d7 bf
       -0.61951965 -0.958843 -0.1413444 -1.6872928
000340 bd 6b 3e be a7 ff 19 36 8a 1f 36 3d 81 c1 b9 3e
       -0.18595786 2.2947586e-06 0.04446367 0.36280444
000350 1b 9e 8e 3e e2 9e 5e 3e c4 54 0a bf 3c f3 20 bf
       0.27855 0.21740296 -0.5403559 -0.62871146
000360 f7 c5 82 3d a3 a4 49 be aa 76 f4 be fd fb b0 bf
       0.06385415 -0.1969171 -0.47746783 -1.3826901
000370 17 0b a5 35 29 bd e5 34 89 10 c5 3e 70 96 b5 3d
       1.2296686e-06 4.2792206e-07 0.38489178 0.08866584
000380 2f e8 b1 3d b4 17 a9 3d c4 91 9d 3c 5c 2b 25 3d
       0.08686864 0.08256474 0.019234546 0.040324554
000390 5c 49 90 be 8e 84 36 be af 11 11 be 88 da 04 3e
       -0.2818097 -0.17824003 -0.14166902 0.12973988
0003a0 23 c0 de bc 82 94 6d 3e 0d 21 8b 3d a1 50 a8 3d
       -0.027191227 0.23201182 0.06793413 0.08218504
0003b0 c2 da 49 3d d5 cb 25 be 77 5f be bd 59 a7 f0 be
       0.04928089 -0.16191037 -0.09295552 -0.47002676
0003c0 a5 f2 fb bb a1 00 cc 35 d9 e9 94 3e 2e 4a 32 be
       -0.0076888376 1.5199367e-06 0.29084662 -0.1741111
0003d0 1b f0 ba bc fc d6 71 bd 46 c4 42 bd 12 2c 21 be
       -0.02281957 -0.059042916 -0.047550462 -0.15739468
0003e0 5e ce 04 40 70 53 70 bd 21 7c 41 be 5a 27 3e bf
       2.0750957 -0.058673322 -0.18895008 -0.74278796
0003f0 4f 31 a8 34 7a c0 19 b5 e7 91 b5 3d 89 4d 04 be
       3.1328315e-07 -5.727703e-07 0.08865719 -0.12920202

decoder.3.bias f4 [64]
000000 6c 7a 97 b5 bc 4b 73 3f 9f 99 bb c0 90 73 be 3e
       -1.1286006e-06 0.95037436 -5.8625026 0.37197542
000010 fc ad 5c 3f c8 a0 e7 3e d4 b3 ab 3d 34 14 89 3f
       0.8620298 0.45239854 0.08383909 1.070929
000020 a5 a2 b4 be ff fc a1 bf 7e c1 c2 3f fe dd 90 3f
       -0.35280338 -1.2655333 1.5215299 1.1317747
000030 22 c1 bc b4 c6 8e 14 40 cf b1 f0 bf 1f 7f de 3f
       -3.5158251e-07 2.3212142 -1.8804263 1.7382544
000040 7a 93 c8 bd 54 6a bc 3f 64 f2 30 3d 8e 9f b5 3e
       -0.09793754 1.4719949 0.04319991 0.35473293
000050 80 c3 6b 3f 2b 1e a7 3e bb 1e 0a ba 83 37 ea 3f
       0.92095184 0.32640204 -0.00052688614 1.8298191
000060 2e 51 09 be 53 ed 14 bf da a7 89 3f d1 ec 0c 3e
       -0.13409874 -0.5817463 1.0754349 0.13762213
000070 d9 ba 7c 3f c2 b9 8f 3f f3 a0 1f 40 08 e6 b1 b3
       0.98722607 1.1228564 2.4941986 -8.284047e-08
000080 1b 14 e5 bd f8 17 8c 3e 70 aa bd 3e 00 06 08 3f
       -0.111854754 0.27362037 0.37044096 0.53134155
000090 1d c2 49 3f 3e ac 87 3e a0 25 5b b4 65 f8 c7 c0
       0.7881182 0.26498598 -2.0409652e-07 -6.2490716
0000a0 ee 47 25 3f e7 9d c7 3e d9 ea 01 b5 37 7e ac b5
       0.6456288 0.38987657 -4.8397993e-07 -1.2851732e-06
0000b0 94 42 b5 3e 19 b2 e8 b4 8e a5 ac be f6 e7 9a 3f
       0.35402358 -4.334295e-07 -0.33720058 1.2102039
0000c0 28 86 87 be 47 d1 fd 3f fa 6b 18 bf c5 b0 ba b5
       -0.2646954 1.9829491 -0.5953976 -1.3909527e-06
0000d0 87 6d 01 3e 35 ed 94 3f c9 ad 8c 3f b5 d9 1f 3f
       0.12639438 1.163489 1.0990535 0.6244157
0000e0 1f e3 13 40 1c 4a 8f 3f 80 04 ba 3f fb 5d 74 3e
       2.3107374 1.1194491 1.4532623 0.23863976
0000f0 c3 38 24 bd 39 75 1a 3f 7d 1f 41 bf 53 ec eb 40
       -0.040093195 0.6033512 -0.7543867 7.372598
