models/bkp/gas_e400_s1993_p0.0_h100_faffine_fl5_l1_dsdim16_dsl1_best_model.pt (torch_old, 120617 bytes, 73 tensors)

0.0.mdl.input_to_hidden.0.direction f4 [100, 8]
00000000: 914e 463f bda5 8eba e38f 8eb9 3327 e43a
00000010: 449e 0ab7 5efd 9239 94dc c83a 7e9d 0f3a
00000020: b6fb 6c3e 286f 08bd 5eba b63d b1fb 7b3f
00000030: 1c12 683a 8eae e639 2082 54ba 757a 9f39
00000040: b498 8fbf 13c3 a63e bcd5 853f c8c5 1cbe
00000050: 36be 57be 604b aabe dddf df3e 9825 18ba
00000060: 8c6c 973f 45ab a13f 035c c2bf 3fc0 5d3e
00000070: 3568 ae3e aa85 acbe 0682 883a 71bc 9cba
00000080: 9ce8 8ebf cfd8 613d 2e67 3e3f cf84 62be
00000090: 68a7 b3be 7d53 14bc b4cc 413f 9840 c738
000000a0: bdbf 013d 78ab 2fbe 3246 133f 483e 2ebf
000000b0: fc8e 8d3a 8788 2538 7df4 363a 6388 14ba
000000c0: b6bb 5ebe 6a7e 2a3a 2f8e c4ba c3ca 2b3b
000000d0: 108d d9b9 40c1 00ba f019 86b9 8ed6 03bb
000000e0: ad1d 08be a5d1 c63b 6d1d 96bf f5b5 d23d
000000f0: 3e12 ff39 fc81 acba 9fc1 b83a a17f d337
00000100: a041 323f 368f a03f 41f5 2fbe 2b04 10bb
00000110: dfcf 02bf 810d 47bf 372b a13a 798f bc3a
00000120: 72c8 07bf c793 9ebd 84ef 93bf 8657 22be
00000130: 9919 903e fef6 dc39 fda5 5839 e206 3db8
00000140: fee0 fe3e f123 113e 65e1 b6bf d28d 143e
00000150: 9bcb 353f 3675 e0be 41d9 c5bf ea9b e2ba
00000160: b121 73be 5aa0 2c3e 4c7a 533f 90f4 153f
00000170: 6198 923e 19d6 6c3f 2c2c 92ba 0996 863a
00000180: 3f6d 9fbd d9c4 303e 8638 6d3f 022d afbe
00000190: 9a8c 6d3f b5d3 9ab9 1c4b 05b9 760d bb3a
000001a0: fdd7 69bf 1ff2 1c3f b6b2 683a eea4 35ba
000001b0: 6f7a cf3a 115a a3ba ebb4 3bba e3a9 cfba
000001c0: 45b7 e4be b593 da3e c14e 3bbf 50a5 0bba
000001d0: 98a1 d5b8 9fb4 2138 b46c 833a ea99 bdba
000001e0: c942 a53e 605f 60be ed29 aab9 e50f 9f3a
000001f0: a587 5e3a 75d8 0bbb b31d 40ba a797 793a
00000200: 776b 813e 5cdd c13e 560d a13f 4609 5f3a
00000210: 400b 073a b3d5 ddba a9a1 3aba 4a23 ee3a
00000220: c604 213f c33a 213e bc1c 0fbf 9d88 dbbf
00000230: 4634 52be ae86 983e 047f 5aba b33d 8a3a
00000240: 0458 c2bf 4422 0dbf be5b ba39 1592 4e3a
00000250: 5520 31ba ee53 ab38 a068 4a3a 4dae fcb8
00000260: 5680 7fbd 807e 0bbf 9021 f3b9 fb09 2b3a
00000270: ad51 4a3a 707d 883a 822a da3a f83a f1ba
00000280: 4d12 8b3f 5310 32b9 7c38 6db9 79b7 a339
00000290: 79c0 04b9 97a5 413a 7542 e839 89e7 8dba
000002a0: 478a cf3e 4e41 7f3d bad9 9dbf 4a80 133f
000002b0: 689d 2db7 46ae d639 7171 b6b8 f48f 423a
000002c0: c8d3 ab3f 9a0e f0be 146f 4e3b 8260 cbba
000002d0: 4c34 3bba c8b5 27b9 d3ee aa39 5260 433a
000002e0: d61f e63e aa69 55b9 2081 6e3a 9614 923a
000002f0: a29a 6eba e1c5 a8b9 2513 55ba 37f6 34ba
00000300: a1d9 6d3e e535 133a e6f8 b2ba 5be1 c939
00000310: c531 4a38 7c73 0dba 25f2 4bba 76b7 0d3a
00000320: e337 b93e bd85 53ba 72c3 25b9 1f62 e539
00000330: 89b1 c738 26d2 0a38 21fa 15ba b0f3 db3a
00000340: 1ec4 bebe 85cc 813e 9f83 8a3e 96a2 e53e
00000350: f41c 823d 011e 0c3e 4dd3 7c3f 4422 31b8
00000360: e801 133e 1a9f 0f3e 2151 e9ba 7331 153f
00000370: 5450 1bba 5ff5 e5b9 c3f8 42ba 8e66 ceb9
00000380: ed7e 9abf 3b2f 063e c7f1 003f 4f3c 793f
00000390: e805 863f 0ad0 b03f f11c f7b9 9a68 acb9
000003a0: 3094 03bf a546 233f 7092 24bf c99e 1fbb
000003b0: ab75 c43a e777 843a adb1 163a 92b5 68ba
000003c0: 2a3d b33e 5634 a43f 74d1 52bf c3f2 383f
000003d0: 2a02 3238 b9aa cdba 3e63 253a db91 b7b9
000003e0: 0aca 5d3e 6d78 98be 4416 5f3f b0ce 26bf
000003f0: 3363 933f 0ca9 af3a a6c9 103a 4766 62ba
0.7746363 -0.0010883134 -0.00027191555 0.0017406702 -8.26229e-06 0.00028036063 0.0015324526 0.0005478485
0.23142895 -0.03330913 0.089222655 0.98430926 0.0008852796 0.00043999072 -0.00081065483 0.0003041808
-1.1218476 0.32570705 1.0455852 -0.15309823 -0.21068653 -0.33260632 0.43725482 -0.0005803942
1.1830001 1.2630392 -1.518433 0.21655367 0.3406388 -0.33695728 0.0010414727 -0.0011958015
-1.1164737 0.055138405 0.7437619 -0.22120975 -0.35088658 -0.009053108 0.7570298 9.501091e-05
0.031676996 -0.17155254 0.57528985 -0.68063784 0.0010800059 3.9466217e-05 0.00069791806 -0.0005666075
-0.21751294 0.00065038225 -0.0014995987 0.0026213385 -0.00041494565 -0.0004911609 -0.00025577797 -0.0020116898
-0.1329257 0.006067472 -1.172773 0.10288612 0.00048650982 -0.0013161297 0.001409579 2.5212592e-05
0.69631386 1.2543705 -0.171834 -0.002197514 -0.51098436 -0.7775498 0.0012296204 0.001438602
-0.5304023 -0.0774303 -1.1557469 -0.158537 0.2814453 0.00042145693 0.000206612 -4.506752e-05
0.4978103 0.14173867 -1.4287535 0.14507225 0.710138 -0.43839425 -1.5456926 -0.0017288898
-0.23743321 0.16858044 0.82608485 0.585763 0.2863188 0.9251419 -0.001115208 0.0010268103
-0.07784509 0.17262591 0.9266437 -0.34214026 0.92792666 -0.00029530903 -0.00012711849 0.001427098
-0.91345197 0.6130695 0.00088767277 -0.00069291785 0.0015829335 -0.0012462755 -0.0007160443 -0.0015843477
-0.44671074 0.42690817 -0.73167044 -0.00053270627 -0.00010186731 3.8553608e-05 0.0010026903 -0.0014465426
0.32277516 -0.21911383 -0.00032456164 0.0012135474 0.00084888405 -0.0021338735 -0.0007328644 0.0009521194
0.25277302 0.37864196 1.2582195 0.0008508157 0.00051515177 -0.0016924649 -0.0007119426 0.0018168476
0.6289791 0.15745072 -0.5590322 -1.7151066 -0.20527753 0.29790252 -0.0008334967 0.0010546952
-1.518311 -0.5513041 0.00035545038 0.0007880044 -0.0006756832 8.1695485e-05 0.0007721279 -0.000120487624
-0.06237825 -0.544899 -0.00046373578 0.00065246195 0.0007717859 0.001041336 0.0016644748 -0.0018404415
1.086496 -0.00016981484 -0.00022623123 0.0003122648 -0.00012660203 0.00073870405 0.00044300003 -0.0010826449
0.40535185 0.06231814 -1.233207 0.5761763 -1.03482525e-05 0.00040947105 -8.6995664e-05 0.00074219634
1.3424006 -0.4688614 0.0031499313 -0.0015516432 -0.0007141277 -0.0001599408 0.00032602865 0.00074530125
0.44946164 -0.00020352626 0.00090982206 0.0011145051 -0.00091020216 -0.00032190888 -0.0008128158 -0.0006903144
0.2322755 0.0005615636 -0.00136545 0.0003850561 4.8206904e-05 -0.00053959317 -0.0007779918 0.0005406061
0.3617545 -0.000806894 -0.00015808435 0.0004375139 9.522128e-05 3.309748e-05 -0.0005721171 0.0016780999
-0.37259 0.2535135 0.27053544 0.44850606 0.063531786 0.1368332 0.9875992 -4.2232e-05
0.14356196 0.14025536 -0.0017800668 0.5827858 -0.00059247506 -0.000438611 -0.0007437581 -0.0003936779
-1.2069985 0.13103954 0.5036892 0.9735765 1.0470552 1.3813488 -0.00047133074 -0.0003288433
-0.5139799 0.6377967 -0.64285946 -0.0024356118 0.0014988681 0.0010106534 0.00057485217 -0.0008877154
0.35007602 1.2828472 -0.8235085 0.72245425 4.2440523e-05 -0.0015691138 0.0006309039 -0.0003501315
0.21659103 -0.29779378 0.8714335 -0.6515913 1.1514648 0.001340182 0.0005523212 -0.00086364563

0.0.mdl.input_to_hidden.0.mask f4 [100, 8]
00000000: 0000 803f 0000 0000 0000 0000 0000 0000
00000010: 0000 0000 0000 0000 0000 0000 0000 0000
00000020: 0000 803f 0000 803f 0000 803f 0000 803f
00000030: 0000 0000 0000 0000 0000 0000 0000 0000
00000040: 0000 803f 0000 803f 0000 803f 0000 803f
00000050: 0000 803f 0000 803f 0000 803f 0000 0000
00000060: 0000 803f 0000 803f 0000 803f 0000 803f
00000070: 0000 803f 0000 803f 0000 0000 0000 0000
00000080: 0000 803f 0000 803f 0000 803f 0000 803f
00000090: 0000 803f 0000 803f 0000 803f 0000 0000
000000a0: 0000 803f 0000 803f 0000 803f 0000 803f
000000b0: 0000 0000 0000 0000 0000 0000 0000 0000
000000c0: 0000 803f 0000 0000 0000 0000 0000 0000
000000d0: 0000 0000 0000 0000 0000 0000 0000 0000
000000e0: 0000 803f 0000 803f 0000 803f 0000 803f
000000f0: 0000 0000 0000 0000 0000 0000 0000 0000
00000100: 0000 803f 0000 803f 0000 803f 0000 803f
00000110: 0000 803f 0000 803f 0000 0000 0000 0000
00000120: 0000 803f 0000 803f 0000 803f 0000 803f
00000130: 0000 803f 0000 0000 0000 0000 0000 0000
00000140: 0000 803f 0000 803f 0000 803f 0000 803f
00000150: 0000 803f 0000 803f 0000 803f 0000 0000
00000160: 0000 803f 0000 803f 0000 803f 0000 803f
00000170: 0000 803f 0000 803f 0000 0000 0000 0000
00000180: 0000 803f 0000 803f 0000 803f 0000 803f
00000190: 0000 803f 0000 0000 0000 0000 0000 0000
000001a0: 0000 803f 0000 803f 0000 0000 0000 0000
000001b0: 0000 0000 0000 0000 0000 0000 0000 0000
000001c0: 0000 803f 0000 803f 0000 803f 0000 0000
000001d0: 0000 0000 0000 0000 0000 0000 0000 0000
000001e0: 0000 803f 0000 803f 0000 0000 0000 0000
000001f0: 0000 0000 0000 0000 0000 0000 0000 0000
00000200: 0000 803f 0000 803f 0000 803f 0000 0000
00000210: 0000 0000 0000 0000 0000 0000 0000 0000
00000220: 0000 803f 0000 803f 0000 803f 0000 803f
00000230: 0000 803f 0000 803f 0000 0000 0000 0000
00000240: 0000 803f 0000 803f 0000 0000 0000 0000
00000250: 0000 0000 0000 0000 0000 0000 0000 0000
00000260: 0000 803f 0000 803f 0000 0000 0000 0000
00000270: 0000 0000 0000 0000 0000 0000 0000 0000
00000280: 0000 803f 0000 0000 0000 0000 0000 0000
00000290: 0000 0000 0000 0000 0000 0000 0000 0000
000002a0: 0000 803f 0000 803f 0000 803f 0000 803f
000002b0: 0000 0000 0000 0000 0000 0000 0000 0000
000002c0: 0000 803f 0000 803f 0000 0000 0000 0000
000002d0: 0000 0000 0000 0000 0000 0000 0000 0000
000002e0: 0000 803f 0000 0000 0000 0000 0000 0000
000002f0: 0000 0000 0000 0000 0000 0000 0000 0000
00000300: 0000 803f 0000 0000 0000 0000 0000 0000
00000310: 0000 0000 0000 0000 0000 0000 0000 0000
00000320: 0000 803f 0000 0000 0000 0000 0000 0000
00000330: 0000 0000 0000 0000 0000 0000 0000 0000
00000340: 0000 803f 0000 803f 0000 803f 0000 803f
00000350: 0000 803f 0000 803f 0000 803f 0000 0000
00000360: 0000 803f 0000 803f 0000 803f 0000 803f
00000370: 0000 0000 0000 0000 0000 0000 0000 0000
00000380: 0000 803f 0000 803f 0000 803f 0000 803f
00000390: 0000 803f 0000 803f 0000 0000 0000 0000
000003a0: 0000 803f 0000 803f 0000 803f 0000 0000
000003b0: 0000 0000 0000 0000 0000 0000 0000 0000
000003c0: 0000 803f 0000 803f 0000 803f 0000 803f
000003d0: 0000 0000 0000 0000 0000 0000 0000 0000
000003e0: 0000 803f 0000 803f 0000 803f 0000 803f
000003f0: 0000 803f 0000 0000 0000 0000 0000 0000
1.0 0.0 0.0 0.0 0.0 0.0 0.0 0.0
1.0 1.0 1.0 1.0 0.0 0.0 0.0 0.0
1.0 1.0 1.0 1.0 1.0 1.0 1.0 0.0
1.0 1.0 1.0 1.0 1.0 1.0 0.0 0.0
1.0 1.0 1.0 1.0 1.0 1.0 1.0 0.0
1.0 1.0 1.0 1.0 0.0 0.0 0.0 0.0
1.0 0.0 0.0 0.0 0.0 0.0 0.0 0.0
1.0 1.0 1.0 1.0 0.0 0.0 0.0 0.0
1.0 1.0 1.0 1.0 1.0 1.0 0.0 0.0
1.0 1.0 1.0 1.0 1.0 0.0 0.0 0.0
1.0 1.0 1.0 1.0 1.0 1.0 1.0 0.0
1.0 1.0 1.0 1.0 1.0 1.0 0.0 0.0
1.0 1.0 1.0 1.0 1.0 0.0 0.0 0.0
1.0 1.0 0.0 0.0 0.0 0.0 0.0 0.0
1.0 1.0 1.0 0.0 0.0 0.0 0.0 0.0
1.0 1.0 0.0 0.0 0.0 0.0 0.0 0.0
1.0 1.0 1.0 0.0 0.0 0.0 0.0 0.0
1.0 1.0 1.0 1.0 1.0 1.0 0.0 0.0
1.0 1.0 0.0 0.0 0.0 0.0 0.0 0.0
1.0 1.0 0.0 0.0 0.0 0.0 0.0 0.0
1.0 0.0 0.0 0.0 0.0 0.0 0.0 0.0
1.0 1.0 1.0 1.0 0.0 0.0 0.0 0.0
1.0 1.0 0.0 0.0 0.0 0.0 0.0 0.0
1.0 0.0 0.0 0.0 0.0 0.0 0.0 0.0
1.0 0.0 0.0 0.0 0.0 0.0 0.0 0.0
1.0 0.0 0.0 0.0 0.0 0.0 0.0 0.0
1.0 1.0 1.0 1.0 1.0 1.0 1.0 0.0
1.0 1.0 1.0 1.0 0.0 0.0 0.0 0.0
1.0 1.0 1.0 1.0 1.0 1.0 0.0 0.0
1.0 1.0 1.0 0.0 0.0 0.0 0.0 0.0
1.0 1.0 1.0 1.0 0.0 0.0 0.0 0.0
1.0 1.0 1.0 1.0 1.0 0.0 0.0 0.0

0.0.mdl.input_to_hidden.0.cscale.weight f4 [100, 1]
00000000: 17b3 c0b9 00d4 8b39 dfe7 a63a beac 00bb
00000010: adc2 4a3a 5148 823a 7bd4 a73a b1bf c3ba
00000020: 3c0f 343a 7900 84ba ac0e 113a dfe2 e13a
00000030: 8037 85ba 7dc4 81b9 7d83 953a c92c a539
00000040: 1109 d439 2a9f bf39 282e 81b9 b119 ad3a
00000050: e65b 9c39 dbfa 83b9 094c 58b9 e192 c7ba
00000060: a261 8bba f4a7 beba 598e ee38 3953 afba
00000070: 9a67 a0b9 9b94 acb9 a6ff ac38 6894 89ba
00000080: 6c26 18ba 360a 77ba 0954 85ba fb03 a4ba
00000090: cd51 353a dca0 883a 3011 253b 7c50 66ba
000000a0: be01 44b9 d465 76b9 5c37 c6b9 9b0a d4ba
000000b0: 20b2 d93a 9777 713a d5ba 0e3b d046 b4ba
000000c0: fdfe b6b9 9564 843a e9ee 8539 cc83 31ba
000000d0: 76e4 4339 f548 01ba 5e41 07ba df67 de3a
000000e0: 868e 643a 998f 3839 d2ff 5aba 526b 4839
000000f0: 3c51 71ba fc86 6339 3f31 d1b9 2075 dc39
00000100: f8a6 d4ba 9861 253a 5aae aeb8 fde0 53ba
00000110: 20f8 62b9 63a7 80ba 1c64 253a d1e7 083a
00000120: 45c0 4d3a 9a4a 3fb9 1ec6 c5b9 ffa4 4c39
00000130: 643d d0b9 fa89 c2ba 763b 863a 9bda 803a
00000140: d746 a8b8 93d5 a73a 556a 8a3a 3750 fdba
00000150: 7e99 86b9 5958 b43a 549f 65b9 adb2 fc3a
00000160: b5eb e6ba 3acb 99b9 9c15 76ba beff 97b8
00000170: 8849 9b3a a380 cbba f0fc 8cba e082 bbb8
00000180: ec7c 57ba 8c11 0aba 0b2b 23bb edf5 2ab9
-0.00036754526 0.00026670098 0.0012733898 -0.0019634212 0.00077346974 0.0009939765 0.0012804413 -0.0014934448
0.0006868725 -0.0010070942 0.00055334973 0.001723375 -0.0010163635 -0.00024751193 0.0011406984 0.0003150462
0.00040442546 0.00036548945 -0.00024639186 0.0013206509 0.00029823108 -0.0002517317 -0.0002062769 -0.0015226268
-0.0010633955 -0.0014545904 0.00011375239 -0.0013376243 -0.00030594767 -0.00032917116 8.249217e-05 -0.0010496499
-0.0005804065 -0.0009423824 -0.0010172139 -0.0012513393 0.00069167913 0.0010423916 0.0025187247 -0.0008785797
-0.00018692666 -0.00023498322 -0.0003780675 -0.0016177477 0.0016608872 0.00092112407 0.002177884 -0.0013754014
-0.00034903726 0.0010100777 0.0002554574 -0.00067716534 0.00018681758 -0.0004931831 -0.0005159582 0.0016968212
0.00087187474 0.00017601102 -0.000835416 0.00019113466 -0.0009205525 0.00021698693 -0.00039900278 0.00042048935
-0.0016224077 0.0006308793 -8.329442e-05 -0.0008082537 -0.00021645473 -0.000981551 0.0006309168 0.00052225316
0.000784878 -0.0001824297 -0.00037722377 0.00019516422 -0.0003971859 -0.0014842146 0.0010241109 0.0009830775
-8.024059e-05 0.0012804739 0.0010560254 -0.0019326274 -0.00025672832 0.001375924 -0.00021898496 0.0019279324
-0.0017617854 -0.0002933385 -0.00093873753 -7.247877e-05 0.0011847476 -0.0015526008 -0.0010756534 -8.941232e-05
-0.0008220214 -0.0005266897 -0.0024897482 -0.00016304078

0.0.mdl.input_to_hidden.0.cscale.bias f4 [100]
00000000: 0da3 b9bf 0f46 473f d005 f33f ddeb 2cc0
00000010: 9ad3 f83f 912b 9b3f cda5 d23e a4df ecbf
00000020: 6b87 0bc0 f5ff db3f 194c 1740 9bcb 9cbf
00000030: f55a 5b3f 472d ed3f e791 9bbf fccf d8be
00000040: e304 cbbf 6425 14c0 e3f6 c8bf 2f39 83bf
00000050: 1a76 08c0 a7c2 fd3f c14f e9bf 7ec9 82bf
00000060: e880 4bbf 69e1 62bf feea 6a3f deb6 1d3f
00000070: 7e90 11c0 e648 a8bf 1d91 e6bf b0d9 efbf
00000080: 46c5 49bf d2a9 c83f 5e0c d33f 6e93 d9be
00000090: 24a3 a3bf 8767 8d3f 4272 e0bf bcf7 c7bf
000000a0: 7898 1fc0 81bc 06c0 e071 72bf a557 83bf
000000b0: 07b2 e5bf ab8e b93f 82ee d63f 0908 d7bf
000000c0: ab0e 80bf 1f7e cb3e fa47 97bf 63b9 813f
000000d0: f248 08c0 c5b0 dfbf 7510 24c0 20fb 413f
000000e0: aef5 bdbf e52d 0740 0b89 1940 965e f0bf
000000f0: 8462 a7be 55de a3be 9eba 073f 06d6 00c0
00000100: e23c e3bf 47f9 763f 5487 383f 96d3 afbf
00000110: eb2b be3f 1677 2440 0e5d ba3f 6da8 d23f
00000120: 2a5a fe3f 3290 c93f e3be fe3f 1d12 0fc0
00000130: 4109 08c0 7a52 2f40 8170 26c0 0a21 b0bf
00000140: 8423 14c0 09c7 d1bf 6b3f c03f 5dc6 fa3f
00000150: 705b a3bf d0bb a5bf dae8 c13f 42cf 02be
00000160: c7af aa3f e62f 383f 175a a83f 35a0 e1bf
00000170: c658 f33f a642 983f ae34 b53f cd25 bdbf
00000180: 9c02 0b40 94fc cb3f 0fcb 0440 5cb4 debf
-1.4502884 0.77841276 1.8986149 -2.701896 1.9439576 1.212267 0.4114212 -1.850575
-2.1801403 1.7187487 2.3640196 -1.2249635 0.85685664 1.8529443 -1.2153901 -0.4234618
-1.5860866 -2.3147821 -1.5700344 -1.0251826 -2.1322083 1.9825028 -1.8227464 -1.021774
-0.7949357 -0.886252 0.9176482 0.6160716 -2.274444 -1.3147247 -1.8013035 -1.8738308
-0.7881664 1.5676825 1.6488149 -0.42495292 -1.2784162 1.1047219 -1.7534869 -1.5622478
-2.493681 -2.1052554 -0.9470501 -1.0261122 -1.7944955 1.4496664 1.6791537 -1.6799327
-1.0004476 0.3974466 -1.181884 1.01347 -2.1294522 -1.7475821 -2.5635045 0.7577381
-1.48406 2.1121762 2.3989894 -1.8778865 -0.3269235 -0.32005563 0.5301913 -2.013063
-1.7752955 0.9647412 0.72081494 -1.3736446 1.4857153 2.5697684 1.4559648 1.645765
1.9871266 1.574713 1.9902004 -2.2354805 -2.1255648 2.739409 -2.6006167 -1.3760083
-2.3146677 -1.6388866 1.5019354 1.9591786 -1.276228 -1.2947941 1.5149186 -0.12774375
1.3334893 0.7194809 1.3152493 -1.7627016 1.9011467 1.189534 1.4156702 -1.4777161
2.1720343 1.5936456 2.0748937 -1.7398791

0.0.mdl.input_to_hidden.0.cbias.weight f4 [100, 1]
00000000: 805f 30b8 d5ae 9bba 4e7f 10bb 5117 a33a
00000010: 66ba 193b 9243 833a 945e 5eba 966a e4b7
00000020: 3c6a f6ba da80 da38 5775 083b 602f 76ba
00000030: 0821 8a3a 17a7 b9b9 009f 913a 5bde 06b9
00000040: 70e3 bdb9 3503 a5ba b78e a0ba 7708 06ba
00000050: 1697 623a 995a 85ba db91 dc39 8366 053a
00000060: ba02 513a ec39 bdb9 2a1a 8fb7 5f22 d2b9
00000070: 1069 30ba 5fe9 b6b9 4ae1 cfb9 be28 a539
00000080: 057d 27b9 0995 f0ba 0b07 45ba c6f0 0dbb
00000090: 96d7 b139 0b37 a7b8 f454 39b9 56d9 a639
000000a0: d0b7 47b9 3f75 213a d20c b7b9 99a2 fdb9
000000b0: 2874 d7b9 c0b2 3b38 9970 52ba 314e 9c38
000000c0: c474 feb9 15be 2d38 1a04 343b dc16 3a3a
000000d0: 64e2 6d3a 3096 5aba b111 ce39 2749 973a
000000e0: 80e4 8fba 44d7 9db9 65be 1e38 d17b 033a
000000f0: dae7 c63a 1a4f 8d39 1fc6 02ba e40e dc3a
00000100: e33b 9cba 9c1a f1ba 23fe 5aba 3b1f 6839
00000110: c0a9 09bb 5bb2 f5ba 28db 15bb 15f1 90b9
00000120: e6a4 b33a 7fde 223a 99bc 1aba 446a b0ba
00000130: 4d74 c33a 6ca5 6eba bb98 81ba 5587 18bb
00000140: eb15 e63a 6fbf 1dba cf97 083a 94ea 723a
00000150: 3671 94ba 4340 fd39 98c8 3f39 64a7 fbb8
00000160: e216 29b9 b48d 0eba f7fe 8eba fe6e 9239
00000170: 65da 7dba 75f1 a4ba 0e92 853a d934 153b
00000180: 35f8 d0ba 1947 5d3a 1843 79b8 f9f3 8aba
-4.205061e-05 -0.0011877666 -0.0022048536 0.0012442862 0.002345705 0.0010014644 -0.0008482721 -2.7229351e-05
-0.0018799971 0.000104190505 0.0020821893 -0.00093912147 0.0010538409 -0.0003541044 0.0011110008 -0.0001286207
-0.00036218343 -0.0012589457 -0.0012249564 -0.00051129557 0.00086437294 -0.0010174095 0.0004207034 0.0005088823
0.00079731236 -0.00036092044 -1.7059112e-05 -0.0004007993 -0.0006729523 -0.0003488762 -0.0003964997 0.00031501608
-0.00015972934 -0.0018354963 -0.0007516003 -0.0021658405 0.00033920695 -7.973433e-05 -0.00017674622 0.00031823915
-0.00019046594 0.00061591336 -0.00034914032 -0.00048377065 -0.0004109454 4.475075e-05 -0.00080276426 7.453224e-05
-0.00048533652 4.1423442e-05 0.0027468265 0.0007098743 0.00090745674 -0.000833842 0.00039304563 0.0011542187
-0.0010978132 -0.0003010576 3.7847454e-05 0.00050157035 0.0015175298 0.0002695255 -0.0004988629 0.0016789106
-0.0011919703 -0.0018394771 -0.00083539094 0.00022136878 -0.002100572 -0.0018745171 -0.0022866223 -0.0002764544
0.001370576 0.0006212964 -0.0005902737 -0.0013459404 0.001491198 -0.0009103629 -0.0009887436 -0.0023274024
0.001755414 -0.00060176005 0.00052106095 0.0009266522 -0.0011325243 0.000483038 0.00018289906 -0.000119997916
-0.0001612562 -0.00054379855 -0.0010909726 0.00027929986 -0.00096837274 -0.0012584167 0.0010190622 0.0022767095
-0.0015943112 0.00084410753 -5.9428712e-05 -0.0010601274

0.0.mdl.input_to_hidden.0.cbias.bias f4 [100]
00000000: e88f 57bf e681 653f f994 eabf 18dd 44be
00000010: db1a 1fc0 573c 693f b979 6abe 496c a23f
00000020: e5f0 5e3f 6e41 29be ca15 a53f 5be3 0cbf
00000030: 4c60 00c0 4032 eebf 83c9 9d3f a598 39bf
00000040: 69e7 5dc0 e641 9c3f fe5c 36c0 dc5b 16bf
00000050: 49ec 1ec0 978a 223f dd93 473e dc3a 5fbf
00000060: 7a2b 8abe e234 05bf 4017 bc3f ca6b 293f
00000070: 44f1 ccbf 4407 a93f 37bd b5bf 998e eabe
00000080: f7f3 9d3f 5a6e d2bf 0f33 a73f 168d 843f
00000090: 7218 79bf 5639 1fc0 6320 83bf c7b7 c23f
000000a0: c7f8 00c0 40bf cf3e 50ae afbe 15cc a83f
000000b0: f754 d03f fc50 0dbf 2c08 b63f 98e3 4e3f
000000c0: 70fc b73f 7982 193f 1eac b43f 9d0d c13f
000000d0: 5dea 9d3f 27f6 4abf 8e66 21c0 09b3 673f
000000e0: 65b3 2abf f5df f8bf 39ea 883f 9911 a03f
000000f0: 5f39 42bf 89fc 173f 7468 483f bebe bbbe
00000100: 714e a4bf c7bf 5bbe 9ab6 883f 7299 09c0
00000110: 23d3 913f 2a77 bbbf b911 333f 12ab c33f
00000120: 9320 10bf 833d 26bf 855d 0ec0 6f13 233f
00000130: 72e1 8bbf 3102 52be c0bf a8bc 162f d7be
00000140: d3f5 c63f f9b3 bc3f a8a2 d93f fdcc ecbf
00000150: 4370 8c3f 1bb8 643f 9670 a93f 09fb 913f
00000160: 3081 1dbf c886 903f 36e9 0d3f 020d b23f
00000170: c293 8a3f d77c 30c0 54c5 ff3f ce25 81bf
00000180: 8d9c f5bf 5bbe f33f dd13 06c0 29dc d23f
-0.8420396 0.89651334 -1.8326713 -0.19224966 -2.4860141 0.91107696 -0.22897996 1.2689296
0.87086326 -0.16528866 1.2897274 -0.55034417 -2.0058775 -1.8609085 1.2327121 -0.7249854
-3.4672492 1.2207611 -2.8494258 -0.58733916 -2.4831717 0.6349272 0.19489999 -0.8719919
-0.26986295 -0.5203382 1.4694595 0.661801 -1.6011128 1.3205342 -1.4198369 -0.45811918
1.2340077 -1.6439927 1.3062457 1.0355556 -0.97302926 -2.4878745 -1.0244259 1.5212334
-2.0151842 0.405756 -0.34312677 1.3187281 1.6275929 -0.552017 1.4221244 0.8081603
1.4373913 0.5996471 1.4115026 1.508228 1.2337147 -0.7928185 -2.5218844 0.9050756
-0.66679984 -1.9443346 1.0696479 1.250537 -0.7586879 0.59369713 0.7828438 -0.36668962
-1.2836438 -0.21459876 1.0680726 -2.1499906 1.1392559 -1.4645741 0.6994892 1.5286582
-0.56299704 -0.6493761 -2.224458 0.6370153 -1.0928175 -0.20508648 -0.020599246 -0.4202811
1.554377 1.4742423 1.7002764 -1.8500057 1.097176 0.8934342 1.3237484 1.1404735
-0.6152525 1.1291132 0.55433977 1.391022 1.0826342 -2.7576196 1.9982095 -1.0089662
-1.91884 1.9042467 -2.0949624 1.6473438

0.0.mdl.hidden_to_output.direction f4 [16, 100]
00000000: 5b5e b0b9 4e65 a63a 27e8 ab39 fc78 213b
00000010: e51b d6b9 fa30 bc3a e138 0aba 769b 943a
00000020: 7d19 ccb9 9ed8 87b9 b895 b339 1d16 74b9
00000030: e5d7 7fb9 8170 883a 3278 ae3a 9f59 8b39
00000040: d345 063a 79a9 8bb7 c0ac c839 f907 81b9
00000050: 8825 e33a a3c1 99ba 9338 483a c480 96ba
00000060: 5c96 d43a 5c17 c939 da99 7e3a 5916 ceb9
00000070: de8b d839 1cc9 77ba 080f 5439 23fd e8b8
00000080: 6cc6 5738 c32a 48bb e061 583a c0cb 7a39
00000090: 1d26 253b 998c 0aba ff8f 64b7 b8f5 1e39
000000a0: 01ee 8bba 99d5 03ba 7292 cbba e47e a4ba
000000b0: 6025 443a dc60 a7ba 967e 7fba c3b0 89ba
000000c0: 5894 413a 6472 6738 34a9 d13a d81a c4b8
000000d0: 1b76 513a 347e a73a 5fa5 ccba 416d 373a
000000e0: 4494 853a d797 d1b8 c963 a038 1537 69ba
000000f0: b145 d7ba 6152 d6b9 ae8f feba 9daa d53a
00000100: a881 5c39 fbdc 74b8 d0e2 9f39 6760 9bba
00000110: 48bf a6b9 378f 9939 b33d aa3a 1a5d e4ba
00000120: c55a 0aba 7516 8b39 dcc5 8b3a cef6 08ba
00000130: 879d 17ba 3809 0fba aa81 003a dcb8 33ba
00000140: aa45 ec3a e4d1 eb39 a1e0 7cba 688f 1439
00000150: 0199 acba 46cc b7b9 5224 993a 1ae5 953a
00000160: 45fe 37ba 2964 5bba 0bab 8eba efa3 37b9
00000170: 1237 41ba e87e 5139 7e97 efb9 bfb4 27ba
00000180: 4dbb 8dba 3fa5 cfb9 e259 463a ca8f 103b
00000190: 7ad5 aab9 6ba3 ff39 4246 813a 0ddb b13a
000001a0: ff3e a639 a9a6 b9b7 3de7 17ba af96 dd3a
000001b0: f963 7bba 0f0a 07ba 1f1e 80b9 734e a3b9
000001c0: 7eef d239 789a 8d39 1907 5dba f6d3 0eba
000001d0: 259a be38 504a 473a b596 87ba 7c1d 9739
000001e0: c324 c8ba 3135 3b3a 4aa7 403a fbac 30b9
000001f0: 7ec6 8eba 38bc 05ba 7fa3 61b9 f676 0fbb
00000200: 310f 5a39 426c a539 788c 8d3a bcea fd39
00000210: f493 a63a 378c 7aba 9536 073a 3d97 b73a
00000220: a884 4ab8 48f9 f2b8 18ea 5c39 3a96 d5ba
00000230: e9f1 6c3a f461 e839 43f2 94ba 6380 c336
00000240: 33ad 8fba b7d6 8239 71dd 16ba 22b5 9d36
00000250: 64fb ca39 420a cfb8 bda2 f63a 1b11 bd3a
00000260: 4638 4c3a 6b13 e5b9 8fb5 e43a 4935 eb38
00000270: b022 12ba 7ebb 3a3a 652d 4c3a fd8c 4c3a
00000280: 41ac 9c3a 7f4f 0939 dd30 363a 01c6 c139
00000290: 4b33 14ba 0875 8c39 8ec3 6dba d419 7738
000002a0: ba2e e53a 9abc cdba 4caf e138 36b7 173a
000002b0: 0869 f73a b987 d8ba 8ec5 98ba 95f7 03b9
000002c0: 3240 f139 bed8 cfb8 e986 cb3a 82a4 c3b9
000002d0: 25f5 f2b9 d908 3a39 cb2b 31b9 898c 443a
000002e0: 76d2 59ba e469 44ba d7ef e9ba e45c 5c3a
000002f0: 61d1 783a c672 07b8 4f16 bdba 693a 45ba
00000300: fc60 72ba a356 6dba 2dce 2b39 5c8e baba
00000310: f5d1 ed39 8b12 d33a e24c 783a 5c91 083a
00000320: 9a56 96bd d350 0000 04f9 0000 c01f 0000
00000330: 2c6c 0080 5568 0000 62ad 8abe 7384 0080
00000340: bd2b 0000 b424 0000 f469 0000 ad79 0080
00000350: 3838 0000 476c 0000 3d14 0000 422d 0000
00000360: b741 0080 6b26 0080 a85f 0080 b96f 0000
00000370: b915 a0be 3c07 0000 335a 0080 540d a4be
00000380: f2c1 38be d7b0 6dbe ec92 0080 2483 0000
00000390: 3a51 0000 2dc9 0000 ac15 0080 026f 0080
000003a0: 5e0d 0000 e57d 0080 889a 0000 7de3 0080
000003b0: 5b2d a9bd 0377 0080 ceb3 0bbe 9911 0080
000003c0: 7438 0000 fc65 0000 68ca 58bd f874 0080
000003d0: eb74 233e 6f4d 0080 731c 0000 5e0d 0080
000003e0: 6e3f 0080 b547 0080 7206 0000 cb12 0000
000003f0: 2dc9 0080 ba0d 0000 6734 0080 ae98 6c3d
-0.00033639636 0.0012694986 0.0003278863 0.0024638763 -0.00040838044 0.0014357858 -0.0005272758 0.0011337835
-0.00038928902 -0.000259106 0.0003425309 -0.00023277891 -0.00024399122 0.0010409505 0.0013310967 0.0002657892
0.0005122099 -1.6649008e-05 0.0003827568 -0.00024610737 0.0017329911 -0.0011730682 0.0007637825 -0.0011482467
0.0016219127 0.00038355112 0.0009712257 -0.00039308032 0.0004130294 -0.000945227 0.00020223495 -0.000111097725
5.144479e-05 -0.0030543066 0.00082543306 0.0002391776 0.002519972 -0.0005285233 -1.3623386e-05 0.00015159592
-0.0010675789 -0.0005029082 -0.0015531315 -0.0012550023 0.0007482376 -0.0012769955 -0.0009746341 -0.001050495
0.00073844707 5.5181226e-05 0.0015995861 -9.351008e-05 0.00079903164 0.00127787 -0.0015613249 0.0006997176
0.0010191281 -9.994179e-05 7.647981e-05 -0.00088964525 -0.0016423968 -0.00040878638 -0.0019421482 0.0016301457
0.00021029136 -5.8379937e-05 0.00030495832 -0.0011854292 -0.00031804503 0.00029289137 0.0012988359 -0.0017422766
-0.0005277808 0.00026528878 0.0010663825 -0.0005224765 -0.0005783666 -0.0005456391 0.0004902134 -0.00068558543
0.0018026133 0.00044979074 -0.00096465094 0.00014167803 -0.0013168157 -0.00035056676 0.0011683798 0.0011436075
-0.0007018785 -0.0008369112 -0.0010884715 -0.0001751331 -0.0007370572 0.0001997907 -0.00045698503 -0.00063974777
-0.0010813266 -0.00039605235 0.0007566494 0.0022058361 -0.0003258398 0.00048759146 0.0009862857 0.001356931
0.00031708923 -2.2131326e-05 -0.000579465 0.0016905869 -0.0009589787 -0.000515134 -0.00024436504 -0.00031148232
0.00040232757 0.00027008704 -0.00084315386 -0.0005448455 9.088618e-05 0.0007602321 -0.0010344597 0.00028822932
-0.0015269745 0.000714141 0.0007349147 -0.00016849108 -0.0010892896 -0.0005101594 -0.00021518579 -0.0021890975
0.0002079576 0.0003155191 0.0010799309 0.0004843081 0.0012708888 -0.0009557637 0.00051579747 0.0014006865
-4.82841e-05 -0.000115858915 0.00021068042 -0.0016295381 0.0009038733 0.0004432347 -0.0011363704 5.826399e-06
-0.0010961652 0.00024955507 -0.0005755043 4.7000512e-06 0.00038715743 -9.87244e-05 0.001881681 0.0014424653
0.0007790368 -0.0004369275 0.0017449128 0.00011215598 -0.0005574627 0.00071232754 0.0007788747 0.00078029913
0.0011953191 0.00013094953 0.000695003 0.00036959353 -0.0005653395 0.00026790076 -0.00090699724 5.8913443e-05
0.0017485239 -0.0015696466 0.00010761488 0.00057874934 0.0018875906 -0.0016519941 -0.0011655556 -0.00012585365
0.0004601493 -9.9109006e-05 0.0015527877 -0.00037315866 -0.00046340484 0.00017741638 -0.0001689635 0.0007497748
-0.0008309254 -0.00074925856 -0.0017847967 0.0008406176 0.0009491649 -3.22934e-05 -0.0014426204 -0.00075236574
-0.0009246019 -0.00090537424 0.00016384637 -0.00142331 0.00045360593 0.0016103549 0.00094719057 0.00052096485
-0.07340737 2.8994e-41 8.933e-41 1.139e-41 -3.8805e-41 3.7427e-41 -0.27085406 -4.7514e-41
1.569e-41 1.3167e-41 3.8009e-41 -4.3649e-41 2.0167e-41 3.8843e-41 7.26e-42 1.6235e-41
-2.3574e-41 -1.3782e-41 -3.4315e-41 4.0079e-41 -0.31266573 2.595e-42 -3.2357e-41 -0.3204142
-0.18042734 -0.2321199 -5.2706e-41 4.7044e-41 2.9139e-41 7.2168e-41 -7.774e-42 -3.9822e-41
4.795e-42 -4.5162e-41 5.5435e-41 -8.1607e-41 -0.08260604 -4.2693e-41 -0.13642809 -6.313e-42
2.0252e-41 3.6585e-41 -0.052927405 -4.196e-41 0.1596257 -2.7778e-41 1.0206e-41 -4.795e-42
-2.2754e-41 -2.5724e-41 2.312e-42 6.742e-42 -7.2168e-41 4.924e-42 -1.8798e-41 0.057762794

0.0.mdl.hidden_to_output.cscale.weight f4 [16, 1]
00000000: e21d 3aba 4e0e 01ba 3086 3739 5087 1aba
00000010: a64b 0f3a 00b3 2d3a 9096 6aba 44e9 483a
00000020: 4862 7439 90f0 a039 7ec2 44ba 5caf 153a
00000030: 00a0 2e39 b038 343a d461 69b9 c0ff 24b8
-0.000709979 -0.0004923091 0.00017502229 -0.0005894797 0.00054662896 0.00066260993 -0.0008948827 0.0007664154
0.00023306266 0.0003069681 -0.0007505788 0.00057100295 0.00016653538 0.0006874902 -0.00022257055 -3.9338833e-05

0.0.mdl.hidden_to_output.cscale.bias f4 [16]
00000000: 0000 0000 0000 0000 b350 08bf 043c cdbf
00000010: 7c17 7a3f a479 a03f 91bf 1140 afab 3ebf
00000020: 841d 763f 9a16 403f 9c9b a9bf f74e 193f
00000030: 4d23 af3f baab 773f 14e8 93bf 7c38 1c3f
0.0 0.0 -0.5324814 -1.603394 0.97692084 1.2537122 2.2773173 -0.7448072
0.9613879 0.7503449 -1.3250613 0.59886116 1.3682648 0.9674641 -1.15552 0.6102369

0.0.mdl.hidden_to_output.cbias.weight f4 [16, 1]
00000000: c1bb 80ba 8083 7d37 3dbd 823a 0e5f 6b3a
00000010: e05c 81ba 3c10 1b3a 4052 f238 8c44 e6b9
00000020: ae32 1a3a bb02 13ba 719a 5aba c256 7b3a
00000030: c0dd eb39 74ac 5a3a dc8d 9d39 0f3f 6bba
-0.000982158 1.5110592e-05 0.000997461 0.0008978703 -0.0009869598 0.00059152 0.000115547795 -0.0004392009
0.00058821857 -0.0005608012 -0.00083390536 0.0009587818 0.0004498791 0.00083417376 0.00030051067 -0.0008973935

0.0.mdl.hidden_to_output.cbias.bias f4 [16]
00000000: b253 983e 2d91 c040 1715 843c f12e 5540
00000010: e5be 52bd 5e63 2340 4c9b f6be bb39 0e40
00000020: f393 10bf d2a8 0840 11bc 183f 7c6b 0340
00000030: 3921 193f 642c 0f40 f190 583e d958 1440
0.29751354 6.0177217 0.016123338 3.33099 -0.051451582 2.55294 -0.48165357 2.2222736
-0.5647575 2.135304 0.59661967 2.0534353 0.5981632 2.2370844 0.21149041 2.3179228

1.0.mdl.input_to_hidden.0.direction f4 [100, 8]
00000000: e495 ee3e d923 a23f 50d1 213f 5617 5c39
00000010: 2f58 b5b9 6380 83ba d5cc 41ba 13b3 833b
00000020: e38d 713e 9685 573f 2351 113e 604c 4bba
00000030: 8736 e63a 88d5 6d3a d844 a43a f526 deb8
00000040: 8dac 4fbe 8ac9 be3f c7a7 c9b9 b254 803a
00000050: 8ca7 983a 3169 bdba b5d0 8fba 6c63 913a
00000060: 0a87 033f 7750 c8bf 924a 8d3e b8de 7bbe
00000070: 2f42 a53f 88c5 103f f11e 013f b29d 78ba
00000080: e816 ad3f bc75 f0b8 2f25 103b a774 873a
00000090: e5c8 8939 f866 efba 8de9 e639 6097 4eba
000000a0: 9163 81bf 790d 94bf 7979 aeb9 f3bb cd37
000000b0: 8df5 ebb9 78ec 91b8 4d79 fe38 bb9b cb3a
000000c0: a6e5 8f3f 07f2 93bf 9b54 bdbd d99e 92bb
000000d0: 3860 c03f 4a54 a23b e25b 383f 6c59 68b7
000000e0: d131 d23d 1543 033f 358e 6fba 0566 9c3a
000000f0: 1dba 3b37 cf82 2ab9 e0c9 96ba 4735 2c39
00000100: beba dcbd b9f3 1440 3d65 26bf 98df 22bf
00000110: 4021 1cbf bced 69bf e043 8d3e bad1 8338
00000120: 8b49 0f3f 129a 343f 0e24 50be 58ee c23a
00000130: 8743 faba 9f94 1fbb 8685 5f39 4e7f d238
00000140: 4ab8 0cbf 78b1 9bbf 6fcd c1b9 d663 503a
00000150: a7ab 5cb9 15d4 19b9 1057 cab6 cf5e 6eba
00000160: a577 9f3f 3ce6 d63d 10be 8fbf cb9a d9bf
00000170: 9c1f bd3f aa46 4b3a 8c8a 39ba 1d0a c9ba
00000180: 8215 9bbe 746c e7bc 534a c13e 59cb 82be
00000190: e669 9e3e 0f1d 7ebf 907d 9aba 709c 7fba
000001a0: 087a 5ebc a137 923f 4203 3dbe 20d5 593f
000001b0: 8707 2abc 6cb9 e739 ea0e 8b3a 5ed9 0fb9
000001c0: 8835 b63f 2355 31bd 0b9a 71be 286d 37bf
000001d0: 787c ecbf 31de 81bf da2e 9cba 1a02 bdba
000001e0: e326 b8be e7e4 853c e080 b63e f893 9c3f
000001f0: 6da2 ddbf fcd3 5d3f 20f1 c538 ee85 a23a
00000200: 807d d6bd db83 843f 3990 22bd c87f a7bc
00000210: b189 a2bf 7be9 87bf e931 07bf 526f 8a3a
00000220: 9cd4 85be 7e9d 23bf 3f17 553f e30a 2e3f
00000230: e3f9 913f 5002 813f a09b 97b9 b3be 0d3a
00000240: ceaa d6bd 3a61 f13e 2512 b33a 0a93 443a
00000250: b535 ac3a 374a 283a b75f b6b9 3913 d1ba
00000260: 4255 92be 520a 933d d46c af3d 013a efbe
00000270: 6639 75bf 7cfb e1be 712c 5bbf 2380 9db6
00000280: 7e1c 8b3e 808b ebbd 2794 6b3e f1a7 f43e
00000290: f9ed 593f 31ec 9b39 f346 cfba 2417 8d3a
000002a0: 3d87 513e beab 04bf b082 59ba ab41 91ba
000002b0: 8d59 06bb e2ea 023a 27a5 89b9 59f4 bfba
000002c0: 54eb 4c3e 4753 96be 7baf 13bf 9cf9 3c3d
000002d0: c01f 32ba b329 013a 9193 e9ba 41e4 8bba
000002e0: 09a8 e7be 5c4f 37bf f64a f43e 12e9 983f
000002f0: 2701 2cbf d14b bb3e cbeb 48b9 ebf9 87ba
00000300: 84a5 aa3d 1a25 20bf 8836 0fbb 3dc7 1639
00000310: 4565 0439 72d5 8238 8c3b e039 7703 5739
00000320: 5c04 373e 7023 78bd 08e3 5d3f b1c1 e8bd
00000330: c1ab 6a3e 04b6 fc3e a3c3 d23f f44d 173a
00000340: d3ea 133b baf6 343f 5712 283e 7cf7 a63a
00000350: b345 2dba eceb e53a 61a0 2839 a698 0038
00000360: 49f1 d8bf 2103 8039 6aea dd3a 41e5 36ba
00000370: 6d7b 23ba 9c8a e5b9 7647 de39 4078 3ab9
00000380: 684f 333f 67ca 8ab9 e150 03ba 2d26 86ba
00000390: 7d23 f5b9 554b 9f38 7f0e 813a edb3 393a
000003a0: f2bb 333e 04bc a13e 7e2f c7bf ca5f 97ba
000003b0: 1e05 453a eec0 05ba 0b72 7639 1824 1f3a
000003c0: 5027 4f3f 121c 59bf 9a84 4a3f 6c1f 563f
000003d0: e8cd 873f 63ef 8eba 60fb 443a b49c 1439
000003e0: 5efa b3be d27e 5f3f 6f42 5dbe 7d5b fabd
000003f0: d335 e4bf 5e72 2ebf 4d45 413a 4d61 d3b9
0.46598732 1.266719 0.6321001 0.00020989528 -0.00034588712 -0.0010032769 -0.0007392888 0.00401915
0.23589282 0.8418821 0.14191107 -0.0007755216 0.0017563858 0.0009072651 0.0012532724 -0.00010593041
-0.20280667 1.4905255 -0.0003846271 0.0009790866 0.0011646613 -0.0014450905 -0.0010972234 0.0011092252
0.5137793 -1.5649556 0.27595955 -0.24596679 1.2910823 0.5655141 0.5043784 -0.00094839477
1.3522615 -0.000114660215 0.002199482 0.0010334448 0.00026280354 -0.001826494 0.00044043027 -0.0007880833
-1.010851 -1.1566612 -0.0003327837 2.4525425e-05 -0.00045005642 -6.9581845e-05 0.00012134258 0.0015534082
1.1241958 -1.1558236 -0.09244653 -0.0044745025 1.5029364 0.0049538957 0.720152 -1.3849098e-05
0.10263408 0.51274234 -0.0009138317 0.001193226 1.1189401e-05 -0.00016261193 -0.0011504255 0.00016423046
-0.10777806 2.3273757 -0.6499823 -0.63622427 -0.60988235 -0.9137838 0.27590847 6.2856314e-05
0.5597159 0.7054759 -0.20326254 0.0014872057 -0.0019093611 -0.002435006 0.00021316679 0.00010037293
-0.549687 -1.2163534 -0.0003696489 0.0007949447 -0.0002104478 -0.00014670224 -6.0302045e-06 -0.0009093107
1.2458388 0.104931325 -1.1229877 -1.7000364 1.4775271 0.0007754365 -0.0007077835 -0.0015338097
-0.30289847 -0.028249957 0.37752017 -0.25545767 0.3094017 -0.9926309 -0.0011786688 -0.0009750789
-0.013578899 1.1423227 -0.18458274 0.8509083 -0.010377771 0.00044197903 0.0010609303 -0.00013718518
1.4235086 -0.043294083 -0.23593919 -0.71650934 -1.8475485 -1.0145932 -0.0011915818 -0.0014420182
-0.35967168 0.0163445 0.356452 1.2232656 -1.7315193 0.8665159 9.438605e-05 0.0012399533
-0.10473156 1.0352739 -0.039688323 -0.020446673 -1.269827 -1.0618128 -0.5281053 0.001056174
-0.2613877 -0.6391219 0.83238596 0.6798536 1.1404384 1.0078831 -0.00028916914 0.00054071395
-0.10481797 0.4714449 0.0013662024 0.0007498717 0.0013138565 0.000641975 -0.00034785058 -0.0015951163
-0.28580672 0.07179703 0.08565679 -0.4672394 -0.9579071 -0.4413718 -0.8561469 -4.6938817e-06
0.27170175 -0.11501217 0.23005734 0.4778438 0.8512874 0.0002973988 -0.0015813991 0.0010764343
0.20461746 -0.5182456 -0.0008297367 -0.0011082193 -0.0020500154 0.0004994107 -0.00026253724 -0.0014644965
0.20011646 -0.2936041 -0.57689637 0.046136484 -0.0006794892 0.0004927173 -0.0017820467 -0.0010672883
-0.45245388 -0.7160547 0.4771344 1.1946127 -0.6718926 0.3658128 -0.00019161326 -0.0010374164
0.08332351 -0.6255661 -0.0021852572 0.00014379337 0.00012626227 6.23864e-05 0.00042768975 0.00020505289
0.17872757 -0.06058067 0.8667455 -0.11365069 0.22917081 0.49357617 1.6465954 0.0005771809
0.0022570386 0.70688975 0.16413246 0.0012738551 -0.0006609812 0.0017541624 0.00016081474 3.0659743e-05
-1.6948634 0.00024416394 0.0016930823 -0.00069769105 -0.00062363484 -0.00043781556 0.00042396382 -0.00017783139
0.7004304 -0.00026472213 -0.00050093053 -0.0010234766 -0.00046756482 7.5957425e-05 0.0009846239 0.0007084001
0.17552164 0.31588757 -1.5561368 -0.0011548933 0.0007515716 -0.0005102296 0.00023502873 0.0006070747
0.8091936 -0.84808457 0.79108584 0.83641696 1.0609713 -0.0010905083 0.00075142644 0.00014172756
-0.35151953 0.8730289 -0.21607374 -0.12224481 -1.7828926 -0.6814326 0.00073726923 -0.0004031755

1.0.mdl.input_to_hidden.0.mask f4 [100, 8]
00000000: 0000 803f 0000 803f 0000 803f 0000 0000
00000010: 0000 0000 0000 0000 0000 0000 0000 0000
00000020: 0000 803f 0000 803f 0000 803f 0000 0000
00000030: 0000 0000 0000 0000 0000 0000 0000 0000
00000040: 0000 803f 0000 803f 0000 0000 0000 0000
00000050: 0000 0000 0000 0000 0000 0000 0000 0000
00000060: 0000 803f 0000 803f 0000 803f 0000 803f
00000070: 0000 803f 0000 803f 0000 803f 0000 0000
00000080: 0000 803f 0000 0000 0000 0000 0000 0000
00000090: 0000 0000 0000 0000 0000 0000 0000 0000
000000a0: 0000 803f 0000 803f 0000 0000 0000 0000
000000b0: 0000 0000 0000 0000 0000 0000 0000 0000
000000c0: 0000 803f 0000 803f 0000 803f 0000 803f
000000d0: 0000 803f 0000 803f 0000 803f 0000 0000
000000e0: 0000 803f 0000 803f 0000 0000 0000 0000
000000f0: 0000 0000 0000 0000 0000 0000 0000 0000
00000100: 0000 803f 0000 803f 0000 803f 0000 803f
00000110: 0000 803f 0000 803f 0000 803f 0000 0000
00000120: 0000 803f 0000 803f 0000 803f 0000 0000
00000130: 0000 0000 0000 0000 0000 0000 0000 0000
00000140: 0000 803f 0000 803f 0000 0000 0000 0000
00000150: 0000 0000 0000 0000 0000 0000 0000 0000
00000160: 0000 803f 0000 803f 0000 803f 0000 803f
00000170: 0000 803f 0000 0000 0000 0000 0000 0000
00000180: 0000 803f 0000 803f 0000 803f 0000 803f
00000190: 0000 803f 0000 803f 0000 0000 0000 0000
000001a0: 0000 803f 0000 803f 0000 803f 0000 803f
000001b0: 0000 803f 0000 0000 0000 0000 0000 0000
000001c0: 0000 803f 0000 803f 0000 803f 0000 803f
000001d0: 0000 803f 0000 803f 0000 0000 0000 0000
000001e0: 0000 803f 0000 803f 0000 803f 0000 803f
000001f0: 0000 803f 0000 803f 0000 0000 0000 0000
00000200: 0000 803f 0000 803f 0000 803f 0000 803f
00000210: 0000 803f 0000 803f 0000 803f 0000 0000
00000220: 0000 803f 0000 803f 0000 803f 0000 803f
00000230: 0000 803f 0000 803f 0000 0000 0000 0000
00000240: 0000 803f 0000 803f 0000 0000 0000 0000
00000250: 0000 0000 0000 0000 0000 0000 0000 0000
00000260: 0000 803f 0000 803f 0000 803f 0000 803f
00000270: 0000 803f 0000 803f 0000 803f 0000 0000
00000280: 0000 803f 0000 803f 0000 803f 0000 803f
00000290: 0000 803f 0000 0000 0000 0000 0000 0000
000002a0: 0000 803f 0000 803f 0000 0000 0000 0000
000002b0: 0000 0000 0000 0000 0000 0000 0000 0000
000002c0: 0000 803f 0000 803f 0000 803f 0000 803f
000002d0: 0000 0000 0000 0000 0000 0000 0000 0000
000002e0: 0000 803f 0000 803f 0000 803f 0000 803f
000002f0: 0000 803f 0000 803f 0000 0000 0000 0000
00000300: 0000 803f 0000 803f 0000 0000 0000 0000
00000310: 0000 0000 0000 0000 0000 0000 0000 0000
00000320: 0000 803f 0000 803f 0000 803f 0000 803f
00000330: 0000 803f 0000 803f 0000 803f 0000 0000
00000340: 0000 803f 0000 803f 0000 803f 0000 0000
00000350: 0000 0000 0000 0000 0000 0000 0000 0000
00000360: 0000 803f 0000 0000 0000 0000 0000 0000
00000370: 0000 0000 0000 0000 0000 0000 0000 0000
00000380: 0000 803f 0000 0000 0000 0000 0000 0000
00000390: 0000 0000 0000 0000 0000 0000 0000 0000
000003a0: 0000 803f 0000 803f 0000 803f 0000 0000
000003b0: 0000 0000 0000 0000 0000 0000 0000 0000
000003c0: 0000 803f 0000 803f 0000 803f 0000 803f
000003d0: 0000 803f 0000 0000 0000 0000 0000 0000
000003e0: 0000 803f 0000 803f 0000 803f 0000 803f
000003f0: 0000 803f 0000 803f 0000 0000 0000 0000
1.0 1.0 1.0 0.0 0.0 0.0 0.0 0.0
1.0 1.0 1.0 0.0 0.0 0.0 0.0 0.0
1.0 1.0 0.0 0.0 0.0 0.0 0.0 0.0
1.0 1.0 1.0 1.0 1.0 1.0 1.0 0.0
1.0 0.0 0.0 0.0 0.0 0.0 0.0 0.0
1.0 1.0 0.0 0.0 0.0 0.0 0.0 0.0
1.0 1.0 1.0 1.0 1.0 1.0 1.0 0.0
1.0 1.0 0.0 0.0 0.0 0.0 0.0 0.0
1.0 1.0 1.0 1.0 1.0 1.0 1.0 0.0
1.0 1.0 1.0 0.0 0.0 0.0 0.0 0.0
1.0 1.0 0.0 0.0 0.0 0.0 0.0 0.0
1.0 1.0 1.0 1.0 1.0 0.0 0.0 0.0
1.0 1.0 1.0 1.0 1.0 1.0 0.0 0.0
1.0 1.0 1.0 1.0 1.0 0.0 0.0 0.0
1.0 1.0 1.0 1.0 1.0 1.0 0.0 0.0
1.0 1.0 1.0 1.0 1.0 1.0 0.0 0.0
1.0 1.0 1.0 1.0 1.0 1.0 1.0 0.0
1.0 1.0 1.0 1.0 1.0 1.0 0.0 0.0
1.0 1.0 0.0 0.0 0.0 0.0 0.0 0.0
1.0 1.0 1.0 1.0 1.0 1.0 1.0 0.0
1.0 1.0 1.0 1.0 1.0 0.0 0.0 0.0
1.0 1.0 0.0 0.0 0.0 0.0 0.0 0.0
1.0 1.0 1.0 1.0 0.0 0.0 0.0 0.0
1.0 1.0 1.0 1.0 1.0 1.0 0.0 0.0
1.0 1.0 0.0 0.0 0.0 0.0 0.0 0.0
1.0 1.0 1.0 1.0 1.0 1.0 1.0 0.0
1.0 1.0 1.0 0.0 0.0 0.0 0.0 0.0
1.0 0.0 0.0 0.0 0.0 0.0 0.0 0.0
1.0 0.0 0.0 0.0 0.0 0.0 0.0 0.0
1.0 1.0 1.0 0.0 0.0 0.0 0.0 0.0
1.0 1.0 1.0 1.0 1.0 0.0 0.0 0.0
1.0 1.0 1.0 1.0 1.0 1.0 0.0 0.0

1.0.mdl.input_to_hidden.0.cscale.weight f4 [100, 1]
00000000: ff09 c6ba b80c 35b9 2001 933a 8a10 9dba
00000010: 7d09 c83a e047 9dba c249 06bb 7ec2 8e3a
00000020: 6ab5 18b9 dfb0 e23a 909d dd39 026c 7e3a
00000030: cc7a 7d39 3100 003a ee89 d03a 2901 23ba
00000040: d397 3db9 67e9 d6b9 26a8 eaba b547 08ba
00000050: 92bb b839 9516 333a 5195 2c3b 473d ec3a
00000060: 43f4 163a 24c4 d239 5d05 183a c9e1 473b
00000070: 3ad6 0f3a a373 6f3a 5d24 fb3a 6fd3 81b8
00000080: 597a dfb9 1f07 0eb9 c2ae d0ba 5b9b a8ba
00000090: c6b1 bc39 28ad 0ab9 1d7c edba 685e 2c3a
000000a0: 6659 d2b9 75dc 4e39 949a 35ba 90d4 463b
000000b0: 906e bbba 0ef7 f3b9 6709 ed39 b5ca b73a
000000c0: c023 8a3a 5921 713a 9e24 633a 3128 453a
000000d0: ba9f 20b8 f3a1 e9ba 2628 70b9 7a70 7d3a
000000e0: a8dd 233a 1ecf 893a 9444 f039 b2f8 613a
000000f0: 732f 0d3a 1930 b4ba d802 823a 80fa 60ba
00000100: d130 0dba e87b f739 d4e7 7d39 4882 b5ba
00000110: ca06 0eba 4251 22ba 76f1 55b9 9d9d f239
00000120: 9622 fbb7 2834 c13a cd99 2839 6895 01ba
00000130: 8496 603a 1007 2a3b e187 5fba c066 4639
00000140: 96bf 693a 2bda 8cba e0ff c3b9 bef6 4f3a
00000150: 5914 03ba e8cb 47ba c0c5 113a 1218 6839
00000160: 2d43 a8b9 c226 16bb 7f56 6e3a 6829 49b9
00000170: f10b 833a 9b60 bab9 aca0 c238 fc51 0739
00000180: bb3e 80b9 d272 ed3a 96f9 a938 f5c9 d639
-0.001510918 -0.00017266243 0.0011215545 -0.0011983078 0.0015261617 -0.001199957 -0.002049074 0.0010891703
-0.00014563432 0.0017295143 0.00042269798 0.00097054255 0.00024173706 0.0004882841 0.0015910247 -0.00062181294
-0.00018081004 -0.0004099116 -0.0017902895 -0.00051986735 0.00035234966 0.0006831673 0.0026334117 0.0018023633
0.0005758444 0.00040200457 0.0005799139 0.0030499569 0.00054869393 0.00091343577 0.0019160617 -6.190582e-05
-0.0004262503 -0.00013544828 -0.0015921223 -0.0012863682 0.00035990606 -0.00013225211 -0.0018118654 0.0006575347
-0.00040120928 0.00019727818 -0.0006927636 0.00303391 -0.0014299918 -0.00046532642 0.00045211168 0.0014022203
0.0010539219 0.00091983896 0.0008664819 0.00075209426 -3.829573e-05 -0.0017824754 -0.0002290314 0.00096679444
0.0006250986 0.0010513996 0.00045827462 0.00086201273 0.00053857936 -0.0013747244 0.000991906 -0.0008582249
-0.00053859974 0.0004720383 0.00024214323 -0.0013848031 -0.0005417882 -0.0006191918 -0.00020403214 0.00046275268
-2.9937637e-05 0.0014740275 0.00016079024 -0.0004943223 0.00085673505 0.002594415 -0.00085270224 0.00018921029
0.0008916793 -0.0010746171 -0.0003738394 0.0007933191 -0.00050002855 -0.0007621632 0.0005560778 0.00022134211
-0.00032093507 -0.0022911285 0.00090918684 -0.00019184279 0.0009998066 -0.0003554866 9.280568e-05 0.00012905145
-0.000244608 0.0018115884 8.105037e-05 0.0004096773

1.0.mdl.input_to_hidden.0.cscale.bias f4 [100]
00000000: 6d3f 0440 46c5 51bf 97db e0bf b594 8940
00000010: a2e5 1a40 a95a 04c0 fec8 8140 9cfa 883f
00000020: 5bcd 2dc0 d249 d53f 0562 c3bf 7fbe 1ac0
00000030: cc0d 9f3f 6b8a 0540 6a95 75c0 26d8 02c0
00000040: 24fc 2ac0 2437 0ec0 220b ac3f aee2 bb3f
00000050: f614 84bf 905b 81bf b3dd 5abf f069 b7bf
00000060: 63fb 4bbf 7d8f 89bf 8ce0 52bf c80b 2c40
00000070: 3deb 85bf 5c43 4040 916a 1f40 3933 1540
00000080: 88f5 3f3f 55ab 6ebf 44b2 1740 37a5 84bf
00000090: d88a 01c0 0228 b9bf 9128 2fc0 12ee d5bf
000000a0: 62e1 86bf 320e a33f 86d3 55bf e440 0dc0
000000b0: 2388 69bf 0033 ea3f 3040 fb3f d8b2 c73f
000000c0: a034 1640 7ad6 16c0 4f92 00c0 1f50 9b3f
000000d0: 86c8 0440 9062 d63e 8b8d 353f 8bf2 90bf
000000e0: 54d7 1e40 6d52 0140 1659 b83f 903c 3b3f
000000f0: 66d7 1dbf 22b0 babf f3d1 f73e a2f2 bc3f
00000100: 470d 923f d403 963f 4a7a 9d40 e7ea 19c0
00000110: b41f 8d3f d8bd be3f c9ec e2bf eed9 4ec0
00000120: f4de df3f 75a9 873f 818d 963f e1e3 4c40
00000130: 7d2f 233f f690 4bbf bc96 923f 8124 58bf
00000140: 64f1 f4bf 66f7 19bf 351a 1ac0 f088 343f
00000150: 5e31 c73f ec39 293f 3269 dcbf 8c2f b33f
00000160: 8727 e83f 8f2b 86bf 890d ecbe 1e39 923f
00000170: fa11 1f40 3125 a4bf 5c75 923e bbfe e9bf
00000180: c359 df3f 25b9 cf3f 931d f5be 20ac ab3f
2.0663712 -0.8194164 -1.7567014 4.2994027 2.4202657 -2.0680335 4.055785 1.070148
-2.715659 1.6663153 -1.5264288 -2.417877 1.2426085 2.0865734 -3.8372445 -2.0444427
-2.6716394 -2.2221155 1.3440897 1.4678552 -1.0318897 -1.0106068 -0.85494536 -1.4329205
-0.7968046 -1.0746914 -0.8237388 2.688219 -1.0462414 3.0041113 2.4908793 2.3312514
0.74984026 -0.9323018 2.3702555 -1.036292 -2.0240993 -1.4465334 -2.736851 -1.6713278
-1.0537531 1.2738707 -0.83525884 -2.2070856 -0.91223353 1.8296814 1.9628963 1.5601454
2.346962 -2.3568406 -2.00893 1.2133826 2.074739 0.41872072 0.709191 -1.1324018
2.4818926 2.0206559 1.4402187 0.73139286 -0.61656797 -1.4585001 0.48402366 1.4761546
1.1410302 1.1719918 4.921178 -2.4049623 1.10253 1.4901686 -1.7728511 -3.2320514
1.7489915 1.0598589 1.1761934 3.2014086 0.63744336 -0.7951807 1.145225 -0.844307
-1.9136167 -0.60143125 -2.4078496 0.7052145 1.5561941 0.66104007 -1.7219603 1.3998885
1.8137063 -1.0482043 -0.46104077 1.1423681 2.4854722 -1.282385 0.28605163 -1.8280863
1.7449268 1.6228377 -0.47874126 1.3411903

1.0.mdl.input_to_hidden.0.cbias.weight f4 [100, 1]
00000000: cc76 0739 654b c53a 4927 2939 75b1 903a
00000010: 5521 19b8 579a a5ba fa16 963a a44d f1b8
00000020: 6e28 01ba 5623 7d39 65e4 07ba 2faf 0eba
00000030: 6cca 19ba b24c a0ba 57b3 30ba ed5d 9aba
00000040: 0fe7 38ba 0685 433a 664b 3cba b7e1 083a
00000050: 1079 e33a 5f04 3c3a 3f08 2aba a97b c6ba
00000060: 3bd5 6a3a 1888 483a c76b beb9 83c1 3538
00000070: 43d7 4d39 1a0e 73ba 8248 29ba 5f32 8fba
00000080: d735 ce3a 6109 29ba d971 c1b9 c311 afb8
00000090: 78f9 033a 2e86 abba 6463 71ba 4e94 83ba
000000a0: 8ddb a9ba 39e9 14ba 331f 033a fb20 4f3a
000000b0: 6c60 403a 69e0 0fba 226e f1b8 9302 1a39
000000c0: d79c 56ba 07f3 c13a b0de 5d39 3f77 673a
000000d0: 06a9 6b39 68b1 03b9 00fd cdba c666 9a36
000000e0: 5bde 3a39 f931 a23a 44f8 8339 55f4 f239
000000f0: d035 a638 6068 8239 201a 05bb 9f1c 5f38
00000100: ea2d 0e3a c14d 37ba de2c c5ba 8f8b 7cba
00000110: c3f8 c439 8027 14bb 08ea ecb9 f5c3 043a
00000120: 4c6f f8b7 9a43 8a3a 792c 07ba 0c02 b53a
00000130: e48d 6339 8ede 0f3a cd1a e0ba 56af a6ba
00000140: 52fd 9cb9 4ebd 20ba a57f bcb9 04d3 c33a
00000150: cc18 78b9 ed12 82b8 ca67 67b8 625f 1139
00000160: 71fd d739 4d5f 0ebb e62f ba3a 7725 a6ba
00000170: 7a21 a536 34f0 d639 72b4 61ba 1e95 4f3a
00000180: 1b2e 02b9 a349 203a b16b 313a df77 86ba
0.00012918859 0.0015052377 0.00016131731 0.0011039214 -3.6509085e-05 -0.0012634498 0.0011450939 -0.00011506237
-0.0004926984 0.00024141124 -0.0005183875 -0.00054429745 -0.000586665 -0.0012229888 -0.0006740591 -0.001177726
-0.00070534734 0.00074584817 -0.0007182866 0.00052216224 0.0017354805 0.0007172282 -0.0006486214 -0.0015143055
0.00089581654 0.0007649674 -0.00036319924 4.3333985e-05 0.00019630515 -0.00092718157 -0.0006457643 -0.0010925046
0.0015732598 -0.0006448236 -0.00036896652 -8.347959e-05 0.0005034427 -0.0013086253 -0.0009208231 -0.0010038705
-0.0012959108 -0.0005680505 0.00050019025 0.0007901338 0.0007338587 -0.0005488457 -0.00011512289 0.00014687543
-0.0008186823 0.0014797159 0.0002115916 0.000882972 0.00022474313 -0.00012559223 -0.0015715659 4.601522e-06
0.00017821176 0.0012374512 0.0002517124 0.00046339878 7.92552e-05 0.00024873298 -0.0020309761 5.3194e-05
0.0005423712 -0.0006992482 -0.0015043279 -0.0009633833 0.00037569375 -0.0022606552 -0.00045187795 0.00050646
-2.961573e-05 0.0010548711 -0.0005156468 0.0013809814 0.00021701265 0.00054881803 -0.0017097831 -0.0012717049
-0.00029943377 -0.0006131724 -0.00035953257 0.0014940207 -0.0002366036 -6.202408e-05 -5.5171353e-05 0.0001386381
0.00041196824 -0.0021724284 0.0014204949 -0.001267596 4.9212804e-06 0.00040996226 -0.00086099573 0.00079186435
-0.00012414942 0.00061144884 0.00067680614 -0.0010259113

1.0.mdl.input_to_hidden.0.cbias.bias f4 [100]
00000000: 9b63 b53e cce7 943f 2a02 5a3f 252e 55be
00000010: 5304 0040 584f 19bf 1277 61bf dbb5 7e3f
00000020: 51d5 6dbf 4a8e bc3f 2bd2 443f 25ad 5fbf
00000030: f0c8 0440 e495 09c0 f1e4 0d3e b80c 8d3f
00000040: 61b7 b4be 413b e43e 3438 86bf 0901 a63f
00000050: 6bad 6b3f bc85 36bf 317f 3cbf 9ade 3d3f
00000060: b1da 67bf bf46 82bf b059 ad3f 22fb 823e
00000070: e112 6e3f be85 8dbf 80c2 aa3c 2b3e 8c3e
00000080: 868c 36bf 0d95 c63f 3aee efbf 6112 513f
00000090: c67f 903f 3ca9 953f ddcb 3dbf a186 673f
000000a0: c0da 5d3f ac49 8b3f 5ac3 5c3f 07e5 aebf
000000b0: 253e 883f 9234 913f d7d5 3abf 1796 833f
000000c0: 57c7 023f 8e8c 5e3f 6941 9e3f 284d 893f
000000d0: 5fdd 04c0 ae3a 11bf 5e9a 953f 8754 853f
000000e0: c999 023f ea03 1fc0 0d08 eabf db29 983f
000000f0: 3034 6c3f 641d 8fbf e1d9 0e3f 0447 243f
00000100: 7bd2 6ebf f556 a83f 58b0 febf 713a f0be
00000110: c987 98bf c75c a73f e91e 9f3f 87f7 a0be
00000120: 0389 9e3f 772a 7a3f 9600 b3bf 474f 2abf
00000130: 9040 473f 48fd 89bf 74a5 1abf 40ca 0bbf
00000140: 32a6 423f 5d4f 9cbe ae6f 1cbe f0d8 473f
00000150: b560 7a3f 66b5 863f fe57 be3f 60c6 e03f
00000160: 2409 17c0 fa82 86bf 46d4 f8be c61c 953f
00000170: af6d 613f afc1 983f c318 853f f827 9a3f
00000180: 1ef6 41bf 714b ba3f 6fc4 2dbf c49c 863f
0.35427555 1.1633239 0.8515955 -0.20818384 2.000264 -0.59886694 -0.8807231 0.9949624
-0.9290362 1.4730923 0.7688319 -0.8737357 2.0747643 -2.1497736 0.13856865 1.1019506
-0.35296157 0.44576457 -1.0485902 1.2969066 0.9206149 -0.7129781 -0.7363158 0.7416779
-0.9056807 -1.017784 1.3542995 0.25582224 0.92997557 -1.105644 0.020844698 0.2739118
-0.7130817 1.5514237 -1.8744576 0.8166867 1.1288993 1.1692271 -0.74139196 0.904398
0.8666191 1.0881858 0.8623558 -1.3663644 1.0643965 1.1344168 -0.72982544 1.0280179
0.5108542 0.8693322 1.2363712 1.0726671 -2.0760114 -0.56730163 1.1687734 1.0416421
0.5101591 -2.484614 -1.8283707 1.1887773 0.9226713 -1.1180844 0.55801207 0.6417086
-0.9328992 1.3151537 -1.9897566 -0.46919587 -1.1916438 1.3075188 1.2431308 -0.31438848
1.2385563 0.97721046 -1.3984554 -0.6652722 0.7783289 -1.078042 -0.6040871 -0.54605484
0.76034844 -0.305293 -0.15276977 0.78065395 0.97803813 1.0524108 1.4870603 1.7560539
-2.359933 -1.0508721 -0.48599452 1.1649406 0.8805799 1.1934108 1.0398182 1.2043447
-0.7576617 1.4554273 -0.6787786 1.0516591
