models/bkp/lhc_sp0.025_e400_s1993_p0.0_h100_faffine_fl5_l1_dsdim16_dsl1_last_model.pt (torch_old, 108273 bytes, 73 tensors)

0.0.mdl.input_to_hidden.0.direction f4 [100, 7]
0	0xbeed09ee	-0.46296638
1	0x3f03a066	0.51416624
2	0xb98e8fe3	-0.00027191555
3	0x3ae42733	0.0017406702
4	0xb70a9e44	-8.26229e-06
5	0x3992fd5e	0.00028036063
6	0x3ac8dc94	0.0015324526
7	0x3ea8a0eb	0.3293527
8	0xb9ddf6df	-0.00042336338
9	0x3a9ce260	0.001196932
10	0xba91e48f	-0.0011130738
11	0x3b069aba	0.0020539002
12	0x3a68121c	0.0008852796
13	0x39e6ae8e	0.00043999072
14	0xbf217f2b	-0.6308467
15	0x3e63a3e6	0.22230491
16	0xbe35c969	-0.17752613
17	0xbe5469c1	-0.20743467
18	0x3fa42864	1.2824826
19	0xbc9edd8e	-0.019392755
20	0x3880bacb	6.1383085e-05
21	0x3e44166d	0.1914918
22	0xbebf5f5e	-0.37377447
23	0xbf02ab04	-0.510422
24	0x3e045030	0.12921214
25	0x3f7da679	0.9908214
26	0x3e932c0c	0.28744543
27	0xb94d0b1e	-0.00019554465
28	0x3c84718c	0.016167425
29	0xbdef2a8a	-0.116780356
30	0xbdd32101	-0.10309029
31	0xbce8919b	-0.028389743
32	0x3fd7ec0f	1.6868914
33	0xbdabb6a5	-0.08384446
34	0x38804033	6.115474e-05
35	0x3de3c884	0.1112223
36	0x3f1d817f	0.6152572
37	0x3f07af16	0.53001535
38	0xbf6c58a3	-0.9232275
39	0x3d2d635f	0.042331096
40	0xbad0ccae	-0.001593014
41	0x39b88df7	0.00035200987
42	0x3e7d1def	0.2471845
43	0x3e9b2e95	0.30308977
44	0x3dd1dba0	0.10246968
45	0x3ef4f5d0	0.4784379
46	0x3ec5f93d	0.38666716
47	0x3e27f41e	0.16401717
48	0x3a9059af	0.0011013056
49	0x3f4c2d9b	0.7975709
50	0xbac48e2f	-0.0014995987
51	0x3b2bcac3	0.0026213385
52	0xb9d98d10	-0.00041494565
53	0xba00c140	-0.0004911609
54	0xb98619f0	-0.00025577797
55	0xbb03d68e	-0.0020116898
56	0x3ee147ac	0.43999994
57	0x3ea8805f	0.3291044
58	0xbaba8902	-0.0014231505
59	0x391afc7e	0.00014780645
60	0x39ff123e	0.00048650982
61	0xbaac81fc	-0.0013161297
62	0x3ab8c19f	0.001409579
63	0x3e4f22ad	0.20228072
64	0xbfb83c3c	-1.4393382
65	0xbecf86e0	-0.4053259
66	0x3d5e84bd	0.054325808
67	0xba95684e	-0.0011398883
68	0xba1c99e9	-0.0005973862
69	0xb9f06af3	-0.0004585605
70	0x3e189fd4	0.1490472
71	0x3c3ff830	0.011716887
72	0xbd58ddba	-0.05294583
73	0x3db02acd	0.086019136
74	0xbfbd4583	-1.4786838
75	0xbd619ca6	-0.055081032
76	0xb8f69bec	-0.00011759237
77	0xbe8377d0	-0.25677347
78	0xbf94438f	-1.1583117
79	0xb83d06e2	-4.506752e-05
80	0x399ae69a	0.0002954498
81	0x39e41800	0.0004350543
82	0x39c4a554	0.00037507212
83	0x3a10ee5d	0.0005528683
84	0xbeeb75d9	-0.45988348
85	0x3ee8e453	0.45486698
86	0xbf9c4d33	-1.2211059
87	0x3e14cbce	0.1453087
88	0xbcb00d57	-0.021490736
89	0xbaa152e1	-0.0012308025
90	0xb9c4d71b	-0.000375443
91	0x3e4d8fff	0.20074461
92	0xbef39bf1	-0.4757991
93	0xba32e505	-0.00068242877
94	0xba922c2c	-0.001115208
95	0x3a869609	0.0010268103
96	0x3999f542	0.00029365165
97	0xba573655	-0.0008209695
98	0x3e6a20cc	0.22864074
99	0x3f7d96e8	0.9905839
100	0xba9998f3	-0.0011718556
101	0xb99ad3b5	-0.00029530903
102	0xb9054b1c	-0.00012711849
103	0x3abb0d76	0.001427098
104	0x3950c553	0.00019909935
105	0xbd9eaa81	-0.07747365
106	0xbdf2a50c	-0.118478864
107	0xbf179bae	-0.59221923
108	0x3acf7a6f	0.0015829335
109	0xbaa35a11	-0.0012462755
110	0xba3bb4eb	-0.0007160443
111	0xbacfa9e3	-0.0015843477
112	0x3ddc83ef	0.10767352
113	0x3f0c0a5c	0.5470331
114	0xbe557e38	-0.2084893
115	0x3f90ec1d	1.1322056
116	0xb8d5a198	-0.00010186731
117	0x3821b49f	3.8553608e-05
118	0x3a836cb4	0.0010026903
119	0xbde7fa55	-0.11327044
120	0xbf375d66	-0.7162689
121	0x3cd440f5	0.02590988
122	0x3e8c2f79	0.2737997
123	0xbbde4451	-0.0067830463
124	0x3a5e87a5	0.00084888405
125	0xbb0bd875	-0.0021338735
126	0xbe3cf7ff	-0.18453978
127	0xbf8c0a1f	-1.0940589
128	0x3f485de0	0.7826824
129	0xb9e11a67	-0.00042935016
130	0x39d3deb1	0.00040410974
131	0x3a5f0946	0.0008508157
132	0x3a070b40	0.00051515177
133	0xbe9499e4	-0.2902366
134	0x3f93875a	1.1525681
135	0x3ec3555e	0.38151067
136	0x3e452a76	0.19254479
137	0x3abf85c5	0.001461201
138	0xbaf8479a	-0.0018942237
139	0xba09eb40	-0.000526119
140	0xbea9636d	-0.33083668
141	0x3f76219f	0.9614505
142	0x3f1aa54a	0.6040846
143	0x3a8a3db3	0.0010546952
144	0x3a9f6b15	0.001216265
145	0x37b7c6d4	2.1907887e-05
146	0x39ba5bbe	0.00035545038
147	0xbd46f1e7	-0.04857054
148	0x3e922ed3	0.2855135
149	0x3e9d7dd3	0.3076006
150	0xbfae99ac	-1.3640647
151	0x3d63f3b1	0.055652324
152	0x39c7bd86	0.00038097444
153	0xb90eb1c7	-0.00013608403
154	0x3e4d5cf8	0.20054996
155	0x401292b6	2.2902045
156	0xbe2f1134	-0.17096406
157	0x3a887d70	0.001041336
158	0x3ada2a82	0.0016644748
159	0xbaf13af8	-0.0018404415
160	0xb9a6285f	-0.00031692066
161	0x3d111266	0.035417937
162	0x3c2916a9	0.010320344
163	0x3f00ed40	0.50362015
164	0x3f888ba5	1.0667616
165	0x3a41a597	0.00073870405
166	0x39e84275	0.00044300003
167	0xba8de789	-0.0010826449
168	0xbea3e531	-0.32010797
169	0x3dadcf10	0.0848676
170	0x3e827eb6	0.25487298
171	0x3ab843ef	0.0014058332
172	0xb72d9d68	-1.03482525e-05
173	0x39d6ae46	0.00040947105
174	0xb8b67171	-8.6995664e-05
175	0xbd3066b8	-0.04306671
176	0x3e87f8ce	0.2655701
177	0xbf1c6e84	-0.61106133
178	0x3b4e6f14	0.0031499313
179	0xbacb6082	-0.0015516432
180	0xba3b344c	-0.0007141277
181	0xb927b5c8	-0.0001599408
182	0x3eb3d63b	0.35124382
183	0x3a436052	0.00074530125
184	0xba8dc9be	-0.001081757
185	0xb95569aa	-0.00020352626
186	0x3a6e8120	0.00090982206
187	0x3a921496	0.0011145051
188	0xba6e9aa2	-0.00091020216
189	0x3e31a41f	0.17347763
190	0x3efd8088	0.49512124
191	0xbecd9fc0	-0.40160942
192	0x3f00b33d	0.50273496
193	0x3d9ed44d	0.07755337
194	0xbab2f8e6	-0.00136545
195	0x39c9e15b	0.0003850561
196	0xbefc6c23	-0.49301252
197	0x3f2499f5	0.6429742
198	0x3ed46715	0.41484895
199	0x3a0db776	0.0005406061
200	0x39d6aaf8	0.00040944642
201	0xba5385bd	-0.000806894
202	0xb925c372	-0.00015808435
203	0x3e0a30d6	0.13495192
204	0x3f5f680d	0.87268144
205	0x380ad226	3.309748e-05
206	0xba15fa21	-0.0005721171
207	0x3adbf3b0	0.0016780999
208	0x3a52bc0a	0.0008038884
209	0x3ab870f8	0.0014071753
210	0x3ea67505	0.32511154
211	0x38570f6c	5.1274357e-05
212	0xbaf1d120	-0.0018449165
213	0x3ade8e76	0.0016979713
214	0xba99fc49	-0.001174816
215	0xb8312244	-4.2232e-05
216	0x3999bc4d	0.0002932273
217	0xbda3b500	-0.079935074
218	0x3e26dece	0.1629593
219	0x3ed8f2d7	0.42372772
220	0x3f6b611f	0.9194507
221	0x3f2cd3a1	0.6751042
222	0x3ee8f378	0.45498252
223	0xb9ce668e	-0.0003936779
224	0x3e3f4c2f	0.18681405
225	0xbe4cf592	-0.20015553
226	0x3c3f75d2	0.011685805
227	0xbea896c6	-0.3292753
228	0x391a83d8	0.000147357
229	0x3a022283	0.0004964249
230	0xb9f71cf1	-0.00047133074
231	0x3e159f33	0.14611511
232	0xbf118c0a	-0.5685431
233	0xba7c2309	-0.0009618258
234	0xba713b25	-0.00092022336
235	0xbb1f9ec9	-0.0024356118
236	0x3ac475ab	0.0014988681
237	0x3a8477e7	0.0010106534
238	0xbe28d395	-0.16486962
239	0xba68b592	-0.0008877154
240	0x3a83e253	0.0010061957
241	0x3a089851	0.0005210685
242	0x3a5a6442	0.00083309796
243	0xbac05e70	-0.0014676582
244	0x3832022a	4.2440523e-05
245	0x3ab67ca6	0.0013922646
246	0xbf0e196e	-0.5550755
247	0xb9b791db	-0.0003501315
248	0x3a9a35ab	0.0011765262
249	0xba8fff1a	-0.001098606
250	0xb95037d8	-0.00019857229
251	0x3a737108	0.00092865573
252	0xbed489e3	-0.4151145
253	0x3f1d0a89	0.613442
254	0x3f45abc4	0.7721522
255	0xbe8c0f15	-0.27355257

0.0.mdl.input_to_hidden.0.mask f4 [100, 7]
0	0x3f800000	1.0
1	0x3f800000	1.0
2	0x00000000	0.0
3	0x00000000	0.0
4	0x00000000	0.0
5	0x00000000	0.0
6	0x00000000	0.0
7	0x3f800000	1.0
8	0x00000000	0.0
9	0x00000000	0.0
10	0x00000000	0.0
11	0x00000000	0.0
12	0x00000000	0.0
13	0x00000000	0.0
14	0x3f800000	1.0
15	0x3f800000	1.0
16	0x3f800000	1.0
17	0x3f800000	1.0
18	0x3f800000	1.0
19	0x3f800000	1.0
20	0x00000000	0.0
21	0x3f800000	1.0
22	0x3f800000	1.0
23	0x3f800000	1.0
24	0x3f800000	1.0
25	0x3f800000	1.0
26	0x3f800000	1.0
27	0x00000000	0.0
28	0x3f800000	1.0
29	0x3f800000	1.0
30	0x3f800000	1.0
31	0x3f800000	1.0
32	0x3f800000	1.0
33	0x3f800000	1.0
34	0x00000000	0.0
35	0x3f800000	1.0
36	0x3f800000	1.0
37	0x3f800000	1.0
38	0x3f800000	1.0
39	0x3f800000	1.0
40	0x00000000	0.0
41	0x00000000	0.0
42	0x3f800000	1.0
43	0x3f800000	1.0
44	0x3f800000	1.0
45	0x3f800000	1.0
46	0x3f800000	1.0
47	0x3f800000	1.0
48	0x00000000	0.0
49	0x3f800000	1.0
50	0x00000000	0.0
51	0x00000000	0.0
52	0x00000000	0.0
53	0x00000000	0.0
54	0x00000000	0.0
55	0x00000000	0.0
56	0x3f800000	1.0
57	0x3f800000	1.0
58	0x00000000	0.0
59	0x00000000	0.0
60	0x00000000	0.0
61	0x00000000	0.0
62	0x00000000	0.0
63	0x3f800000	1.0
64	0x3f800000	1.0
65	0x3f800000	1.0
66	0x3f800000	1.0
67	0x00000000	0.0
68	0x00000000	0.0
69	0x00000000	0.0
70	0x3f800000	1.0
71	0x3f800000	1.0
72	0x3f800000	1.0
73	0x3f800000	1.0
74	0x3f800000	1.0
75	0x3f800000	1.0
76	0x00000000	0.0
77	0x3f800000	1.0
78	0x3f800000	1.0
79	0x00000000	0.0
80	0x00000000	0.0
81	0x00000000	0.0
82	0x00000000	0.0
83	0x00000000	0.0
84	0x3f800000	1.0
85	0x3f800000	1.0
86	0x3f800000	1.0
87	0x3f800000	1.0
88	0x3f800000	1.0
89	0x00000000	0.0
90	0x00000000	0.0
91	0x3f800000	1.0
92	0x3f800000	1.0
93	0x00000000	0.0
94	0x00000000	0.0
95	0x00000000	0.0
96	0x00000000	0.0
97	0x00000000	0.0
98	0x3f800000	1.0
99	0x3f800000	1.0
100	0x00000000	0.0
101	0x00000000	0.0
102	0x00000000	0.0
103	0x00000000	0.0
104	0x00000000	0.0
105	0x3f800000	1.0
106	0x3f800000	1.0
107	0x3f800000	1.0
108	0x00000000	0.0
109	0x00000000	0.0
110	0x00000000	0.0
111	0x00000000	0.0
112	0x3f800000	1.0
113	0x3f800000	1.0
114	0x3f800000	1.0
115	0x3f800000	1.0
116	0x00000000	0.0
117	0x00000000	0.0
118	0x00000000	0.0
119	0x3f800000	1.0
120	0x3f800000	1.0
121	0x3f800000	1.0
122	0x3f800000	1.0
123	0x3f800000	1.0
124	0x00000000	0.0
125	0x00000000	0.0
126	0x3f800000	1.0
127	0x3f800000	1.0
128	0x3f800000	1.0
129	0x00000000	0.0
130	0x00000000	0.0
131	0x00000000	0.0
132	0x00000000	0.0
133	0x3f800000	1.0
134	0x3f800000	1.0
135	0x3f800000	1.0
136	0x3f800000	1.0
137	0x00000000	0.0
138	0x00000000	0.0
139	0x00000000	0.0
140	0x3f800000	1.0
141	0x3f800000	1.0
142	0x3f800000	1.0
143	0x00000000	0.0
144	0x00000000	0.0
145	0x00000000	0.0
146	0x00000000	0.0
147	0x3f800000	1.0
148	0x3f800000	1.0
149	0x3f800000	1.0
150	0x3f800000	1.0
151	0x3f800000	1.0
152	0x00000000	0.0
153	0x00000000	0.0
154	0x3f800000	1.0
155	0x3f800000	1.0
156	0x3f800000	1.0
157	0x00000000	0.0
158	0x00000000	0.0
159	0x00000000	0.0
160	0x00000000	0.0
161	0x3f800000	1.0
162	0x3f800000	1.0
163	0x3f800000	1.0
164	0x3f800000	1.0
165	0x00000000	0.0
166	0x00000000	0.0
167	0x00000000	0.0
168	0x3f800000	1.0
169	0x3f800000	1.0
170	0x3f800000	1.0
171	0x00000000	0.0
172	0x00000000	0.0
173	0x00000000	0.0
174	0x00000000	0.0
175	0x3f800000	1.0
176	0x3f800000	1.0
177	0x3f800000	1.0
178	0x00000000	0.0
179	0x00000000	0.0
180	0x00000000	0.0
181	0x00000000	0.0
182	0x3f800000	1.0
183	0x00000000	0.0
184	0x00000000	0.0
185	0x00000000	0.0
186	0x00000000	0.0
187	0x00000000	0.0
188	0x00000000	0.0
189	0x3f800000	1.0
190	0x3f800000	1.0
191	0x3f800000	1.0
192	0x3f800000	1.0
193	0x3f800000	1.0
194	0x00000000	0.0
195	0x00000000	0.0
196	0x3f800000	1.0
197	0x3f800000	1.0
198	0x3f800000	1.0
199	0x00000000	0.0
200	0x00000000	0.0
201	0x00000000	0.0
202	0x00000000	0.0
203	0x3f800000	1.0
204	0x3f800000	1.0
205	0x00000000	0.0
206	0x00000000	0.0
207	0x00000000	0.0
208	0x00000000	0.0
209	0x00000000	0.0
210	0x3f800000	1.0
211	0x00000000	0.0
212	0x00000000	0.0
213	0x00000000	0.0
214	0x00000000	0.0
215	0x00000000	0.0
216	0x00000000	0.0
217	0x3f800000	1.0
218	0x3f800000	1.0
219	0x3f800000	1.0
220	0x3f800000	1.0
221	0x3f800000	1.0
222	0x3f800000	1.0
223	0x00000000	0.0
224	0x3f800000	1.0
225	0x3f800000	1.0
226	0x3f800000	1.0
227	0x3f800000	1.0
228	0x00000000	0.0
229	0x00000000	0.0
230	0x00000000	0.0
231	0x3f800000	1.0
232	0x3f800000	1.0
233	0x00000000	0.0
234	0x00000000	0.0
235	0x00000000	0.0
236	0x00000000	0.0
237	0x00000000	0.0
238	0x3f800000	1.0
239	0x00000000	0.0
240	0x00000000	0.0
241	0x00000000	0.0
242	0x00000000	0.0
243	0x00000000	0.0
244	0x00000000	0.0
245	0x3f800000	1.0
246	0x3f800000	1.0
247	0x00000000	0.0
248	0x00000000	0.0
249	0x00000000	0.0
250	0x00000000	0.0
251	0x00000000	0.0
252	0x3f800000	1.0
253	0x3f800000	1.0
254	0x3f800000	1.0
255	0x3f800000	1.0

0.0.mdl.input_to_hidden.0.cscale.weight f4 [100, 1]
0	0xbb2a0c5c	-0.0025947308
1	0x3b045652	0.0020193052
2	0x3a4d4a8a	0.00078312366
3	0xba357005	-0.0006921294
4	0x39f816bc	0.00047319185
5	0xba55ec8a	-0.0008160552
6	0x3b21053c	0.002456977
7	0x3aeacf21	0.0017914512
8	0x3aab5ec9	0.0013074513
9	0x3aca5418	0.0015436439
10	0x3931d519	0.0001695942
11	0xb9ae92af	-0.00033297154
12	0x3a5aac6b	0.00083417323
13	0xba05cd69	-0.0005104156
14	0x3ad94939	0.0016577608
15	0x3a7c99eb	0.00096359727
16	0x38c8543c	9.552433e-05
17	0x3b0f295e	0.0021844725
18	0x386646c9	5.4902197e-05
19	0xb9950e06	-0.00028429943
20	0xb8aaa6b8	-8.1372855e-05
21	0x3af35a70	0.0018566381
22	0xb9c450f7	-0.00037444357
23	0xb9bc465f	-0.00035910585
24	0xb9b83c3b	-0.0003514009
25	0xb9ef72f9	-0.00045671294
26	0xba04b32b	-0.00050620985
27	0x3a9ba930	0.0011875983
28	0x39b739c0	0.00034947507
29	0xbaa31ad4	-0.0012443908
30	0x3a30b61e	0.0006741005
31	0xb82772db	-3.992287e-05
32	0x3b239e1a	0.0024966062
33	0xba90d0ca	-0.0011048552
34	0xb77e71a9	-1.5166043e-05
35	0xba17753e	-0.00057776633
36	0x3aa2e222	0.0012427012
37	0xba23ae23	-0.0006243905
38	0x3b0ca060	0.0021457896
39	0xb814d9ba	-3.5488723e-05
40	0xba721601	-0.0009234846
41	0x38842ae5	6.30224e-05
42	0xba1227ef	-0.00055754086
43	0x3a28066b	0.0006409648
44	0xbab0ec15	-0.0013498092
45	0x3a15e31a	0.00057177397
46	0x3992e61e	0.0002801874
47	0x3aae001f	0.0013275183
48	0x38b5b554	8.6645276e-05
49	0x38e2e0f0	0.00010818418
50	0xba2fe15d	-0.0006709302
51	0xb9ebf496	-0.00045004924
52	0x3a08a692	0.0005212809
53	0x38bc3858	8.9750334e-05
54	0xbac79dcf	-0.0015229526
55	0xbacf30ee	-0.0015807429
56	0x38d31448	0.00010065042
57	0xbaa90b62	-0.0012897069
58	0xbaf36af8	-0.0018571308
59	0xbb18951a	-0.002328223
60	0xb7d6e2b0	-2.5616348e-05
61	0x3a9f4bfe	0.0012153385
62	0xba37b1c1	-0.00070073834
63	0x3a6e3289	0.000908651
64	0xb9c64e36	-0.00037823775
65	0x396ecb08	0.00022773084
66	0xba7a7eff	-0.0009555667
67	0xba004103	-0.00048925
68	0xb9c78308	-0.00038053864
69	0xba0ec51d	-0.0005446242
70	0x3a241eb6	0.000626068
71	0x3a698ebe	0.0008909515
72	0x3a2da6c5	0.0006624277
73	0x3a8488cb	0.0010111568
74	0x3abbb215	0.001432004
75	0xbabe0af0	-0.0014499109
76	0x3a25f9c0	0.0006331466
77	0x3a57aae9	0.0008227067
78	0x3a5a2a2c	0.0008322324
79	0x3abbf843	0.0014340956
80	0xba1f46de	-0.00060759287
81	0xba097d3e	-0.0005244798
82	0x39475b69	0.00019012172
83	0xba759b3b	-0.00093691394
84	0x39d40911	0.00040442546
85	0x39bf9f2a	0.00036548945
86	0xb9812e28	-0.00024639186
87	0x3aad19b1	0.0013206509
88	0x399c5be6	0.00029823108
89	0xb983fadb	-0.0002517317
90	0xb9584c09	-0.0002062769
91	0xbac792e1	-0.0015226268
92	0xba8b61a2	-0.0010633955
93	0xbabea7f4	-0.0014545904
94	0x38ee8e59	0.00011375239
95	0xbaaf5339	-0.0013376243
96	0xb9a0679a	-0.00030594767
97	0xb9ac949b	-0.00032917116
98	0x38acffa6	8.249217e-05
99	0xba899468	-0.0010496499

0.0.mdl.input_to_hidden.0.cscale.bias f4 [100]
0	0xbfa1d950	-1.2644444
1	0x3ece6211	0.40309194
2	0x3ffc4dcd	1.9711243
3	0xbff7f4e7	-1.9371613
4	0x401a371d	2.4096138
5	0x3fc090a4	1.5044141
6	0x3f326d28	0.6969781
7	0xbff073eb	-1.8785375
8	0xbfd18e77	-1.6371602
9	0x400d8a6e	2.211574
10	0x40039fbc	2.0566244
11	0xbfdf3cdb	-1.7440447
12	0x3f8e9091	1.1137868
13	0x3fb46bc4	1.4095387
14	0xbfcb10cc	-1.5864501
15	0xbf0b5fcd	-0.54443055
16	0xbfb526ed	-1.4152504
17	0xbfc987ae	-1.5744531
18	0xc00ccc7b	-2.1999805
19	0xbfc62994	-1.5481439
20	0xbfff9d3a	-1.9969857
21	0x3fc1e4a6	1.5147903
22	0xc0254fbd	-2.5829918
23	0xbfa25b77	-1.2684163
24	0xbf6ef01c	-0.9333513
25	0xbf5b859b	-0.8575074
26	0x3f2fff9d	0.6874941
27	0x3f5673a8	0.8377023
28	0xbfea4009	-1.8300792
29	0xbfd1bb30	-1.638525
30	0xbed51b2a	-0.41622287
31	0xc0078de1	-2.1180346
32	0xbec1634f	-0.3777108
33	0x3f298523	0.66218776
34	0x3f03b563	0.5144865
35	0xbf1ac7be	-0.6046103
36	0xbfcf2ce9	-1.618558
37	0x3f6dcfe6	0.9289535
38	0xc00f9ca7	-2.2439363
39	0xbf47c6a5	-0.7803748
40	0xbf27328b	-0.653115
41	0xc0297faa	-2.648417
42	0xbf94f51c	-1.1637301
43	0xbf42e4a1	-0.7613011
44	0xbfbfbd96	-1.4979732
45	0x3f1c2c8b	0.6100547
46	0x3f936b63	1.1517147
47	0xbf2eca7b	-0.6827771
48	0xbfbc7e06	-1.4725959
49	0x3f91ff5a	1.1406052
50	0xbf3fab42	-0.74870694
51	0x3fa1de85	1.2646033
52	0xbfe45fb9	-1.7841712
53	0xbfd72efa	-1.6811211
54	0xbfd0a0a9	-1.629903
55	0x3fdf4f7d	1.7446133
56	0xc008064b	-2.125384
57	0x3fb44131	1.4082395
58	0x3ffb9742	1.9655535
59	0xbf8e4fae	-1.1118066
60	0xbfe2b5ef	-1.7711772
61	0xbef7b8eb	-0.4838327
62	0x3f32a490	0.6978235
63	0xbffc2486	-1.9698646
64	0xbfbb3f45	-1.4628683
65	0x3fc07a49	1.5037318
66	0x3f37bb2e	0.7176999
67	0xbee3fada	-0.44527322
68	0x3fc63858	1.5485945
69	0x3fa5a2e2	1.2940333
70	0x4012cf43	2.2939003
71	0x3fb259d8	1.3933668
72	0x40235dc7	2.5525987
73	0x3ebe933b	0.37221703
74	0x4004843c	2.070571
75	0xc017d7d2	-2.3725476
76	0xbff22c23	-1.891972
77	0x3fcfeb9f	1.6243781
78	0xc02b30f1	-2.6748621
79	0xbfea6d4e	-1.8314607
80	0xbf675837	-0.9036898
81	0xc029c482	-2.652619
82	0x3f84f323	1.03867
83	0x4037080b	2.859866
84	0xbfb8e0d6	-1.4443614
85	0xbfcd80d4	-1.605494
86	0x4001a766	2.0258422
87	0xbf39594c	-0.7240188
88	0x3fb98e56	1.4496562
89	0x3f124092	0.57129776
90	0x3fb9bcf4	1.4510789
91	0xbfb95946	-1.4480369
92	0x4003c29c	2.058753
93	0x3fbc5ace	1.4715211
94	0x3fc2c24c	1.5215545
95	0xbf93c69f	-1.1544989
96	0x3f9d5d97	1.2294186
97	0x3fd08f27	1.6293687
98	0x3fed7aa9	1.8553058
99	0xc0137fde	-2.3046794

0.0.mdl.input_to_hidden.0.cbias.weight f4 [100, 1]
0	0xba18266c	-0.0005804065
1	0xba770a36	-0.0009423824
2	0xba855409	-0.0010172139
3	0xbaa403fb	-0.0012513393
4	0x3a3551cd	0.00069167913
5	0x3a88a0dc	0.0010423916
6	0x3b251130	0.0025187247
7	0xba66507c	-0.0008785797
8	0xb94401be	-0.00018692666
9	0xb97665d4	-0.00023498322
10	0xb9c6375c	-0.0003780675
11	0xbad40a9b	-0.0016177477
12	0x3ad9b220	0.0016608872
13	0x3a717797	0.00092112407
14	0x3b0ebad5	0.002177884
15	0xbab446d0	-0.0013754014
16	0xb9b6fefd	-0.00034903726
17	0x3a846495	0.0010100777
18	0x3985eee9	0.0002554574
19	0xba3183cc	-0.00067716534
20	0x3943e476	0.00018681758
21	0xba0148f5	-0.0004931831
22	0xba07415e	-0.0005159582
23	0x3ade67df	0.0016968212
24	0x3a648e86	0.00087187474
25	0x39388f99	0.00017601102
26	0xba5affd2	-0.000835416
27	0x39486b52	0.00019113466
28	0xba71513c	-0.0009205525
29	0x396386fc	0.00021698693
30	0xb9d1313f	-0.00039900278
31	0x39dc7520	0.00042048935
32	0xbad4a6f8	-0.0016224077
33	0x3a256198	0.0006308793
34	0xb8aeae5a	-8.329442e-05
35	0xba53e0fd	-0.0008082537
36	0xb962f820	-0.00021645473
37	0xba80a763	-0.000981551
38	0x3a25641c	0.0006309168
39	0x3a08e7d1	0.00052225316
40	0x3a4dc045	0.000784878
41	0xb93f4a9a	-0.0001824297
42	0xb9c5c61e	-0.00037722377
43	0x394ca4ff	0.00019516422
44	0xb9d03d64	-0.0003971859
45	0xbac289fa	-0.0014842146
46	0x3a863b76	0.0010241109
47	0x3a80da9b	0.0009830775
48	0xb8a846d7	-8.024059e-05
49	0x3aa7d593	0.0012804739
50	0x3a8a6a55	0.0010560254
51	0xbafd5037	-0.0019326274
52	0xbaa33da1	-0.001245428
53	0xba58ab94	-0.0008265313
54	0xb81e2846	-3.7707643e-05
55	0x3ad4ba66	0.0016229867
56	0xba53197d	-0.0008052809
57	0xb81d7343	-3.7539063e-05
58	0xb94f7341	-0.00019783994
59	0x3abc0cec	0.0014347113
60	0x382c70ca	4.111304e-05
61	0xb9e3db29	-0.000434601
62	0x394d0937	0.00019553756
63	0xba2f8a75	-0.0006696352
64	0x3a122708	0.0005575274
65	0x39ecb4f8	0.0004514826
66	0x3b065a47	0.0020500587
67	0x3ab9fc2d	0.0014189534
68	0xb986997e	-0.00025672832
69	0x3ab45859	0.001375924
70	0xb9659f54	-0.00021898496
71	0x3afcb2ad	0.0019279324
72	0xba4c1e1a	-0.0007786468
73	0x3a4b85b8	0.0007763761
74	0xb9c620c3	-0.00037789912
75	0x39141e06	0.00014125564
76	0x3a9b4988	0.0011847476
77	0xbacb80a3	-0.0015526008
78	0xba8cfcf0	-0.0010756534
79	0xb8bb82e0	-8.941232e-05
80	0x3aa5ad4d	0.0012640149
81	0xbab0fd6d	-0.0013503261
82	0xba8fa8d4	-0.0010960349
83	0x3ac681b8	0.001514486
84	0xb9bde370	-0.00036218343
85	0xbaa50335	-0.0012589457
86	0xbaa08eb7	-0.0012249564
87	0xba060877	-0.00051129557
88	0x3a629716	0.00086437294
89	0xba855a99	-0.0010174095
90	0x39dc91db	0.0004207034
91	0x3a056683	0.0005088823
92	0x3a5102ba	0.00079731236
93	0xb9bd39ec	-0.00036092044
94	0xb78f1a2a	-1.7059112e-05
95	0xb9d2225f	-0.0004007993
96	0xba306910	-0.0006729523
97	0xb9b6e95f	-0.0003488762
98	0xb9cfe14a	-0.0003964997
99	0x39a528be	0.00031501608

0.0.mdl.input_to_hidden.0.cbias.bias f4 [100]
0	0xbf84fa46	-1.0388877
1	0x3fd7568a	1.6823285
2	0xc0232c53	-2.5495803
3	0xbfdfb3ff	-1.7476805
4	0xbefa9a16	-0.48945683
5	0x3f83242e	1.0245416
6	0xbfdcedd1	-1.7260076
7	0x3f382e79	0.7194591
8	0x3bfeaa7c	0.007771788
9	0xbf322774	-0.6959145
10	0xc0136809	-2.3032248
11	0x3f95d70f	1.1706256
12	0xc01d661f	-2.459358
13	0xbfaf8d76	-1.3715045
14	0x3f12fd68	0.5741792
15	0xbf676d70	-0.90401363
16	0xc008f256	-2.139791
17	0x3f9f45d8	1.244319
18	0xbf34dc53	-0.7064869
19	0xbfbab283	-1.4585727
20	0xbfae0ef3	-1.3598312
21	0xbfb54db0	-1.4164333
22	0x3e67e2bc	0.22645086
23	0xbffd560f	-1.9791888
24	0xbe753198	-0.239447
25	0xbf89bbfd	-1.0760494
26	0x3fc333df	1.5250205
27	0x3fb58f9d	1.4184452
28	0xbf6ac0c5	-0.9170039
29	0x3f43d9e3	0.76504344
30	0xbf8f012e	-1.1172235
31	0xbde2eee3	-0.1108072
32	0x3fa45f6b	1.2841619
33	0xbfbf31e1	-1.4937097
34	0x3f9103dc	1.1329303
35	0x3fdf7f34	1.7460694
36	0xbfe5ff0f	-1.7968463
37	0xbfb15ab3	-1.3855804
38	0xbecafcdc	-0.3964604
39	0x3f41949e	0.75617397
40	0xbf734ca3	-0.95038813
41	0xc03e1db1	-2.9705622
42	0xbf8b174c	-1.0866485
43	0x3f8bed16	1.0931728
44	0x3f8375ec	1.0270362
45	0xbf4c3ae9	-0.7977739
46	0x3f7f41c0	0.997097
47	0x3faaf4ab	1.3355917
48	0x3febf74e	1.8434846
49	0x3f19b283	0.6003801
50	0x3fca228a	1.579179
51	0x3b2e3aeb	0.002658541
52	0x3f0da067	0.5532288
53	0x3f421a4e	0.7582139
54	0xbfdc006d	-1.718763
55	0x3f929106	1.1450508
56	0xbe604591	-0.21901537
57	0xc005af90	-2.0888405
58	0x3f8f9d28	1.1219835
59	0x3f90b707	1.1305856
60	0xc0132a11	-2.2994425
61	0x3f6fb925	0.93641883
62	0x3f8f1338	1.117774
63	0xbf715b15	-0.94279605
64	0xbfbd77cb	-1.4802183
65	0xbfa84b67	-1.3148011
66	0x3fdd0361	1.7266656
67	0xbfb389b9	-1.4026405
68	0x3fd39126	1.6528671
69	0xbfaa9f03	-1.3329777
70	0xbe90b4d1	-0.28262952
71	0x3fbe9b60	1.4891167
72	0x3f7d3a8b	0.98917454
73	0xbf0ab441	-0.54181296
74	0xc01df65f	-2.4681623
75	0x4010178c	2.2514372
76	0xbf3eecff	-0.7458038
77	0x3fa0f5f4	1.2575059
78	0xbf01ad7b	-0.50655335
79	0x3ef7f84e	0.4843163
80	0x3fe11b97	1.7586545
81	0x401229b6	2.2837958
82	0x3fbfef0c	1.4994826
83	0xbf9303fd	-1.1485592
84	0x3f94ab09	1.1614696
85	0x3fc5f540	1.5465469
86	0xbe7f9ad7	-0.2496141
87	0x3fb2d353	1.3970741
88	0xbfad081e	-1.3518102
89	0x3fd6d561	1.6783868
90	0x3e3e6556	0.18593344
91	0x3f5017c7	0.8128628
92	0xbe2279f2	-0.15866831
93	0xc040018a	-3.000094
94	0x3fbfcd14	1.498446
95	0xbf639672	-0.88901436
96	0xbfc7d785	-1.5612646
97	0x4015a8e2	2.3384328
98	0xc0387b51	-2.8825266
99	0xc038d10f	-2.88776

0.0.mdl.hidden_to_output.direction f4 [14, 100]
0	0x3b18882d	0.0023274526
1	0xba7c8191	-0.0009632344
2	0xba813ae7	-0.0009859473
3	0x39c86c4f	0.0003822767
4	0xba0d4cc4	-0.0005390162
5	0xbacb65a3	-0.0015517961
6	0xbac3c91d	-0.0014937256
7	0x39a84a89	0.0003209899
8	0x3a057e41	0.00050923607
9	0xba81e26e	-0.00099094
10	0x3b40c87e	0.0029416378
11	0xb9d8dcc7	-0.00041363222
12	0xba817921	-0.0009878018
13	0xba8dbacb	-0.0010813115
14	0x3a67e96e	0.00088467344
15	0xb929c866	-0.0001619175
16	0xb92916e2	-0.0001612562
17	0xba0e8db4	-0.00054379855
18	0xba8efef7	-0.0010909726
19	0x39926efe	0.00027929986
20	0xbaaeb87c	-0.0013330127
21	0xbaa1f369	-0.0012355867
22	0xba2f1ada	-0.00066797214
23	0x3a4a1f66	0.0007710367
24	0xbad0f835	-0.0015943112
25	0x3a5d4719	0.00084410753
26	0xb8794318	-5.9428712e-05
27	0xba8af3f9	-0.0010601274
28	0xb9b5549d	-0.00034586052
29	0xbaaebd28	-0.001333152
30	0x397657d2	0.00023493104
31	0xb872705b	-5.7801935e-05
32	0x399330af	0.00028074297
33	0xba876a10	-0.0010331292
34	0x3a701aa8	0.00091592455
35	0x37f5e63f	2.9313493e-05
36	0xb92e99b4	-0.00016651192
37	0x3a803244	0.0009780605
38	0xba9b53f3	-0.001185058
39	0x379024de	1.7183305e-05
40	0x3a26aa3d	0.0006357765
41	0xb94105f9	-0.0001840814
42	0xbaf3e1b4	-0.0018606693
43	0xb8dd2db1	-0.00010546612
44	0x3b2b730d	0.0026161105
45	0x39ccb99b	0.000390482
46	0x3ad6322f	0.001634186
47	0x39e05cef	0.0004279385
48	0xba82b3d0	-0.0009971801
49	0x39ec35bf	0.00045053472
50	0xb996b709	-0.000287466
51	0x37080346	8.106994e-06
52	0x39738f8e	0.00023227764
53	0x3a10fdd0	0.0005530985
54	0x3a3c8a78	0.00071922643
55	0xba0db8d5	-0.0005406265
56	0x3ab36023	0.0013685267
57	0xba340942	-0.00068678346
58	0xb98bcd5b	-0.00026665148
59	0x3967ee9b	0.00022118764
60	0x3ac7bb32	0.0015238284
61	0xba14d234	-0.00056770747
62	0x3a8f28cf	0.0010922196
63	0xba4a6d32	-0.000772196
64	0xba2bd099	-0.0006554216
65	0x3872e12a	5.7906997e-05
66	0xb9a7dca7	-0.0003201712
67	0x3b2f9bb6	0.0026795692
68	0x389cb7c5	7.4728894e-05
69	0x39eb1796	0.00044840266
70	0x3a441e38	0.00074813096
71	0xba97b5d8	-0.0011574579
72	0xb9611ac0	-0.00021467637
73	0xba9d3125	-0.0011992796
74	0xba80608e	-0.00097944
75	0xba98e523	-0.0011664968
76	0x392043a4	0.00015283987
77	0xb9563ce2	-0.00020431311
78	0xbab63d6c	-0.0013903803
79	0x3ab3e5f8	0.0013725152
80	0xba0548ab	-0.0005084376
81	0xbaabe91a	-0.0013115734
82	0xbabd5a06	-0.0014446385
83	0x39928a14	0.00027950166
84	0x3a063926	0.000512021
85	0xba93c07e	-0.0011272577
86	0x39b2381e	0.00033992616
87	0x3a5f4667	0.00085172657
88	0x3a366a62	0.00069586013
89	0x3ac95cb2	0.0015362708
90	0x3a812e3f	0.0009855701
91	0x38118511	3.469462e-05
92	0x3a047efd	0.0005054323
93	0xba069827	-0.0005134367
94	0x398ca43c	0.00026825245
95	0xb9872613	-0.00025777574
96	0xb9d61be5	-0.00040838044
97	0x3abc30fa	0.0014357858
98	0xba0a38e1	-0.0005272758
99	0x3a949b76	0.0011337835
100	0x3908b142	0.00013036004
101	0x3b1b1200	0.0023661852
102	0xb9f10534	-0.0004597098
103	0x3b1848a7	0.0023236664
104	0xb97fd7e5	-0.00024399122
105	0x3a887081	0.0010409505
106	0x3aae7832	0.0013310967
107	0x398b599f	0.0002657892
108	0xbab9b4cd	-0.0014168263
109	0x3a946f46	0.0011324666
110	0x39845090	0.00025237026
111	0x3ae31042	0.0017323571
112	0x3ae32588	0.0017329911
113	0xba99c1a3	-0.0011730682
114	0x3a483893	0.0007637825
115	0xba9680c4	-0.0011482467
116	0xba21605b	-0.00061560207
117	0x3a49bd46	0.00076957454
118	0x391d39ff	0.00014994292
119	0xbab42fb7	-0.001374713
120	0x39d88bde	0.0004130294
121	0xba77c91c	-0.000945227
122	0x39540f08	0.00020223495
123	0xb8e8fd23	-0.000111097725
124	0x398b51b9	0.00026573034
125	0xb8289809	-4.0195915e-05
126	0xba25b52f	-0.0006321249
127	0xba09180c	-0.00052297185
128	0x3b25261d	0.002519972
129	0xba0a8c99	-0.0005285233
130	0xb7648fff	-1.3623386e-05
131	0x391ef5b8	0.00015159592
132	0xbad31d70	-0.0016106796
133	0x3aa00537	0.0012208585
134	0xb9a8818c	-0.00032139977
135	0xba5b21d7	-0.00083592295
136	0x3a442560	0.0007482376
137	0xbaa760dc	-0.0012769955
138	0xba7f7e96	-0.0009746341
139	0xba89b0c3	-0.001050495
140	0xba009352	-0.0004904765
141	0x38511a02	4.9853705e-05
142	0xbaf2312e	-0.0018477791
143	0x3ac80a39	0.0015261836
144	0x3a51761b	0.00079903164
145	0x3aa77e34	0.00127787
146	0xbacca55f	-0.0015613249
147	0x3a376d41	0.0006997176
148	0x39b14875	0.00033814055
149	0x3af08013	0.0018348716
150	0xb8faba9e	-0.00011955689
151	0xbac200cd	-0.0014801264
152	0xbad745b1	-0.0016423968
153	0xb9d65261	-0.00040878638
154	0xbafe8fae	-0.0019421482
155	0x3ad5aa9d	0.0016301457
156	0x39f0eea9	0.00045954183
157	0x39decb6b	0.00042494698
158	0x3802c05c	3.1173564e-05
159	0xba30626b	-0.00067285326
160	0xb9a6bf48	-0.00031804503
161	0x39998f37	0.00029289137
162	0x3aaa3db3	0.0012988359
163	0xbae45d1a	-0.0017422766
164	0x3a879fc1	0.0010347293
165	0xba0c0f30	-0.0005342839
166	0xb9cc273a	-0.00038939138
167	0x3aa74686	0.0012762106
168	0xba179d87	-0.0005783666
169	0xba0f0938	-0.0005456391
170	0x3a0081aa	0.0004902134
171	0xba33b8dc	-0.00068558543
172	0xbac4cd52	-0.0015014804
173	0x3a2272bf	0.0006196908
174	0xba11b155	-0.00055577356
175	0x3954683e	0.00020256729
176	0xbaac9901	-0.0013168157
177	0xb9b7cc46	-0.00035056676
178	0x3a992452	0.0011683798
179	0x3a95e51a	0.0011436075
180	0xbb191e4d	-0.0023364008
181	0x3adad6ad	0.0016696058
182	0xba7602b4	-0.0009384558
183	0x3b006af7	0.0019595006
184	0xba413712	-0.0007370572
185	0x39517ee8	0.0001997907
186	0xb9ef977e	-0.00045698503
187	0xba27b4bf	-0.00063974777
188	0x39e98d45	0.00044546477
189	0x3a614b14	0.00085942564
190	0x3a8b8049	0.001064309
191	0xb98887e2	-0.00026041182
192	0xb9aad57a	-0.0003258398
193	0x39ffa36b	0.00048759146
194	0x3a814642	0.0009862857
195	0x3ab1db0d	0.001356931
196	0xb9868a31	-0.00025661432
197	0xb7b252ca	-2.1257805e-05
198	0xbb0812e7	-0.002076322
199	0x39905dfa	0.00027535838
200	0x000009c9	3.51e-42
201	0x3cdde97c	0.027088873
202	0x800008d1	-3.163e-42
203	0x000003b4	1.328e-42
204	0x000001a5	5.9e-43
205	0x800001da	-6.64e-43
206	0x80000359	-1.201e-42
207	0xbe1c0523	-0.15236335
208	0x00000290	9.19e-43
209	0x800003c5	-1.352e-42
210	0x800004c2	-1.707e-42
211	0x000003e3	1.394e-42
212	0x80000e87	-5.211e-42
213	0x800003d4	-1.373e-42
214	0x00000392	1.281e-42
215	0x00004521	2.4799e-41
216	0x80004645	-2.5208e-41
217	0x80000ef1	-5.36e-42
218	0x00000748	2.612e-42
219	0x80000574	-1.956e-42
220	0x80001fbc	-1.1384e-41
221	0x000004a9	1.672e-42
222	0x80000ae1	-3.903e-42
223	0x000000d4	2.97e-43
224	0x00000487	1.624e-42
225	0x80000a45	-3.684e-42
226	0x3d352a6c	0.04422991
227	0x80000d26	-4.717e-42
228	0x000018b7	8.866e-42
229	0x000004ad	1.677e-42
230	0xbd28fec8	-0.041258603
231	0x80000ea9	-5.259e-42
232	0x80000ae1	-3.903e-42
233	0x000003e5	1.397e-42
234	0x3c45ae76	0.0120655205
235	0x000001da	6.64e-43
236	0x80000bd5	-4.245e-42
237	0xbd6c9c22	-0.057766087
238	0x8000032d	-1.139e-42
239	0x00000306	1.085e-42
240	0x800000ee	-3.34e-43
241	0x800012b0	-6.704e-42
242	0x8000088c	-3.066e-42
243	0x0000027b	8.9e-43
244	0xbda74973	-0.08168306
245	0x80000312	-1.101e-42
246	0x80000a03	-3.592e-42
247	0x3d32a15c	0.043610916
248	0x800013aa	-7.054e-42
249	0x800001f5	-7.02e-43
250	0x3d37e2d0	0.04489404
251	0x8000082b	-2.93e-42
252	0x00000527	1.848e-42
253	0x80000528	-1.85e-42
254	0x0000007a	1.71e-43
255	0x8000087e	-3.046e-42

0.0.mdl.hidden_to_output.cscale.weight f4 [14, 1]
0	0xba7e665d	-0.00097045844
1	0x3a2bbe0c	0.00065514515
2	0xb891ec28	-6.958126e-05
3	0x3a6af184	0.000896238
4	0x3a4a2802	0.000771165
5	0xba370636	-0.00069818215
6	0xba42b942	-0.0007428118
7	0x3a199a4c	0.0005859479
8	0x3796e500	1.798803e-05
9	0xb9f5d738	-0.00046890392
10	0x3a2cc412	0.0006590496
11	0x3a2cad80	0.0006587133
12	0x39be5f6c	0.0003631072
13	0xba82c6fc	-0.0009977515

0.0.mdl.hidden_to_output.cscale.bias f4 [14]
0	0x00000000	0.0
1	0x00000000	0.0
2	0x3f84b5b1	1.0367948
3	0x3f2bd817	0.671266
4	0x3f8b8a14	1.0901513
5	0x3f197750	0.5994768
6	0xc000ac21	-2.010506
7	0x40306d4a	2.7566705
8	0x3eaebc9f	0.3412828
9	0x3f697de7	0.91207737
10	0xbfec490d	-1.8459793
11	0x3fe7ae48	1.8100061
12	0xc00cf911	-2.2027018
13	0x3f64937f	0.8928756

0.0.mdl.hidden_to_output.cbias.weight f4 [14, 1]
0	0x391cd490	0.00014956505
1	0xba1508da	-0.0005685218
2	0xb863ae70	-5.4283475e-05
3	0xba583a5d	-0.0008248443
4	0x3a1237be	0.0005577764
5	0xba66b8bd	-0.0008801332
6	0x3a53abac	0.00080745923
7	0xb8976e98	-7.220841e-05
8	0x395f4468	0.0002129242
9	0xb91b8e34	-0.00014834927
10	0xb80df4c0	-3.384496e-05
11	0xb92f4b0c	-0.00016717258
12	0x39847e84	0.00025271263
13	0xba611359	-0.0008585952

0.0.mdl.hidden_to_output.cbias.bias f4 [14]
0	0x3f6f06bf	0.9336967
1	0x40158395	2.3361561
2	0x3dd2ddb0	0.1029619
3	0x40182854	2.3774614
4	0xbe21f9c2	-0.15817931
5	0x400bbcba	2.183394
6	0xbdc5ee50	-0.09664595
7	0x400a28db	2.1587436
8	0xbdf04347	-0.11731582
9	0x400ce6df	2.2015913
10	0x3f313ee3	0.6923658
11	0x4007c62a	2.12147
12	0x3e928024	0.2861339
13	0x400bd448	2.1848316

1.0.mdl.input_to_hidden.0.direction f4 [100, 7]
0	0x3e1354e2	0.14387849
1	0x3a5b995a	0.0008377038
2	0x3acc273e	0.001557566
3	0x3a97d6af	0.0011584366
4	0x398f69ef	0.00027354012
5	0x378b1609	1.6580352e-05
6	0xbb0e9c6e	-0.002176072
7	0xbcb8d36f	-0.022561757
8	0x3d749c66	0.059719466
9	0x3ccf8d41	0.02533591
10	0x3cca156a	0.024668414
11	0xbe25c359	-0.161878
12	0x3f9bef33	1.2182373
13	0xba6abdfd	-0.0008954702
14	0xbd2c10f6	-0.042008363
15	0x3da398b9	0.07988114
16	0xbd6fde09	-0.05856136
17	0x3d98a212	0.074527875
18	0xbabb9f9a	-0.0014314533
19	0x3a9fbeb3	0.001218757
20	0x3a990e6c	0.0011677272
21	0xbc1a6be0	-0.0094251335
22	0xbe9224a0	-0.28543568
23	0xba86bf1d	-0.0010280345
24	0xba158ea9	-0.0005705157
25	0xbabebb6f	-0.0014551709
26	0xb966d158	-0.00022012496
27	0xbb0844f8	-0.0020793062
28	0x3e24813d	0.16064925
29	0xbe138926	-0.14407787
30	0xbc39e784	-0.0113467015
31	0xbd0d8d8c	-0.034558818
32	0x3eca1797	0.39471123
33	0xbf1e6cd4	-0.6188481
34	0xbaac2614	-0.0013133907
35	0x3e2b2216	0.16712222
36	0xbad0fbfb	-0.0015944237
37	0x38c90be2	9.58664e-05
38	0xba6d7816	-0.0009058727
39	0x3ace1b9a	0.0015724779
40	0x39958736	0.00028520235
41	0x3b07cf4f	0.002072293
42	0xbd75b472	-0.05998654
43	0x3ca654ed	0.020304168
44	0xbd9e46b7	-0.077283315
45	0xbe1818e2	-0.14853242
46	0x3efca401	0.49343875
47	0xbf4e9700	-0.8069916
48	0xb860693e	-5.3503776e-05
49	0xbdafd43b	-0.085854016
50	0x3e9e0084	0.30859768
51	0xbe4176c3	-0.1889296
52	0xbe835d50	-0.2565713
53	0xbb21f873	-0.0024714738
54	0xb973922f	-0.00023228744
55	0xba940a2a	-0.0011294533
56	0xbd3d4e0f	-0.04621702
57	0xbd9ab529	-0.07554085
58	0xbdbff21f	-0.09372353
59	0xbd413fcf	-0.047179993
60	0xba4c6542	-0.0007797071
61	0x39b30fe7	0.0003415339
62	0x39b389b7	0.00034244146
63	0xbc24161a	-0.010015035
64	0x3defd6cb	0.117108904
65	0xbda86d94	-0.08224025
66	0xbcae10fa	-0.02124833
67	0x3f470227	0.7773766
68	0x39bda4a4	0.00036171556
69	0x3b32163c	0.0027173897
70	0x3e88ab37	0.26693127
71	0xbe66b380	-0.22529411
72	0xba4d321b	-0.00078275957
73	0x3a8a26b1	0.0010540095
74	0x395dcb51	0.00021151944
75	0xbaaa219c	-0.0012979987
76	0xb93099c7	-0.00016841954
77	0xbcd8e8a6	-0.026478123
78	0x3d492439	0.04910681
79	0x3d526f89	0.0513759
80	0x3c98b88f	0.018642692
81	0x3f72aa86	0.9479145
82	0xba3c458b	-0.00071819936
83	0x392384f4	0.0001559442
84	0xbc962266	-0.01832695
85	0xbe5afd60	-0.21385717
86	0x395ef59c	0.00021263066
87	0x3e732aa7	0.2374674
88	0x36d82e7c	6.442713e-06
89	0xba20ed55	-0.0006138881
90	0x3a843d8b	0.0010089142
91	0x3d9c9126	0.07644872
92	0x3ccbad9b	0.024863055
93	0x3d2b010e	0.041749053
94	0xbd41df08	-0.04733184
95	0xbed2f2b7	-0.41200802
96	0x4010f479	2.2649214
97	0xba0b46cc	-0.0005312979
98	0xbf07db66	-0.5306915
99	0x3d3f470f	0.046698626
100	0xba920cb1	-0.0011142698
101	0xbac10abf	-0.0014727934
102	0x395176d5	0.00019976062
103	0xb93df5b1	-0.00018115972
104	0xba9f4cb7	-0.00121536
105	0x3ed658cf	0.4186463
106	0xb8dc5359	-0.00010505942
107	0x39ee49aa	0.00045449781
108	0xb849c269	-4.8103193e-05
109	0x3abc961e	0.0014388
110	0xba103862	-0.0005501566
111	0xb9d75021	-0.00041067696
112	0xb787eb84	-1.6202925e-05
113	0x3d3d83fe	0.046268456
114	0x3ce887b7	0.028385026
115	0x3d0193e3	0.031635176
116	0x3fcb2ca5	1.5873
117	0xbaab4793	-0.0013067595
118	0x39977472	0.00028887723
119	0xbd043207	-0.032274272
120	0x3f51296b	0.81703824
121	0xbd8640f6	-0.06555359
122	0x39eb44c3	0.00044873924
123	0x39d851fb	0.0004125981
124	0x373da2ff	1.1303228e-05
125	0x3a633fa2	0.0008668845
126	0xbb3ba141	-0.002863005
127	0xbd2a3d5f	-0.041562434
128	0x38d6165d	0.00010208481
129	0xba40e77d	-0.0007358713
130	0xba028c24	-0.0004979989
131	0x39afca50	0.00033529336
132	0x39c3bcc5	0.00037333943
133	0x3c10ebce	0.008845283
134	0xbe112641	-0.14174749
135	0x3d5a780c	0.053337142
136	0x3cf5dcc2	0.030012492
137	0xbfd3c98f	-1.6545886
138	0x38b2a8cf	8.5191445e-05
139	0xba3e9985	-0.0007270801
140	0xbdad574a	-0.08463915
141	0x3e28d49b	0.16487353
142	0xbdc95126	-0.09829931
143	0xbddda102	-0.108217254
144	0xbf3bd00f	-0.7336435
145	0x3adcfa88	0.0016859332
146	0x3a258b1f	0.0006314981
147	0x3e0e6070	0.13903975
148	0x39e404e7	0.000434912
149	0x3965e861	0.0002192571
150	0x39af5b2d	0.00033446532
151	0xba5570b4	-0.0008142099
152	0xba78e19b	-0.0009494067
153	0xba53bf86	-0.00080775504
154	0xbd37f978	-0.044915646
155	0x3d851ec8	0.06500012
156	0xbc2d05cd	-0.010560465
157	0xbcb9ac4b	-0.022665164
158	0xbe2d9472	-0.16951159
159	0x3f89f65a	1.0778306
160	0x3a4537bb	0.0007523258
161	0x3bb057de	0.0053815683
162	0x3e0ee537	0.13954626
163	0xbce02e23	-0.02736575
164	0x3f734b29	0.9503656
165	0x3aca8766	0.0015451729
166	0x3aa09a62	0.0012253041
167	0xba6dacfb	-0.00090666086
168	0xbbb96eeb	-0.0056589744
169	0xbe2c4041	-0.16821386
170	0x3e093dbe	0.13402459
171	0xb8d45ff8	-0.00010126823
172	0x3a7d2144	0.0009656141
173	0xba808731	-0.0009805915
174	0x390dbd98	0.00013517437
175	0xbd440e73	-0.047865342
176	0x3e516678	0.20449245
177	0xbdd9476b	-0.10609325
178	0xbdb3eec5	-0.08785776
179	0x3a0bac0a	0.0005328065
180	0xbabbcbd4	-0.0014327713
181	0xb9b0ff9c	-0.0003375978
182	0x3e54b9fe	0.20774075
183	0xba143c35	-0.00056547235
184	0xba9e9a9c	-0.001210052
185	0x3a31cabc	0.0006782224
186	0x3aa0bf9a	0.0012264133
187	0xb6b94218	-5.521124e-06
188	0x3a422dca	0.0007407336
189	0x3e96bf9d	0.29443064
190	0xbd25238d	-0.040317107
191	0x39e1bb70	0.00043054996
192	0xbaa480bf	-0.0012550576
193	0xb8eddcf3	-0.00011342196
194	0xbb1eade1	-0.0024212527
195	0xb9b5cf74	-0.00034677575
196	0x3dce655b	0.10077926
197	0xbde2ff24	-0.110838205
198	0x3de4ab5b	0.11165496
199	0xbcda688a	-0.026661176
200	0xb9290310	-0.00016118237
201	0xba84424e	-0.0010090561
202	0xba8b1fe2	-0.001061436
203	0xbc8d9047	-0.01728071
204	0xbf2e3ec6	-0.68064535
205	0xbbfd84f1	-0.007736795
206	0xbb06dd77	-0.002057878
207	0x3a81597b	0.0009868586
208	0x3a9908c1	0.0011675583
209	0xba853f32	-0.0010165928
210	0x3ce74387	0.028230442
211	0x3dac5b6f	0.08415877
212	0x3bd58fda	0.0065173926
213	0xbc9d1045	-0.019172797
214	0xbff00357	-1.8751019
215	0x3efa6934	0.4890839
216	0xba6db02a	-0.0009067083
217	0xbd7094c2	-0.058735617
218	0xbe084c7f	-0.13310431
219	0xbd156075	-0.03646894
220	0xbe373e42	-0.17894843
221	0xba0493f4	-0.0005057447
222	0x38f13e05	0.000115033276
223	0xbb079c38	-0.002069248
224	0x3dfba576	0.122874185
225	0x3e1ddcdc	0.15416282
226	0x3df28444	0.11841634
227	0x3e45b82e	0.1930854
228	0xba4c4585	-0.00077923416
229	0x39da2ec6	0.0004161505
230	0x3ae6ad17	0.0017599192
231	0x3d8c745c	0.06858131
232	0x3c41ec32	0.0118360985
233	0x3d3070bf	0.043076273
234	0xbdadbf5b	-0.08483764
235	0xbee9b753	-0.45647678
236	0x3f5b7b5e	0.8573512
237	0xba2db138	-0.0006625834
238	0x3beed8d5	0.007289032
239	0x3d5bffc6	0.05371072
240	0xbd6851dc	-0.056718692
241	0x3d55ceca	0.052199163
242	0x3f4efacb	0.8085143
243	0xb89e92a5	-7.561342e-05
244	0xba08f1ba	-0.00052240083
245	0x3c852a40	0.016255498
246	0xbdb306ad	-0.08741508
247	0xbc9ef88e	-0.01940563
248	0xba917463	-0.0011097308
249	0x3e5018f2	0.20322016
250	0xbf9b1f0a	-1.2118847
251	0x3a8805e0	0.0010377727
252	0xbd228b0f	-0.039683398
253	0x3cae6bf9	0.02129172
254	0xbcf48110	-0.029846698
255	0xbc305c74	-0.01076423

1.0.mdl.input_to_hidden.0.mask f4 [100, 7]
0	0x3f800000	1.0
1	0x00000000	0.0
2	0x00000000	0.0
3	0x00000000	0.0
4	0x00000000	0.0
5	0x00000000	0.0
6	0x00000000	0.0
7	0x3f800000	1.0
8	0x3f800000	1.0
9	0x3f800000	1.0
10	0x3f800000	1.0
11	0x3f800000	1.0
12	0x3f800000	1.0
13	0x00000000	0.0
14	0x3f800000	1.0
15	0x3f800000	1.0
16	0x3f800000	1.0
17	0x3f800000	1.0
18	0x00000000	0.0
19	0x00000000	0.0
20	0x00000000	0.0
21	0x3f800000	1.0
22	0x3f800000	1.0
23	0x00000000	0.0
24	0x00000000	0.0
25	0x00000000	0.0
26	0x00000000	0.0
27	0x00000000	0.0
28	0x3f800000	1.0
29	0x3f800000	1.0
30	0x3f800000	1.0
31	0x3f800000	1.0
32	0x3f800000	1.0
33	0x3f800000	1.0
34	0x00000000	0.0
35	0x3f800000	1.0
36	0x00000000	0.0
37	0x00000000	0.0
38	0x00000000	0.0
39	0x00000000	0.0
40	0x00000000	0.0
41	0x00000000	0.0
42	0x3f800000	1.0
43	0x3f800000	1.0
44	0x3f800000	1.0
45	0x3f800000	1.0
46	0x3f800000	1.0
47	0x3f800000	1.0
48	0x00000000	0.0
49	0x3f800000	1.0
50	0x3f800000	1.0
51	0x3f800000	1.0
52	0x3f800000	1.0
53	0x00000000	0.0
54	0x00000000	0.0
55	0x00000000	0.0
56	0x3f800000	1.0
57	0x3f800000	1.0
58	0x3f800000	1.0
59	0x3f800000	1.0
60	0x00000000	0.0
61	0x00000000	0.0
62	0x00000000	0.0
63	0x3f800000	1.0
64	0x3f800000	1.0
65	0x3f800000	1.0
66	0x3f800000	1.0
67	0x3f800000	1.0
68	0x00000000	0.0
69	0x00000000	0.0
70	0x3f800000	1.0
71	0x3f800000	1.0
72	0x00000000	0.0
73	0x00000000	0.0
74	0x00000000	0.0
75	0x00000000	0.0
76	0x00000000	0.0
77	0x3f800000	1.0
78	0x3f800000	1.0
79	0x3f800000	1.0
80	0x3f800000	1.0
81	0x3f800000	1.0
82	0x00000000	0.0
83	0x00000000	0.0
84	0x3f800000	1.0
85	0x3f800000	1.0
86	0x3f800000	1.0
87	0x3f800000	1.0
88	0x00000000	0.0
89	0x00000000	0.0
90	0x00000000	0.0
91	0x3f800000	1.0
92	0x3f800000	1.0
93	0x3f800000	1.0
94	0x3f800000	1.0
95	0x3f800000	1.0
96	0x3f800000	1.0
97	0x00000000	0.0
98	0x3f800000	1.0
99	0x3f800000	1.0
100	0x00000000	0.0
101	0x00000000	0.0
102	0x00000000	0.0
103	0x00000000	0.0
104	0x00000000	0.0
105	0x3f800000	1.0
106	0x00000000	0.0
107	0x00000000	0.0
108	0x00000000	0.0
109	0x00000000	0.0
110	0x00000000	0.0
111	0x00000000	0.0
112	0x3f800000	1.0
113	0x3f800000	1.0
114	0x3f800000	1.0
115	0x3f800000	1.0
116	0x3f800000	1.0
117	0x00000000	0.0
118	0x00000000	0.0
119	0x3f800000	1.0
120	0x3f800000	1.0
121	0x3f800000	1.0
122	0x00000000	0.0
123	0x00000000	0.0
124	0x00000000	0.0
125	0x00000000	0.0
126	0x3f800000	1.0
127	0x3f800000	1.0
128	0x00000000	0.0
129	0x00000000	0.0
130	0x00000000	0.0
131	0x00000000	0.0
132	0x00000000	0.0
133	0x3f800000	1.0
134	0x3f800000	1.0
135	0x3f800000	1.0
136	0x3f800000	1.0
137	0x3f800000	1.0
138	0x00000000	0.0
139	0x00000000	0.0
140	0x3f800000	1.0
141	0x3f800000	1.0
142	0x3f800000	1.0
143	0x3f800000	1.0
144	0x3f800000	1.0
145	0x00000000	0.0
146	0x00000000	0.0
147	0x3f800000	1.0
148	0x00000000	0.0
149	0x00000000	0.0
150	0x00000000	0.0
151	0x00000000	0.0
152	0x00000000	0.0
153	0x00000000	0.0
154	0x3f800000	1.0
155	0x3f800000	1.0
156	0x3f800000	1.0
157	0x3f800000	1.0
158	0x3f800000	1.0
159	0x3f800000	1.0
160	0x00000000	0.0
161	0x3f800000	1.0
162	0x3f800000	1.0
163	0x3f800000	1.0
164	0x3f800000	1.0
165	0x00000000	0.0
166	0x00000000	0.0
167	0x00000000	0.0
168	0x3f800000	1.0
169	0x3f800000	1.0
170	0x3f800000	1.0
171	0x00000000	0.0
172	0x00000000	0.0
173	0x00000000	0.0
174	0x00000000	0.0
175	0x3f800000	1.0
176	0x3f800000	1.0
177	0x3f800000	1.0
178	0x3f800000	1.0
179	0x00000000	0.0
180	0x00000000	0.0
181	0x00000000	0.0
182	0x3f800000	1.0
183	0x00000000	0.0
184	0x00000000	0.0
185	0x00000000	0.0
186	0x00000000	0.0
187	0x00000000	0.0
188	0x00000000	0.0
189	0x3f800000	1.0
190	0x3f800000	1.0
191	0x00000000	0.0
192	0x00000000	0.0
193	0x00000000	0.0
194	0x00000000	0.0
195	0x00000000	0.0
196	0x3f800000	1.0
197	0x3f800000	1.0
198	0x3f800000	1.0
199	0x3f800000	1.0
200	0x00000000	0.0
201	0x00000000	0.0
202	0x00000000	0.0
203	0x3f800000	1.0
204	0x3f800000	1.0
205	0x3f800000	1.0
206	0x00000000	0.0
207	0x00000000	0.0
208	0x00000000	0.0
209	0x00000000	0.0
210	0x3f800000	1.0
211	0x3f800000	1.0
212	0x3f800000	1.0
213	0x3f800000	1.0
214	0x3f800000	1.0
215	0x3f800000	1.0
216	0x00000000	0.0
217	0x3f800000	1.0
218	0x3f800000	1.0
219	0x3f800000	1.0
220	0x3f800000	1.0
221	0x00000000	0.0
222	0x00000000	0.0
223	0x00000000	0.0
224	0x3f800000	1.0
225	0x3f800000	1.0
226	0x3f800000	1.0
227	0x3f800000	1.0
228	0x00000000	0.0
229	0x00000000	0.0
230	0x00000000	0.0
231	0x3f800000	1.0
232	0x3f800000	1.0
233	0x3f800000	1.0
234	0x3f800000	1.0
235	0x3f800000	1.0
236	0x3f800000	1.0
237	0x00000000	0.0
238	0x3f800000	1.0
239	0x3f800000	1.0
240	0x3f800000	1.0
241	0x3f800000	1.0
242	0x3f800000	1.0
243	0x00000000	0.0
244	0x00000000	0.0
245	0x3f800000	1.0
246	0x3f800000	1.0
247	0x3f800000	1.0
248	0x3f800000	1.0
249	0x3f800000	1.0
250	0x3f800000	1.0
251	0x00000000	0.0
252	0x3f800000	1.0
253	0x3f800000	1.0
254	0x3f800000	1.0
255	0x3f800000	1.0

1.0.mdl.input_to_hidden.0.cscale.weight f4 [100, 1]
0	0xb8470195	-4.744677e-05
1	0x39f6e9ea	0.00047095056
2	0xbabf3600	-0.0014588237
3	0xb8e7da09	-0.000110555506
4	0xba4e99ac	-0.0007881175
5	0xbadae32b	-0.0016699781
6	0xba9574c8	-0.0011402601
7	0xb9fa8d72	-0.000477891
8	0xba0ec665	-0.0005446433
9	0x3aa0d470	0.0012270343
10	0xb89b1075	-7.394041e-05
11	0x3b1a9702	0.0023588543
12	0x3ac74bf3	0.001520513
13	0xbad0654f	-0.0015899333
14	0xbaa0b52f	-0.0012261028
15	0x3ab8363a	0.0014054247
16	0x3a6eab6d	0.0009104524
17	0x3a169352	0.00057439983
18	0x391ab12b	0.00014752585
19	0x3b13a984	0.002253146
20	0xbab072b3	-0.0013461917
21	0x3a351442	0.00069076207
22	0x38ec3636	0.000112634545
23	0xb829c279	-4.0473857e-05
24	0x3a2337b4	0.0006226257
25	0x3a55d5a9	0.0008157143
26	0x38a14cc7	7.691379e-05
27	0x38fb57ef	0.000119849916
28	0xb9a33dea	-0.00031135912
29	0x3981863a	0.00024704804
30	0xba31f45e	-0.00067884277
31	0x3a4abb11	0.00077335635
32	0x3aae035c	0.0013276148
33	0x39237a2a	0.00015590401
34	0xb93cbd7e	-0.00017999668
35	0x3ad6ca08	0.0016387114
36	0x39966a19	0.00028689278
37	0xba9af68e	-0.0011822747
38	0x39585218	0.00020629948
39	0xbafd8548	-0.0019342089
40	0xba65a1da	-0.00087597745
41	0x3a417673	0.0007380016
42	0xbacd1d06	-0.0015648908
43	0x3887d637	6.477202e-05
44	0xba43ad98	-0.0007464527
45	0xba307f06	-0.0006732795
46	0x3a680f70	0.0008852398
47	0xba11e19b	-0.0005564929
48	0xb8cd9dc7	-9.80455e-05
49	0xba1c4892	-0.00059617416
50	0xbab928e5	-0.0014126567
51	0x39eb4d68	0.00044880365
52	0xbadd4d40	-0.0016883984
53	0xba897731	-0.0010487792
54	0x3900a90a	0.00012270003
55	0xbb0573c9	-0.0020363203
56	0xba76fdcd	-0.00094219745
57	0xb9ca9bf3	-0.00038644634
58	0xb928af8e	-0.00016087128
59	0xba9c6a4a	-0.0011933532
60	0x3b11a7f5	0.0022225354
61	0xb9cd652a	-0.0003917602
62	0xba1254e0	-0.00055821054
63	0x38bb6f96	8.937639e-05
64	0xba03598c	-0.0005010597
65	0x3980c0b2	0.00024557632
66	0x38dd5e8b	0.00010555711
67	0x38fe8189	0.000121357916
68	0x39c178ea	0.00036901917
69	0x3a70791c	0.000917332
70	0x3a72eb91	0.00092666695
71	0x3abb03e0	0.0014268123
72	0xbb0d8ded	-0.0021599487
73	0x3a2abc8b	0.00065130804
74	0x3aa1ee70	0.0012354385
75	0xb90c3ba5	-0.0001337366
76	0x3aa81e02	0.0012826326
77	0xba15b724	-0.0005711189
78	0x3a3da3ff	0.0007234215
79	0xbaa0a487	-0.0012256064
80	0x39f095c7	0.0004588796
81	0x392b9f5c	0.00016367197
82	0xbb15d15c	-0.0022860384
83	0x3a290101	0.0006446988
84	0xb9c79d09	-0.00038073238
85	0xb9274916	-0.00015953588
86	0x3a39c870	0.00070870575
87	0x38ee493a	0.00011362364
88	0x38a876e2	8.033008e-05
89	0x39d7c6bb	0.0004115606
90	0xbb04688d	-0.0020203919
91	0x399f8aa9	0.00030430153
92	0xba670e92	-0.0008814122
93	0x3aa3d01a	0.0012497932
94	0x3a517928	0.0007990771
95	0xba4fdf3c	-0.0007929688
96	0x3ab1287c	0.0013516094
97	0x39b91386	0.00035300496
98	0xb98d49df	-0.00026948654
99	0x3950660f	0.00019874446

1.0.mdl.input_to_hidden.0.cscale.bias f4 [100]
0	0x3ece33f7	0.4027402
1	0xbfd8d1d0	-1.693903
2	0x3e537771	0.20651032
3	0x3fa43a39	1.2830268
4	0x3f6c1868	0.9222474
5	0x3f73c1d8	0.9521766
6	0x3f459026	0.7717308
7	0xbf882108	-1.063508
8	0xbf3bed8f	-0.7340936
9	0xbf531af4	-0.82463
10	0x3f6ffd7e	0.93746173
11	0xbf9c5595	-1.2213618
12	0x3fa85980	1.3152313
13	0x4083d4cc	4.119726
14	0x3fb1751e	1.3863866
15	0x3fbfe5bc	1.4991984
16	0xc015d8e8	-2.341364
17	0x3fe0251d	1.7511326
18	0xbe5de3ee	-0.2166898
19	0x4023a930	2.5572014
20	0xbf6ac29b	-0.91703194
21	0x3ef135ed	0.47111455
22	0xbfc4ae76	-1.5365741
23	0xbfe9c112	-1.8262045
24	0xbee30c97	-0.44345543
25	0x3f18fc00	0.5975952
26	0x3f7e3415	0.9929822
27	0x3f8c7101	1.0971986
28	0x3f4301bb	0.76174515
29	0x3fa9ae9c	1.3256412
30	0x402ddbf1	2.7165492
31	0xbf16aecc	-0.5886047
32	0x3fa4dc9d	1.2879826
33	0xbfdc594f	-1.7214755
34	0x3f8dba42	1.1072466
35	0x3fe21027	1.7661179
36	0xc008fbad	-2.140361
37	0x3ebbe680	0.36699295
38	0xbf2b72ae	-0.6697186
39	0x4012a042	2.2910314
40	0xbf72262a	-0.94589484
41	0xbe11ce62	-0.14238885
42	0xbf48afcb	-0.7839324
43	0x3fa6dd2c	1.3036246
44	0xbfcf2c2d	-1.6185356
45	0x3f370993	0.71498984
46	0xbf3ddd33	-0.7416565
47	0xbe10556c	-0.14095086
48	0x3fd5bac4	1.6697621
49	0x3fa02434	1.2511048
50	0x3edfa502	0.43680578
51	0x3f9296ab	1.145223
52	0x3f6e3ca6	0.9306129
53	0x3ef743dc	0.4829396
54	0x3f4d1cce	0.8012208
55	0x3ee24a83	0.44197473
56	0x3f80f38e	1.0074327
57	0x3f1e65c1	0.61874014
58	0xbfbbb7eb	-1.4665502
59	0xbf9e8d3a	-1.2386849
60	0xbfbafc58	-1.4608259
61	0xbf0580bd	-0.52149564
62	0xbea9b45c	-0.33145416
63	0xbf547cc5	-0.83002883
64	0xbf3511c3	-0.7073023
65	0xbf5d89c4	-0.8653834
66	0x3fbfac2c	1.4974418
67	0x3f43646e	0.7632512
68	0xbeb7ab7d	-0.35873023
69	0xbf1f90be	-0.62330234
70	0x3f1b5ffc	0.60693336
71	0xbf7f3f1b	-0.99705666
72	0x3f35f1aa	0.71071875
73	0x3ee364cd	0.44412842
74	0xbfa02919	-1.2512542
75	0x3f49bc10	0.78802586
76	0x3f295450	0.66144276
77	0x3e9845b8	0.2974069
78	0xbf63287f	-0.8873367
79	0x3f38fa75	0.7225717
80	0xbf85fb74	-1.0467362
81	0x3fab230e	1.3370073
82	0x3f11076d	0.56651956
83	0xbfacf76e	-1.351301
84	0x3fba674b	1.4562773
85	0x3f8a156c	1.0787787
86	0x3ff671aa	1.9253438
87	0x3eb98998	0.36237788
88	0x3f738a94	0.9513333
89	0xbf93fa64	-1.1560788
90	0xbf5add0a	-0.8549353
91	0x3e44a38f	0.19203018
92	0xbf834c81	-1.0257722
93	0x3f26debc	0.65183616
94	0x3f35d696	0.7103056
95	0xbfcfbfe2	-1.6230433
96	0x3fc4b138	1.5366583
97	0x3ee69bae	0.4504065
98	0x3ee4369e	0.4457292
99	0xbf81b76c	-1.0134101
