models/bkp/lhc_sp0.001_e400_s1993_p0.0_h100_faffine_fl5_l1_dsdim16_dsl1_last_model.pt (torch_old, 108273 bytes, 73 tensors)

0.0.mdl.input_to_hidden.0.direction f4 [100, 7]
00000000: bdb2 dcbd 938a 1ebe 19b5 5b3e 3327 e43a
00000010: 449e 0ab7 5efd 9239 94dc c83a e52a 4d3e
00000020: 6f65 52be c58b 7abe 4385 b53d ba9a 063b
00000030: 1c12 683a 8eae e639 0e51 c4be fd2e f03e
00000040: 361d 20be 14d1 8d3e e324 803c 0063 0f3b
00000050: cbba 8038 08ca 743e a35b ce3e 9825 18ba
00000060: d16f ea39 0ba7 183a c795 213b 1e0b 4db9
00000070: af7f 3bbd 6127 013f 9b77 01bf 8e8a 903e
00000080: a88b 28bc 4783 dfb9 3340 8038 ebb8 ee3d
00000090: 7dbd b0be 32d6 973d c6fd 05bc 9840 c738
000000a0: aecc d0ba f78d b839 8fed 18be 0145 b43c
000000b0: 7b3b a2bd c01b dabd 7df4 363a 6388 14ba
000000c0: af59 903a 7d41 91be 0dbd fd3d b47f 7e3d
000000d0: 15ef 8f3f 40c1 00ba f019 86b9 8ed6 03bb
000000e0: 021c 3bbf 5cff fd3e 0bbe a93f 7efc 1a39
000000f0: 3e12 ff39 fc81 acba 9fc1 b83a 35de a93e
00000100: 81a6 f1bf 8fef debd 09af 8fbd 2d3d c23a
00000110: e999 1cba f36a f0b9 1e1a b4be 32b9 36bf
00000120: 45a7 1cba f499 153a b7d9 5139 f961 b738
00000130: ec9b f6b8 2076 01be a97c 54be a730 573e
00000140: 9ae6 9a39 0018 e439 54a5 c439 5dee 103a
00000150: f93a 0b3e 50e5 ae3e 1939 86be ea9b e2ba
00000160: 35f4 2db9 e152 a1ba 1bd7 c4b9 0aaf cf3e
00000170: 22f5 d83b 58e5 85b9 684c 8ebf 0996 863a
00000180: 42f5 9939 5536 57ba 0553 a4bd 65a5 18bd
00000190: ef93 893e f56e b6bd 19fb 293f f091 f7bd
000001a0: 53c5 5039 12c1 dcbc 596a 073f eea4 35ba
000001b0: 6f7a cf3a 115a a3ba ebb4 3bba e3a9 cfba
000001c0: 9a30 22be 41d2 46be b017 473e 50a5 0bba
000001d0: 98a1 d5b8 9fb4 2138 b46c 833a 5d22 1c3e
000001e0: 0b8a 183a 718d 103b ed29 aab9 e50f 9f3a
000001f0: a587 5e3a 75d8 0bbb 9fce 3f3f bfdf 783e
00000200: 0d01 02be ca02 d23d 3bcd adbf 637c e53d
00000210: 400b 073a 5ffb e6be b73f 4d3e de4a 133c
00000220: f257 0d3e 4789 e03e 3da4 e5bd 40eb 09ba
00000230: 26ee fc3c 37e2 613e 46c2 883e b33d 8a3a
00000240: 156b 9f3a d4c6 b737 be5b ba39 6f4e 64be
00000250: 587a 83be 54c8 5abe 756f 23be 4dae fcb8
00000260: 86bd c739 c7b1 0eb9 2219 8cbe c95e a4bf
00000270: ad51 4a3a 707d 883a 822a da3a f83a f1ba
00000280: 5f28 a6b9 b75d ae3d 8cf9 c83d 79b7 a339
00000290: 79c0 04b9 97a5 413a 7542 e839 89e7 8dba
000002a0: 9d09 1abd c893 c63e 53e4 8aba ef43 b83a
000002b0: 689d 2db7 46ae d639 7171 b6b8 d638 c0be
000002c0: 082c 573f 6fb5 2cb9 146f 4e3b 8260 cbba
000002d0: 4c34 3bba c8b5 27b9 71e2 073f 5260 433a
000002e0: bec9 8dba aa69 55b9 2081 6e3a 9614 923a
000002f0: a29a 6eba b56e 783e a06d 6b3d d970 603e
00000300: 508e 293d df82 92be 5fe6 dbbc 5be1 c939
00000310: c5fe dbbe 98b9 7e3f f665 093d 70bc 473d
00000320: f8aa d639 bd85 53ba 72c3 25b9 d51f d73e
00000330: 8a3b 2abf 26d2 0a38 21fa 15ba b0f3 db3a
00000340: 0abc 523a f870 b83a 90a7 02bd a615 e93f
00000350: dcaf 1e3f 5834 253c e2d5 aa39 4422 31b8
00000360: 4dbc 9939 12c8 64bd 1c07 9f3d 4d08 653e
00000370: 5450 1bba 5ff5 e5b9 c3f8 42ba 8e66 ceb9
00000380: 412e 27be 13be 2a3f 5857 21bd b3c7 653a
00000390: d883 1a39 8322 023a f11c f7b9 37d9 473f
000003a0: 75dc aa3c bc51 d2bf be65 d53d de8f 4a3b
000003b0: ab75 c43a e777 843a 3f94 91be 0534 d03d
000003c0: 4acd d4be 5198 083a 4264 5a3a 705e c0ba
000003d0: 2a02 3238 bfbe 07bf 5d60 703e c03e babd
000003e0: 015e d5be d2d3 1e3e d837 50b9 0871 733a
000003f0: 6e2d 253f 08dd 423f 2366 2d3d 6bfd 57bb
-0.10776279 -0.1548255 0.21455802 0.0017406702 -8.26229e-06 0.00028036063 0.0015324526 0.20035894
-0.20546506 -0.2446738 0.08863308 0.0020539002 0.0008852796 0.00043999072 -0.3834309 0.4691085
-0.15636143 0.27698576 0.015642589 0.0021879077 6.1383085e-05 0.23905194 0.40304288 -0.0005803942
0.00044715268 0.0005823231 0.0024655925 -0.00019554465 -0.045776065 0.5045071 -0.5057313 0.2823071
-0.010287203 -0.00042631684 6.115474e-05 0.11656364 -0.34519568 0.074139014 -0.00817818 9.501091e-05
-0.001593014 0.00035200987 -0.14934371 0.02200556 -0.07921501 -0.10649824 0.00069791806 -0.0005666075
0.0011013056 -0.28370276 0.12389574 0.062133506 1.1244837 -0.0004911609 -0.00025577797 -0.0020116898
-0.7308961 0.49608886 1.3261122 0.00014780645 0.00048650982 -0.0013161297 0.001409579 0.33177343
-1.8878938 -0.10885536 -0.07015807 0.0014819257 -0.0005973862 -0.0004585605 -0.35176176 -0.71376336
-0.0005975853 0.000570684 0.00020012898 8.744369e-05 -0.00011759237 -0.12642717 -0.20750679 0.21014653
0.0002954498 0.0004350543 0.00037507212 0.0005528683 0.13596715 0.34159327 -0.26215437 -0.0017288898
-0.0001658954 -0.0012308025 -0.000375443 0.40563232 0.006621019 -0.0002553861 -1.1117067 0.0010268103
0.00029365165 -0.0008209695 -0.08023647 -0.037267108 0.26870677 -0.08907882 0.6639877 -0.12088382
0.00019909935 -0.026947532 0.5289665 -0.00069291785 0.0015829335 -0.0012462755 -0.0007160443 -0.0015843477
-0.15838853 -0.19416143 0.1944263 -0.00053270627 -0.00010186731 3.8553608e-05 0.0010026903 0.15247484
0.000581891 0.0022056962 -0.00032456164 0.0012135474 0.00084888405 -0.0021338735 0.74924654 0.24304102
-0.12695713 0.10254438 -1.3578256 0.112053655 0.00051515177 -0.45113656 0.20043837 0.008990018
0.1380308 0.43854734 -0.112129666 -0.000526119 0.030875277 0.2205895 0.2671072 0.0010546952
0.001216265 2.1907887e-05 0.00035545038 -0.22295545 -0.25679278 -0.21365482 -0.15960486 -0.000120487624
0.00038097444 -0.00013608403 -0.27362925 -1.2841426 0.0007717859 0.001041336 0.0016644748 -0.0018404415
-0.00031692066 0.085139684 0.09813222 0.0003122648 -0.00012660203 0.00073870405 0.00044300003 -0.0010826449
-0.037606824 0.38784623 -0.001059661 0.0014058332 -1.03482525e-05 0.00040947105 -8.6995664e-05 -0.37543362
0.8405156 -0.00016470788 0.0031499313 -0.0015516432 -0.0007141277 -0.0001599408 0.530799 0.00074530125
-0.001081757 -0.00020352626 0.00090982206 0.0011145051 -0.00091020216 0.24260981 0.057477593 0.21918048
0.041395485 -0.28615472 -0.026843248 0.0003850561 -0.4296781 0.99501944 0.033544503 0.048763692
0.00040944642 -0.000806894 -0.00015808435 0.42016473 -0.664971 3.309748e-05 -0.0005721171 0.0016780999
0.0008038884 0.0014071753 -0.03189808 1.8209732 0.6198709 0.0100832805 0.00032584282 -4.2232e-05
0.0002932273 -0.055854864 0.07765028 0.22366448 -0.00059247506 -0.000438611 -0.0007437581 -0.0003936779
-0.16326238 0.6669628 -0.039389938 0.0008765414 0.000147357 0.0004964249 -0.00047133074 0.7806582
0.020857075 -1.6431193 0.104197964 0.0030908505 0.0014988681 0.0010106534 -0.28433415 0.10166172
-0.41562873 0.0005210685 0.00083309796 -0.0014676582 4.2440523e-05 -0.5302543 0.2347426 -0.09094
-0.41673282 0.1551049 -0.00019857229 0.00092865573 0.64522445 0.76118517 0.042333733 -0.0032957445

0.0.mdl.input_to_hidden.0.mask f4 [100, 7]
00000000: 0000 803f 0000 803f 0000 803f 0000 0000
00000010: 0000 0000 0000 0000 0000 0000 0000 803f
00000020: 0000 803f 0000 803f 0000 803f 0000 0000
00000030: 0000 0000 0000 0000 0000 803f 0000 803f
00000040: 0000 803f 0000 803f 0000 803f 0000 0000
00000050: 0000 0000 0000 803f 0000 803f 0000 0000
00000060: 0000 0000 0000 0000 0000 0000 0000 0000
00000070: 0000 803f 0000 803f 0000 803f 0000 803f
00000080: 0000 803f 0000 0000 0000 0000 0000 803f
00000090: 0000 803f 0000 803f 0000 803f 0000 0000
000000a0: 0000 0000 0000 0000 0000 803f 0000 803f
000000b0: 0000 803f 0000 803f 0000 0000 0000 0000
000000c0: 0000 0000 0000 803f 0000 803f 0000 803f
000000d0: 0000 803f 0000 0000 0000 0000 0000 0000
000000e0: 0000 803f 0000 803f 0000 803f 0000 0000
000000f0: 0000 0000 0000 0000 0000 0000 0000 803f
00000100: 0000 803f 0000 803f 0000 803f 0000 803f
00000110: 0000 0000 0000 0000 0000 803f 0000 803f
00000120: 0000 0000 0000 0000 0000 0000 0000 0000
00000130: 0000 0000 0000 803f 0000 803f 0000 803f
00000140: 0000 0000 0000 0000 0000 0000 0000 0000
00000150: 0000 803f 0000 803f 0000 803f 0000 0000
00000160: 0000 0000 0000 0000 0000 0000 0000 803f
00000170: 0000 803f 0000 803f 0000 803f 0000 0000
00000180: 0000 0000 0000 0000 0000 803f 0000 803f
00000190: 0000 803f 0000 803f 0000 803f 0000 803f
000001a0: 0000 0000 0000 803f 0000 803f 0000 0000
000001b0: 0000 0000 0000 0000 0000 0000 0000 0000
000001c0: 0000 803f 0000 803f 0000 803f 0000 0000
000001d0: 0000 0000 0000 0000 0000 0000 0000 803f
000001e0: 0000 0000 0000 0000 0000 0000 0000 0000
000001f0: 0000 0000 0000 0000 0000 803f 0000 803f
00000200: 0000 803f 0000 803f 0000 803f 0000 803f
00000210: 0000 0000 0000 803f 0000 803f 0000 803f
00000220: 0000 803f 0000 803f 0000 803f 0000 0000
00000230: 0000 803f 0000 803f 0000 803f 0000 0000
00000240: 0000 0000 0000 0000 0000 0000 0000 803f
00000250: 0000 803f 0000 803f 0000 803f 0000 0000
00000260: 0000 0000 0000 0000 0000 803f 0000 803f
00000270: 0000 0000 0000 0000 0000 0000 0000 0000
00000280: 0000 0000 0000 803f 0000 803f 0000 0000
00000290: 0000 0000 0000 0000 0000 0000 0000 0000
000002a0: 0000 803f 0000 803f 0000 0000 0000 0000
000002b0: 0000 0000 0000 0000 0000 0000 0000 803f
000002c0: 0000 803f 0000 0000 0000 0000 0000 0000
000002d0: 0000 0000 0000 0000 0000 803f 0000 0000
000002e0: 0000 0000 0000 0000 0000 0000 0000 0000
000002f0: 0000 0000 0000 803f 0000 803f 0000 803f
00000300: 0000 803f 0000 803f 0000 803f 0000 0000
00000310: 0000 803f 0000 803f 0000 803f 0000 803f
00000320: 0000 0000 0000 0000 0000 0000 0000 803f
00000330: 0000 803f 0000 0000 0000 0000 0000 0000
00000340: 0000 0000 0000 0000 0000 803f 0000 803f
00000350: 0000 803f 0000 803f 0000 803f 0000 0000
00000360: 0000 0000 0000 803f 0000 803f 0000 803f
00000370: 0000 0000 0000 0000 0000 0000 0000 0000
00000380: 0000 803f 0000 803f 0000 803f 0000 0000
00000390: 0000 0000 0000 0000 0000 0000 0000 803f
000003a0: 0000 803f 0000 803f 0000 803f 0000 803f
000003b0: 0000 0000 0000 0000 0000 803f 0000 803f
000003c0: 0000 803f 0000 0000 0000 0000 0000 0000
000003d0: 0000 0000 0000 803f 0000 803f 0000 803f
000003e0: 0000 803f 0000 803f 0000 0000 0000 0000
000003f0: 0000 803f 0000 803f 0000 803f 0000 803f
1.0 1.0 1.0 0.0 0.0 0.0 0.0 1.0
1.0 1.0 1.0 0.0 0.0 0.0 1.0 1.0
1.0 1.0 1.0 0.0 0.0 1.0 1.0 0.0
0.0 0.0 0.0 0.0 1.0 1.0 1.0 1.0
1.0 0.0 0.0 1.0 1.0 1.0 1.0 0.0
0.0 0.0 1.0 1.0 1.0 1.0 0.0 0.0
0.0 1.0 1.0 1.0 1.0 0.0 0.0 0.0
1.0 1.0 1.0 0.0 0.0 0.0 0.0 1.0
1.0 1.0 1.0 1.0 0.0 0.0 1.0 1.0
0.0 0.0 0.0 0.0 0.0 1.0 1.0 1.0
0.0 0.0 0.0 0.0 1.0 1.0 1.0 0.0
0.0 0.0 0.0 1.0 1.0 1.0 1.0 0.0
0.0 0.0 1.0 1.0 1.0 1.0 1.0 1.0
0.0 1.0 1.0 0.0 0.0 0.0 0.0 0.0
1.0 1.0 1.0 0.0 0.0 0.0 0.0 1.0
0.0 0.0 0.0 0.0 0.0 0.0 1.0 1.0
1.0 1.0 1.0 1.0 0.0 1.0 1.0 1.0
1.0 1.0 1.0 0.0 1.0 1.0 1.0 0.0
0.0 0.0 0.0 1.0 1.0 1.0 1.0 0.0
0.0 0.0 1.0 1.0 0.0 0.0 0.0 0.0
0.0 1.0 1.0 0.0 0.0 0.0 0.0 0.0
1.0 1.0 0.0 0.0 0.0 0.0 0.0 1.0
1.0 0.0 0.0 0.0 0.0 0.0 1.0 0.0
0.0 0.0 0.0 0.0 0.0 1.0 1.0 1.0
1.0 1.0 1.0 0.0 1.0 1.0 1.0 1.0
0.0 0.0 0.0 1.0 1.0 0.0 0.0 0.0
0.0 0.0 1.0 1.0 1.0 1.0 1.0 0.0
0.0 1.0 1.0 1.0 0.0 0.0 0.0 0.0
1.0 1.0 1.0 0.0 0.0 0.0 0.0 1.0
1.0 1.0 1.0 1.0 0.0 0.0 1.0 1.0
1.0 0.0 0.0 0.0 0.0 1.0 1.0 1.0
1.0 1.0 0.0 0.0 1.0 1.0 1.0 1.0

0.0.mdl.input_to_hidden.0.cscale.weight f4 [100, 1]
00000000: 5c0c 2abb 5256 043b 8a4a 4d3a 0570 35ba
00000010: bc16 f839 8aec 55ba 3c05 213b 21cf ea3a
00000020: c95e ab3a 1854 ca3a 19d5 3139 af92 aeb9
00000030: 6bac 5a3a 69cd 05ba 3949 d93a eb99 7c3a
00000040: 3c54 c838 5e29 0f3b c946 6638 060e 95b9
00000050: b8a6 aab8 705a f33a f750 c4b9 5f46 bcb9
00000060: 3b3c b8b9 f972 efb9 2bb3 04ba 30a9 9b3a
00000070: c039 b739 d41a a3ba 1eb6 303a db72 27b8
00000080: 1a9e 233b cad0 90ba a971 7eb7 3e75 17ba
00000090: 22e2 a23a 23ae 23ba 60a0 0c3b bad9 14b8
000000a0: 0116 72ba e52a 8438 ef27 12ba 6b06 283a
000000b0: 15ec b0ba 1ae3 153a 1ee6 9239 1f00 ae3a
000000c0: 54b5 b538 f0e0 e238 5de1 2fba 96f4 ebb9
000000d0: 92a6 083a 5838 bc38 cf9d c7ba ee30 cfba
000000e0: 4814 d338 620b a9ba f86a f3ba 1a95 18bb
000000f0: b0e2 d6b7 fe4b 9f3a c1b1 37ba 8932 6e3a
00000100: 364e c6b9 08cb 6e39 ff7e 7aba 0341 00ba
00000110: 0883 c7b9 1dc5 0eba b61e 243a be8e 693a
00000120: c5a6 2d3a cb88 843a 15b2 bb3a f00a beba
00000130: c0f9 253a e9aa 573a 2c2a 5a3a 43f8 bb3a
00000140: de46 1fba 3e7d 09ba 695b 4739 3b9b 75ba
00000150: 1109 d439 2a9f bf39 282e 81b9 b119 ad3a
00000160: e65b 9c39 dbfa 83b9 094c 58b9 e192 c7ba
00000170: a261 8bba f4a7 beba 598e ee38 3953 afba
00000180: 9a67 a0b9 9b94 acb9 a6ff ac38 6894 89ba
-0.0025947308 0.0020193052 0.00078312366 -0.0006921294 0.00047319185 -0.0008160552 0.002456977 0.0017914512
0.0013074513 0.0015436439 0.0001695942 -0.00033297154 0.00083417323 -0.0005104156 0.0016577608 0.00096359727
9.552433e-05 0.0021844725 5.4902197e-05 -0.00028429943 -8.1372855e-05 0.0018566381 -0.00037444357 -0.00035910585
-0.0003514009 -0.00045671294 -0.00050620985 0.0011875983 0.00034947507 -0.0012443908 0.0006741005 -3.992287e-05
0.0024966062 -0.0011048552 -1.5166043e-05 -0.00057776633 0.0012427012 -0.0006243905 0.0021457896 -3.5488723e-05
-0.0009234846 6.30224e-05 -0.00055754086 0.0006409648 -0.0013498092 0.00057177397 0.0002801874 0.0013275183
8.6645276e-05 0.00010818418 -0.0006709302 -0.00045004924 0.0005212809 8.9750334e-05 -0.0015229526 -0.0015807429
0.00010065042 -0.0012897069 -0.0018571308 -0.002328223 -2.5616348e-05 0.0012153385 -0.00070073834 0.000908651
-0.00037823775 0.00022773084 -0.0009555667 -0.00048925 -0.00038053864 -0.0005446242 0.000626068 0.0008909515
0.0006624277 0.0010111568 0.001432004 -0.0014499109 0.0006331466 0.0008227067 0.0008322324 0.0014340956
-0.00060759287 -0.0005244798 0.00019012172 -0.00093691394 0.00040442546 0.00036548945 -0.00024639186 0.0013206509
0.00029823108 -0.0002517317 -0.0002062769 -0.0015226268 -0.0010633955 -0.0014545904 0.00011375239 -0.0013376243
-0.00030594767 -0.00032917116 8.249217e-05 -0.0010496499

0.0.mdl.input_to_hidden.0.cscale.bias f4 [100]
00000000: 71e9 31bf 30f0 a33e 34d5 a93f fee8 8cbf
00000010: 4f0b d43f e316 1d3f c5cf cf3d ce03 f9bf
00000020: 1446 06c0 febe 3140 d999 c23f 4e93 37bf
00000030: 159f 123f b553 cd3f fbf6 97bf 7ac4 1abf
00000040: f3ea 3dbf 8a98 83bf f791 ecbf 472b 58bf
00000050: 7497 94bf 7d45 1b3f 8444 cfbf 38d4 f8be
00000060: 0d5e 80bf 681c 99bf 2541 5d3f 391e cd3e
00000070: 9c71 e7bf 8e66 c7bf c8c5 c7bf 6b79 54bf
00000080: d06e 38bf 2ba8 d93f 4cec 2d3f 1dd1 1bbf
00000090: 5366 c5bf c101 933f 73a4 efbf 8c24 74bf
000000a0: f114 43bf 6bc5 e2bf e1ce 9bbf 072c 62bf
000000b0: b618 e7bf 1a0a 4cb9 ee82 4b3f 0d14 96bf
000000c0: 1996 17bf 172b 163f 3dce cabe 6deb c33f
000000d0: 9c12 b7bf bf7b 80bf a638 5ebf 3e94 7c3f
000000e0: 595e 78bf 8e8e 2c40 e970 cd3f 02d4 55bf
000000f0: daef edbe 2d7b 64be 1276 4f3f 0822 e5bf
00000100: 5ef4 75bf 359e 333f 1100 443f 32df 00c0
00000110: a84d 9d3f 618d a73f 1cb9 1340 0d7d 803f
00000120: adc1 953f e945 053f b4d7 953f 4334 a9bf
00000130: d903 aebf c108 e23f aa2e d2bf 5267 c0bf
00000140: 8b18 71bf 7200 90bf ff03 c33f 5240 9f3f
00000150: 4ac4 a8be 1514 b4bf 2e62 ba3f 7352 5cbd
00000160: 9fbe d13f 1748 4a3f 7bd7 4b3f 446c 07c0
00000170: 3d8a e33f df8d 513f a97a 1d3f 9828 afbf
00000180: 7add 773f a5b4 4f3f 725d a33f 4441 70bf
-0.6949683 0.32019186 1.326819 -1.1008604 1.6565951 0.6136305 0.10147051 -1.9454286
-2.0980272 2.7772822 1.52032 -0.71709144 0.5727399 1.604117 -1.1872247 -0.6045605
-0.7418663 -1.0280926 -1.8482045 -0.84441036 -1.160872 0.60652906 -1.6192784 -0.4859941
-1.0028702 -1.1961794 0.8642753 0.4006212 -1.8081546 -1.5578172 -1.5607233 -0.8299777
-0.72044086 1.7004446 0.67938685 -0.60865957 -1.5421852 1.148491 -1.8722061 -0.95368266
-0.7620383 -1.7716497 -1.217251 -0.8834843 -1.8054416 -0.00019458719 0.7949666 -1.1724869
-0.59213406 0.586595 -0.39610472 1.5306221 -1.4302554 -1.0037764 -0.8680519 0.986637
-0.97018963 2.6962008 1.6050082 -0.83526623 -0.46472055 -0.22312613 0.81039536 -1.790101
-0.96076 0.7016328 0.765626 -2.0136228 1.2289324 1.309002 2.3081732 1.0038162
1.169973 0.520598 1.1706452 -1.3219074 -1.3594924 1.7658921 -1.6420491 -1.5031531
-0.94178075 -1.1250136 1.5235595 1.2441504 -0.32962257 -1.4068629 1.4561212 -0.053789567
1.6386298 0.7901625 0.7962567 -2.115983 1.7776562 0.81857103 0.6151529 -1.3684263
0.9682232 0.81135017 1.2762892 -0.9384959

0.0.mdl.input_to_hidden.0.cbias.weight f4 [100, 1]
00000000: 6c26 18ba 360a 77ba 0954 85ba fb03 a4ba
00000010: cd51 353a dca0 883a 3011 253b 7c50 66ba
00000020: be01 44b9 d465 76b9 5c37 c6b9 9b0a d4ba
00000030: 20b2 d93a 9777 713a d5ba 0e3b d046 b4ba
00000040: fdfe b6b9 9564 843a e9ee 8539 cc83 31ba
00000050: 76e4 4339 f548 01ba 5e41 07ba df67 de3a
00000060: 868e 643a 998f 3839 d2ff 5aba 526b 4839
00000070: 3c51 71ba fc86 6339 3f31 d1b9 2075 dc39
00000080: f8a6 d4ba 9861 253a 5aae aeb8 fde0 53ba
00000090: 20f8 62b9 63a7 80ba 1c64 253a d1e7 083a
000000a0: 45c0 4d3a 9a4a 3fb9 1ec6 c5b9 ffa4 4c39
000000b0: 643d d0b9 fa89 c2ba 763b 863a 9bda 803a
000000c0: d746 a8b8 93d5 a73a 556a 8a3a 3750 fdba
000000d0: a13d a3ba 94ab 58ba 4628 1eb8 66ba d43a
000000e0: 7d19 53ba 4373 1db8 4173 4fb9 ec0c bc3a
000000f0: ca70 2c38 29db e3b9 3709 4d39 758a 2fba
00000100: 0827 123a f8b4 ec39 475a 063b 2dfc b93a
00000110: 7e99 86b9 5958 b43a 549f 65b9 adb2 fc3a
00000120: 1a1e 4cba b885 4b3a c320 c6b9 061e 1439
00000130: 8849 9b3a a380 cbba f0fc 8cba e082 bbb8
00000140: 4dad a53a 6dfd b0ba d4a8 8fba b881 c63a
00000150: 70e3 bdb9 3503 a5ba b78e a0ba 7708 06ba
00000160: 1697 623a 995a 85ba db91 dc39 8366 053a
00000170: ba02 513a ec39 bdb9 2a1a 8fb7 5f22 d2b9
00000180: 1069 30ba 5fe9 b6b9 4ae1 cfb9 be28 a539
-0.0005804065 -0.0009423824 -0.0010172139 -0.0012513393 0.00069167913 0.0010423916 0.0025187247 -0.0008785797
-0.00018692666 -0.00023498322 -0.0003780675 -0.0016177477 0.0016608872 0.00092112407 0.002177884 -0.0013754014
-0.00034903726 0.0010100777 0.0002554574 -0.00067716534 0.00018681758 -0.0004931831 -0.0005159582 0.0016968212
0.00087187474 0.00017601102 -0.000835416 0.00019113466 -0.0009205525 0.00021698693 -0.00039900278 0.00042048935
-0.0016224077 0.0006308793 -8.329442e-05 -0.0008082537 -0.00021645473 -0.000981551 0.0006309168 0.00052225316
0.000784878 -0.0001824297 -0.00037722377 0.00019516422 -0.0003971859 -0.0014842146 0.0010241109 0.0009830775
-8.024059e-05 0.0012804739 0.0010560254 -0.0019326274 -0.001245428 -0.0008265313 -3.7707643e-05 0.0016229867
-0.0008052809 -3.7539063e-05 -0.00019783994 0.0014347113 4.111304e-05 -0.000434601 0.00019553756 -0.0006696352
0.0005575274 0.0004514826 0.0020500587 0.0014189534 -0.00025672832 0.001375924 -0.00021898496 0.0019279324
-0.0007786468 0.0007763761 -0.00037789912 0.00014125564 0.0011847476 -0.0015526008 -0.0010756534 -8.941232e-05
0.0012640149 -0.0013503261 -0.0010960349 0.001514486 -0.00036218343 -0.0012589457 -0.0012249564 -0.00051129557
0.00086437294 -0.0010174095 0.0004207034 0.0005088823 0.00079731236 -0.00036092044 -1.7059112e-05 -0.0004007993
-0.0006729523 -0.0003488762 -0.0003964997 0.00031501608

0.0.mdl.input_to_hidden.0.cbias.bias f4 [100]
00000000: 428a 7ebf 45e3 ac3f 274d 09c0 fcaa 443f
00000010: 2e97 b0bf fe89 2c3f 1c16 17bf f71f bfbf
00000020: 0dea 02be b1d6 f2bf 511d 103f c9cf 41bf
00000030: 4b03 90bf 7feb 1ac0 2f91 9e3f 1491 84bf
00000040: eeb0 98bf 56a1 a73f 6b63 74bf 53f4 34bf
00000050: aee9 aabf 50db fbbe 7179 ee3e 674f e7bf
00000060: e7ca 42bf 856c 7ebf 3d53 b33f 5a48 b93f
00000070: a5e3 01c0 8a1d 8c3f da65 c1be 0afd 2fbf
00000080: c244 af3f f223 dabf e798 723f 0d31 983f
00000090: c219 48bf bb6c 8fbf caf1 dcbf 0a91 523f
000000a0: 418a bfbf 0930 7fbf 608c 53bf f102 a43f
000000b0: 2160 aa3f cb40 03bf 6b17 a43f 6b53 983f
000000c0: 8cb8 be3f 7057 cb3e 1422 933f cb5f a33f
000000d0: 77ea e53e 372f 93bf 0244 a4bf 41df cd3f
000000e0: dcaf 1dbf 2c5d 8fbf 392a 823f 199f 683f
000000f0: f660 8abf 85d4 693f f5cc a43f 3fb0 26c0
00000100: d16f c9bf f63f 7abf 2780 5a3f 68ab ffbf
00000110: 1b48 893f 9a16 e0bf 0c4f bc3f 6350 a23f
00000120: f633 87bf 8fac 8abf 116a cdbf 4944 2e3f
00000130: 72cf 8ebf 07b3 2f3f fd73 86bf f315 07bd
00000140: abc9 b23f 4307 a43f 4884 cb3f 6114 1abf
00000150: cd9c 673f 0ba0 9f3f 56da 043f 76c4 ed3f
00000160: a985 fabf f6a2 c63f f765 093f 06fc 1fc0
00000170: 9382 c43d 4f36 d3bf d7dd 5a3f 5999 17c0
00000180: 9437 9ebf 85f4 aa3f 3bdd 9dbf 8d6a ae3d
-0.99429715 1.3506857 -2.145334 0.768234 -1.3796136 0.6739806 -0.5901811 -1.493163
-0.12784596 -1.8971769 0.56294733 -0.7570768 -1.1251005 -2.4206235 1.2388057 -1.0356774
-1.1928995 1.3096111 -0.954642 -0.7068531 -1.3352563 -0.4919076 0.46577027 -1.8071107
-0.76090854 -0.9938434 1.4009777 1.4475205 -2.0295193 1.0946515 -0.3777302 -0.6874548
1.3692858 -1.704222 0.9476456 1.1889969 -0.78164303 -1.1205057 -1.7261288 0.8225256
-1.4964067 -0.9968267 -0.8263607 1.2813398 1.3310586 -0.5127074 1.2819647 1.1900457
1.4900069 0.39715147 1.1494775 1.2763609 0.44905445 -1.1498784 -1.2833254 1.6083757
-0.61596465 -1.1200309 1.0169135 0.90867764 -1.081084 0.91339904 1.2875048 -2.6045072
-1.5737249 -0.97753847 0.85351795 -1.9974184 1.072513 -1.7506897 1.4711623 1.2680782
-1.0562732 -1.0833911 -1.6047994 0.68072945 -1.1157057 0.6863255 -1.0504147 -0.032979917
1.3967794 1.2814716 1.5899744 -0.60187346 0.90473634 1.2470716 0.51895654 1.857558
-1.957204 1.5518482 0.5367121 -2.4997573 0.095952176 -1.6500949 0.8549475 -2.3687346
-1.2360711 1.3355871 -1.2333139 0.08516417

0.0.mdl.hidden_to_output.direction f4 [14, 100]
00000000: 2d88 183b 9181 7cba e73a 81ba 4f6c c839
00000010: c44c 0dba a365 cbba 1dc9 c3ba 894a a839
00000020: 417e 053a 6ee2 81ba 7ec8 403b c7dc d8b9
00000030: 2179 81ba cbba 8dba 6ee9 673a 66c8 29b9
00000040: e216 29b9 b48d 0eba f7fe 8eba fe6e 9239
00000050: 7cb8 aeba 69f3 a1ba da1a 2fba 661f 4a3a
00000060: 35f8 d0ba 1947 5d3a 1843 79b8 f9f3 8aba
00000070: 9d54 b5b9 28bd aeba d257 7639 5b70 72b8
00000080: af30 9339 106a 87ba a81a 703a 3fe6 f537
00000090: b499 2eb9 4432 803a f353 9bba de24 9037
000000a0: 3daa 263a f905 41b9 b4e1 f3ba b12d ddb8
000000b0: 0d73 2b3b 9bb9 cc39 2f32 d63a ef5c e039
000000c0: d0b3 82ba bf35 ec39 09b7 96b9 4603 0837
000000d0: 8e8f 7339 d0fd 103a 788a 3c3a d5b8 0dba
000000e0: 2360 b33a 4209 34ba 5bcd 8bb9 9bee 6739
000000f0: 32bb c73a 34d2 14ba cf28 8f3a 326d 4aba
00000100: 99d0 2bba 2ae1 7238 a7dc a7b9 b69b 2f3b
00000110: c5b7 9c38 9617 eb39 381e 443a d8b5 97ba
00000120: c01a 61b9 2531 9dba 8e60 80ba 23e5 98ba
00000130: a443 2039 e23c 56b9 6c3d b6ba f8e5 b33a
00000140: ab48 05ba 1ae9 abba 065a bdba 148a 9239
00000150: 2639 063a 7ec0 93ba 1e38 b239 6746 5f3a
00000160: 626a 363a b25c c93a 3f2e 813a 1185 1138
00000170: fd7e 043a 2798 06ba 3ca4 8c39 1326 87b9
00000180: e51b d6b9 fa30 bc3a e138 0aba 769b 943a
00000190: 42b1 0839 0012 1b3b 3405 f1b9 a748 183b
000001a0: e5d7 7fb9 8170 883a 3278 ae3a 9f59 8b39
000001b0: cdb4 b9ba 466f 943a 9050 8439 4210 e33a
000001c0: 8825 e33a a3c1 99ba 9338 483a c480 96ba
000001d0: 5b60 21ba 46bd 493a ff39 1d39 b72f b4ba
000001e0: de8b d839 1cc9 77ba 080f 5439 23fd e8b8
000001f0: b951 8b39 0998 28b8 2fb5 25ba 0c18 09ba
00000200: 1d26 253b 998c 0aba ff8f 64b7 b8f5 1e39
00000210: 701d d3ba 3705 a03a 8c81 a8b9 d721 5bba
00000220: 6025 443a dc60 a7ba 967e 7fba c3b0 89ba
00000230: 5293 00ba 021a 5138 2e31 f2ba 390a c83a
00000240: 1b76 513a 347e a73a 5fa5 ccba 416d 373a
00000250: 7548 b139 1380 f03a 9eba fab8 cd00 c2ba
00000260: b145 d7ba 6152 d6b9 ae8f feba 9daa d53a
00000270: a9ee f039 6bcb de39 5cc0 0238 6b62 30ba
00000280: 48bf a6b9 378f 9939 b33d aa3a 1a5d e4ba
00000290: c19f 873a 300f 0cba 3a27 ccb9 8646 a73a
000002a0: 879d 17ba 3809 0fba aa81 003a dcb8 33ba
000002b0: 52cd c4ba bf72 223a 55b1 11ba 3e68 5439
000002c0: 0199 acba 46cc b7b9 5224 993a 1ae5 953a
000002d0: 4d1e 19bb add6 da3a b402 76ba f76a 003b
000002e0: 1237 41ba e87e 5139 7e97 efb9 bfb4 27ba
000002f0: 458d e939 144b 613a 4980 8b3a e287 88b9
00000300: 7ad5 aab9 6ba3 ff39 4246 813a 0ddb b13a
00000310: 318a 86b9 ca52 b2b7 e712 08bb fa5d 9039
00000320: c501 0000 e10d 0080 2a09 0000 d708 0080
00000330: 4c05 0000 a104 0000 860b 0000 1f04 0000
00000340: 020f 0080 050b 0080 b000 0080 f500 0080
00000350: 6005 0080 db01 0000 1a08 0000 4101 0080
00000360: 5404 0080 92ae a1bd ba0b 0000 0500 0000
00000370: fc00 0080 ba00 0080 1309 0000 d80a 0080
00000380: 1b04 0000 180c 0000 f6ba 50be d002 0000
00000390: 8e09 0080 fd03 0000 7d03 0080 de05 0080
000003a0: 5906 0080 2b02 0000 fc0e 0000 100b 0080
000003b0: f406 0080 4d04 0000 4d01 0080 7900 0000
000003c0: 3d22 fd3d 4103 0000 9c0b 0000 740d 0080
000003d0: 3809 0000 8d07 0080 f001 0000 6a02 0000
000003e0: 7b03 0080 0b09 0000 d108 0000 e508 0000
000003f0: 430a 0000 8502 0000 db08 0000 e267 dbbd
0.0023274526 -0.0009632344 -0.0009859473 0.0003822767 -0.0005390162 -0.0015517961 -0.0014937256 0.0003209899
0.00050923607 -0.00099094 0.0029416378 -0.00041363222 -0.0009878018 -0.0010813115 0.00088467344 -0.0001619175
-0.0001612562 -0.00054379855 -0.0010909726 0.00027929986 -0.0013330127 -0.0012355867 -0.00066797214 0.0007710367
-0.0015943112 0.00084410753 -5.9428712e-05 -0.0010601274 -0.00034586052 -0.001333152 0.00023493104 -5.7801935e-05
0.00028074297 -0.0010331292 0.00091592455 2.9313493e-05 -0.00016651192 0.0009780605 -0.001185058 1.7183305e-05
0.0006357765 -0.0001840814 -0.0018606693 -0.00010546612 0.0026161105 0.000390482 0.001634186 0.0004279385
-0.0009971801 0.00045053472 -0.000287466 8.106994e-06 0.00023227764 0.0005530985 0.00071922643 -0.0005406265
0.0013685267 -0.00068678346 -0.00026665148 0.00022118764 0.0015238284 -0.00056770747 0.0010922196 -0.000772196
-0.0006554216 5.7906997e-05 -0.0003201712 0.0026795692 7.4728894e-05 0.00044840266 0.00074813096 -0.0011574579
-0.00021467637 -0.0011992796 -0.00097944 -0.0011664968 0.00015283987 -0.00020431311 -0.0013903803 0.0013725152
-0.0005084376 -0.0013115734 -0.0014446385 0.00027950166 0.000512021 -0.0011272577 0.00033992616 0.00085172657
0.00069586013 0.0015362708 0.0009855701 3.469462e-05 0.0005054323 -0.0005134367 0.00026825245 -0.00025777574
-0.00040838044 0.0014357858 -0.0005272758 0.0011337835 0.00013036004 0.0023661852 -0.0004597098 0.0023236664
-0.00024399122 0.0010409505 0.0013310967 0.0002657892 -0.0014168263 0.0011324666 0.00025237026 0.0017323571
0.0017329911 -0.0011730682 0.0007637825 -0.0011482467 -0.00061560207 0.00076957454 0.00014994292 -0.001374713
0.0004130294 -0.000945227 0.00020223495 -0.000111097725 0.00026573034 -4.0195915e-05 -0.0006321249 -0.00052297185
0.002519972 -0.0005285233 -1.3623386e-05 0.00015159592 -0.0016106796 0.0012208585 -0.00032139977 -0.00083592295
0.0007482376 -0.0012769955 -0.0009746341 -0.001050495 -0.0004904765 4.9853705e-05 -0.0018477791 0.0015261836
0.00079903164 0.00127787 -0.0015613249 0.0006997176 0.00033814055 0.0018348716 -0.00011955689 -0.0014801264
-0.0016423968 -0.00040878638 -0.0019421482 0.0016301457 0.00045954183 0.00042494698 3.1173564e-05 -0.00067285326
-0.00031804503 0.00029289137 0.0012988359 -0.0017422766 0.0010347293 -0.0005342839 -0.00038939138 0.0012762106
-0.0005783666 -0.0005456391 0.0004902134 -0.00068558543 -0.0015014804 0.0006196908 -0.00055577356 0.00020256729
-0.0013168157 -0.00035056676 0.0011683798 0.0011436075 -0.0023364008 0.0016696058 -0.0009384558 0.0019595006
-0.0007370572 0.0001997907 -0.00045698503 -0.00063974777 0.00044546477 0.00085942564 0.001064309 -0.00026041182
-0.0003258398 0.00048759146 0.0009862857 0.001356931 -0.00025661432 -2.1257805e-05 -0.002076322 0.00027535838
6.35e-43 -4.979e-42 3.287e-42 -3.171e-42 1.9e-42 1.66e-42 4.134e-42 1.478e-42
-5.384e-42 -3.953e-42 -2.47e-43 -3.43e-43 -1.928e-42 6.66e-43 2.906e-42 -4.5e-43
-1.553e-42 -0.07894625 4.207e-42 7e-45 -3.53e-43 -2.6e-43 3.255e-42 -3.89e-42
1.473e-42 4.338e-42 -0.2038382 1.009e-42 -3.428e-42 1.431e-42 -1.251e-42 -2.105e-42
-2.277e-42 7.78e-43 5.375e-42 -3.968e-42 -2.494e-42 1.543e-42 -4.67e-43 1.7e-43
0.12360046 1.167e-42 4.165e-42 -4.826e-42 3.307e-42 -2.709e-42 6.95e-43 8.66e-43
-1.249e-42 3.244e-42 3.163e-42 3.191e-42 3.681e-42 9.04e-43 3.177e-42 -0.107131734

0.0.mdl.hidden_to_output.cscale.weight f4 [14, 1]
00000000: 5d66 7eba 0cbe 2b3a 28ec 91b8 84f1 6a3a
00000010: 0228 4a3a 3606 37ba 42b9 42ba 4c9a 193a
00000020: 00e5 9637 38d7 f5b9 12c4 2c3a 80ad 2c3a
00000030: 6c5f be39 fcc6 82ba
-0.00097045844 0.00065514515 -6.958126e-05 0.000896238 0.000771165 -0.00069818215 -0.0007428118 0.0005859479
1.798803e-05 -0.00046890392 0.0006590496 0.0006587133 0.0003631072 -0.0009977515

0.0.mdl.hidden_to_output.cscale.bias f4 [14]
00000000: 0000 0000 0000 0000 0328 13bf 4c67 c3be
00000010: a345 9e3f 2a5d 273f b6ac 11bf df5d 983f
00000020: c470 873e 218a 1fbf 9da6 b3bf 922e b13f
00000030: 54af bf3e 99d0 f93e
0.0 0.0 -0.5748293 -0.38164747 1.2365001 0.6537653 -0.5690416 1.1903647
0.2645322 -0.62320143 -1.4035221 1.3842337 0.37438452 0.4879196

0.0.mdl.hidden_to_output.cbias.weight f4 [14, 1]
00000000: 90d4 1c39 da08 15ba 70ae 63b8 5d3a 58ba
00000010: be37 123a bdb8 66ba acab 533a 986e 97b8
00000020: 6844 5f39 348e 1bb9 c0f4 0db8 0c4b 2fb9
00000030: 847e 8439 5913 61ba
0.00014956505 -0.0005685218 -5.4283475e-05 -0.0008248443 0.0005577764 -0.0008801332 0.00080745923 -7.220841e-05
0.0002129242 -0.00014834927 -3.384496e-05 -0.00016717258 0.00025271263 -0.0008585952

0.0.mdl.hidden_to_output.cbias.bias f4 [14]
00000000: 273d 643f abf6 fe3f 6310 c53e 9a97 1840
00000010: e3cf 0fbf 428f 0540 e321 d63b ec31 0240
00000020: 9d8c a63c fd68 0040 976b dc3e cda4 eb3f
00000030: 4f1c 833e 07ca 0340
0.8915581 1.9919027 0.38489065 2.384253 -0.56176585 2.0868688 0.0065348013 2.034297
0.020330722 2.006408 0.43050835 1.8409668 0.25607535 2.0592058

1.0.mdl.input_to_hidden.0.direction f4 [100, 7]
00000000: 0071 203c e355 e23d dfcf 97bd 8ba8 7cbd
00000010: ef69 8f39 0916 8b37 6e9c 0ebb 4086 d73d
00000020: a7e1 103f 27af 123e b72d 7839 41a1 2a39
00000030: fe20 d3b9 fdbd 6aba 526e dabe 7acb 71bb
00000040: f481 ccb8 8d4d 8db9 9a9f bbba b3be 9f3a
00000050: 6c0e 993a d88b 18bd 26f5 583e f2e2 c2bc
00000060: 630d 56bd 3a28 87bf f8fe 383f f844 08bb
00000070: 3563 6b3e 95a2 bfb9 fe8a 8cb9 047b 3f3a
00000080: 18b3 b337 590c 9dba 1426 acba 935a ecbb
00000090: 35cc ee3d b5fb f4bc 1505 56bd b358 503f
000000a0: 50f6 5fbf 4fcf 073b 055a 7d3e c34d ef3a
000000b0: 878b fab9 7ec3 9fba d1a0 1dba 32f2 bd39
000000c0: 3e69 60b8 9b66 ccbe 920c f9b9 c20a 99ba
000000d0: 87de ce3a 73f8 21bb 2f92 73b9 2a0a 94ba
000000e0: f93f 3abe 979f a6ba 4dfa a1b9 9097 d338
000000f0: 4265 4cba e70f b339 b789 b339 f7c2 0c3e
00000100: 4de0 0cbc 2116 733a 6d4e 743a 9005 04bb
00000110: a4a4 bd39 3c16 323b 1b0f c2bd 27d6 82be
00000120: 8011 da3c bf4d 983d 51cb 5d39 9c21 aaba
00000130: c799 30b9 097f cb3d 6454 863e b02b 37bd
00000140: 3319 adbd cc53 dfb9 8b45 3cba f484 2339
00000150: 4aa5 203f b6bb 693a 1ac4 4c3a ebc8 a6b9
00000160: 7c2e d836 55ed 20ba 8b3d 843a 9773 0c3f
00000170: 77f9 dd3c de97 8d3a 8da0 5e3a b9c9 9238
00000180: 3a87 bbb8 cc46 0bba f50f dfbb 75e3 dd3d
00000190: a0c0 6dbc 6f27 d1bc 5c80 503f 66e1 5abf
000001a0: b74c 9fba 2b0b 0b3e eaf8 fb3d aa49 ee39
000001b0: 69c2 49b8 1e96 bc3a 6238 10ba 2150 d7b9
000001c0: ee8e d4be 996a 5f3c 94c5 c639 a0b7 2d3a
000001d0: 7b5c fb39 9347 abba 7274 9739 c58d aabd
000001e0: 2966 77be ba4b 803c 608d 653d fb51 d839
000001f0: ffa2 3d37 a23f 633a b251 4ebe de59 09be
00000200: 5d16 d638 7de7 40ba 248c 02ba 50ca af39
00000210: c5bc c339 7e73 e73b 8ef0 a73e 1499 6dbc
00000220: be2d cbbd 8756 89bf 4524 2e3f 8599 3eba
00000230: 6c09 59bd f51c 26be 9995 643d 6fea 303d
00000240: d7b6 c03a 88fa dc3a 1f8b 253a 2277 8e3d
00000250: e4a1 0e3d d487 0bbd bf67 0d3e acd3 3e3f
00000260: 9be1 78ba 86bf 53ba 68ee 2bbe 8d3d 29be
00000270: d488 14bb c52f 35ba 3152 0e3b 20e5 9b3a
00000280: bb37 453a 4730 20be cf88 a63a 1ad3 7dba
00000290: 15e6 83b9 6687 ca3a 629a a03a fbac 6dba
000002a0: e2ee 3cbc 9765 193e 2c1d 453c 31fb 9e3c
000002b0: c340 c5be 3187 80ba 98bd 0d39 0424 cdbd
000002c0: 8111 13bf ecfc cc3b 621d 4539 0aac 0b3a
000002d0: d4cb bbba 9cff b0b9 6cd6 c43b 8447 df3d
000002e0: 46bc 163c ee73 de3b b3e6 f4bf 1842 b9b6
000002f0: ca2d 423a 763a 4fbd eba9 313a 70bb e139
00000300: bf80 a4ba f3dc edb8 e1ad 1ebb 74cf b5b9
00000310: 9c83 39bc c3ba a03d 81aa 92bc 0c8e c43c
00000320: 35cd a8bf 2fbf 523f e21f 8bba b593 ebbe
00000330: da3a a9bd 41a0 6eba 77dd 06bb 7b59 813a
00000340: c108 993a 323f 85ba 61e5 47bd eac6 33be
00000350: deb6 5e3d 84d5 ebbc adc0 673a 4c19 44ba
00000360: 2ab0 6dba c905 4bbd 90b6 8d3e 2abc 163c
00000370: ddf9 703d d25d 03bf 053e f138 389c 07bb
00000380: d58c 003d 4641 633e 7555 86bd 3399 033a
00000390: 8545 4cba c62e da39 17ad e63a b311 e73d
000003a0: 8f66 713f 1e77 ca3d 260b 65ba 7a55 3f3a
000003b0: 9c48 b639 38b1 2dba 0f6f a53d aa1c 643e
000003c0: 228d 2cbc dc38 bf3c 52a3 393f a592 9eb8
000003d0: baf1 08ba 141c 763d 7b5a 3d3f f2ce 553c
000003e0: 3618 953d a752 593e 8f1d 35bf e005 883a
000003f0: 1ab6 1ebf 2a6f 6dba 62df e0b9 08c2 1cba
0.009792566 0.11051538 -0.07412695 -0.061684173 0.00027354012 1.6580352e-05 -0.002176072 0.10523653
0.5659432 0.14324628 0.00023668153 0.00016272535 -0.00040269637 -0.0008954702 -0.42662293 -0.0036894963
-9.751684e-05 -0.00026951396 -0.0014314533 0.001218757 0.0011677272 -0.03724274 0.21187267 -0.023789857
-0.05225886 -1.0559151 0.7226405 -0.0020793062 0.22987063 -0.00036551492 -0.00026806438 0.00073044025
2.142186e-05 -0.0011981829 -0.0013133907 -0.0072129457 0.11660043 -0.02990518 -0.05225094 0.81385344
-0.8748522 0.002072293 0.24741371 0.0018257428 -0.00047787672 -0.0012188999 -0.0006013038 0.0003622934
-5.3503776e-05 -0.39922032 -0.00047502347 -0.001167618 0.0015782871 -0.0024714738 -0.00023228744 -0.0011294533
-0.18188466 -0.0012712356 -0.00030894802 0.00010089495 -0.0007797071 0.0003415339 0.00034244146 0.13746248
-0.008598399 0.0009273012 0.00093195477 -0.0020144917 0.00036171556 0.0027173897 -0.094755374 -0.2555401
0.026619673 0.07436704 0.00021151944 -0.0012979987 -0.00016841954 0.099363394 0.2623626 -0.044719398
-0.08452072 -0.00042596308 -0.00071819936 0.0001559442 0.6275221 0.0008916216 0.0007811204 -0.00031811683
6.442713e-06 -0.0006138881 0.0010089142 0.54863876 0.027096493 0.0010802706 0.0008492552 6.999396e-05
-8.942043e-05 -0.0005312979 -0.006807322 0.108343996 -0.014511257 -0.025531499 0.8144586 -0.8550018
-0.00121536 0.13578479 0.12303336 0.00045449781 -4.8103193e-05 0.0014388 -0.0005501566 -0.00041067696
-0.41515297 0.013636255 0.0003791271 0.00066267885 0.00047943354 -0.0013067595 0.00028887723 -0.08327822
-0.24160065 0.01566111 0.05604303 0.0004125981 1.1303228e-05 0.0008668845 -0.20148352 -0.13413188
0.00010208481 -0.0007358713 -0.0004979989 0.00033529336 0.00037333943 0.0070633283 0.32800716 -0.014501829
-0.09920834 -1.0729531 0.6802409 -0.0007270801 -0.0529875 -0.16221984 0.05580673 0.043192323
0.0014702928 0.0016859332 0.0006314981 0.069563165 0.03482236 -0.034065083 0.13809107 0.74541736
-0.0009494067 -0.00080775504 -0.16790164 -0.16527386 -0.0022664564 -0.000691172 0.002171647 0.0011893846
0.0007523258 -0.15643416 0.0012705567 -0.00096826407 -0.00025157692 0.0015451729 0.0012253041 -0.00090666086
-0.0115315635 0.1498016 0.012030881 0.019406887 -0.38525972 -0.0009805915 0.00013517437 -0.10016635
-0.57448584 0.0062557366 0.0001879833 0.0005328065 -0.0014327713 -0.0003375978 0.0060070064 0.109023124
0.009200161 0.0067887222 -1.9132904 -5.521124e-06 0.0007407336 -0.050592862 0.0006777334 0.00043054996
-0.0012550576 -0.00011342196 -0.0024212527 -0.00034677575 -0.011322882 0.07848122 -0.017903568 0.023993514
-1.3187624 0.82322973 -0.001061436 -0.4601113 -0.08263178 -0.0009102859 -0.002057878 0.0009868586
0.0011675583 -0.0010165928 -0.048802737 -0.17556348 0.054373614 -0.028788336 0.00088406616 -0.0007480576
-0.0009067083 -0.049566064 0.27678347 0.009200135 0.05883204 -0.51315033 0.000115033276 -0.002069248
0.031384308 0.22192869 -0.065592684 0.0005020082 -0.00077923416 0.0004161505 0.0017599192 0.11282673
0.94297117 0.09886001 -0.0008737318 0.0007298809 0.00034767843 -0.0006625834 0.08077823 0.2227656
-0.010531696 0.023342542 0.7251483 -7.561342e-05 -0.00052240083 0.06008537 0.7396619 0.013049828
0.072800085 0.21222936 -0.7074823 0.0010377727 -0.61996615 -0.0009057397 -0.00042891043 -0.00059798406

1.0.mdl.input_to_hidden.0.mask f4 [100, 7]
00000000: 0000 803f 0000 803f 0000 803f 0000 803f
00000010: 0000 0000 0000 0000 0000 0000 0000 803f
00000020: 0000 803f 0000 803f 0000 0000 0000 0000
00000030: 0000 0000 0000 0000 0000 803f 0000 803f
00000040: 0000 0000 0000 0000 0000 0000 0000 0000
00000050: 0000 0000 0000 803f 0000 803f 0000 803f
00000060: 0000 803f 0000 803f 0000 803f 0000 0000
00000070: 0000 803f 0000 0000 0000 0000 0000 0000
00000080: 0000 0000 0000 0000 0000 0000 0000 803f
00000090: 0000 803f 0000 803f 0000 803f 0000 803f
000000a0: 0000 803f 0000 0000 0000 803f 0000 0000
000000b0: 0000 0000 0000 0000 0000 0000 0000 0000
000000c0: 0000 0000 0000 803f 0000 0000 0000 0000
000000d0: 0000 0000 0000 0000 0000 0000 0000 0000
000000e0: 0000 803f 0000 0000 0000 0000 0000 0000
000000f0: 0000 0000 0000 0000 0000 0000 0000 803f
00000100: 0000 803f 0000 0000 0000 0000 0000 0000
00000110: 0000 0000 0000 0000 0000 803f 0000 803f
00000120: 0000 803f 0000 803f 0000 0000 0000 0000
00000130: 0000 0000 0000 803f 0000 803f 0000 803f
00000140: 0000 803f 0000 0000 0000 0000 0000 0000
00000150: 0000 803f 0000 0000 0000 0000 0000 0000
00000160: 0000 0000 0000 0000 0000 0000 0000 803f
00000170: 0000 803f 0000 0000 0000 0000 0000 0000
00000180: 0000 0000 0000 0000 0000 803f 0000 803f
00000190: 0000 803f 0000 803f 0000 803f 0000 803f
000001a0: 0000 0000 0000 803f 0000 803f 0000 0000
000001b0: 0000 0000 0000 0000 0000 0000 0000 0000
000001c0: 0000 803f 0000 803f 0000 0000 0000 0000
000001d0: 0000 0000 0000 0000 0000 0000 0000 803f
000001e0: 0000 803f 0000 803f 0000 803f 0000 0000
000001f0: 0000 0000 0000 0000 0000 803f 0000 803f
00000200: 0000 0000 0000 0000 0000 0000 0000 0000
00000210: 0000 0000 0000 803f 0000 803f 0000 803f
00000220: 0000 803f 0000 803f 0000 803f 0000 0000
00000230: 0000 803f 0000 803f 0000 803f 0000 803f
00000240: 0000 0000 0000 0000 0000 0000 0000 803f
00000250: 0000 803f 0000 803f 0000 803f 0000 803f
00000260: 0000 0000 0000 0000 0000 803f 0000 803f
00000270: 0000 0000 0000 0000 0000 0000 0000 0000
00000280: 0000 0000 0000 803f 0000 0000 0000 0000
00000290: 0000 0000 0000 0000 0000 0000 0000 0000
000002a0: 0000 803f 0000 803f 0000 803f 0000 803f
000002b0: 0000 803f 0000 0000 0000 0000 0000 803f
000002c0: 0000 803f 0000 803f 0000 0000 0000 0000
000002d0: 0000 0000 0000 0000 0000 803f 0000 803f
000002e0: 0000 803f 0000 803f 0000 803f 0000 0000
000002f0: 0000 0000 0000 803f 0000 0000 0000 0000
00000300: 0000 0000 0000 0000 0000 0000 0000 0000
00000310: 0000 803f 0000 803f 0000 803f 0000 803f
00000320: 0000 803f 0000 803f 0000 0000 0000 803f
00000330: 0000 803f 0000 0000 0000 0000 0000 0000
00000340: 0000 0000 0000 0000 0000 803f 0000 803f
00000350: 0000 803f 0000 803f 0000 0000 0000 0000
00000360: 0000 0000 0000 803f 0000 803f 0000 803f
00000370: 0000 803f 0000 803f 0000 0000 0000 0000
00000380: 0000 803f 0000 803f 0000 803f 0000 0000
00000390: 0000 0000 0000 0000 0000 0000 0000 803f
000003a0: 0000 803f 0000 803f 0000 0000 0000 0000
000003b0: 0000 0000 0000 0000 0000 803f 0000 803f
000003c0: 0000 803f 0000 803f 0000 803f 0000 0000
000003d0: 0000 0000 0000 803f 0000 803f 0000 803f
000003e0: 0000 803f 0000 803f 0000 803f 0000 0000
000003f0: 0000 803f 0000 0000 0000 0000 0000 0000
1.0 1.0 1.0 1.0 0.0 0.0 0.0 1.0
1.0 1.0 0.0 0.0 0.0 0.0 1.0 1.0
0.0 0.0 0.0 0.0 0.0 1.0 1.0 1.0
1.0 1.0 1.0 0.0 1.0 0.0 0.0 0.0
0.0 0.0 0.0 1.0 1.0 1.0 1.0 1.0
1.0 0.0 1.0 0.0 0.0 0.0 0.0 0.0
0.0 1.0 0.0 0.0 0.0 0.0 0.0 0.0
1.0 0.0 0.0 0.0 0.0 0.0 0.0 1.0
1.0 0.0 0.0 0.0 0.0 0.0 1.0 1.0
1.0 1.0 0.0 0.0 0.0 1.0 1.0 1.0
1.0 0.0 0.0 0.0 1.0 0.0 0.0 0.0
0.0 0.0 0.0 1.0 1.0 0.0 0.0 0.0
0.0 0.0 1.0 1.0 1.0 1.0 1.0 1.0
0.0 1.0 1.0 0.0 0.0 0.0 0.0 0.0
1.0 1.0 0.0 0.0 0.0 0.0 0.0 1.0
1.0 1.0 1.0 0.0 0.0 0.0 1.0 1.0
0.0 0.0 0.0 0.0 0.0 1.0 1.0 1.0
1.0 1.0 1.0 0.0 1.0 1.0 1.0 1.0
0.0 0.0 0.0 1.0 1.0 1.0 1.0 1.0
0.0 0.0 1.0 1.0 0.0 0.0 0.0 0.0
0.0 1.0 0.0 0.0 0.0 0.0 0.0 0.0
1.0 1.0 1.0 1.0 1.0 0.0 0.0 1.0
1.0 1.0 0.0 0.0 0.0 0.0 1.0 1.0
1.0 1.0 1.0 0.0 0.0 1.0 0.0 0.0
0.0 0.0 0.0 0.0 1.0 1.0 1.0 1.0
1.0 1.0 0.0 1.0 1.0 0.0 0.0 0.0
0.0 0.0 1.0 1.0 1.0 1.0 0.0 0.0
0.0 1.0 1.0 1.0 1.0 1.0 0.0 0.0
1.0 1.0 1.0 0.0 0.0 0.0 0.0 1.0
1.0 1.0 0.0 0.0 0.0 0.0 1.0 1.0
1.0 1.0 1.0 0.0 0.0 1.0 1.0 1.0
1.0 1.0 1.0 0.0 1.0 0.0 0.0 0.0

1.0.mdl.input_to_hidden.0.cscale.weight f4 [100, 1]
00000000: 9501 47b8 eae9 f639 0036 bfba 09da e7b8
00000010: ac99 4eba 2be3 daba c874 95ba 728d fab9
00000020: 65c6 0eba 70d4 a03a 7510 9bb8 0297 1a3b
00000030: f34b c73a 4f65 d0ba 2fb5 a0ba 3a36 b83a
00000040: 6dab 6e3a 5293 163a 2bb1 1a39 84a9 133b
00000050: b372 b0ba 4214 353a 3636 ec38 79c2 29b8
00000060: b437 233a a9d5 553a c74c a138 ef57 fb38
00000070: ea3d a3b9 3a86 8139 5ef4 31ba 11bb 4a3a
00000080: 5c03 ae3a 2a7a 2339 7ebd 3cb9 08ca d63a
00000090: 196a 9639 8ef6 9aba 1852 5839 4885 fdba
000000a0: daa1 65ba 7376 413a 061d cdba 37d6 8738
000000b0: 98ad 43ba 067f 30ba 700f 683a 9be1 11ba
000000c0: c79d cdb8 9248 1cba e528 b9ba 684d eb39
000000d0: 404d ddba 3177 89ba 0aa9 0039 c973 05bb
000000e0: cdfd 76ba f39b cab9 8eaf 28b9 4a6a 9cba
000000f0: f5a7 113b 2a65 cdb9 e054 12ba 966f bb38
00000100: 8c59 03ba b2c0 8039 8b5e dd38 8981 fe38
00000110: ea78 c139 1c79 703a 91eb 723a e003 bb3a
00000120: ed8d 0dbb 8bbc 2a3a 70ee a13a a53b 0cb9
00000130: 021e a83a 24b7 15ba ffa3 3d3a 87a4 a0ba
00000140: c795 f039 5c9f 2b39 5cd1 15bb 0101 293a
00000150: 099d c7b9 1649 27b9 70c8 393a 3a49 ee38
00000160: e276 a838 bbc6 d739 8d68 04bb a98a 9f39
00000170: 920e 67ba 1ad0 a33a 2879 513a 3cdf 4fba
00000180: 7c28 b13a 8613 b939 df49 8db9 0f66 5039
-4.744677e-05 0.00047095056 -0.0014588237 -0.000110555506 -0.0007881175 -0.0016699781 -0.0011402601 -0.000477891
-0.0005446433 0.0012270343 -7.394041e-05 0.0023588543 0.001520513 -0.0015899333 -0.0012261028 0.0014054247
0.0009104524 0.00057439983 0.00014752585 0.002253146 -0.0013461917 0.00069076207 0.000112634545 -4.0473857e-05
0.0006226257 0.0008157143 7.691379e-05 0.000119849916 -0.00031135912 0.00024704804 -0.00067884277 0.00077335635
0.0013276148 0.00015590401 -0.00017999668 0.0016387114 0.00028689278 -0.0011822747 0.00020629948 -0.0019342089
-0.00087597745 0.0007380016 -0.0015648908 6.477202e-05 -0.0007464527 -0.0006732795 0.0008852398 -0.0005564929
-9.80455e-05 -0.00059617416 -0.0014126567 0.00044880365 -0.0016883984 -0.0010487792 0.00012270003 -0.0020363203
-0.00094219745 -0.00038644634 -0.00016087128 -0.0011933532 0.0022225354 -0.0003917602 -0.00055821054 8.937639e-05
-0.0005010597 0.00024557632 0.00010555711 0.000121357916 0.00036901917 0.000917332 0.00092666695 0.0014268123
-0.0021599487 0.00065130804 0.0012354385 -0.0001337366 0.0012826326 -0.0005711189 0.0007234215 -0.0012256064
0.0004588796 0.00016367197 -0.0022860384 0.0006446988 -0.00038073238 -0.00015953588 0.00070870575 0.00011362364
8.033008e-05 0.0004115606 -0.0020203919 0.00030430153 -0.0008814122 0.0012497932 0.0007990771 -0.0007929688
0.0013516094 0.00035300496 -0.00026948654 0.00019874446

1.0.mdl.input_to_hidden.0.cscale.bias f4 [100]
00000000: a312 933e 4a48 a2bf e5c6 f73e 0a90 1c40
00000010: 9608 083f 78c2 0040 a235 c33e 535a 82bf
00000020: 937d 6ebf c2e3 82be cfb1 433f 3804 f8be
00000030: bd64 cf3f 2d20 6f3f c566 0a40 c06d 983f
00000040: c7d1 98bf eb8f 853f 3509 07bf c550 1940
00000050: b4bb 70be 2205 873f 9b4b 5cbf 7f90 82bf
00000060: 99b5 29bf 7fff 4e3f c97f 2b40 889e 6a3f
00000070: 6d64 2640 f0fa 843f d1cd 763f ace6 77bf
00000080: 2f78 993f 28a7 fdbf 84c3 833f 346e b43f
00000090: b417 b8bf f642 b53f b62c f7be 87c4 6d3f
000000a0: 05e0 15c0 33d1 8dbd a9db 36bf d81b 523f
000000b0: 6a04 67c0 bd54 fd3e cb0a 93bf 60e7 9dbe
000000c0: 071f 553f 67b5 803f 799c 483f 89d2 d33f
000000d0: 5734 dd3e 1a4a 383f f52e 0e40 9e99 e73e
000000e0: 72de 0740 f5a3 b33e 247f eabf 0a1b 5bbf
000000f0: 3753 9bbf f440 0cbf a3e0 79bf c181 27bf
00000100: 87a3 38bf b223 56bf 5f60 4e3f 6806 2b3e
00000110: a156 d8bf 8051 6cbf c8f6 183f 2e3c 32bf
00000120: 2a8e 903f 0abd 8f3f de21 3ec0 9135 223f
00000130: 57a9 bc3e cc42 513f 9ca9 8dbf 5e93 6d3f
00000140: 53f4 d6bf fd70 e23e 8a4e 153f 2807 11bf
00000150: 3ae4 4a3f f662 043f d8c0 0940 e5a6 883f
00000160: 8e90 4a3f b193 28bf 6125 87bf d0a9 ef3e
00000170: 313f 92bf 1069 c73f 664a 9c3f 2c48 9ec0
00000180: 3f5d 8b3f 7635 063f 6bfa 173f 4ec7 efbf
0.28725156 -1.2678311 0.48393932 2.4462914 0.531381 2.0118694 0.38126856 -1.0183815
-0.9316036 -0.2556439 0.7644319 -0.4844072 1.6202618 0.9340847 2.1625226 1.1908493
-1.1939019 1.0434545 -0.52748424 2.3955548 -0.23509103 1.0548441 -0.86052865 -1.0200347
-0.6629272 0.80858606 2.6796744 0.9164815 2.5998795 1.038908 0.964078 -0.9683635
1.1989802 -1.9816637 1.0294042 1.4096131 -1.4382234 1.416106 -0.482763 0.92878
-2.341798 -0.06924667 -0.71428925 0.82073736 -3.6096444 0.49478713 -1.1487669 -0.30840588
0.8325047 1.005536 0.7836376 1.6548625 0.43203995 0.7198807 2.221616 0.45234388
2.122952 0.35086027 -1.832005 -0.85588133 -1.213477 -0.5478661 -0.97608393 -0.65432364
-0.7212452 -0.83648217 0.806158 0.16701663 -1.6901437 -0.9231186 0.5975156 -0.69623077
1.1293385 1.1229565 -2.970817 0.63362986 0.36847946 0.8174255 -1.1067386 0.9280299
-1.6793312 0.44226828 0.58322966 -0.56651545 0.79254496 0.517135 2.1523952 1.0675932
0.7912682 -0.6585036 -1.0558282 0.46809244 -1.1425534 1.5578938 1.2210205 -4.94631
1.0887831 0.52425325 0.5936648 -1.8732698

1.0.mdl.input_to_hidden.0.cbias.weight f4 [100, 1]
00000000: a1ff 133a 2448 5eba adac 3cba e15b a2ba
00000010: 196b e1ba a390 25ba 4172 1e3a 69fa 2eba
00000020: 3c89 aeba d284 863a 3f7f ed3a ef66 2eb9
00000030: 7d28 333b f901 94ba 15f3 d4b9 637d a83a
00000040: 07ab 54bb 6752 15ba d449 70ba c294 4d3a
00000050: 5fff 553a 4931 613a 2c1a deb9 f2e2 86ba
00000060: 3c16 053b 7aa0 93ba 7a50 32ba ba68 353a
00000070: afbc ae3a 146f 31b9 ce9c d3b9 83e9 603a
00000080: 9a33 abba b9fc 3738 6c25 a0ba 1787 013b
00000090: 2df3 55ba 64a8 93ba 336a 2dba e2b0 ef3a
000000a0: 6185 dfb9 3d64 89ba 4a0d 1539 a25f 223a
000000b0: 6742 833a be1d 43ba 822a d839 c4a9 baba
000000c0: f9a5 97b9 699e 033a 82f2 01ba e772 403a
000000d0: 2166 c337 a652 12bb 367a 6bb9 8a8d b239
000000e0: 2b71 1539 a46a 47bb 457e 803a 1aeb ceba
000000f0: dce9 753a 34b3 983a bc82 c0ba 4c52 5db9
00000100: b329 cf39 40c2 ccba ceed 6cba e969 283b
00000110: 0659 a8ba 0fbf ac3a 1340 3aba 37c4 70ba
00000120: 83c6 62b9 da83 91b8 6320 aab9 1d4a 2139
00000130: 001e cb39 9095 36b9 09b5 5cba 1c4b 88b9
00000140: a700 89ba 249e 003a 42cf 6c3a 4de7 42b9
00000150: 46a0 1d3a 90ed 88ba a684 91ba 808d 6d3a
00000160: cd20 abba e5ff 94ba a14f 13ba 9c3b b539
00000170: ca71 bab9 5011 b6ba 2ec9 3fbb 2b52 bfba
00000180: 164d 133a cae8 c939 28c9 d839 90c7 99ba
0.00056456967 -0.0008479378 -0.00071973616 -0.0012387001 -0.0017198055 -0.0006315803 0.0006044247 -0.0006674887
-0.0013316046 0.0010262972 0.0018119587 -0.00016632279 0.0027337365 -0.0011292092 -0.000406169 0.0012854751
-0.0032450573 -0.0005696178 -0.00091662747 0.0007842296 0.00081633584 0.0008590413 -0.0004236264 -0.0010291024
0.0020307442 -0.0011263036 -0.0006802153 0.00069202075 0.0013331379 -0.00016921415 -0.00040361885 0.0008579718
-0.0013061643 4.3865966e-05 -0.0012218184 0.0019764358 -0.0008161541 -0.0011265394 -0.0006615251 0.0018286968
-0.0004263325 -0.0010482144 0.00014214698 0.000619406 0.0010014296 -0.00074430916 0.000412304 -0.0014241268
-0.00028924624 0.00050208584 -0.0004957096 0.00073413405 2.3293369e-05 -0.0022327094 -0.00022456874 0.0003405626
0.00014251906 -0.0030428553 0.0009803256 -0.0015786618 0.0009380856 0.0011650086 -0.0014687399 -0.0002110686
0.00039513185 -0.0015621856 -0.0009038121 0.0025697893 -0.0012843914 0.0013179498 -0.0007104885 -0.0009184512
-0.00021626991 -6.938698e-05 -0.00032449057 0.00015381766 0.0003874153 -0.00017412589 -0.00084193103 -0.00025995902
-0.0010452465 0.0004906377 0.00090335694 -0.00018587448 0.00060129573 -0.0010446776 -0.0011102154 0.00090619177
-0.001305604 -0.0011367766 -0.00056194706 0.00034567423 -0.00035561464 -0.0013890658 -0.00292642 -0.0014596632
0.00056190917 0.0003851115 0.00041348604 -0.0011732448

1.0.mdl.input_to_hidden.0.cbias.bias f4 [100]
00000000: ca7b 19bf 2d9d dabe bb87 a9be eb82 993f
00000010: 87d2 88bf e093 243d a1a6 6bbf f463 8f3f
00000020: 67f6 91bf 5717 a73f 3c74 9e3f 9d9d 8f3f
00000030: caea 353f aa4b 673f d5f2 e73d 4a74 a4bf
00000040: 2d88 b23e b769 933f edda 993f ee9a 683f
00000050: 02b0 a9bf 9396 f5be 38be 9abf 1b0c 2ebf
00000060: b92f a3bf 2956 2b3d 1d1d 073e f320 c53f
00000070: 8d07 123f 2aa3 7ebe 24c3 623f bd19 95bf
00000080: 5e7e 97bf 683e 03be 4b8a 11bf 598d a5bf
00000090: 87e4 2f3f a01a ed3e 2e26 25bf 131d 893f
000000a0: 9d87 213f 6cd8 4dbf 39ea 02bf e247 abbf
000000b0: d828 a93f dc81 38bf 5b81 b4bf 31b2 743f
000000c0: 5085 a63f 3ad4 aabf 8d5c ad3f dcbe ac3f
000000d0: c7ea 26bf ef1f a5bf 92dd 933f cb32 9abf
000000e0: 4eed 773f 39f8 8fbf 9af2 90be 8e61 153f
000000f0: 3646 b83f 8407 c73f 55da a9be f85f 83bf
00000100: 6cf8 bb3f eeb0 c03f 5409 aabf 478c b43f
00000110: fcef 733f eb0f 24bf d07d d23f b165 6dbf
00000120: f3e1 9bbe 97e6 523f 8c02 7c3f 31b4 b4bf
00000130: d73b 54bf fb7d 20bf 92d4 92bf e4de b23f
00000140: 5ab3 8b3f 6e98 81bf cc0a 61bf c27b 30bf
00000150: 8fd7 2abf eabc c0bc 711a 35be 425e 9cbe
00000160: a90a c03f eba0 36bf 55c2 af3f a8ae a43f
00000170: fdac 963f 7389 893e f01c dbbe 9fcf febe
00000180: 5b45 00bf 50d4 a8bf e4ec 81bf 9919 d2be
-0.5995451 -0.4269804 -0.33111367 1.1993078 -1.0689248 0.040180087 -0.9205113 1.1202378
-1.1403321 1.3053998 1.2379222 1.1219975 0.71061385 0.9034983 0.113256134 -1.2847989
0.3486952 1.1516637 1.2019936 0.90861404 -1.3256838 -0.47966442 -1.20893 -0.6798722
-1.2748939 0.041830216 0.131947 1.540068 0.5704277 -0.2486693 0.8857901 -1.164848
-1.1835439 -0.12816775 -0.56851643 -1.2933761 0.6870808 0.46309376 -0.6451138 1.0711998
0.63097554 -0.8040836 -0.51138645 -1.3381312 1.321559 -0.7207315 -1.4101976 0.955844
1.3009434 -1.3346016 1.3543869 1.3495746 -0.6520199 -1.290037 1.1551993 -1.2046751
0.96846473 -1.1247627 -0.2831009 0.5835198 1.4396427 1.5549169 -0.33174387 -1.0263662
1.4685187 1.5053995 -1.3284097 1.4105309 0.9528806 -0.6408679 1.6444645 -0.92733294
-0.30445823 0.823831 0.98441386 -1.411749 -0.8290381 -0.6269223 -1.1471121 1.3974271
1.0914109 -1.0124643 -0.879071 -0.6893884 -0.66735166 -0.023527581 -0.17685868 -0.30540663
1.5003253 -0.7133929 1.373118 1.2865801 1.1771542 0.26862678 -0.42795515 -0.49767777
-0.5010583 -1.3189793 -1.0150418 -0.41035154
