models/bkp/lhc_e400_s1993_p0.0_h100_faffine_fl5_l1_dsdim16_dsl1_best_model.pt (torch_old, 108273 bytes, 73 tensors)

0.0.mdl.input_to_hidden.0.direction f4 [100, 7]
0	0x3ea2d96e	0.3180651
1	0xba8ea5bd	-0.0010883134
2	0xb98e8fe3	-0.00027191555
3	0x3ae42733	0.0017406702
4	0xb70a9e44	-8.26229e-06
5	0x3992fd5e	0.00028036063
6	0x3ac8dc94	0.0015324526
7	0x3e4468c0	0.19180584
8	0x3d87a60f	0.0662347
9	0x3e1d4b43	0.15360741
10	0x3e8019f3	0.25019798
11	0x3e8033f4	0.25039637
12	0x3a68121c	0.0008852796
13	0x39e6ae8e	0.00043999072
14	0x3e281c64	0.1641708
15	0xbf811914	-1.0085778
16	0xbea40535	-0.32035223
17	0xbf5f8140	-0.87306595
18	0xbd45d505	-0.048298854
19	0x3b0f6300	0.0021879077
20	0x3880bacb	6.1383085e-05
21	0x3eab437c	0.33449924
22	0xba7d42cb	-0.0009661137
23	0xba182598	-0.0005803942
24	0x39ea6fd1	0.00044715268
25	0x3a18a70b	0.0005823231
26	0x3b2195c7	0.0024655925
27	0xb94d0b1e	-0.00019554465
28	0xbe349fcf	-0.17639087
29	0x3e0af305	0.13569267
30	0xbe97a7d2	-0.29620224
31	0xbf9c37f6	-1.2204578
32	0xbc1cfe57	-0.009582124
33	0xb9df8347	-0.00042631684
34	0x38804033	6.115474e-05
35	0xbe9b9418	-0.30386424
36	0x3d318717	0.043341722
37	0xbf0410af	-0.5158796
38	0xb84b0929	-4.8407503e-05
39	0x38c74098	9.501091e-05
40	0xbad0ccae	-0.001593014
41	0x39b88df7	0.00035200987
42	0xbee59088	-0.4483683
43	0xb88ed550	-6.81082e-05
44	0x3a8d8efc	0.0010800059
45	0x38258887	3.9466217e-05
46	0x3a36f47d	0.00069791806
47	0xba148863	-0.0005666075
48	0x3a9059af	0.0011013056
49	0xbbe56d2a	-0.0070015388
50	0x3f984f0c	1.1899123
51	0xbdf84a3f	-0.12123536
52	0x3cef17cd	0.029186154
53	0xba00c140	-0.0004911609
54	0xb98619f0	-0.00025577797
55	0xbb03d68e	-0.0020116898
56	0x3f14087f	0.57825464
57	0x3f1b454e	0.60652626
58	0xbaba8902	-0.0014231505
59	0x391afc7e	0.00014780645
60	0x39ff123e	0.00048650982
61	0xbaac81fc	-0.0013161297
62	0x3ab8c19f	0.001409579
63	0xbe869cff	-0.26291654
64	0x39d67c10	0.00040909695
65	0xb8a556d9	-7.88399e-05
66	0x3a228a69	0.0006200434
67	0xba95684e	-0.0011398883
68	0xba1c99e9	-0.0005973862
69	0xb9f06af3	-0.0004585605
70	0xbd958f0e	-0.07302676
71	0x3f7edcd8	0.9955573
72	0xbd417247	-0.047228124
73	0xbdeea13b	-0.11651846
74	0x3951d9b7	0.00020012898
75	0x38b761f9	8.744369e-05
76	0xb8f69bec	-0.00011759237
77	0xbefffbc5	-0.49996772
78	0xbec2e5b2	-0.3806587
79	0x3eaba9c9	0.33527973
80	0x3e04001d	0.12890668
81	0x39e41800	0.0004350543
82	0x39c4a554	0.00037507212
83	0x3a10ee5d	0.0005528683
84	0xbda5648b	-0.08075818
85	0x3bd53e22	0.006507651
86	0xb9ee36c0	-0.0004543569
87	0xbae29bea	-0.0017288898
88	0xb92df435	-0.0001658954
89	0xbaa152e1	-0.0012308025
90	0xb9c4d71b	-0.000375443
91	0xbc5ece4e	-0.013598992
92	0xbd26fab0	-0.040766418
93	0xbdc97a92	-0.098378316
94	0xbfb45914	-1.4089684
95	0xbc07c603	-0.008286956
96	0x3999f542	0.00029365165
97	0xba573655	-0.0008209695
98	0x3e12ba93	0.14328985
99	0x3a8b00a6	0.0010605052
100	0xba9998f3	-0.0011718556
101	0xb99ad3b5	-0.00029530903
102	0xb9054b1c	-0.00012711849
103	0x3abb0d76	0.001427098
104	0x3950c553	0.00019909935
105	0x3ee15547	0.44010374
106	0x3a68b2b6	0.00088767277
107	0xba35a4ee	-0.00069291785
108	0x3acf7a6f	0.0015829335
109	0xbaa35a11	-0.0012462755
110	0xba3bb4eb	-0.0007160443
111	0xbacfa9e3	-0.0015843477
112	0x3ba5a80c	0.005055433
113	0x3f4e6fdf	0.8063945
114	0x373e060a	1.1326289e-05
115	0xba0ba550	-0.00053270627
116	0xb8d5a198	-0.00010186731
117	0x3821b49f	3.8553608e-05
118	0x3a836cb4	0.0010026903
119	0xbe0df94c	-0.1386463
120	0x3d5de1c6	0.054170392
121	0x3c9071e3	0.01763243
122	0x3e1af3c0	0.15132046
123	0xbea0827c	-0.31349552
124	0x3a5e87a5	0.00084888405
125	0xbb0bd875	-0.0021338735
126	0xbd8526ed	-0.06501565
127	0xbdb93df8	-0.09045023
128	0x3a4d218c	0.0007825128
129	0xb9e11a67	-0.00042935016
130	0x39d3deb1	0.00040410974
131	0x3a5f0946	0.0008508157
132	0x3a070b40	0.00051515177
133	0x3dd108d3	0.10206761
134	0xbf5b8f18	-0.8576522
135	0x3dd07311	0.10178197
136	0x3c1be6a4	0.009515438
137	0xbe9cf807	-0.3065798
138	0xbce4b5c4	-0.027918704
139	0xba09eb40	-0.000526119
140	0x3e7be577	0.24599253
141	0xbb1e2130	-0.0024128668
142	0xba5a7f04	-0.0008334967
143	0x3a8a3db3	0.0010546952
144	0x3a9f6b15	0.001216265
145	0x37b7c6d4	2.1907887e-05
146	0x39ba5bbe	0.00035545038
147	0xbe8361aa	-0.2566045
148	0xbfde8b01	-1.7386171
149	0x3e1c547d	0.15266605
150	0x3c2e028b	0.0106207235
151	0x3ea4534f	0.3209481
152	0x3cf569ca	0.02995767
153	0xb90eb1c7	-0.00013608403
154	0x3dff473f	0.12464761
155	0x3ff0c75d	1.8810841
156	0xbe1f5c29	-0.155625
157	0xbd23c1aa	-0.039979614
158	0x3ada2a82	0.0016644748
159	0xbaf13af8	-0.0018404415
160	0xb9a6285f	-0.00031692066
161	0x3cbdaabd	0.023152703
162	0xbf786a5a	-0.9703728
163	0x3d8f5fa3	0.07000663
164	0xb904c079	-0.00012660203
165	0x3a41a597	0.00073870405
166	0x39e84275	0.00044300003
167	0xba8de789	-0.0010826449
168	0xbe8a6f6b	-0.2703813
169	0x3f5aa903	0.8541414
170	0x3ecef89c	0.4042405
171	0xbcb88711	-0.022525342
172	0x3e990003	0.2988282
173	0x39d6ae46	0.00040947105
174	0xb8b67171	-8.6995664e-05
175	0x3d0813b0	0.0332219
176	0x3e98a05b	0.29809842
177	0x3d332b08	0.04374221
178	0x3f7c6f3b	0.98607224
179	0xbad21413	-0.0016027711
180	0xbdfc91b4	-0.12332478
181	0xb927b5c8	-0.0001599408
182	0x3df77400	0.12082672
183	0x3dc08c10	0.09401715
184	0xbd090a14	-0.033456877
185	0x3d628d82	0.055310734
186	0xbd45a94f	-0.04825717
187	0x3ea6a56c	0.32548082
188	0xba6e9aa2	-0.00091020216
189	0xbd2d2297	-0.042269316
190	0x3f5a9851	0.85388666
191	0xba34f637	-0.0006903144
192	0xba69823c	-0.0008907651
193	0x3a1335e5	0.0005615636
194	0xbab2f8e6	-0.00136545
195	0x39c9e15b	0.0003850561
196	0xbeb90143	-0.36133775
197	0xbf57ed74	-0.843467
198	0x3e210186	0.15723237
199	0x3a0db776	0.0005406061
200	0x39d6aaf8	0.00040944642
201	0xba5385bd	-0.000806894
202	0xb925c372	-0.00015808435
203	0x3cca3a49	0.024685996
204	0xbf14f2b2	-0.58182824
205	0x3e01118d	0.12604351
206	0x3e771dad	0.24132414
207	0x3adbf3b0	0.0016780999
208	0x3a52bc0a	0.0008038884
209	0x3ab870f8	0.0014071753
210	0xbdc8f50f	-0.09812366
211	0x3e9a0b75	0.30086866
212	0x3dc834f2	0.097757235
213	0x3f5ecd52	0.87032044
214	0xbe4f1e40	-0.20226383
215	0xb8312244	-4.2232e-05
216	0x3999bc4d	0.0002932273
217	0x3d8f4ce3	0.06997087
218	0x3d73b626	0.059499882
219	0x3e208b3e	0.15678117
220	0xbf79f028	-0.97632074
221	0xb9e5f55f	-0.000438611
222	0xba42f8c3	-0.0007437581
223	0xb9ce668e	-0.0003936779
224	0x3c22b778	0.009931438
225	0xbf681fb0	-0.9067335
226	0x3a1e09fe	0.00060287106
227	0x3a65c7b3	0.0008765414
228	0x391a83d8	0.000147357
229	0x3a022283	0.0004964249
230	0xb9f71cf1	-0.00047133074
231	0xbccb7b90	-0.024839193
232	0xbc14ea48	-0.00908906
233	0x3dd21eb9	0.10259766
234	0xbdbe6f79	-0.092986055
235	0xbb1f9ec9	-0.0024356118
236	0x3ac475ab	0.0014988681
237	0x3a8477e7	0.0010106534
238	0xbe579240	-0.21051884
239	0x3e5cc0c6	0.21557912
240	0xbe8e21f6	-0.27760285
241	0x3da5857f	0.08082103
242	0x3a5a6442	0.00083309796
243	0xbac05e70	-0.0014676582
244	0x3832022a	4.2440523e-05
245	0x3d36c710	0.044623435
246	0xbf422b08	-0.7584691
247	0xb9b791db	-0.0003501315
248	0x3a9a35ab	0.0011765262
249	0xba8fff1a	-0.001098606
250	0xb95037d8	-0.00019857229
251	0x3a737108	0.00092865573
252	0x3ed9d485	0.42544952
253	0x3aafa90c	0.001340182
254	0x3a10c9a6	0.0005523212
255	0xba626647	-0.00086364563

0.0.mdl.input_to_hidden.0.mask f4 [100, 7]
0	0x3f800000	1.0
1	0x00000000	0.0
2	0x00000000	0.0
3	0x00000000	0.0
4	0x00000000	0.0
5	0x00000000	0.0
6	0x00000000	0.0
7	0x3f800000	1.0
8	0x3f800000	1.0
9	0x3f800000	1.0
10	0x3f800000	1.0
11	0x3f800000	1.0
12	0x00000000	0.0
13	0x00000000	0.0
14	0x3f800000	1.0
15	0x3f800000	1.0
16	0x3f800000	1.0
17	0x3f800000	1.0
18	0x3f800000	1.0
19	0x00000000	0.0
20	0x00000000	0.0
21	0x3f800000	1.0
22	0x00000000	0.0
23	0x00000000	0.0
24	0x00000000	0.0
25	0x00000000	0.0
26	0x00000000	0.0
27	0x00000000	0.0
28	0x3f800000	1.0
29	0x3f800000	1.0
30	0x3f800000	1.0
31	0x3f800000	1.0
32	0x3f800000	1.0
33	0x00000000	0.0
34	0x00000000	0.0
35	0x3f800000	1.0
36	0x3f800000	1.0
37	0x3f800000	1.0
38	0x00000000	0.0
39	0x00000000	0.0
40	0x00000000	0.0
41	0x00000000	0.0
42	0x3f800000	1.0
43	0x00000000	0.0
44	0x00000000	0.0
45	0x00000000	0.0
46	0x00000000	0.0
47	0x00000000	0.0
48	0x00000000	0.0
49	0x3f800000	1.0
50	0x3f800000	1.0
51	0x3f800000	1.0
52	0x3f800000	1.0
53	0x00000000	0.0
54	0x00000000	0.0
55	0x00000000	0.0
56	0x3f800000	1.0
57	0x3f800000	1.0
58	0x00000000	0.0
59	0x00000000	0.0
60	0x00000000	0.0
61	0x00000000	0.0
62	0x00000000	0.0
63	0x3f800000	1.0
64	0x00000000	0.0
65	0x00000000	0.0
66	0x00000000	0.0
67	0x00000000	0.0
68	0x00000000	0.0
69	0x00000000	0.0
70	0x3f800000	1.0
71	0x3f800000	1.0
72	0x3f800000	1.0
73	0x3f800000	1.0
74	0x00000000	0.0
75	0x00000000	0.0
76	0x00000000	0.0
77	0x3f800000	1.0
78	0x3f800000	1.0
79	0x3f800000	1.0
80	0x3f800000	1.0
81	0x00000000	0.0
82	0x00000000	0.0
83	0x00000000	0.0
84	0x3f800000	1.0
85	0x3f800000	1.0
86	0x00000000	0.0
87	0x00000000	0.0
88	0x00000000	0.0
89	0x00000000	0.0
90	0x00000000	0.0
91	0x3f800000	1.0
92	0x3f800000	1.0
93	0x3f800000	1.0
94	0x3f800000	1.0
95	0x3f800000	1.0
96	0x00000000	0.0
97	0x00000000	0.0
98	0x3f800000	1.0
99	0x00000000	0.0
100	0x00000000	0.0
101	0x00000000	0.0
102	0x00000000	0.0
103	0x00000000	0.0
104	0x00000000	0.0
105	0x3f800000	1.0
106	0x00000000	0.0
107	0x00000000	0.0
108	0x00000000	0.0
109	0x00000000	0.0
110	0x00000000	0.0
111	0x00000000	0.0
112	0x3f800000	1.0
113	0x3f800000	1.0
114	0x00000000	0.0
115	0x00000000	0.0
116	0x00000000	0.0
117	0x00000000	0.0
118	0x00000000	0.0
119	0x3f800000	1.0
120	0x3f800000	1.0
121	0x3f800000	1.0
122	0x3f800000	1.0
123	0x3f800000	1.0
124	0x00000000	0.0
125	0x00000000	0.0
126	0x3f800000	1.0
127	0x3f800000	1.0
128	0x00000000	0.0
129	0x00000000	0.0
130	0x00000000	0.0
131	0x00000000	0.0
132	0x00000000	0.0
133	0x3f800000	1.0
134	0x3f800000	1.0
135	0x3f800000	1.0
136	0x3f800000	1.0
137	0x3f800000	1.0
138	0x3f800000	1.0
139	0x00000000	0.0
140	0x3f800000	1.0
141	0x00000000	0.0
142	0x00000000	0.0
143	0x00000000	0.0
144	0x00000000	0.0
145	0x00000000	0.0
146	0x00000000	0.0
147	0x3f800000	1.0
148	0x3f800000	1.0
149	0x3f800000	1.0
150	0x3f800000	1.0
151	0x3f800000	1.0
152	0x3f800000	1.0
153	0x00000000	0.0
154	0x3f800000	1.0
155	0x3f800000	1.0
156	0x3f800000	1.0
157	0x3f800000	1.0
158	0x00000000	0.0
159	0x00000000	0.0
160	0x00000000	0.0
161	0x3f800000	1.0
162	0x3f800000	1.0
163	0x3f800000	1.0
164	0x00000000	0.0
165	0x00000000	0.0
166	0x00000000	0.0
167	0x00000000	0.0
168	0x3f800000	1.0
169	0x3f800000	1.0
170	0x3f800000	1.0
171	0x3f800000	1.0
172	0x3f800000	1.0
173	0x00000000	0.0
174	0x00000000	0.0
175	0x3f800000	1.0
176	0x3f800000	1.0
177	0x3f800000	1.0
178	0x3f800000	1.0
179	0x3f800000	1.0
180	0x3f800000	1.0
181	0x00000000	0.0
182	0x3f800000	1.0
183	0x3f800000	1.0
184	0x3f800000	1.0
185	0x3f800000	1.0
186	0x3f800000	1.0
187	0x3f800000	1.0
188	0x00000000	0.0
189	0x3f800000	1.0
190	0x3f800000	1.0
191	0x00000000	0.0
192	0x00000000	0.0
193	0x00000000	0.0
194	0x00000000	0.0
195	0x00000000	0.0
196	0x3f800000	1.0
197	0x3f800000	1.0
198	0x3f800000	1.0
199	0x00000000	0.0
200	0x00000000	0.0
201	0x00000000	0.0
202	0x00000000	0.0
203	0x3f800000	1.0
204	0x3f800000	1.0
205	0x3f800000	1.0
206	0x3f800000	1.0
207	0x00000000	0.0
208	0x00000000	0.0
209	0x00000000	0.0
210	0x3f800000	1.0
211	0x3f800000	1.0
212	0x3f800000	1.0
213	0x3f800000	1.0
214	0x3f800000	1.0
215	0x00000000	0.0
216	0x00000000	0.0
217	0x3f800000	1.0
218	0x3f800000	1.0
219	0x3f800000	1.0
220	0x3f800000	1.0
221	0x00000000	0.0
222	0x00000000	0.0
223	0x00000000	0.0
224	0x3f800000	1.0
225	0x3f800000	1.0
226	0x00000000	0.0
227	0x00000000	0.0
228	0x00000000	0.0
229	0x00000000	0.0
230	0x00000000	0.0
231	0x3f800000	1.0
232	0x3f800000	1.0
233	0x3f800000	1.0
234	0x3f800000	1.0
235	0x00000000	0.0
236	0x00000000	0.0
237	0x00000000	0.0
238	0x3f800000	1.0
239	0x3f800000	1.0
240	0x3f800000	1.0
241	0x3f800000	1.0
242	0x00000000	0.0
243	0x00000000	0.0
244	0x00000000	0.0
245	0x3f800000	1.0
246	0x3f800000	1.0
247	0x00000000	0.0
248	0x00000000	0.0
249	0x00000000	0.0
250	0x00000000	0.0
251	0x00000000	0.0
252	0x3f800000	1.0
253	0x00000000	0.0
254	0x00000000	0.0
255	0x00000000	0.0

0.0.mdl.input_to_hidden.0.cscale.weight f4 [100, 1]
0	0xbb2a0c5c	-0.0025947308
1	0x3b045652	0.0020193052
2	0x3a4d4a8a	0.00078312366
3	0xba357005	-0.0006921294
4	0x39f816bc	0.00047319185
5	0xba55ec8a	-0.0008160552
6	0x3b21053c	0.002456977
7	0x3aeacf21	0.0017914512
8	0x3aab5ec9	0.0013074513
9	0x3aca5418	0.0015436439
10	0x3931d519	0.0001695942
11	0xb9ae92af	-0.00033297154
12	0x3a5aac6b	0.00083417323
13	0xba05cd69	-0.0005104156
14	0x3ad94939	0.0016577608
15	0x3a7c99eb	0.00096359727
16	0x38c8543c	9.552433e-05
17	0x3b0f295e	0.0021844725
18	0x386646c9	5.4902197e-05
19	0xb9950e06	-0.00028429943
20	0xb8aaa6b8	-8.1372855e-05
21	0x3af35a70	0.0018566381
22	0xb9c450f7	-0.00037444357
23	0xb9bc465f	-0.00035910585
24	0xb9b83c3b	-0.0003514009
25	0xb9ef72f9	-0.00045671294
26	0xba04b32b	-0.00050620985
27	0x3a9ba930	0.0011875983
28	0x39b739c0	0.00034947507
29	0xbaa31ad4	-0.0012443908
30	0x3a30b61e	0.0006741005
31	0xb82772db	-3.992287e-05
32	0x3b239e1a	0.0024966062
33	0xba90d0ca	-0.0011048552
34	0xb77e71a9	-1.5166043e-05
35	0xba17753e	-0.00057776633
36	0x3aa2e222	0.0012427012
37	0xba23ae23	-0.0006243905
38	0x3b0ca060	0.0021457896
39	0xb814d9ba	-3.5488723e-05
40	0xba721601	-0.0009234846
41	0x38842ae5	6.30224e-05
42	0xba1227ef	-0.00055754086
43	0x3a28066b	0.0006409648
44	0xbab0ec15	-0.0013498092
45	0x3a15e31a	0.00057177397
46	0x3992e61e	0.0002801874
47	0x3aae001f	0.0013275183
48	0x38b5b554	8.6645276e-05
49	0x38e2e0f0	0.00010818418
50	0xba2fe15d	-0.0006709302
51	0xb9ebf496	-0.00045004924
52	0x3a08a692	0.0005212809
53	0x38bc3858	8.9750334e-05
54	0xbac79dcf	-0.0015229526
55	0xbacf30ee	-0.0015807429
56	0x38d31448	0.00010065042
57	0xbaa90b62	-0.0012897069
58	0xbaf36af8	-0.0018571308
59	0xbb18951a	-0.002328223
60	0xb7d6e2b0	-2.5616348e-05
61	0x3a9f4bfe	0.0012153385
62	0xba37b1c1	-0.00070073834
63	0x3a6e3289	0.000908651
64	0xb9c64e36	-0.00037823775
65	0x396ecb08	0.00022773084
66	0xba7a7eff	-0.0009555667
67	0xba004103	-0.00048925
68	0xb9c78308	-0.00038053864
69	0xba0ec51d	-0.0005446242
70	0x3a241eb6	0.000626068
71	0x3a698ebe	0.0008909515
72	0x3a2da6c5	0.0006624277
73	0x3a8488cb	0.0010111568
74	0x3abbb215	0.001432004
75	0xbabe0af0	-0.0014499109
76	0x3a25f9c0	0.0006331466
77	0x3a57aae9	0.0008227067
78	0x3a5a2a2c	0.0008322324
79	0x3abbf843	0.0014340956
80	0xba1f46de	-0.00060759287
81	0xba097d3e	-0.0005244798
82	0x39475b69	0.00019012172
83	0xba759b3b	-0.00093691394
84	0x39d40911	0.00040442546
85	0x39bf9f2a	0.00036548945
86	0xb9812e28	-0.00024639186
87	0x3aad19b1	0.0013206509
88	0x399c5be6	0.00029823108
89	0xb983fadb	-0.0002517317
90	0xb9584c09	-0.0002062769
91	0xbac792e1	-0.0015226268
92	0xba8b61a2	-0.0010633955
93	0xbabea7f4	-0.0014545904
94	0x38ee8e59	0.00011375239
95	0xbaaf5339	-0.0013376243
96	0xb9a0679a	-0.00030594767
97	0xb9ac949b	-0.00032917116
98	0x38acffa6	8.249217e-05
99	0xba899468	-0.0010496499

0.0.mdl.input_to_hidden.0.cscale.bias f4 [100]
0	0xbf7f6639	-0.99765354
1	0x3eb2e397	0.34939262
2	0x3fcbbcaa	1.5916951
3	0xbf7ec477	-0.9951853
4	0x3fcc3bbf	1.5955733
5	0x3f5483e4	0.8301375
6	0x3f25607e	0.6460036
7	0xc0073795	-2.1127675
8	0xbfd47027	-1.6596726
9	0x3f9c5a0a	1.2214978
10	0x3fdf3264	1.7437253
11	0xbf8517a8	-1.0397844
12	0x3d844c59	0.06459875
13	0x400316de	2.0482707
14	0xbf2f7411	-0.6853648
15	0xbf272336	-0.652881
16	0xbfa524e3	-1.2901882
17	0xbf870cce	-1.0550783
18	0xbe21e039	-0.1580819
19	0xbf9eb9ff	-1.2400512
20	0xbfa4408b	-1.2832197
21	0x400f23f1	2.2365687
22	0xc012644b	-2.2873714
23	0xbf9719bd	-1.180473
24	0xbfac0ec2	-1.3442004
25	0xbf92375b	-1.1423143
26	0x3eafdee3	0.34349737
27	0x3f6d5f34	0.92723393
28	0xbfd3852f	-1.652502
29	0xbf8d14b3	-1.1021942
30	0xbf304e3a	-0.68869364
31	0xbfe44626	-1.7833908
32	0xbf6f0a81	-0.933754
33	0x3cb756be	0.02238023
34	0x3f18f0d0	0.5974245
35	0xbf4017db	-0.750364
36	0xbf9a34d2	-1.204737
37	0x3f6562d8	0.8960395
38	0xbfcf34f4	-1.6188035
39	0xbf77860f	-0.9668893
40	0xbf53cecc	-0.8273742
41	0xbfd51e13	-1.6649803
42	0xbf93a346	-1.1534202
43	0xbf47026e	-0.7773808
44	0xc00d1778	-2.2045574
45	0x3f65f1e7	0.8982224
46	0x3fbe0fbb	1.484855
47	0xbf7a5f7a	-0.97801936
48	0xbf8c66b2	-1.096884
49	0x3f83c49b	1.0294374
50	0xbecfc722	-0.40581614
51	0x3f9bd345	1.2173849
52	0xbf9b1c3e	-1.2117994
53	0xbff7231d	-1.9307591
54	0xbfcaeae3	-1.5852932
55	0x3f8ce396	1.1006954
56	0xbf7b0dc7	-0.980679
57	0x3f931ac7	1.1492547
58	0x3ffe2c20	1.9857216
59	0xbfc73978	-1.5564413
60	0xbe8397a6	-0.25701636
61	0xbea2918a	-0.31751662
62	0x3f6e1ac4	0.9300959
63	0xbfc9e94f	-1.5774325
64	0xbfbd68ae	-1.4797571
65	0x3f73e946	0.9527782
66	0x3f310882	0.69153607
67	0x39aeccf7	0.00033340577
68	0x3fbd79a0	1.4802742
69	0x3fb264be	1.3936994
70	0x3f8513ed	1.0396706
71	0x3f92bed1	1.1464483
72	0x403d3e81	2.95694
73	0x3f181eb2	0.5942184
74	0x3fc119f4	1.5086045
75	0xbfcab778	-1.583724
76	0xbfc1a946	-1.5129783
77	0x3f7cdfe2	0.9877912
78	0xbfc567a8	-1.5422258
79	0xbfd3532c	-1.6509757
80	0xbf9d0a9c	-1.2268863
81	0xbfc75d64	-1.5575376
82	0x3fd17195	1.6362787
83	0x400fc0f4	2.246152
84	0xbfa5e89f	-1.2961615
85	0xbf9db1a8	-1.2319841
86	0x3fa36116	1.2764003
87	0xb69d70ef	-4.692112e-06
88	0x3faad9de	1.3347738
89	0x3f3f9ccd	0.74848634
90	0x3f8a5f4b	1.0810331
91	0xbff8ccf9	-1.9437553
92	0x3fe22f6c	1.7670722
93	0x3f962e9f	1.1732978
94	0x3f397fd7	0.72460693
95	0xbf8c0e16	-1.0941799
96	0x3fccfb41	1.6014177
97	0x3fc4f211	1.5386373
98	0x3fb825a5	1.4386488
99	0xbfdd570d	-1.7292191

0.0.mdl.input_to_hidden.0.cbias.weight f4 [100, 1]
0	0xba18266c	-0.0005804065
1	0xba770a36	-0.0009423824
2	0xba855409	-0.0010172139
3	0xbaa403fb	-0.0012513393
4	0x3a3551cd	0.00069167913
5	0x3a88a0dc	0.0010423916
6	0x3b251130	0.0025187247
7	0xba66507c	-0.0008785797
8	0xb94401be	-0.00018692666
9	0xb97665d4	-0.00023498322
10	0xb9c6375c	-0.0003780675
11	0xbad40a9b	-0.0016177477
12	0x3ad9b220	0.0016608872
13	0x3a717797	0.00092112407
14	0x3b0ebad5	0.002177884
15	0xbab446d0	-0.0013754014
16	0xb9b6fefd	-0.00034903726
17	0x3a846495	0.0010100777
18	0x3985eee9	0.0002554574
19	0xba3183cc	-0.00067716534
20	0x3943e476	0.00018681758
21	0xba0148f5	-0.0004931831
22	0xba07415e	-0.0005159582
23	0x3ade67df	0.0016968212
24	0x3a648e86	0.00087187474
25	0x39388f99	0.00017601102
26	0xba5affd2	-0.000835416
27	0x39486b52	0.00019113466
28	0xba71513c	-0.0009205525
29	0x396386fc	0.00021698693
30	0xb9d1313f	-0.00039900278
31	0x39dc7520	0.00042048935
32	0xbad4a6f8	-0.0016224077
33	0x3a256198	0.0006308793
34	0xb8aeae5a	-8.329442e-05
35	0xba53e0fd	-0.0008082537
36	0xb962f820	-0.00021645473
37	0xba80a763	-0.000981551
38	0x3a25641c	0.0006309168
39	0x3a08e7d1	0.00052225316
40	0x3a4dc045	0.000784878
41	0xb93f4a9a	-0.0001824297
42	0xb9c5c61e	-0.00037722377
43	0x394ca4ff	0.00019516422
44	0xb9d03d64	-0.0003971859
45	0xbac289fa	-0.0014842146
46	0x3a863b76	0.0010241109
47	0x3a80da9b	0.0009830775
48	0xb8a846d7	-8.024059e-05
49	0x3aa7d593	0.0012804739
50	0x3a8a6a55	0.0010560254
51	0xbafd5037	-0.0019326274
52	0xbaa33da1	-0.001245428
53	0xba58ab94	-0.0008265313
54	0xb81e2846	-3.7707643e-05
55	0x3ad4ba66	0.0016229867
56	0xba53197d	-0.0008052809
57	0xb81d7343	-3.7539063e-05
58	0xb94f7341	-0.00019783994
59	0x3abc0cec	0.0014347113
60	0x382c70ca	4.111304e-05
61	0xb9e3db29	-0.000434601
62	0x394d0937	0.00019553756
63	0xba2f8a75	-0.0006696352
64	0x3a122708	0.0005575274
65	0x39ecb4f8	0.0004514826
66	0x3b065a47	0.0020500587
67	0x3ab9fc2d	0.0014189534
68	0xb986997e	-0.00025672832
69	0x3ab45859	0.001375924
70	0xb9659f54	-0.00021898496
71	0x3afcb2ad	0.0019279324
72	0xba4c1e1a	-0.0007786468
73	0x3a4b85b8	0.0007763761
74	0xb9c620c3	-0.00037789912
75	0x39141e06	0.00014125564
76	0x3a9b4988	0.0011847476
77	0xbacb80a3	-0.0015526008
78	0xba8cfcf0	-0.0010756534
79	0xb8bb82e0	-8.941232e-05
80	0x3aa5ad4d	0.0012640149
81	0xbab0fd6d	-0.0013503261
82	0xba8fa8d4	-0.0010960349
83	0x3ac681b8	0.001514486
84	0xb9bde370	-0.00036218343
85	0xbaa50335	-0.0012589457
86	0xbaa08eb7	-0.0012249564
87	0xba060877	-0.00051129557
88	0x3a629716	0.00086437294
89	0xba855a99	-0.0010174095
90	0x39dc91db	0.0004207034
91	0x3a056683	0.0005088823
92	0x3a5102ba	0.00079731236
93	0xb9bd39ec	-0.00036092044
94	0xb78f1a2a	-1.7059112e-05
95	0xb9d2225f	-0.0004007993
96	0xba306910	-0.0006729523
97	0xb9b6e95f	-0.0003488762
98	0xb9cfe14a	-0.0003964997
99	0x39a528be	0.00031501608

0.0.mdl.input_to_hidden.0.cbias.bias f4 [100]
0	0xbfa7d20d	-1.3110977
1	0x3fac768d	1.3473679
2	0xc02e2e26	-2.7215667
3	0x3f309295	0.68973666
4	0xbffc1118	-1.9692717
5	0x3f3bc6cb	0.7335021
6	0xbf9380b8	-1.1523657
7	0x3f872fe1	1.0561486
8	0xbf02beb8	-0.51072264
9	0xbf7a0a65	-0.9767211
10	0x3f08149c	0.5315645
11	0xbf826dc4	-1.0189748
12	0xbfcd8391	-1.6055776
13	0xc02b5500	-2.677063
14	0x3f8ad5d6	1.0846508
15	0xbfa34c46	-1.2757652
16	0xbfae1444	-1.3599935
17	0x3f86ebed	1.0540749
18	0xbd36ffc0	-0.044677496
19	0xbfc1e59c	-1.5148196
20	0xbfd7e98a	-1.6868145
21	0x3f603ac4	0.8758967
22	0x3f03afbf	0.5144004
23	0xc0061269	-2.0948737
24	0xbffcfbad	-1.9764305
25	0xbfd5afff	-1.6694335
26	0x3f965e6e	1.1747568
27	0x3fe0add5	1.7553049
28	0xbfc71c79	-1.5555564
29	0x3f451db8	0.7699847
30	0xbf4b5936	-0.79433
31	0xbf4c3b07	-0.7977757
32	0x3fd61619	1.6725494
33	0xbf98b934	-1.193152
34	0x3f42a5a4	0.76034
35	0x3fdb70a2	1.7143748
36	0xbf74b630	-0.95590496
37	0xbfc3195e	-1.5242116
38	0xbfe359ec	-1.7761817
39	0x3fb8f75b	1.4450487
40	0xbfc603e2	-1.5469935
41	0xbf1b9bf2	-0.6078483
42	0xbfbe3acf	-1.4861697
43	0x3f8abf88	1.0839701
44	0xbcc172c4	-0.023614295
45	0xbf51e3cc	-0.81988215
46	0x3fc579f3	1.5427841
47	0x3f991707	1.1960152
48	0x3fbd3006	1.478028
49	0x3fa52c08	1.2904062
50	0x3f9d0004	1.226563
51	0x3f2a8716	0.66612375
52	0xbd358828	-0.0443193
53	0xbea22716	-0.31670445
54	0xbfec223e	-1.844795
55	0x3f9fb297	1.2476376
56	0xbf90bb59	-1.1307174
57	0xbfde294e	-1.7356355
58	0x3fc93700	1.571991
59	0x3f6d80be	0.9277457
60	0xbf60e75c	-0.87853026
61	0x3f5e9f83	0.86962146
62	0x3f87f58e	1.0621812
63	0xbfa56916	-1.2922695
64	0xbf362b35	-0.7115968
65	0xbf03d174	-0.51491475
66	0x3fb1a735	1.3879153
67	0xbf7f22c9	-0.9966245
68	0x3fc36ed3	1.5268196
69	0xc0062f1b	-2.096625
70	0x3f46e830	0.7769804
71	0x3fb5633b	1.4170908
72	0x3f0b6601	0.5445252
73	0xbf8e5bb9	-1.1121742
74	0xbfce5bf8	-1.6121817
75	0x3f16a1db	0.5884072
76	0xbf823c77	-1.0174702
77	0x3ec0bdab	0.37644705
78	0xbeba68e6	-0.36408156
79	0xbd88b444	-0.06675008
80	0x3fc71e19	1.555606
81	0x3fc06326	1.5030258
82	0x3fe0687a	1.7531884
83	0xbf242a97	-0.64127487
84	0x3fabc948	1.3420801
85	0x3f57aed8	0.84251165
86	0x3e85beb7	0.26122066
87	0x3fc391ef	1.527891
88	0x3e04bf95	0.12963708
89	0x3fd8ed47	1.6947411
90	0x3f2fd304	0.6868136
91	0xbe2ae765	-0.16689833
92	0x3fcc838b	1.5977644
93	0xc0001ddb	-2.0018222
94	0x3f8d5906	1.1042793
95	0xbfc0d078	-1.506362
96	0xc0115d38	-2.2713146
97	0x3fc26589	1.5187236
98	0xbfd82541	-1.6886369
99	0x3da2a17d	0.07940958

0.0.mdl.hidden_to_output.direction f4 [14, 100]
0	0x3b18882d	0.0023274526
1	0xba7c8191	-0.0009632344
2	0xba813ae7	-0.0009859473
3	0x39c86c4f	0.0003822767
4	0xba0d4cc4	-0.0005390162
5	0xbacb65a3	-0.0015517961
6	0xbac3c91d	-0.0014937256
7	0x39a84a89	0.0003209899
8	0x3a057e41	0.00050923607
9	0xba81e26e	-0.00099094
10	0x3b40c87e	0.0029416378
11	0xb9d8dcc7	-0.00041363222
12	0xba817921	-0.0009878018
13	0xba8dbacb	-0.0010813115
14	0x3a67e96e	0.00088467344
15	0xb929c866	-0.0001619175
16	0xb92916e2	-0.0001612562
17	0xba0e8db4	-0.00054379855
18	0xba8efef7	-0.0010909726
19	0x39926efe	0.00027929986
20	0xbaaeb87c	-0.0013330127
21	0xbaa1f369	-0.0012355867
22	0xba2f1ada	-0.00066797214
23	0x3a4a1f66	0.0007710367
24	0xbad0f835	-0.0015943112
25	0x3a5d4719	0.00084410753
26	0xb8794318	-5.9428712e-05
27	0xba8af3f9	-0.0010601274
28	0xb9b5549d	-0.00034586052
29	0xbaaebd28	-0.001333152
30	0x397657d2	0.00023493104
31	0xb872705b	-5.7801935e-05
32	0x399330af	0.00028074297
33	0xba876a10	-0.0010331292
34	0x3a701aa8	0.00091592455
35	0x37f5e63f	2.9313493e-05
36	0xb92e99b4	-0.00016651192
37	0x3a803244	0.0009780605
38	0xba9b53f3	-0.001185058
39	0x379024de	1.7183305e-05
40	0x3a26aa3d	0.0006357765
41	0xb94105f9	-0.0001840814
42	0xbaf3e1b4	-0.0018606693
43	0xb8dd2db1	-0.00010546612
44	0x3b2b730d	0.0026161105
45	0x39ccb99b	0.000390482
46	0x3ad6322f	0.001634186
47	0x39e05cef	0.0004279385
48	0xba82b3d0	-0.0009971801
49	0x39ec35bf	0.00045053472
50	0xb996b709	-0.000287466
51	0x37080346	8.106994e-06
52	0x39738f8e	0.00023227764
53	0x3a10fdd0	0.0005530985
54	0x3a3c8a78	0.00071922643
55	0xba0db8d5	-0.0005406265
56	0x3ab36023	0.0013685267
57	0xba340942	-0.00068678346
58	0xb98bcd5b	-0.00026665148
59	0x3967ee9b	0.00022118764
60	0x3ac7bb32	0.0015238284
61	0xba14d234	-0.00056770747
62	0x3a8f28cf	0.0010922196
63	0xba4a6d32	-0.000772196
64	0xba2bd099	-0.0006554216
65	0x3872e12a	5.7906997e-05
66	0xb9a7dca7	-0.0003201712
67	0x3b2f9bb6	0.0026795692
68	0x389cb7c5	7.4728894e-05
69	0x39eb1796	0.00044840266
70	0x3a441e38	0.00074813096
71	0xba97b5d8	-0.0011574579
72	0xb9611ac0	-0.00021467637
73	0xba9d3125	-0.0011992796
74	0xba80608e	-0.00097944
75	0xba98e523	-0.0011664968
76	0x392043a4	0.00015283987
77	0xb9563ce2	-0.00020431311
78	0xbab63d6c	-0.0013903803
79	0x3ab3e5f8	0.0013725152
80	0xba0548ab	-0.0005084376
81	0xbaabe91a	-0.0013115734
82	0xbabd5a06	-0.0014446385
83	0x39928a14	0.00027950166
84	0x3a063926	0.000512021
85	0xba93c07e	-0.0011272577
86	0x39b2381e	0.00033992616
87	0x3a5f4667	0.00085172657
88	0x3a366a62	0.00069586013
89	0x3ac95cb2	0.0015362708
90	0x3a812e3f	0.0009855701
91	0x38118511	3.469462e-05
92	0x3a047efd	0.0005054323
93	0xba069827	-0.0005134367
94	0x398ca43c	0.00026825245
95	0xb9872613	-0.00025777574
96	0xb9d61be5	-0.00040838044
97	0x3abc30fa	0.0014357858
98	0xba0a38e1	-0.0005272758
99	0x3a949b76	0.0011337835
100	0x3908b142	0.00013036004
101	0x3b1b1200	0.0023661852
102	0xb9f10534	-0.0004597098
103	0x3b1848a7	0.0023236664
104	0xb97fd7e5	-0.00024399122
105	0x3a887081	0.0010409505
106	0x3aae7832	0.0013310967
107	0x398b599f	0.0002657892
108	0xbab9b4cd	-0.0014168263
109	0x3a946f46	0.0011324666
110	0x39845090	0.00025237026
111	0x3ae31042	0.0017323571
112	0x3ae32588	0.0017329911
113	0xba99c1a3	-0.0011730682
114	0x3a483893	0.0007637825
115	0xba9680c4	-0.0011482467
116	0xba21605b	-0.00061560207
117	0x3a49bd46	0.00076957454
118	0x391d39ff	0.00014994292
119	0xbab42fb7	-0.001374713
120	0x39d88bde	0.0004130294
121	0xba77c91c	-0.000945227
122	0x39540f08	0.00020223495
123	0xb8e8fd23	-0.000111097725
124	0x398b51b9	0.00026573034
125	0xb8289809	-4.0195915e-05
126	0xba25b52f	-0.0006321249
127	0xba09180c	-0.00052297185
128	0x3b25261d	0.002519972
129	0xba0a8c99	-0.0005285233
130	0xb7648fff	-1.3623386e-05
131	0x391ef5b8	0.00015159592
132	0xbad31d70	-0.0016106796
133	0x3aa00537	0.0012208585
134	0xb9a8818c	-0.00032139977
135	0xba5b21d7	-0.00083592295
136	0x3a442560	0.0007482376
137	0xbaa760dc	-0.0012769955
138	0xba7f7e96	-0.0009746341
139	0xba89b0c3	-0.001050495
140	0xba009352	-0.0004904765
141	0x38511a02	4.9853705e-05
142	0xbaf2312e	-0.0018477791
143	0x3ac80a39	0.0015261836
144	0x3a51761b	0.00079903164
145	0x3aa77e34	0.00127787
146	0xbacca55f	-0.0015613249
147	0x3a376d41	0.0006997176
148	0x39b14875	0.00033814055
149	0x3af08013	0.0018348716
150	0xb8faba9e	-0.00011955689
151	0xbac200cd	-0.0014801264
152	0xbad745b1	-0.0016423968
153	0xb9d65261	-0.00040878638
154	0xbafe8fae	-0.0019421482
155	0x3ad5aa9d	0.0016301457
156	0x39f0eea9	0.00045954183
157	0x39decb6b	0.00042494698
158	0x3802c05c	3.1173564e-05
159	0xba30626b	-0.00067285326
160	0xb9a6bf48	-0.00031804503
161	0x39998f37	0.00029289137
162	0x3aaa3db3	0.0012988359
163	0xbae45d1a	-0.0017422766
164	0x3a879fc1	0.0010347293
165	0xba0c0f30	-0.0005342839
166	0xb9cc273a	-0.00038939138
167	0x3aa74686	0.0012762106
168	0xba179d87	-0.0005783666
169	0xba0f0938	-0.0005456391
170	0x3a0081aa	0.0004902134
171	0xba33b8dc	-0.00068558543
172	0xbac4cd52	-0.0015014804
173	0x3a2272bf	0.0006196908
174	0xba11b155	-0.00055577356
175	0x3954683e	0.00020256729
176	0xbaac9901	-0.0013168157
177	0xb9b7cc46	-0.00035056676
178	0x3a992452	0.0011683798
179	0x3a95e51a	0.0011436075
180	0xbb191e4d	-0.0023364008
181	0x3adad6ad	0.0016696058
182	0xba7602b4	-0.0009384558
183	0x3b006af7	0.0019595006
184	0xba413712	-0.0007370572
185	0x39517ee8	0.0001997907
186	0xb9ef977e	-0.00045698503
187	0xba27b4bf	-0.00063974777
188	0x39e98d45	0.00044546477
189	0x3a614b14	0.00085942564
190	0x3a8b8049	0.001064309
191	0xb98887e2	-0.00026041182
192	0xb9aad57a	-0.0003258398
193	0x39ffa36b	0.00048759146
194	0x3a814642	0.0009862857
195	0x3ab1db0d	0.001356931
196	0xb9868a31	-0.00025661432
197	0xb7b252ca	-2.1257805e-05
198	0xbb0812e7	-0.002076322
199	0x39905dfa	0.00027535838
200	0x3e1052dc	0.14094108
201	0x800009fe	-3.585e-42
202	0x000002f2	1.057e-42
203	0xbce33ea3	-0.027739828
204	0x80000fe8	-5.706e-42
205	0x80000ba3	-4.174e-42
206	0x3e0686a0	0.13137293
207	0x000006e2	2.469e-42
208	0x000015d5	7.832e-42
209	0x3e05e118	0.13074148
210	0x00000b7e	4.123e-42
211	0x00000717	2.543e-42
212	0x80000c23	-4.354e-42
213	0x00000f81	5.562e-42
214	0xbd3de339	-0.046359275
215	0x3e0e82b1	0.13917042
216	0x00001344	6.911e-42
217	0x00000668	2.298e-42
218	0x800017de	-8.562e-42
219	0x80000852	-2.985e-42
220	0x3e229c0c	0.1587984
221	0x00000ef5	5.366e-42
222	0x80000e45	-5.119e-42
223	0x80001763	-8.39e-42
224	0x80000622	-2.2e-42
225	0x0000111f	6.142e-42
226	0x800005e4	-2.113e-42
227	0x800004b9	-1.694e-42
228	0x00001762	8.388e-42
229	0x80000258	-8.41e-43
230	0x80002241	-1.2288e-41
231	0x800010c7	-6.019e-42
232	0x000000e6	3.22e-43
233	0x0000221f	1.224e-41
234	0x800015e5	-7.854e-42
235	0x000025c4	1.3548e-41
236	0x3e1915e2	0.14949754
237	0x3e1bb442	0.15205482
238	0x800010f3	-6.08e-42
239	0xbe8eb3a1	-0.2787142
240	0x3e1ccf12	0.15313366
241	0x3cbfa130	0.02339229
242	0x800011a9	-6.335e-42
243	0x00000b11	3.97e-42
244	0x000009fe	3.585e-42
245	0x000006ab	2.392e-42
246	0x80000fa0	-5.605e-42
247	0x80000405	-1.442e-42
248	0x00000f38	5.46e-42
249	0x0000240a	1.2928e-41
250	0x00000cfd	4.66e-42
251	0x80000d05	-4.67e-42
252	0x80000a2d	-3.65e-42
253	0x80001ead	-1.1004e-41
254	0x8000101f	-5.783e-42
255	0x00000147	4.58e-43

0.0.mdl.hidden_to_output.cscale.weight f4 [14, 1]
0	0xba7e665d	-0.00097045844
1	0x3a2bbe0c	0.00065514515
2	0xb891ec28	-6.958126e-05
3	0x3a6af184	0.000896238
4	0x3a4a2802	0.000771165
5	0xba370636	-0.00069818215
6	0xba42b942	-0.0007428118
7	0x3a199a4c	0.0005859479
8	0x3796e500	1.798803e-05
9	0xb9f5d738	-0.00046890392
10	0x3a2cc412	0.0006590496
11	0x3a2cad80	0.0006587133
12	0x39be5f6c	0.0003631072
13	0xba82c6fc	-0.0009977515

0.0.mdl.hidden_to_output.cscale.bias f4 [14]
0	0x00000000	0.0
1	0x00000000	0.0
2	0xbf23cbca	-0.6398283
3	0x3f19adc7	0.6003079
4	0xbf87edda	-1.0619462
5	0x3f2bc404	0.6709597
6	0x3f196a3b	0.5992772
7	0x3f7a7052	0.9782764
8	0xbfe29ad4	-1.77035
9	0xbfa497d5	-1.2858835
10	0x3f0df00b	0.554444
11	0x3fa735d0	1.3063297
12	0xbf8840dd	-1.0644795
13	0x3f8fdb7a	1.1238854

0.0.mdl.hidden_to_output.cbias.weight f4 [14, 1]
0	0x391cd490	0.00014956505
1	0xba1508da	-0.0005685218
2	0xb863ae70	-5.4283475e-05
3	0xba583a5d	-0.0008248443
4	0x3a1237be	0.0005577764
5	0xba66b8bd	-0.0008801332
6	0x3a53abac	0.00080745923
7	0xb8976e98	-7.220841e-05
8	0x395f4468	0.0002129242
9	0xb91b8e34	-0.00014834927
10	0xb80df4c0	-3.384496e-05
11	0xb92f4b0c	-0.00016717258
12	0x39847e84	0.00025271263
13	0xba611359	-0.0008585952

0.0.mdl.hidden_to_output.cbias.bias f4 [14]
0	0x3f1cad2c	0.6120174
1	0x4010ae09	2.2606223
2	0x3eaa2ba4	0.3323642
3	0x40159bfd	2.3376458
4	0xbf38a383	-0.721245
5	0x400687b0	2.1020317
6	0x3c9920b7	0.018692357
7	0x4007a001	2.1191409
8	0x3e8102a3	0.25197324
9	0x4009bf69	2.1523077
10	0x3ebd6035	0.36987463
11	0x3fea50ff	1.8305968
12	0x3e81f204	0.25379956
13	0x3ff5d5b8	1.9205847

1.0.mdl.input_to_hidden.0.direction f4 [100, 7]
0	0x3eae7599	0.34074095
1	0x3a5b995a	0.0008377038
2	0x3acc273e	0.001557566
3	0x3a97d6af	0.0011584366
4	0x398f69ef	0.00027354012
5	0x378b1609	1.6580352e-05
6	0xbb0e9c6e	-0.002176072
7	0xbd8f0497	-0.06983297
8	0xbda2515f	-0.079256766
9	0x3c4d91a8	0.012546934
10	0x3d1c0b07	0.038096454
11	0xbeb3f73f	-0.3514957
12	0x3f82da14	1.0222802
13	0xba6abdfd	-0.0008954702
14	0x3ec09361	0.3761244
15	0xb9803eaf	-0.00024460765
16	0xb8cc81f4	-9.751684e-05
17	0xb98d4d8d	-0.00026951396
18	0xbabb9f9a	-0.0014314533
19	0x3a9fbeb3	0.001218757
20	0x3a990e6c	0.0011677272
21	0x3ea82b06	0.32845324
22	0xbd3fa067	-0.04678383
23	0xba86bf1d	-0.0010280345
24	0xba158ea9	-0.0005705157
25	0xbabebb6f	-0.0014551709
26	0xb966d158	-0.00022012496
27	0xbb0844f8	-0.0020793062
28	0x3ecc00df	0.39844415
29	0x3e3eb735	0.18624575
30	0xb98c8afe	-0.00026806438
31	0x3a3f7b04	0.00073044025
32	0x37b3b318	2.142186e-05
33	0xba9d0c59	-0.0011981829
34	0xbaac2614	-0.0013133907
35	0x3e6af385	0.22944458
36	0xbad0fbfb	-0.0015944237
37	0x38c90be2	9.58664e-05
38	0xba6d7816	-0.0009058727
39	0x3ace1b9a	0.0015724779
40	0x39958736	0.00028520235
41	0x3b07cf4f	0.002072293
42	0x3ed09bc3	0.40743837
43	0xbe6c5164	-0.23077923
44	0xb9fa8b87	-0.00047787672
45	0xba9fc37e	-0.0012188999
46	0xba1da0d1	-0.0006013038
47	0x39bdf232	0.0003622934
48	0xb860693e	-5.3503776e-05
49	0x3f0232b3	0.5085861
50	0x3f1bd857	0.60876983
51	0x3df0a34e	0.11749898
52	0x3df82675	0.1211671
53	0x3fddebb5	1.7337557
54	0xb973922f	-0.00023228744
55	0xba940a2a	-0.0011294533
56	0x3e8df516	0.27726048
57	0xbeb24a28	-0.34822202
58	0x3d123403	0.035694133
59	0xbd9aa385	-0.0755072
60	0xbf7cc6cd	-0.98740846
61	0x39b30fe7	0.0003415339
62	0x39b389b7	0.00034244146
63	0x3eb801fd	0.35939017
64	0x3ea7599f	0.32685563
65	0xbd0c739a	-0.034289934
66	0xbe7637a6	-0.24044666
67	0xbb040590	-0.0020144917
68	0x39bda4a4	0.00036171556
69	0x3b32163c	0.0027173897
70	0xbe23f701	-0.16012193
71	0x3f0a753a	0.54085124
72	0xbd705fec	-0.05868523
73	0x3a8a26b1	0.0010540095
74	0x395dcb51	0.00021151944
75	0xbaaa219c	-0.0012979987
76	0xb93099c7	-0.00016841954
77	0x3ea56bac	0.3230871
78	0x3e8ae05e	0.27124304
79	0xbd10d0bd	-0.03535532
80	0xbdc434e7	-0.09580403
81	0xb9df53cc	-0.00042596308
82	0xba3c458b	-0.00071819936
83	0x392384f4	0.0001559442
84	0xbe8d92ca	-0.27651054
85	0xbb81f148	-0.0039655305
86	0xbd4e01b9	-0.05029461
87	0x3a9756d1	0.0011546259
88	0xc00bdcb6	-2.1853461
89	0xba20ed55	-0.0006138881
90	0x3a843d8b	0.0010089142
91	0x3e517fde	0.20458934
92	0x3d5cb8fe	0.05388736
93	0x3a8d97de	0.0010802706
94	0x3a5ea08d	0.0008492552
95	0x3892c9b9	6.999396e-05
96	0xb8bb873a	-8.942043e-05
97	0xba0b46cc	-0.0005312979
98	0xbf0adbc8	-0.5424161
99	0xbea20776	-0.31646317
100	0xba920cb1	-0.0011142698
101	0xbac10abf	-0.0014727934
102	0x395176d5	0.00019976062
103	0xb93df5b1	-0.00018115972
104	0xba9f4cb7	-0.00121536
105	0x3e56e9af	0.2098758
106	0x3e18bdad	0.14916106
107	0xbe283373	-0.16425876
108	0xb849c269	-4.8103193e-05
109	0x3abc961e	0.0014388
110	0xba103862	-0.0005501566
111	0xb9d75021	-0.00041067696
112	0x3e05ca52	0.1306546
113	0xbf50e75d	-0.8160303
114	0xbd57452c	-0.0525562
115	0x3a2db7a0	0.00066267885
116	0x39fb5c7b	0.00047943354
117	0xbaab4793	-0.0013067595
118	0x39977472	0.00028887723
119	0x3ee0372c	0.43792093
120	0x3da55ab2	0.080739394
121	0xbb02a243	-0.0019933141
122	0x39eb44c3	0.00044873924
123	0x39d851fb	0.0004125981
124	0x373da2ff	1.1303228e-05
125	0x3a633fa2	0.0008668845
126	0x3eddd696	0.4332778
127	0xbad1a436	-0.0015994373
128	0x38d6165d	0.00010208481
129	0xba40e77d	-0.0007358713
130	0xba028c24	-0.0004979989
131	0x39afca50	0.00033529336
132	0x39c3bcc5	0.00037333943
133	0xbf0c8406	-0.5488895
134	0x3cf941dd	0.030426914
135	0xbe1e6db2	-0.15471533
136	0x3e33fc4b	0.17576711
137	0xbfda8b15	-1.7073694
138	0x38b2a8cf	8.5191445e-05
139	0xba3e9985	-0.0007270801
140	0xbdef19c6	-0.11674838
141	0xbee084cc	-0.43851316
142	0xbc42f61e	-0.011899499
143	0x3e34dea2	0.17663053
144	0xbee6812d	-0.45020428
145	0x3adcfa88	0.0016859332
146	0x3a258b1f	0.0006314981
147	0x3eb64041	0.35595897
148	0x39e404e7	0.000434912
149	0x3965e861	0.0002192571
150	0x39af5b2d	0.00033446532
151	0xba5570b4	-0.0008142099
152	0xba78e19b	-0.0009494067
153	0xba53bf86	-0.00080775504
154	0x3dcb3907	0.099229865
155	0xbea03331	-0.31289056
156	0xbce95180	-0.028481245
157	0xbe69261f	-0.22768448
158	0xbf34588a	-0.704476
159	0x3a9be520	0.0011893846
160	0x3a4537bb	0.0007523258
161	0xbdfd50fb	-0.123689614
162	0x3dbac0cb	0.091188036
163	0xbdb27172	-0.08713044
164	0xbe22d1d7	-0.1590036
165	0xbf1a3fc5	-0.60253555
166	0x3aa09a62	0.0012253041
167	0xba6dacfb	-0.00090666086
168	0xbeecf78f	-0.46282622
169	0xbe0e1a04	-0.13877112
170	0xbaa13a2a	-0.001230066
171	0xb8d45ff8	-0.00010126823
172	0x3a7d2144	0.0009656141
173	0xba808731	-0.0009805915
174	0x390dbd98	0.00013517437
175	0xbdce0f03	-0.10061457
176	0xbe6206e0	-0.22072935
177	0x3d490c36	0.04908391
178	0xbca478a2	-0.020077053
179	0x3f55cb86	0.8351368
180	0xbabbcbd4	-0.0014327713
181	0xb9b0ff9c	-0.0003375978
182	0xbd9a7c52	-0.075432435
183	0x3dd29fda	0.102843955
184	0x3cd00a89	0.025395649
185	0x3cf75cba	0.030195583
186	0xbf8a4650	-1.0802708
187	0xb6b94218	-5.521124e-06
188	0x3a422dca	0.0007407336
189	0xbced6daa	-0.028982956
190	0xbda3636d	-0.07977948
191	0xbcb4f928	-0.022091463
192	0xbc3ef3ab	-0.011654775
193	0xbf971046	-1.1801841
194	0x3e897f41	0.268549
195	0xb9b5cf74	-0.00034677575
196	0x3ee6fb28	0.45113492
197	0x3aad9753	0.0013243951
198	0xb8a737e0	-7.973588e-05
199	0xba08d8c2	-0.0005220288
200	0xb9290310	-0.00016118237
201	0xba84424e	-0.0010090561
202	0xba8b1fe2	-0.001061436
203	0xbf0d4370	-0.55181026
204	0xbf123c4d	-0.5712326
205	0xba6ea041	-0.0009102859
206	0xbb06dd77	-0.002057878
207	0x3a81597b	0.0009868586
208	0x3a9908c1	0.0011675583
209	0xba853f32	-0.0010165928
210	0xbd8421ce	-0.0645176
211	0x3f8a14dd	1.0787617
212	0xbda0bf27	-0.078489594
213	0x39d6eeb2	0.00040995103
214	0x3a67c0ad	0.00088406616
215	0xba44194c	-0.0007480576
216	0xba6db02a	-0.0009067083
217	0xbea9a902	-0.33136755
218	0xbda4086f	-0.08009421
219	0xbc996e52	-0.018729363
220	0x3e1be195	0.15222771
221	0xba0493f4	-0.0005057447
222	0x38f13e05	0.000115033276
223	0xbb079c38	-0.002069248
224	0xbd7fa28d	-0.06241088
225	0x3e674e2b	0.22588412
226	0x3da8b7bb	0.08238169
227	0x3d22aa65	0.039713282
228	0x3f42d700	0.76109314
229	0x39da2ec6	0.0004161505
230	0x3ae6ad17	0.0017599192
231	0xbd37e23c	-0.04489349
232	0xbd295254	-0.04133828
233	0xbc726d70	-0.0147966
234	0xbd90f7f8	-0.07078546
235	0xbeab3517	-0.33438942
236	0x3f86b3ff	1.052368
237	0xba2db138	-0.0006625834
238	0x3e836df8	0.25669837
239	0xbe848b35	-0.25887457
240	0x3a67ff6c	0.00088500115
241	0x38c53ed6	9.405396e-05
242	0x3a7495ce	0.0009330184
243	0xb89e92a5	-7.561342e-05
244	0xba08f1ba	-0.00052240083
245	0x3ea03b90	0.31295443
246	0x3dcd1564	0.100138456
247	0xbe9b1c1c	-0.30294883
248	0xb915bba2	-0.00014279646
249	0x3ad7288d	0.0016415283
250	0x39617866	0.00021502524
251	0x3a8805e0	0.0010377727
252	0xbdc0a683	-0.094067596
253	0x3edfe6c9	0.43730763
254	0x3d213748	0.03935936
255	0x3de920a3	0.11383178

1.0.mdl.input_to_hidden.0.mask f4 [100, 7]
0	0x3f800000	1.0
1	0x00000000	0.0
2	0x00000000	0.0
3	0x00000000	0.0
4	0x00000000	0.0
5	0x00000000	0.0
6	0x00000000	0.0
7	0x3f800000	1.0
8	0x3f800000	1.0
9	0x3f800000	1.0
10	0x3f800000	1.0
11	0x3f800000	1.0
12	0x3f800000	1.0
13	0x00000000	0.0
14	0x3f800000	1.0
15	0x00000000	0.0
16	0x00000000	0.0
17	0x00000000	0.0
18	0x00000000	0.0
19	0x00000000	0.0
20	0x00000000	0.0
21	0x3f800000	1.0
22	0x3f800000	1.0
23	0x00000000	0.0
24	0x00000000	0.0
25	0x00000000	0.0
26	0x00000000	0.0
27	0x00000000	0.0
28	0x3f800000	1.0
29	0x3f800000	1.0
30	0x00000000	0.0
31	0x00000000	0.0
32	0x00000000	0.0
33	0x00000000	0.0
34	0x00000000	0.0
35	0x3f800000	1.0
36	0x00000000	0.0
37	0x00000000	0.0
38	0x00000000	0.0
39	0x00000000	0.0
40	0x00000000	0.0
41	0x00000000	0.0
42	0x3f800000	1.0
43	0x3f800000	1.0
44	0x00000000	0.0
45	0x00000000	0.0
46	0x00000000	0.0
47	0x00000000	0.0
48	0x00000000	0.0
49	0x3f800000	1.0
50	0x3f800000	1.0
51	0x3f800000	1.0
52	0x3f800000	1.0
53	0x3f800000	1.0
54	0x00000000	0.0
55	0x00000000	0.0
56	0x3f800000	1.0
57	0x3f800000	1.0
58	0x3f800000	1.0
59	0x3f800000	1.0
60	0x3f800000	1.0
61	0x00000000	0.0
62	0x00000000	0.0
63	0x3f800000	1.0
64	0x3f800000	1.0
65	0x3f800000	1.0
66	0x3f800000	1.0
67	0x00000000	0.0
68	0x00000000	0.0
69	0x00000000	0.0
70	0x3f800000	1.0
71	0x3f800000	1.0
72	0x3f800000	1.0
73	0x00000000	0.0
74	0x00000000	0.0
75	0x00000000	0.0
76	0x00000000	0.0
77	0x3f800000	1.0
78	0x3f800000	1.0
79	0x3f800000	1.0
80	0x3f800000	1.0
81	0x00000000	0.0
82	0x00000000	0.0
83	0x00000000	0.0
84	0x3f800000	1.0
85	0x3f800000	1.0
86	0x3f800000	1.0
87	0x3f800000	1.0
88	0x3f800000	1.0
89	0x00000000	0.0
90	0x00000000	0.0
91	0x3f800000	1.0
92	0x3f800000	1.0
93	0x00000000	0.0
94	0x00000000	0.0
95	0x00000000	0.0
96	0x00000000	0.0
97	0x00000000	0.0
98	0x3f800000	1.0
99	0x3f800000	1.0
100	0x00000000	0.0
101	0x00000000	0.0
102	0x00000000	0.0
103	0x00000000	0.0
104	0x00000000	0.0
105	0x3f800000	1.0
106	0x3f800000	1.0
107	0x3f800000	1.0
108	0x00000000	0.0
109	0x00000000	0.0
110	0x00000000	0.0
111	0x00000000	0.0
112	0x3f800000	1.0
113	0x3f800000	1.0
114	0x3f800000	1.0
115	0x00000000	0.0
116	0x00000000	0.0
117	0x00000000	0.0
118	0x00000000	0.0
119	0x3f800000	1.0
120	0x3f800000	1.0
121	0x00000000	0.0
122	0x00000000	0.0
123	0x00000000	0.0
124	0x00000000	0.0
125	0x00000000	0.0
126	0x3f800000	1.0
127	0x00000000	0.0
128	0x00000000	0.0
129	0x00000000	0.0
130	0x00000000	0.0
131	0x00000000	0.0
132	0x00000000	0.0
133	0x3f800000	1.0
134	0x3f800000	1.0
135	0x3f800000	1.0
136	0x3f800000	1.0
137	0x3f800000	1.0
138	0x00000000	0.0
139	0x00000000	0.0
140	0x3f800000	1.0
141	0x3f800000	1.0
142	0x3f800000	1.0
143	0x3f800000	1.0
144	0x3f800000	1.0
145	0x00000000	0.0
146	0x00000000	0.0
147	0x3f800000	1.0
148	0x00000000	0.0
149	0x00000000	0.0
150	0x00000000	0.0
151	0x00000000	0.0
152	0x00000000	0.0
153	0x00000000	0.0
154	0x3f800000	1.0
155	0x3f800000	1.0
156	0x3f800000	1.0
157	0x3f800000	1.0
158	0x3f800000	1.0
159	0x00000000	0.0
160	0x00000000	0.0
161	0x3f800000	1.0
162	0x3f800000	1.0
163	0x3f800000	1.0
164	0x3f800000	1.0
165	0x3f800000	1.0
166	0x00000000	0.0
167	0x00000000	0.0
168	0x3f800000	1.0
169	0x3f800000	1.0
170	0x00000000	0.0
171	0x00000000	0.0
172	0x00000000	0.0
173	0x00000000	0.0
174	0x00000000	0.0
175	0x3f800000	1.0
176	0x3f800000	1.0
177	0x3f800000	1.0
178	0x3f800000	1.0
179	0x3f800000	1.0
180	0x00000000	0.0
181	0x00000000	0.0
182	0x3f800000	1.0
183	0x3f800000	1.0
184	0x3f800000	1.0
185	0x3f800000	1.0
186	0x3f800000	1.0
187	0x00000000	0.0
188	0x00000000	0.0
189	0x3f800000	1.0
190	0x3f800000	1.0
191	0x3f800000	1.0
192	0x3f800000	1.0
193	0x3f800000	1.0
194	0x3f800000	1.0
195	0x00000000	0.0
196	0x3f800000	1.0
197	0x00000000	0.0
198	0x00000000	0.0
199	0x00000000	0.0
200	0x00000000	0.0
201	0x00000000	0.0
202	0x00000000	0.0
203	0x3f800000	1.0
204	0x3f800000	1.0
205	0x00000000	0.0
206	0x00000000	0.0
207	0x00000000	0.0
208	0x00000000	0.0
209	0x00000000	0.0
210	0x3f800000	1.0
211	0x3f800000	1.0
212	0x3f800000	1.0
213	0x00000000	0.0
214	0x00000000	0.0
215	0x00000000	0.0
216	0x00000000	0.0
217	0x3f800000	1.0
218	0x3f800000	1.0
219	0x3f800000	1.0
220	0x3f800000	1.0
221	0x00000000	0.0
222	0x00000000	0.0
223	0x00000000	0.0
224	0x3f800000	1.0
225	0x3f800000	1.0
226	0x3f800000	1.0
227	0x3f800000	1.0
228	0x3f800000	1.0
229	0x00000000	0.0
230	0x00000000	0.0
231	0x3f800000	1.0
232	0x3f800000	1.0
233	0x3f800000	1.0
234	0x3f800000	1.0
235	0x3f800000	1.0
236	0x3f800000	1.0
237	0x00000000	0.0
238	0x3f800000	1.0
239	0x3f800000	1.0
240	0x00000000	0.0
241	0x00000000	0.0
242	0x00000000	0.0
243	0x00000000	0.0
244	0x00000000	0.0
245	0x3f800000	1.0
246	0x3f800000	1.0
247	0x3f800000	1.0
248	0x00000000	0.0
249	0x00000000	0.0
250	0x00000000	0.0
251	0x00000000	0.0
252	0x3f800000	1.0
253	0x3f800000	1.0
254	0x3f800000	1.0
255	0x3f800000	1.0

1.0.mdl.input_to_hidden.0.cscale.weight f4 [100, 1]
0	0xb8470195	-4.744677e-05
1	0x39f6e9ea	0.00047095056
2	0xbabf3600	-0.0014588237
3	0xb8e7da09	-0.000110555506
4	0xba4e99ac	-0.0007881175
5	0xbadae32b	-0.0016699781
6	0xba9574c8	-0.0011402601
7	0xb9fa8d72	-0.000477891
8	0xba0ec665	-0.0005446433
9	0x3aa0d470	0.0012270343
10	0xb89b1075	-7.394041e-05
11	0x3b1a9702	0.0023588543
12	0x3ac74bf3	0.001520513
13	0xbad0654f	-0.0015899333
14	0xbaa0b52f	-0.0012261028
15	0x3ab8363a	0.0014054247
16	0x3a6eab6d	0.0009104524
17	0x3a169352	0.00057439983
18	0x391ab12b	0.00014752585
19	0x3b13a984	0.002253146
20	0xbab072b3	-0.0013461917
21	0x3a351442	0.00069076207
22	0x38ec3636	0.000112634545
23	0xb829c279	-4.0473857e-05
24	0x3a2337b4	0.0006226257
25	0x3a55d5a9	0.0008157143
26	0x38a14cc7	7.691379e-05
27	0x38fb57ef	0.000119849916
28	0xb9a33dea	-0.00031135912
29	0x3981863a	0.00024704804
30	0xba31f45e	-0.00067884277
31	0x3a4abb11	0.00077335635
32	0x3aae035c	0.0013276148
33	0x39237a2a	0.00015590401
34	0xb93cbd7e	-0.00017999668
35	0x3ad6ca08	0.0016387114
36	0x39966a19	0.00028689278
37	0xba9af68e	-0.0011822747
38	0x39585218	0.00020629948
39	0xbafd8548	-0.0019342089
40	0xba65a1da	-0.00087597745
41	0x3a417673	0.0007380016
42	0xbacd1d06	-0.0015648908
43	0x3887d637	6.477202e-05
44	0xba43ad98	-0.0007464527
45	0xba307f06	-0.0006732795
46	0x3a680f70	0.0008852398
47	0xba11e19b	-0.0005564929
48	0xb8cd9dc7	-9.80455e-05
49	0xba1c4892	-0.00059617416
50	0xbab928e5	-0.0014126567
51	0x39eb4d68	0.00044880365
52	0xbadd4d40	-0.0016883984
53	0xba897731	-0.0010487792
54	0x3900a90a	0.00012270003
55	0xbb0573c9	-0.0020363203
56	0xba76fdcd	-0.00094219745
57	0xb9ca9bf3	-0.00038644634
58	0xb928af8e	-0.00016087128
59	0xba9c6a4a	-0.0011933532
60	0x3b11a7f5	0.0022225354
61	0xb9cd652a	-0.0003917602
62	0xba1254e0	-0.00055821054
63	0x38bb6f96	8.937639e-05
64	0xba03598c	-0.0005010597
65	0x3980c0b2	0.00024557632
66	0x38dd5e8b	0.00010555711
67	0x38fe8189	0.000121357916
68	0x39c178ea	0.00036901917
69	0x3a70791c	0.000917332
70	0x3a72eb91	0.00092666695
71	0x3abb03e0	0.0014268123
72	0xbb0d8ded	-0.0021599487
73	0x3a2abc8b	0.00065130804
74	0x3aa1ee70	0.0012354385
75	0xb90c3ba5	-0.0001337366
76	0x3aa81e02	0.0012826326
77	0xba15b724	-0.0005711189
78	0x3a3da3ff	0.0007234215
79	0xbaa0a487	-0.0012256064
80	0x39f095c7	0.0004588796
81	0x392b9f5c	0.00016367197
82	0xbb15d15c	-0.0022860384
83	0x3a290101	0.0006446988
84	0xb9c79d09	-0.00038073238
85	0xb9274916	-0.00015953588
86	0x3a39c870	0.00070870575
87	0x38ee493a	0.00011362364
88	0x38a876e2	8.033008e-05
89	0x39d7c6bb	0.0004115606
90	0xbb04688d	-0.0020203919
91	0x399f8aa9	0.00030430153
92	0xba670e92	-0.0008814122
93	0x3aa3d01a	0.0012497932
94	0x3a517928	0.0007990771
95	0xba4fdf3c	-0.0007929688
96	0x3ab1287c	0.0013516094
97	0x39b91386	0.00035300496
98	0xb98d49df	-0.00026948654
99	0x3950660f	0.00019874446

1.0.mdl.input_to_hidden.0.cscale.bias f4 [100]
0	0x3f2103f1	0.6289664
1	0xc004e2b4	-2.0763369
2	0x3efe39f8	0.49653602
3	0x3fa09b47	1.2547387
4	0x3f3b0f98	0.7307067
5	0x3f84d5f6	1.0377796
6	0x3f1574fe	0.5838164
7	0xc0273683	-2.6127021
8	0xc0049acf	-2.0719488
9	0xbf15ae92	-0.584695
10	0x3f9090af	1.1294154
11	0xbf39b036	-0.725345
12	0x4079752f	3.8977773
13	0x3f160e2f	0.5861539
14	0x3fb9ebb8	1.4525061
15	0x3fadf63f	1.3590773
16	0xbfdcfc22	-1.7264445
17	0x3fa93fb1	1.3222562
18	0xbf41ca57	-0.7569937
19	0x402f6e88	2.7411213
20	0xbf2e6728	-0.68126154
21	0x3f386c0c	0.72039866
22	0xbfb44b78	-1.4085531
23	0xbfbec9b3	-1.4905304
24	0xbf4b48fa	-0.7940823
25	0x3f8be38d	1.0928818
26	0x3ff0e801	1.8820802
27	0x4008d6e1	2.1381152
28	0x3f87585a	1.0573838
29	0x3f9f3607	1.2438363
30	0x3fedec2f	1.8587703
31	0xbf5f413f	-0.8720893
32	0x3fe1ba6b	1.7635015
33	0xc0167aad	-2.3512375
34	0x3f28b517	0.6590132
35	0x3fa0c1eb	1.2559179
36	0xc006ff69	-2.109339
37	0x3fadfa7e	1.3592069
38	0xbf4a2ef4	-0.78977895
39	0x3fee7154	1.8628335
40	0xbf614875	-0.88001186
41	0xbf817e69	-1.0116702
42	0xbf272f73	-0.65306777
43	0x3f6e70ba	0.9314076
44	0xbf5a782e	-0.8533963
45	0x3f88488c	1.064714
46	0xbf8ac2ea	-1.0840733
47	0xbfba0ddf	-1.4535483
48	0x3f5b407a	0.8564526
49	0x3f984ab6	1.18978
50	0x3f4d7164	0.80251145
51	0x3fa46ca0	1.284565
52	0x3fbba945	1.4661032
53	0x3f38a610	0.7212839
54	0x3f844bc3	1.0335621
55	0x3f240724	0.64073396
56	0x4000b566	2.0110717
57	0x3f13392d	0.5750912
58	0xbf87f7ea	-1.0622532
59	0xbfdd44b0	-1.7286587
60	0xbf98e833	-1.1945862
61	0xbf288e44	-0.6584208
62	0xbeca39db	-0.39497265
63	0xbf88a63d	-1.0675732
64	0xbf778a65	-0.9669555
65	0xbf3a7044	-0.72827554
66	0x3f694216	0.91116464
67	0x3f28971f	0.6585559
68	0xbf35cc4f	-0.71014875
69	0xbf49a74e	-0.7877091
70	0x3f6dcc79	0.92890126
71	0xbf117b1e	-0.56828487
72	0x3f820cad	1.0160118
73	0x3ee01d84	0.4377252
74	0xbfaef37a	-1.3668053
75	0x3f263beb	0.6493518
76	0x3fc49bd3	1.5360054
77	0x3f94868d	1.1603562
78	0xbfc22b33	-1.5169433
79	0x3f97a5bc	1.1847453
80	0xbf654cd6	-0.8957037
81	0x3fc6708f	1.55031
82	0x3f3cc048	0.737309
83	0xbf9be059	-1.217784
84	0x3fe0aef7	1.7553395
85	0x3f2da6ec	0.6783283
86	0x3f84ec43	1.0384601
87	0x4006bade	2.1051555
88	0x3f72b7ca	0.9481169
89	0xc00a66d3	-2.162526
90	0xbf7e6b98	-0.99382925
91	0x3f0f6d4b	0.5602614
92	0xbfee5908	-1.862092
93	0x4019e4d1	2.4045908
94	0x3f95d0d0	1.170435
95	0xc0265c79	-2.599394
96	0x3fc9be4e	1.5761201
97	0x3f460ad7	0.7736029
98	0x3f27c67e	0.6553725
99	0xbfc61518	-1.5475187
