models/bkp/lhc_sp0.1_e400_s1993_p0.0_h100_faffine_fl5_l1_dsdim16_dsl1_best_model.pt (torch_old, 108273 bytes, 73 tensors)

0.0.mdl.input_to_hidden.0.direction f4 [100, 7]
0.39955366 0.28589007 0.23658939 0.12259723 -1.2839857 -0.06636491 0.0015324526 0.03339426
0.10967784 0.090604104 0.35597554 0.6649619 0.0008852796 0.00043999072 0.1794364 -0.26787624
-0.3793323 0.10991789 -1.2284342 0.0021879077 6.1383085e-05 0.36561385 0.00040426446 0.1888992
0.64813113 0.0005823231 0.0024655925 -0.00019554465 -0.730901 -0.07564417 0.07723221 -0.18273848
-1.3196093 -0.00042631684 6.115474e-05 -0.34784427 -0.93983763 0.00074644963 -4.8407503e-05 9.501091e-05
-0.001593014 0.00035200987 0.23622261 -0.16644552 0.1256482 -0.29099968 0.00069791806 -0.0005666075
0.0011013056 0.006030198 -0.05071323 -0.05982716 0.91773486 0.7925561 -0.00025577797 -0.0020116898
-0.11668531 -0.0722452 0.039462294 1.6760743 0.23666184 -0.0013161297 0.001409579 0.12411533
0.5087526 -7.88399e-05 0.0006200434 -0.0011398883 -0.0005973862 -0.0004585605 -0.6830111 0.001438602
-0.0005975853 0.000570684 0.00020012898 8.744369e-05 -0.00011759237 -0.6798715 0.38492134 1.0069584
0.023309497 0.04336568 -0.1409129 0.0005528683 0.08673065 0.03706257 -0.08018701 -0.0017288898
-0.0001658954 -0.0012308025 -0.000375443 -1.1691105 0.018265525 -0.07998916 -0.36899182 -0.66193825
0.00029365165 -0.0008209695 0.3432919 0.0010605052 -0.0011718556 -0.00029530903 -0.00012711849 0.001427098
0.00019909935 -0.29973778 -2.102226 -0.43734616 0.103563935 -0.056270156 0.26423115 -0.0015843477
1.1391652 -0.3570545 0.2251814 -0.66220844 -0.00010186731 3.8553608e-05 0.0010026903 0.44062233
-0.49349192 -0.20964745 -0.0025432024 0.12020994 0.18215282 -0.0021338735 0.7131901 0.0009521194
0.0007825128 -0.00042935016 0.00040410974 0.0008508157 0.00051515177 -0.099674165 0.053448584 0.024620753
-0.00054010376 0.001461201 -0.0018942237 -0.000526119 0.16658884 -0.0024128668 -0.0008334967 0.0010546952
0.001216265 2.1907887e-05 0.00035545038 0.106275804 -0.07183713 0.03366838 -1.3771613 -0.000120487624
0.00038097444 -0.00013608403 -0.21317524 0.12538332 -0.07397303 0.001041336 0.0016644748 -0.0018404415
-0.00031692066 0.2297702 -0.00022623123 0.0003122648 -0.00012660203 0.00073870405 0.00044300003 -0.0010826449
-0.37999305 0.76594144 -0.001059661 0.0014058332 -1.03482525e-05 0.00040947105 -8.6995664e-05 -0.09569513
0.039640106 0.040705964 0.0031499313 -0.0015516432 -0.0007141277 -0.0001599408 0.5027892 0.00074530125
-0.001081757 -0.00020352626 0.00090982206 0.0011145051 -0.00091020216 -0.21083437 -0.08504702 0.33282354
-0.17032106 0.0005615636 -0.00136545 0.0003850561 -0.4912209 -0.7698749 0.19370444 0.0005406061
0.00040944642 -0.000806894 -0.00015808435 0.4075649 0.81747335 3.309748e-05 -0.0005721171 0.0016780999
0.0008038884 0.0014071753 0.0003174573 -0.000115002964 0.0001257394 -0.0007522776 0.00080422894 -4.2232e-05
0.0002932273 -0.4049757 0.409787 0.012254738 -0.00059247506 -0.000438611 -0.0007437581 -0.0003936779
-0.3559521 -3.4831803 1.9012125 0.0015256224 0.31052864 0.034764502 -0.00047133074 0.05075198
-0.07721525 -0.008215824 0.08487282 0.05829587 0.0014988681 0.0010106534 0.3130272 -0.0008877154
0.0010061957 0.0005210685 0.00083309796 -0.0014676582 4.2440523e-05 -0.0062902453 -0.99449193 -0.0003501315
0.0011765262 -0.001098606 -0.00019857229 0.00092865573 -0.23784627 -0.99656534 0.0005523212 -0.00086364563
00000000: 4c92 cc3e 2f60 923e 7d44 723e 4214 fb3d
00000010: a559 a4bf 53ea 87bd 94dc c83a 6bc8 083d
00000020: c69e e03d a58e b93d 6d42 b63e f13a 2a3f
00000030: 1c12 683a 8eae e639 2dbe 373e 1327 89be
00000040: d837 c2be a11c e13d 553d 9dbf 0063 0f3b
00000050: cbba 8038 bd31 bb3e 75f3 d339 cb6e 413e
00000060: eceb 253f 0ba7 183a c795 213b 1e0b 4db9
00000070: 541c 3bbf 55eb 9abd ec2b 9e3d cc1f 3bbe
00000080: f5e8 a8bf 4783 dfb9 3340 8038 a518 b2be
00000090: 3399 70bf 63ad 433a 2909 4bb8 9840 c738
000000a0: aecc d0ba f78d b839 57e4 713e b270 2abe
000000b0: eca9 003e e9fd 94be 7df4 363a 6388 14ba
000000c0: af59 903a f898 c53b adb8 4fbd 530d 75bd
000000d0: acf0 6a3f f5e4 4a3f f019 86b9 8ed6 03bb
000000e0: b5f8 eebd 4bf5 93bd 37a3 213d 9a89 d63f
000000f0: 7b57 723e fc81 acba 9fc1 b83a 2e30 fe3d
00000100: 9c3d 023f d956 a5b8 698a 223a 4e68 95ba
00000110: e999 1cba f36a f0b9 d1d9 2ebf 798f bc3a
00000120: 45a7 1cba f499 153a b7d9 5139 f961 b738
00000130: ec9b f6b8 0f0c 2ebf 6914 c53e 03e4 803f
00000140: 8ff3 be3c 36a0 313d 794b 10be 5dee 103a
00000150: d79f b13d ecce 173d 1639 a4bd ea9b e2ba
00000160: 35f4 2db9 e152 a1ba 1bd7 c4b9 6aa5 95bf
00000170: 95a1 953c 5bd1 a3bd 7fec bcbe c974 29bf
00000180: 42f5 9939 5536 57ba f5c3 af3e a600 8b3a
00000190: f398 99ba b5d3 9ab9 1c4b 05b9 760d bb3a
000001a0: 53c5 5039 3b77 99be df8a 06c0 d6eb dfbe
000001b0: 5419 d43d 897b 66bd 4e49 873e e3a9 cfba
000001c0: 2ad0 913f d9cf b6be f495 663e 7e86 29bf
000001d0: 98a1 d5b8 9fb4 2138 b46c 833a 4099 e13e
000001e0: f9aa fcbe d2ad 56be dbab 26bb a130 f63d
000001f0: 4586 3a3e 75d8 0bbb a093 363f a797 793a
00000200: 8c21 4d3a 671a e1b9 b1de d339 4609 5f3a
00000210: 400b 073a f821 ccbd e7ec 5a3d 76b1 c93c
00000220: c095 0dba c585 bf3a 9a47 f8ba 40eb 09ba
00000230: 4496 2a3e 3021 1ebb 047f 5aba b33d 8a3a
00000240: 156b 9f3a d4c6 b737 be5b ba39 21a7 d93d
00000250: 581f 93bd dbe7 093d d246 b0bf 4dae fcb8
00000260: 86bd c739 c7b1 0eb9 9c4a 5abe 7c64 003e
00000270: 2c7f 97bd 707d 883a 822a da3a f83a f1ba
00000280: 5f28 a6b9 e148 6b3e 7c38 6db9 79b7 a339
00000290: 79c0 04b9 97a5 413a 7542 e839 89e7 8dba
000002a0: 738e c2be bd14 443f 53e4 8aba ef43 b83a
000002b0: 689d 2db7 46ae d639 7171 b6b8 cffb c3bd
000002c0: aa5d 223d 4cbb 263d 146f 4e3b 8260 cbba
000002d0: 4c34 3bba c8b5 27b9 cbb6 003f 5260 433a
000002e0: bec9 8dba aa69 55b9 2081 6e3a 9614 923a
000002f0: a29a 6eba f7e4 57be 222d aebd d967 aa3e
00000300: a568 2ebe e535 133a e6f8 b2ba 5be1 c939
00000310: 4e81 fbbe 8516 45bf 755a 463e 76b7 0d3a
00000320: f8aa d639 bd85 53ba 72c3 25b9 59ac d03e
00000330: ef45 513f 26d2 0a38 21fa 15ba b0f3 db3a
00000340: 0abc 523a f870 b83a 6670 a639 bf2d f1b8
00000350: ead8 0339 7f34 45ba e4d2 523a 4422 31b8
00000360: 4dbc 9939 fa58 cfbe 9acf d13e 19c8 483c
00000370: 5450 1bba 5ff5 e5b9 c3f8 42ba 8e66 ceb9
00000380: 5b3f b6be 6dec 5ec0 ee5a f33f 65f7 c73a
00000390: 9cfd 9e3e 3965 0e3d f11c f7b9 4fe1 4f3d
000003a0: 0723 9ebd aa9b 06bc cdd1 ad3d a6c7 6e3d
000003b0: ab75 c43a e777 843a 1a45 a03e 92b5 68ba
000003c0: 53e2 833a 5198 083a 4264 5a3a 705e c0ba
000003d0: 2a02 3238 671e cebb 0697 7ebf db91 b7b9
000003e0: ab35 9a3a 1aff 8fba d837 50b9 0871 733a
000003f0: f98d 73be e81e 7fbf a6c9 103a 4766 62ba

0.0.mdl.input_to_hidden.0.mask f4 [100, 7]
1.0 1.0 1.0 1.0 1.0 1.0 0.0 1.0
1.0 1.0 1.0 1.0 0.0 0.0 1.0 1.0
1.0 1.0 1.0 0.0 0.0 1.0 1.0 1.0
1.0 0.0 0.0 0.0 1.0 1.0 1.0 1.0
1.0 0.0 0.0 1.0 1.0 0.0 0.0 0.0
0.0 0.0 1.0 1.0 1.0 1.0 0.0 0.0
0.0 1.0 1.0 1.0 1.0 1.0 0.0 0.0
1.0 1.0 1.0 1.0 1.0 0.0 0.0 1.0
1.0 0.0 0.0 0.0 0.0 0.0 1.0 0.0
0.0 0.0 0.0 0.0 0.0 1.0 1.0 1.0
1.0 1.0 1.0 0.0 1.0 1.0 1.0 0.0
0.0 0.0 0.0 1.0 1.0 1.0 1.0 1.0
0.0 0.0 1.0 0.0 0.0 0.0 0.0 0.0
0.0 1.0 1.0 1.0 1.0 1.0 1.0 0.0
1.0 1.0 1.0 1.0 0.0 0.0 0.0 1.0
1.0 1.0 1.0 1.0 1.0 0.0 1.0 0.0
0.0 0.0 0.0 0.0 0.0 1.0 1.0 1.0
0.0 0.0 0.0 0.0 1.0 0.0 0.0 0.0
0.0 0.0 0.0 1.0 1.0 1.0 1.0 0.0
0.0 0.0 1.0 1.0 1.0 0.0 0.0 0.0
0.0 1.0 0.0 0.0 0.0 0.0 0.0 0.0
1.0 1.0 0.0 0.0 0.0 0.0 0.0 1.0
1.0 1.0 0.0 0.0 0.0 0.0 1.0 0.0
0.0 0.0 0.0 0.0 0.0 1.0 1.0 1.0
1.0 0.0 0.0 0.0 1.0 1.0 1.0 0.0
0.0 0.0 0.0 1.0 1.0 0.0 0.0 0.0
0.0 0.0 1.0 1.0 1.0 1.0 1.0 0.0
0.0 1.0 1.0 1.0 0.0 0.0 0.0 0.0
1.0 1.0 1.0 1.0 1.0 1.0 0.0 1.0
1.0 1.0 1.0 1.0 0.0 0.0 1.0 0.0
0.0 0.0 0.0 0.0 0.0 1.0 1.0 0.0
0.0 0.0 0.0 0.0 1.0 1.0 0.0 0.0
00000000: 0000 803f 0000 803f 0000 803f 0000 803f
00000010: 0000 803f 0000 803f 0000 0000 0000 803f
00000020: 0000 803f 0000 803f 0000 803f 0000 803f
00000030: 0000 0000 0000 0000 0000 803f 0000 803f
00000040: 0000 803f 0000 803f 0000 803f 0000 0000
00000050: 0000 0000 0000 803f 0000 803f 0000 803f
00000060: 0000 803f 0000 0000 0000 0000 0000 0000
00000070: 0000 803f 0000 803f 0000 803f 0000 803f
00000080: 0000 803f 0000 0000 0000 0000 0000 803f
00000090: 0000 803f 0000 0000 0000 0000 0000 0000
000000a0: 0000 0000 0000 0000 0000 803f 0000 803f
000000b0: 0000 803f 0000 803f 0000 0000 0000 0000
000000c0: 0000 0000 0000 803f 0000 803f 0000 803f
000000d0: 0000 803f 0000 803f 0000 0000 0000 0000
000000e0: 0000 803f 0000 803f 0000 803f 0000 803f
000000f0: 0000 803f 0000 0000 0000 0000 0000 803f
00000100: 0000 803f 0000 0000 0000 0000 0000 0000
00000110: 0000 0000 0000 0000 0000 803f 0000 0000
00000120: 0000 0000 0000 0000 0000 0000 0000 0000
00000130: 0000 0000 0000 803f 0000 803f 0000 803f
00000140: 0000 803f 0000 803f 0000 803f 0000 0000
00000150: 0000 803f 0000 803f 0000 803f 0000 0000
00000160: 0000 0000 0000 0000 0000 0000 0000 803f
00000170: 0000 803f 0000 803f 0000 803f 0000 803f
00000180: 0000 0000 0000 0000 0000 803f 0000 0000
00000190: 0000 0000 0000 0000 0000 0000 0000 0000
000001a0: 0000 0000 0000 803f 0000 803f 0000 803f
000001b0: 0000 803f 0000 803f 0000 803f 0000 0000
000001c0: 0000 803f 0000 803f 0000 803f 0000 803f
000001d0: 0000 0000 0000 0000 0000 0000 0000 803f
000001e0: 0000 803f 0000 803f 0000 803f 0000 803f
000001f0: 0000 803f 0000 0000 0000 803f 0000 0000
00000200: 0000 0000 0000 0000 0000 0000 0000 0000
00000210: 0000 0000 0000 803f 0000 803f 0000 803f
00000220: 0000 0000 0000 0000 0000 0000 0000 0000
00000230: 0000 803f 0000 0000 0000 0000 0000 0000
00000240: 0000 0000 0000 0000 0000 0000 0000 803f
00000250: 0000 803f 0000 803f 0000 803f 0000 0000
00000260: 0000 0000 0000 0000 0000 803f 0000 803f
00000270: 0000 803f 0000 0000 0000 0000 0000 0000
00000280: 0000 0000 0000 803f 0000 0000 0000 0000
00000290: 0000 0000 0000 0000 0000 0000 0000 0000
000002a0: 0000 803f 0000 803f 0000 0000 0000 0000
000002b0: 0000 0000 0000 0000 0000 0000 0000 803f
000002c0: 0000 803f 0000 803f 0000 0000 0000 0000
000002d0: 0000 0000 0000 0000 0000 803f 0000 0000
000002e0: 0000 0000 0000 0000 0000 0000 0000 0000
000002f0: 0000 0000 0000 803f 0000 803f 0000 803f
00000300: 0000 803f 0000 0000 0000 0000 0000 0000
00000310: 0000 803f 0000 803f 0000 803f 0000 0000
00000320: 0000 0000 0000 0000 0000 0000 0000 803f
00000330: 0000 803f 0000 0000 0000 0000 0000 0000
00000340: 0000 0000 0000 0000 0000 803f 0000 803f
00000350: 0000 803f 0000 803f 0000 803f 0000 0000
00000360: 0000 0000 0000 803f 0000 803f 0000 803f
00000370: 0000 0000 0000 0000 0000 0000 0000 0000
00000380: 0000 803f 0000 803f 0000 803f 0000 803f
00000390: 0000 803f 0000 803f 0000 0000 0000 803f
000003a0: 0000 803f 0000 803f 0000 803f 0000 803f
000003b0: 0000 0000 0000 0000 0000 803f 0000 0000
000003c0: 0000 0000 0000 0000 0000 0000 0000 0000
000003d0: 0000 0000 0000 803f 0000 803f 0000 0000
000003e0: 0000 0000 0000 0000 0000 0000 0000 0000
000003f0: 0000 803f 0000 803f 0000 0000 0000 0000

0.0.mdl.input_to_hidden.0.cscale.weight f4 [100, 1]
-0.0025947308 0.0020193052 0.00078312366 -0.0006921294 0.00047319185 -0.0008160552 0.002456977 0.0017914512
0.0013074513 0.0015436439 0.0001695942 -0.00033297154 0.00083417323 -0.0005104156 0.0016577608 0.00096359727
9.552433e-05 0.0021844725 5.4902197e-05 -0.00028429943 -8.1372855e-05 0.0018566381 -0.00037444357 -0.00035910585
-0.0003514009 -0.00045671294 -0.00050620985 0.0011875983 0.00034947507 -0.0012443908 0.0006741005 -3.992287e-05
0.0024966062 -0.0011048552 -1.5166043e-05 -0.00057776633 0.0012427012 -0.0006243905 0.0021457896 -3.5488723e-05
-0.0009234846 6.30224e-05 -0.00055754086 0.0006409648 -0.0013498092 0.00057177397 0.0002801874 0.0013275183
8.6645276e-05 0.00010818418 -0.0006709302 -0.00045004924 0.0005212809 8.9750334e-05 -0.0015229526 -0.0015807429
0.00010065042 -0.0012897069 -0.0018571308 -0.002328223 -2.5616348e-05 0.0012153385 -0.00070073834 0.000908651
-0.00037823775 0.00022773084 -0.0009555667 -0.00048925 -0.00038053864 -0.0005446242 0.000626068 0.0008909515
0.0006624277 0.0010111568 0.001432004 -0.0014499109 0.0006331466 0.0008227067 0.0008322324 0.0014340956
-0.00060759287 -0.0005244798 0.00019012172 -0.00093691394 0.00040442546 0.00036548945 -0.00024639186 0.0013206509
0.00029823108 -0.0002517317 -0.0002062769 -0.0015226268 -0.0010633955 -0.0014545904 0.00011375239 -0.0013376243
-0.00030594767 -0.00032917116 8.249217e-05 -0.0010496499
00000000: 5c0c 2abb 5256 043b 8a4a 4d3a 0570 35ba
00000010: bc16 f839 8aec 55ba 3c05 213b 21cf ea3a
00000020: c95e ab3a 1854 ca3a 19d5 3139 af92 aeb9
00000030: 6bac 5a3a 69cd 05ba 3949 d93a eb99 7c3a
00000040: 3c54 c838 5e29 0f3b c946 6638 060e 95b9
00000050: b8a6 aab8 705a f33a f750 c4b9 5f46 bcb9
00000060: 3b3c b8b9 f972 efb9 2bb3 04ba 30a9 9b3a
00000070: c039 b739 d41a a3ba 1eb6 303a db72 27b8
00000080: 1a9e 233b cad0 90ba a971 7eb7 3e75 17ba
00000090: 22e2 a23a 23ae 23ba 60a0 0c3b bad9 14b8
000000a0: 0116 72ba e52a 8438 ef27 12ba 6b06 283a
000000b0: 15ec b0ba 1ae3 153a 1ee6 9239 1f00 ae3a
000000c0: 54b5 b538 f0e0 e238 5de1 2fba 96f4 ebb9
000000d0: 92a6 083a 5838 bc38 cf9d c7ba ee30 cfba
000000e0: 4814 d338 620b a9ba f86a f3ba 1a95 18bb
000000f0: b0e2 d6b7 fe4b 9f3a c1b1 37ba 8932 6e3a
00000100: 364e c6b9 08cb 6e39 ff7e 7aba 0341 00ba
00000110: 0883 c7b9 1dc5 0eba b61e 243a be8e 693a
00000120: c5a6 2d3a cb88 843a 15b2 bb3a f00a beba
00000130: c0f9 253a e9aa 573a 2c2a 5a3a 43f8 bb3a
00000140: de46 1fba 3e7d 09ba 695b 4739 3b9b 75ba
00000150: 1109 d439 2a9f bf39 282e 81b9 b119 ad3a
00000160: e65b 9c39 dbfa 83b9 094c 58b9 e192 c7ba
00000170: a261 8bba f4a7 beba 598e ee38 3953 afba
00000180: 9a67 a0b9 9b94 acb9 a6ff ac38 6894 89ba

0.0.mdl.input_to_hidden.0.cscale.bias f4 [100]
-1.8369762 0.5645318 1.4792434 -1.2552521 1.7100527 1.3413861 0.37875953 -2.0716846
-2.620043 0.99806005 1.3331373 -2.9232106 0.0011213148 1.9320011 -0.8994284 -1.6085572
-1.6428963 -1.4370654 -0.8853163 -0.26829198 -1.200251 1.8273836 -0.63981587 -0.78828484
-1.1827914 -0.18471354 0.8508836 0.39302272 -1.9851595 -1.6208313 -0.00040437595 -1.2035398
-3.5963242 0.015792582 0.69329065 -1.0337118 -1.4193045 0.47735152 -4.617392 -1.4981701
-0.7238599 -1.8644636 -1.4302931 -1.2374729 -1.4001893 1.4070793 1.4799623 -0.8553028
-0.95636255 0.5259782 -0.92178625 1.0089401 -2.0395277 -0.2860197 -1.2293453 1.3395451
-1.3050277 1.6466368 1.914475 -0.83226925 -0.26165086 -0.49611023 0.920575 -2.147773
-0.92333454 0.10596148 1.0815619 -0.5035639 2.0788317 1.9007477 1.2915727 1.9042257
1.6226635 0.019914033 1.6750885 -1.3693572 -1.8648753 2.2202742 -1.9673505 -2.588484
-1.4617113 -1.7715743 1.5812366 2.3875425 -1.9639748 -1.3813186 1.8289236 -0.98984414
0.68065566 0.38468918 1.4180301 -1.1936021 3.0961444 0.4006316 1.6580987 -1.3763644
1.3102602 1.2974479 0.9137911 -2.4913778
00000000: 0922 ebbf 2885 103f d957 bd3f 1aac a0bf
00000010: 02e3 da3f 8ab2 ab3f c5ec c13e 7b96 04c0
00000020: c9ae 27c0 dd80 7f3f 3ea4 aa3f e215 3bc0
00000030: 15f9 923a d04b f73f f140 66bf 34e5 cdbf
00000040: 6d4a d2bf c2f1 b7bf 17a4 62bf 915d 89be
00000050: d3a1 99bf b5e7 e93f f9ca 23bf 09cd 49bf
00000060: b565 97bf 8c25 3dbe 82d3 593f 463a c93e
00000070: b519 febf 6677 cfbf 6c02 d4b9 980d 9abf
00000080: 2d2a 66c0 725f 813c 7f7b 313f ab50 84bf
00000090: c5ab b5bf 6b67 f43e adc1 93c0 0ac4 bfbf
000000a0: e24e 39bf bea6 eebf d813 b7bf 8365 9ebf
000000b0: 6739 b3bf 2d1b b43f 686f bd3f 20f5 5abf
000000c0: 2dd4 74bf 82a6 063f 2ffa 6bbf f324 813f
000000d0: 9f87 02c0 2d71 92be 305b 9dbf 3776 ab3f
000000e0: 260b a7bf ffc4 d23f 840d f53f 990f 55bf
000000f0: 1af7 85be 2902 febe ceaa 6b3f 1d75 09c0
00000100: a75f 6cbf 5502 d93d 9f70 8a3f 90e9 00bf
00000110: 940b 0540 b34b f33f 4152 a53f abbd f33f
00000120: 70b3 cf3f c122 a33c 4d69 d63f 1947 afbf
00000130: 3cb4 eebf f918 0e40 24d2 fbbf b9a9 25c0
00000140: 5b19 bbbf f2c2 e2bf f665 ca3f 7fcd 1840
00000150: 8763 fbbf 0ccf b0bf 2b1a ea3f 6d66 7dbf
00000160: 733f 2e3f fbf5 c43e 0382 b53f f4c7 98bf
00000170: 3b27 4640 961f cd3e 943c d43f b52c b0bf
00000180: 9bb6 a73f c612 a63f 37ee 693f bc72 1fc0

0.0.mdl.input_to_hidden.0.cbias.weight f4 [100, 1]
-0.0005804065 -0.0009423824 -0.0010172139 -0.0012513393 0.00069167913 0.0010423916 0.0025187247 -0.0008785797
-0.00018692666 -0.00023498322 -0.0003780675 -0.0016177477 0.0016608872 0.00092112407 0.002177884 -0.0013754014
-0.00034903726 0.0010100777 0.0002554574 -0.00067716534 0.00018681758 -0.0004931831 -0.0005159582 0.0016968212
0.00087187474 0.00017601102 -0.000835416 0.00019113466 -0.0009205525 0.00021698693 -0.00039900278 0.00042048935
-0.0016224077 0.0006308793 -8.329442e-05 -0.0008082537 -0.00021645473 -0.000981551 0.0006309168 0.00052225316
0.000784878 -0.0001824297 -0.00037722377 0.00019516422 -0.0003971859 -0.0014842146 0.0010241109 0.0009830775
-8.024059e-05 0.0012804739 0.0010560254 -0.0019326274 -0.001245428 -0.0008265313 -3.7707643e-05 0.0016229867
-0.0008052809 -3.7539063e-05 -0.00019783994 0.0014347113 4.111304e-05 -0.000434601 0.00019553756 -0.0006696352
0.0005575274 0.0004514826 0.0020500587 0.0014189534 -0.00025672832 0.001375924 -0.00021898496 0.0019279324
-0.0007786468 0.0007763761 -0.00037789912 0.00014125564 0.0011847476 -0.0015526008 -0.0010756534 -8.941232e-05
0.0012640149 -0.0013503261 -0.0010960349 0.001514486 -0.00036218343 -0.0012589457 -0.0012249564 -0.00051129557
0.00086437294 -0.0010174095 0.0004207034 0.0005088823 0.00079731236 -0.00036092044 -1.7059112e-05 -0.0004007993
-0.0006729523 -0.0003488762 -0.0003964997 0.00031501608
00000000: 6c26 18ba 360a 77ba 0954 85ba fb03 a4ba
00000010: cd51 353a dca0 883a 3011 253b 7c50 66ba
00000020: be01 44b9 d465 76b9 5c37 c6b9 9b0a d4ba
00000030: 20b2 d93a 9777 713a d5ba 0e3b d046 b4ba
00000040: fdfe b6b9 9564 843a e9ee 8539 cc83 31ba
00000050: 76e4 4339 f548 01ba 5e41 07ba df67 de3a
00000060: 868e 643a 998f 3839 d2ff 5aba 526b 4839
00000070: 3c51 71ba fc86 6339 3f31 d1b9 2075 dc39
00000080: f8a6 d4ba 9861 253a 5aae aeb8 fde0 53ba
00000090: 20f8 62b9 63a7 80ba 1c64 253a d1e7 083a
000000a0: 45c0 4d3a 9a4a 3fb9 1ec6 c5b9 ffa4 4c39
000000b0: 643d d0b9 fa89 c2ba 763b 863a 9bda 803a
000000c0: d746 a8b8 93d5 a73a 556a 8a3a 3750 fdba
000000d0: a13d a3ba 94ab 58ba 4628 1eb8 66ba d43a
000000e0: 7d19 53ba 4373 1db8 4173 4fb9 ec0c bc3a
000000f0: ca70 2c38 29db e3b9 3709 4d39 758a 2fba
00000100: 0827 123a f8b4 ec39 475a 063b 2dfc b93a
00000110: 7e99 86b9 5958 b43a 549f 65b9 adb2 fc3a
00000120: 1a1e 4cba b885 4b3a c320 c6b9 061e 1439
00000130: 8849 9b3a a380 cbba f0fc 8cba e082 bbb8
00000140: 4dad a53a 6dfd b0ba d4a8 8fba b881 c63a
00000150: 70e3 bdb9 3503 a5ba b78e a0ba 7708 06ba
00000160: 1697 623a 995a 85ba db91 dc39 8366 053a
00000170: ba02 513a ec39 bdb9 2a1a 8fb7 5f22 d2b9
00000180: 1069 30ba 5fe9 b6b9 4ae1 cfb9 be28 a539

0.0.mdl.input_to_hidden.0.cbias.bias f4 [100]
0.023992559 1.1645277 -2.405082 1.2171004 -1.8405783 0.7268153 -0.8176708 1.7560648
-1.3971366 -0.26233003 0.81215656 0.45356256 -1.3402061 -1.0678107 1.0609472 0.07293242
-1.5975603 1.0671204 -0.550843 -0.94251996 -1.6683687 -1.6777883 -0.69680345 -1.7535691
-0.70535976 -1.2176907 1.256855 1.659387 -1.2710986 0.6397998 -1.0004121 -0.74704605
0.37843147 -1.4377832 1.0102923 1.5921941 -0.29472408 -1.3219756 -6.508647 1.2461414
-1.5228438 0.68317086 -1.2597132 1.4109424 0.8940602 -1.0032198 1.6039453 1.0562917
1.652033 1.0202798 1.3084527 1.1163057 0.17365026 -0.72194564 -1.5022213 1.3780454
-1.2463909 -1.3798014 0.9742869 1.3492122 -1.2275081 1.0810113 1.2216289 -1.3438159
-1.6029938 -0.85721004 1.4490548 -1.5110546 0.99341255 -2.6707573 0.97691196 0.7696734
-0.24082944 -0.89536387 -0.41401777 1.2629097 1.9303246 -1.2160813 -0.69081867 -2.0807486
1.4964951 1.3175246 0.7302793 1.7603902 0.7936008 1.2713282 0.11218147 1.3542594
-0.79732245 1.6233823 0.848544 0.9390284 -0.35659945 -1.4758662 1.1567596 -0.91214067
-2.2190866 1.4821675 -1.141823 -2.2630453
00000000: 0b8c c43c 3e0f 953f ddec 19c0 f2c9 9b3f
00000010: 1298 ebbf 9110 3a3f e052 51bf bbc6 e03f
00000020: 5fd5 b2bf 1f50 86be 7ee9 4f3f 5a39 e83e
00000030: e08b abbf 05ae 88bf 1ecd 873f 985d 953d
00000040: db7c ccbf 6797 883f 0c04 0dbf fd48 71bf
00000050: 1b8d d5bf c4c1 d6bf b661 32bf f474 e0bf
00000060: 7592 34bf 4add 9bbf a0e0 a03f cb66 d43f
00000070: 5cb3 a2bf ebc9 233f 810d 80bf 693e 3fbf
00000080: c5c1 c13e 4809 b8bf 4251 813f 04cd cb3f
00000090: 13e6 96be 7f36 a9bf d646 d0c0 9081 9f3f
000000a0: 8cec c2bf 49e4 2e3f 483e a1bf c399 b43f
000000b0: 21e1 643f 8269 80bf 144e cd3f 9134 873f
000000c0: d175 d33f 8798 823f 617b a73f 1be3 8e3f
000000d0: 60d1 313e 6ed1 38bf ca48 c0bf cb63 b03f
000000e0: bd89 9fbf 559d b0bf de6a 793f fcb2 ac3f
000000f0: fc1e 9dbf 945e 8a3f 565e 9c3f 2902 acbf
00000100: e72e cdbf 1e72 5bbf a17a b93f 3d6a c1bf
00000110: 4950 7e3f b0ed 2ac0 e716 7a3f 5109 453f
00000120: fe9b 76be 9136 65bf 23fa d3be 06a7 a13f
00000130: e014 f73f 8da8 9bbf 7ed9 30bf fc2a 05c0
00000140: 278d bf3f a5a4 a83f 96f3 3a3f 7754 e13f
00000150: 6c29 4b3f e2ba a23f 66bf e53d 5f58 ad3f
00000160: 531d 4cbf feca cf3f 2e3a 593f 2a64 703f
00000170: 3494 b6be 2fe9 bcbf b310 943f 0d82 69bf
00000180: 8405 0ec0 aab7 bd3f 4227 92bf bcd5 10c0

0.0.mdl.hidden_to_output.direction f4 [14, 100]
0.0023274526 -0.0009632344 -0.0009859473 0.0003822767 -0.0005390162 -0.0015517961 -0.0014937256 0.0003209899
0.00050923607 -0.00099094 0.0029416378 -0.00041363222 -0.0009878018 -0.0010813115 0.00088467344 -0.0001619175
-0.0001612562 -0.00054379855 -0.0010909726 0.00027929986 -0.0013330127 -0.0012355867 -0.00066797214 0.0007710367
-0.0015943112 0.00084410753 -5.9428712e-05 -0.0010601274 -0.00034586052 -0.001333152 0.00023493104 -5.7801935e-05
0.00028074297 -0.0010331292 0.00091592455 2.9313493e-05 -0.00016651192 0.0009780605 -0.001185058 1.7183305e-05
0.0006357765 -0.0001840814 -0.0018606693 -0.00010546612 0.0026161105 0.000390482 0.001634186 0.0004279385
-0.0009971801 0.00045053472 -0.000287466 8.106994e-06 0.00023227764 0.0005530985 0.00071922643 -0.0005406265
0.0013685267 -0.00068678346 -0.00026665148 0.00022118764 0.0015238284 -0.00056770747 0.0010922196 -0.000772196
-0.0006554216 5.7906997e-05 -0.0003201712 0.0026795692 7.4728894e-05 0.00044840266 0.00074813096 -0.0011574579
-0.00021467637 -0.0011992796 -0.00097944 -0.0011664968 0.00015283987 -0.00020431311 -0.0013903803 0.0013725152
-0.0005084376 -0.0013115734 -0.0014446385 0.00027950166 0.000512021 -0.0011272577 0.00033992616 0.00085172657
0.00069586013 0.0015362708 0.0009855701 3.469462e-05 0.0005054323 -0.0005134367 0.00026825245 -0.00025777574
-0.00040838044 0.0014357858 -0.0005272758 0.0011337835 0.00013036004 0.0023661852 -0.0004597098 0.0023236664
-0.00024399122 0.0010409505 0.0013310967 0.0002657892 -0.0014168263 0.0011324666 0.00025237026 0.0017323571
0.0017329911 -0.0011730682 0.0007637825 -0.0011482467 -0.00061560207 0.00076957454 0.00014994292 -0.001374713
0.0004130294 -0.000945227 0.00020223495 -0.000111097725 0.00026573034 -4.0195915e-05 -0.0006321249 -0.00052297185
0.002519972 -0.0005285233 -1.3623386e-05 0.00015159592 -0.0016106796 0.0012208585 -0.00032139977 -0.00083592295
0.0007482376 -0.0012769955 -0.0009746341 -0.001050495 -0.0004904765 4.9853705e-05 -0.0018477791 0.0015261836
0.00079903164 0.00127787 -0.0015613249 0.0006997176 0.00033814055 0.0018348716 -0.00011955689 -0.0014801264
-0.0016423968 -0.00040878638 -0.0019421482 0.0016301457 0.00045954183 0.00042494698 3.1173564e-05 -0.00067285326
-0.00031804503 0.00029289137 0.0012988359 -0.0017422766 0.0010347293 -0.0005342839 -0.00038939138 0.0012762106
-0.0005783666 -0.0005456391 0.0004902134 -0.00068558543 -0.0015014804 0.0006196908 -0.00055577356 0.00020256729
-0.0013168157 -0.00035056676 0.0011683798 0.0011436075 -0.0023364008 0.0016696058 -0.0009384558 0.0019595006
-0.0007370572 0.0001997907 -0.00045698503 -0.00063974777 0.00044546477 0.00085942564 0.001064309 -0.00026041182
-0.0003258398 0.00048759146 0.0009862857 0.001356931 -0.00025661432 -2.1257805e-05 -0.002076322 0.00027535838
-2.357e-42 1.75e-42 -8.02e-43 2.728e-42 -1.178e-42 2.215e-42 2.506e-42 1.663e-42
-1.222e-42 5.24e-43 0.12628552 -1.88e-43 -7.78e-43 8.93e-43 0.29042 6.4e-44
-5.75e-43 -2.084e-42 0.017437281 -3.59e-43 -0.06656294 2.246e-42 2.136e-42 -0.06951291
1.463e-42 -3.1e-43 -0.022368664 1.52e-42 -1.198e-42 -7.83e-43 -2.409e-42 -1.387e-42
5.59e-43 -1.06e-42 0.00930432 -1.651e-42 1.7e-43 4.2e-43 -1.61e-42 -6.24e-43
-0.06210414 -1.05e-42 -4.8e-44 1.965e-42 -7.71e-43 1.421e-42 -2.514e-42 -0.024123685
-1.637e-42 -1.694e-42 -0.026219212 -2.37e-43 1.155e-42 9.73e-43 -1.44e-42 -1.565e-42
00000000: 2d88 183b 9181 7cba e73a 81ba 4f6c c839
00000010: c44c 0dba a365 cbba 1dc9 c3ba 894a a839
00000020: 417e 053a 6ee2 81ba 7ec8 403b c7dc d8b9
00000030: 2179 81ba cbba 8dba 6ee9 673a 66c8 29b9
00000040: e216 29b9 b48d 0eba f7fe 8eba fe6e 9239
00000050: 7cb8 aeba 69f3 a1ba da1a 2fba 661f 4a3a
00000060: 35f8 d0ba 1947 5d3a 1843 79b8 f9f3 8aba
00000070: 9d54 b5b9 28bd aeba d257 7639 5b70 72b8
00000080: af30 9339 106a 87ba a81a 703a 3fe6 f537
00000090: b499 2eb9 4432 803a f353 9bba de24 9037
000000a0: 3daa 263a f905 41b9 b4e1 f3ba b12d ddb8
000000b0: 0d73 2b3b 9bb9 cc39 2f32 d63a ef5c e039
000000c0: d0b3 82ba bf35 ec39 09b7 96b9 4603 0837
000000d0: 8e8f 7339 d0fd 103a 788a 3c3a d5b8 0dba
000000e0: 2360 b33a 4209 34ba 5bcd 8bb9 9bee 6739
000000f0: 32bb c73a 34d2 14ba cf28 8f3a 326d 4aba
00000100: 99d0 2bba 2ae1 7238 a7dc a7b9 b69b 2f3b
00000110: c5b7 9c38 9617 eb39 381e 443a d8b5 97ba
00000120: c01a 61b9 2531 9dba 8e60 80ba 23e5 98ba
00000130: a443 2039 e23c 56b9 6c3d b6ba f8e5 b33a
00000140: ab48 05ba 1ae9 abba 065a bdba 148a 9239
00000150: 2639 063a 7ec0 93ba 1e38 b239 6746 5f3a
00000160: 626a 363a b25c c93a 3f2e 813a 1185 1138
00000170: fd7e 043a 2798 06ba 3ca4 8c39 1326 87b9
00000180: e51b d6b9 fa30 bc3a e138 0aba 769b 943a
00000190: 42b1 0839 0012 1b3b 3405 f1b9 a748 183b
000001a0: e5d7 7fb9 8170 883a 3278 ae3a 9f59 8b39
000001b0: cdb4 b9ba 466f 943a 9050 8439 4210 e33a
000001c0: 8825 e33a a3c1 99ba 9338 483a c480 96ba
000001d0: 5b60 21ba 46bd 493a ff39 1d39 b72f b4ba
000001e0: de8b d839 1cc9 77ba 080f 5439 23fd e8b8
000001f0: b951 8b39 0998 28b8 2fb5 25ba 0c18 09ba
00000200: 1d26 253b 998c 0aba ff8f 64b7 b8f5 1e39
00000210: 701d d3ba 3705 a03a 8c81 a8b9 d721 5bba
00000220: 6025 443a dc60 a7ba 967e 7fba c3b0 89ba
00000230: 5293 00ba 021a 5138 2e31 f2ba 390a c83a
00000240: 1b76 513a 347e a73a 5fa5 ccba 416d 373a
00000250: 7548 b139 1380 f03a 9eba fab8 cd00 c2ba
00000260: b145 d7ba 6152 d6b9 ae8f feba 9daa d53a
00000270: a9ee f039 6bcb de39 5cc0 0238 6b62 30ba
00000280: 48bf a6b9 378f 9939 b33d aa3a 1a5d e4ba
00000290: c19f 873a 300f 0cba 3a27 ccb9 8646 a73a
000002a0: 879d 17ba 3809 0fba aa81 003a dcb8 33ba
000002b0: 52cd c4ba bf72 223a 55b1 11ba 3e68 5439
000002c0: 0199 acba 46cc b7b9 5224 993a 1ae5 953a
000002d0: 4d1e 19bb add6 da3a b402 76ba f76a 003b
000002e0: 1237 41ba e87e 5139 7e97 efb9 bfb4 27ba
000002f0: 458d e939 144b 613a 4980 8b3a e287 88b9
00000300: 7ad5 aab9 6ba3 ff39 4246 813a 0ddb b13a
00000310: 318a 86b9 ca52 b2b7 e712 08bb fa5d 9039
00000320: 9206 0080 e104 0000 3c02 0080 9b07 0000
00000330: 4903 0080 2d06 0000 fc06 0000 a304 0000
00000340: 6803 0080 7601 0000 fe50 013e 8600 0080
00000350: 2b02 0080 7d02 0000 eeb1 943e 2e00 0000
00000360: 9a01 0080 cf05 0080 a1d8 8e3c 0001 0080
00000370: 2752 88bd 4306 0000 f405 0000 c95c 8ebd
00000380: 1404 0000 dd00 0080 7d3e b7bc 3d04 0000
00000390: 5703 0080 2f02 0080 b706 0080 de03 0080
000003a0: 8f01 0000 f402 0080 2671 183c 9a04 0080
000003b0: 7900 0000 2c01 0000 7d04 0080 bd01 0080
000003c0: e960 7ebd ed02 0080 2200 0080 7a05 0000
000003d0: 2602 0080 f603 0000 0207 0080 099f c5bc
000003e0: 9004 0080 b904 0080 acc9 d6bc a900 0080
000003f0: 3803 0000 b602 0000 0404 0080 5d04 0080

0.0.mdl.hidden_to_output.cscale.weight f4 [14, 1]
-0.00097045844 0.00065514515 -6.958126e-05 0.000896238 0.000771165 -0.00069818215 -0.0007428118 0.0005859479
1.798803e-05 -0.00046890392 0.0006590496 0.0006587133 0.0003631072 -0.0009977515
00000000: 5d66 7eba 0cbe 2b3a 28ec 91b8 84f1 6a3a
00000010: 0228 4a3a 3606 37ba 42b9 42ba 4c9a 193a
00000020: 00e5 9637 38d7 f5b9 12c4 2c3a 80ad 2c3a
00000030: 6c5f be39 fcc6 82ba

0.0.mdl.hidden_to_output.cscale.bias f4 [14]
0.0 0.0 0.98886627 -0.39248207 -1.4636835 0.52655673 -0.25161782 -0.56751853
-0.6041244 0.6389352 -0.6070091 0.6092227 -2.6066806 1.8902097
00000000: 0000 0000 0000 0000 5726 7d3f 69f3 c8be
00000010: fb59 bbbf 6ccc 063f 0dd4 80be e548 11bf
00000020: e6a7 1abf 4291 233f f364 1bbf 05f6 1b3f
00000030: dbd3 26c0 64f2 f13f

0.0.mdl.hidden_to_output.cbias.weight f4 [14, 1]
0.00014956505 -0.0005685218 -5.4283475e-05 -0.0008248443 0.0005577764 -0.0008801332 0.00080745923 -7.220841e-05
0.0002129242 -0.00014834927 -3.384496e-05 -0.00016717258 0.00025271263 -0.0008585952
00000000: 90d4 1c39 da08 15ba 70ae 63b8 5d3a 58ba
00000010: be37 123a bdb8 66ba acab 533a 986e 97b8
00000020: 6844 5f39 348e 1bb9 c0f4 0db8 0c4b 2fb9
00000030: 847e 8439 5913 61ba

0.0.mdl.hidden_to_output.cbias.bias f4 [14]
0.050805394 4.237164 0.094042994 2.321349 -0.6295137 2.1477208 -0.05528628 1.9845619
0.0025803512 2.0216103 0.3620405 1.9658827 0.65978503 2.289247
00000000: 5119 503d d996 8740 9d99 c03d fb90 1440
00000010: cf27 21bf 4274 0940 de73 62bd 2006 fe3f
00000020: 1c1b 293b 1062 0140 5f5d b93e 0ba2 fb3f
00000030: ace7 283f 0683 1240

1.0.mdl.input_to_hidden.0.direction f4 [100, 7]
0.00043329265 0.0003675984 -0.003024072 -0.002537193 0.001599493 1.6580352e-05 -0.002176072 -0.04152124
0.24544922 -0.09058179 0.00023668153 0.00016272535 -0.00040269637 -0.0008954702 -0.0087179085 0.38365874
-0.01251318 0.2827871 -0.0014314533 0.001218757 0.0011677272 -0.027603092 -0.18673348 -0.05217406
-0.13337734 -1.3764395 -0.00022012496 -0.0020793062 0.054924127 0.39691162 0.05729425 0.00073044025
2.142186e-05 -0.0011981829 -0.0013133907 -0.27707985 -0.035503298 9.58664e-05 -0.0009058727 0.0015724779
0.00028520235 0.002072293 0.08870343 0.0018257428 -0.00047787672 -0.0012188999 -0.0006013038 0.0003622934
-5.3503776e-05 -0.009701867 -0.08917256 -0.001167618 0.0015782871 -0.0024714738 -0.00023228744 -0.0011294533
-0.017096581 -0.47746208 -0.00030894802 0.00010089495 -0.0007797071 0.0003415339 0.00034244146 -0.049976178
-0.22297636 -0.24842006 -0.24740054 0.3886365 0.00036171556 0.0027173897 0.14235993 0.12869401
-0.00078275957 0.0010540095 0.00021151944 -0.0012979987 -0.00016841954 -0.08106795 -0.36165237 -0.1037886
-0.19200724 0.31004152 -0.00071819936 0.0001559442 -0.008213858 -0.037308734 -0.04337459 -0.034660134
-1.2137846 0.7582663 0.0010089142 0.16303855 0.11144437 0.0010802706 0.0008492552 6.999396e-05
-8.942043e-05 -0.0005312979 -0.0006257436 -0.7173335 0.0229538 -0.0014727934 0.00019976062 -0.00018115972
-0.00121536 -0.024085091 0.5388628 0.00045449781 -4.8103193e-05 0.0014388 -0.0005501566 -0.00041067696
-0.0025800783 0.008927673 0.0061439937 0.003303595 2.237312 -0.0013067595 0.00028887723 -0.11243999
-0.35788894 -0.083673984 -0.21740581 0.0004125981 1.1303228e-05 0.0008668845 0.145233 -0.07183412
0.021506293 -0.07609973 0.6209111 0.00033529336 0.00037333943 -0.006364075 -0.016126227 0.0033426376
-0.0073508085 -2.1713111 8.5191445e-05 -0.0007270801 -0.1131329 -3.5471076e-05 0.00019020778 -0.00043806562
0.0014702928 0.0016859332 0.0006314981 0.07473867 0.000434912 0.0002192571 0.00033446532 -0.0008142099
-0.0009494067 -0.00080775504 -0.047716774 -0.5118572 -0.0022664564 -0.000691172 0.002171647 0.0011893846
0.0007523258 0.037166823 -0.06119461 0.020522589 0.035485104 -0.58405215 0.77843386 -0.00090666086
-0.053637903 -0.4392275 -0.06663492 -0.00010126823 0.0009656141 -0.0009805915 0.00013517437 0.02628285
0.2765143 0.27740192 0.15867387 0.0005328065 -0.0014327713 -0.0003375978 0.2817669 -0.00056547235
-0.001210052 0.0006782224 0.0012264133 -5.521124e-06 0.0007407336 -0.17214248 -0.32156664 -0.025914872
-0.08044849 -0.00011342196 -0.0024212527 -0.00034677575 0.0028204126 0.029947612 -0.008660818 0.029472243
-2.1432261 -0.0010090561 -0.001061436 -0.0029609422 0.1814823 -0.026007539 0.13324502 0.0009868586
0.0011675583 -0.0010165928 0.13781251 0.0013545871 0.0017281456 0.00040995103 0.00088406616 -0.0007480576
-0.0009067083 -0.09720173 0.00016052414 0.0008115063 -0.0009497246 -0.0005057447 0.000115033276 -0.002069248
0.07870036 0.29998922 0.2335999 0.3389613 -0.00077923416 0.0004161505 0.0017599192 -0.06184214
0.0012171224 -9.298456e-05 -0.0008737318 0.0007298809 0.00034767843 -0.0006625834 -0.03465174 -0.21665098
-0.060890563 -0.13213633 0.7275258 -0.3852696 -0.00052240083 0.003127957 0.0028871004 0.0029718638
0.0017746622 -0.6828102 -1.2768137 0.0010377727 -0.020412164 -0.12789023 -0.06791595 -0.06549104
00000000: 8e2b e339 39ba c039 822f 46bb 0947 26bb
00000010: 14a6 d13a 0916 8b37 6e9c 0ebb 2d12 2abd
00000020: 0a57 7b3e f282 b9bd b72d 7839 41a1 2a39
00000030: fe20 d3b9 fdbd 6aba 8fd5 0ebc eb6e c43e
00000040: 1504 4dbc 79c9 903e 9a9f bbba b3be 9f3a
00000050: 6c0e 993a e11f e2bc 1037 3fbe 78b4 55bd
00000060: 1294 08be 2b2f b0bf 58d1 66b9 f844 08bb
00000070: 1ff8 603d 0038 cb3e 60ad 6a3d 047b 3f3a
00000080: 18b3 b337 590c 9dba 1426 acba 69dd 8dbe
00000090: e86b 11bd e20b c938 1678 6dba 9a1b ce3a
000000a0: 3687 9539 4fcf 073b 25aa b53d c34d ef3a
000000b0: 878b fab9 7ec3 9fba d1a0 1dba 32f2 bd39
000000c0: 3e69 60b8 94f4 1ebc 1aa0 b6bd c20a 99ba
000000d0: 87de ce3a 73f8 21bb 2f92 73b9 2a0a 94ba
000000e0: 210e 8cbc e975 f4be 4dfa a1b9 9097 d338
000000f0: 4265 4cba e70f b339 b789 b339 d2b3 4cbd
00000100: ea53 64be d461 7ebe 9156 7dbe 5dfb c63e
00000110: a4a4 bd39 3c16 323b cdc6 113e 5dc8 033e
00000120: 1b32 4dba b126 8a3a 51cb 5d39 9c21 aaba
00000130: c799 30b9 f406 a6bd 802a b9be 1e8f d4bd
00000140: 8c9d 44be c3bd 9e3e 8b45 3cba f484 2339
00000150: 6b93 06bc 0bd1 18bd 8ea9 31bd c9f7 0dbd
00000160: 4b5d 9bbf be1d 423f 8b3d 843a 94f3 263e
00000170: f23c e43d de97 8d3a 8da0 5e3a b9c9 9238
00000180: 3a87 bbb8 cc46 0bba f108 24ba 2ba3 37bf
00000190: 9c09 bc3c bf0a c1ba d576 5139 b1f5 3db9
000001a0: b74c 9fba 194e c5bc eaf2 093f aa49 ee39
000001b0: 69c2 49b8 1e96 bc3a 6238 10ba 2150 d7b9
000001c0: 8816 29bb 6045 123c 8e53 c93b 2081 583b
000001d0: 1f30 0f40 9347 abba 7274 9739 f046 e6bd
000001e0: 383d b7be 445d abbd a19f 5ebe fb51 d839
000001f0: ffa2 3d37 a23f 633a f6b7 143e c41d 93bd
00000200: f72d b03c 2dda 9bbd 08f4 1e3f 50ca af39
00000210: c5bc c339 bb89 d0bb 261b 84bc 2710 5b3b
00000220: 0ddf f0bb c3f6 0ac0 cfa8 b238 8599 3eba
00000230: 39b2 e7bd c7c6 14b8 8372 4739 2cac e5b9
00000240: d7b6 c03a 88fa dc3a 1f8b 253a 9610 993d
00000250: e704 e439 61e8 6539 2d5b af39 b470 55ba
00000260: 9be1 78ba 86bf 53ba aa72 43bd 1309 03bf
00000270: d488 14bb c52f 35ba 3152 0e3b 20e5 9b3a
00000280: bb37 453a 3d3c 183d 33a7 7abd fd1e a83c
00000290: d458 113d 7184 15bf 7147 473f fbac 6dba
000002a0: 6bb3 5bbd 6de2 e0be e477 88bd f85f d4b8
000002b0: 4421 7d3a 3187 80ba 98bd 0d39 224f d73c
000002c0: 4893 8d3e a007 8e3e 677b 223e 0aac 0b3a
000002d0: d4cb bbba 9cff b0b9 c043 903e 353c 14ba
000002e0: 9c9a 9eba bcca 313a 9abf a03a 1842 b9b6
000002f0: ca2d 423a 1e46 30be 62a4 a4be 6d4b d4bc
00000300: 2ec2 a4bd f3dc edb8 e1ad 1ebb 74cf b5b9
00000310: acd6 383b b254 f53c 1be6 0dbc c66f f13c
00000320: 9e2a 09c0 4e42 84ba e21f 8bba 5e0c 42bb
00000330: 7fd6 393e c30d d5bc 6271 083e 7b59 813a
00000340: c108 993a 323f 85ba b91e 0d3e 678c b13a
00000350: f282 e23a b2ee d639 adc0 673a 4c19 44ba
00000360: 2ab0 6dba b311 c7bd 5f52 2839 44bb 543a
00000370: f0f6 78ba f493 04ba 053e f138 389c 07bb
00000380: a82d a13d 3098 993e d034 6f3e 568c ad3e
00000390: 8545 4cba c62e da39 17ad e63a 2f4e 7dbd
000003a0: da87 9f3a b500 c3b8 260b 65ba 7a55 3f3a
000003b0: 9c48 b639 38b1 2dba fcee 0dbd c1d9 5dbe
000003c0: 6268 79bd bf4e 07be 213f 3a3f 0f42 c5be
000003d0: baf1 08ba 69fe 4c3b 8235 3d3b 9ac3 423b
000003e0: c89b e83a a6cc 2ebf a26e a3bf e005 883a
000003f0: 6937 a7bc a8f5 02be 8517 8bbd 2b20 86bd

1.0.mdl.input_to_hidden.0.mask f4 [100, 7]
1.0 1.0 1.0 1.0 1.0 0.0 0.0 1.0
1.0 1.0 0.0 0.0 0.0 0.0 1.0 1.0
1.0 1.0 0.0 0.0 0.0 1.0 1.0 1.0
1.0 1.0 0.0 0.0 1.0 1.0 1.0 0.0
0.0 0.0 0.0 1.0 1.0 0.0 0.0 0.0
0.0 0.0 1.0 0.0 0.0 0.0 0.0 0.0
0.0 1.0 1.0 0.0 0.0 0.0 0.0 0.0
1.0 1.0 0.0 0.0 0.0 0.0 0.0 1.0
1.0 1.0 1.0 1.0 0.0 0.0 1.0 1.0
0.0 0.0 0.0 0.0 0.0 1.0 1.0 1.0
1.0 1.0 0.0 0.0 1.0 1.0 1.0 1.0
1.0 1.0 0.0 1.0 1.0 0.0 0.0 0.0
0.0 0.0 1.0 1.0 1.0 0.0 0.0 0.0
0.0 1.0 1.0 0.0 0.0 0.0 0.0 0.0
1.0 1.0 1.0 1.0 1.0 0.0 0.0 1.0
1.0 1.0 1.0 0.0 0.0 0.0 1.0 1.0
1.0 1.0 1.0 0.0 0.0 1.0 1.0 1.0
1.0 1.0 0.0 0.0 1.0 0.0 0.0 0.0
0.0 0.0 0.0 1.0 0.0 0.0 0.0 0.0
0.0 0.0 1.0 1.0 0.0 0.0 0.0 0.0
0.0 1.0 1.0 1.0 1.0 1.0 1.0 0.0
1.0 1.0 1.0 0.0 0.0 0.0 0.0 1.0
1.0 1.0 1.0 0.0 0.0 0.0 1.0 0.0
0.0 0.0 0.0 0.0 0.0 1.0 1.0 1.0
1.0 0.0 0.0 0.0 1.0 1.0 1.0 1.0
1.0 0.0 0.0 1.0 1.0 1.0 1.0 0.0
0.0 0.0 1.0 0.0 0.0 0.0 0.0 0.0
0.0 1.0 0.0 0.0 0.0 0.0 0.0 0.0
1.0 1.0 1.0 1.0 0.0 0.0 0.0 1.0
0.0 0.0 0.0 0.0 0.0 0.0 1.0 1.0
1.0 1.0 1.0 1.0 0.0 1.0 1.0 1.0
1.0 1.0 1.0 0.0 1.0 1.0 1.0 1.0
00000000: 0000 803f 0000 803f 0000 803f 0000 803f
00000010: 0000 803f 0000 0000 0000 0000 0000 803f
00000020: 0000 803f 0000 803f 0000 0000 0000 0000
00000030: 0000 0000 0000 0000 0000 803f 0000 803f
00000040: 0000 803f 0000 803f 0000 0000 0000 0000
00000050: 0000 0000 0000 803f 0000 803f 0000 803f
00000060: 0000 803f 0000 803f 0000 0000 0000 0000
00000070: 0000 803f 0000 803f 0000 803f 0000 0000
00000080: 0000 0000 0000 0000 0000 0000 0000 803f
00000090: 0000 803f 0000 0000 0000 0000 0000 0000
000000a0: 0000 0000 0000 0000 0000 803f 0000 0000
000000b0: 0000 0000 0000 0000 0000 0000 0000 0000
000000c0: 0000 0000 0000 803f 0000 803f 0000 0000
000000d0: 0000 0000 0000 0000 0000 0000 0000 0000
000000e0: 0000 803f 0000 803f 0000 0000 0000 0000
000000f0: 0000 0000 0000 0000 0000 0000 0000 803f
00000100: 0000 803f 0000 803f 0000 803f 0000 803f
00000110: 0000 0000 0000 0000 0000 803f 0000 803f
00000120: 0000 0000 0000 0000 0000 0000 0000 0000
00000130: 0000 0000 0000 803f 0000 803f 0000 803f
00000140: 0000 803f 0000 803f 0000 0000 0000 0000
00000150: 0000 803f 0000 803f 0000 803f 0000 803f
00000160: 0000 803f 0000 803f 0000 0000 0000 803f
00000170: 0000 803f 0000 0000 0000 0000 0000 0000
00000180: 0000 0000 0000 0000 0000 803f 0000 803f
00000190: 0000 803f 0000 0000 0000 0000 0000 0000
000001a0: 0000 0000 0000 803f 0000 803f 0000 0000
000001b0: 0000 0000 0000 0000 0000 0000 0000 0000
000001c0: 0000 803f 0000 803f 0000 803f 0000 803f
000001d0: 0000 803f 0000 0000 0000 0000 0000 803f
000001e0: 0000 803f 0000 803f 0000 803f 0000 0000
000001f0: 0000 0000 0000 0000 0000 803f 0000 803f
00000200: 0000 803f 0000 803f 0000 803f 0000 0000
00000210: 0000 0000 0000 803f 0000 803f 0000 803f
00000220: 0000 803f 0000 803f 0000 0000 0000 0000
00000230: 0000 803f 0000 0000 0000 0000 0000 0000
00000240: 0000 0000 0000 0000 0000 0000 0000 803f
00000250: 0000 0000 0000 0000 0000 0000 0000 0000
00000260: 0000 0000 0000 0000 0000 803f 0000 803f
00000270: 0000 0000 0000 0000 0000 0000 0000 0000
00000280: 0000 0000 0000 803f 0000 803f 0000 803f
00000290: 0000 803f 0000 803f 0000 803f 0000 0000
000002a0: 0000 803f 0000 803f 0000 803f 0000 0000
000002b0: 0000 0000 0000 0000 0000 0000 0000 803f
000002c0: 0000 803f 0000 803f 0000 803f 0000 0000
000002d0: 0000 0000 0000 0000 0000 803f 0000 0000
000002e0: 0000 0000 0000 0000 0000 0000 0000 0000
000002f0: 0000 0000 0000 803f 0000 803f 0000 803f
00000300: 0000 803f 0000 0000 0000 0000 0000 0000
00000310: 0000 803f 0000 803f 0000 803f 0000 803f
00000320: 0000 803f 0000 0000 0000 0000 0000 803f
00000330: 0000 803f 0000 803f 0000 803f 0000 0000
00000340: 0000 0000 0000 0000 0000 803f 0000 0000
00000350: 0000 0000 0000 0000 0000 0000 0000 0000
00000360: 0000 0000 0000 803f 0000 0000 0000 0000
00000370: 0000 0000 0000 0000 0000 0000 0000 0000
00000380: 0000 803f 0000 803f 0000 803f 0000 803f
00000390: 0000 0000 0000 0000 0000 0000 0000 803f
000003a0: 0000 0000 0000 0000 0000 0000 0000 0000
000003b0: 0000 0000 0000 0000 0000 803f 0000 803f
000003c0: 0000 803f 0000 803f 0000 803f 0000 803f
000003d0: 0000 0000 0000 803f 0000 803f 0000 803f
000003e0: 0000 803f 0000 803f 0000 803f 0000 0000
000003f0: 0000 803f 0000 803f 0000 803f 0000 803f

1.0.mdl.input_to_hidden.0.cscale.weight f4 [100, 1]
-4.744677e-05 0.00047095056 -0.0014588237 -0.000110555506 -0.0007881175 -0.0016699781 -0.0011402601 -0.000477891
-0.0005446433 0.0012270343 -7.394041e-05 0.0023588543 0.001520513 -0.0015899333 -0.0012261028 0.0014054247
0.0009104524 0.00057439983 0.00014752585 0.002253146 -0.0013461917 0.00069076207 0.000112634545 -4.0473857e-05
0.0006226257 0.0008157143 7.691379e-05 0.000119849916 -0.00031135912 0.00024704804 -0.00067884277 0.00077335635
0.0013276148 0.00015590401 -0.00017999668 0.0016387114 0.00028689278 -0.0011822747 0.00020629948 -0.0019342089
-0.00087597745 0.0007380016 -0.0015648908 6.477202e-05 -0.0007464527 -0.0006732795 0.0008852398 -0.0005564929
-9.80455e-05 -0.00059617416 -0.0014126567 0.00044880365 -0.0016883984 -0.0010487792 0.00012270003 -0.0020363203
-0.00094219745 -0.00038644634 -0.00016087128 -0.0011933532 0.0022225354 -0.0003917602 -0.00055821054 8.937639e-05
-0.0005010597 0.00024557632 0.00010555711 0.000121357916 0.00036901917 0.000917332 0.00092666695 0.0014268123
-0.0021599487 0.00065130804 0.0012354385 -0.0001337366 0.0012826326 -0.0005711189 0.0007234215 -0.0012256064
0.0004588796 0.00016367197 -0.0022860384 0.0006446988 -0.00038073238 -0.00015953588 0.00070870575 0.00011362364
8.033008e-05 0.0004115606 -0.0020203919 0.00030430153 -0.0008814122 0.0012497932 0.0007990771 -0.0007929688
0.0013516094 0.00035300496 -0.00026948654 0.00019874446
00000000: 9501 47b8 eae9 f639 0036 bfba 09da e7b8
00000010: ac99 4eba 2be3 daba c874 95ba 728d fab9
00000020: 65c6 0eba 70d4 a03a 7510 9bb8 0297 1a3b
00000030: f34b c73a 4f65 d0ba 2fb5 a0ba 3a36 b83a
00000040: 6dab 6e3a 5293 163a 2bb1 1a39 84a9 133b
00000050: b372 b0ba 4214 353a 3636 ec38 79c2 29b8
00000060: b437 233a a9d5 553a c74c a138 ef57 fb38
00000070: ea3d a3b9 3a86 8139 5ef4 31ba 11bb 4a3a
00000080: 5c03 ae3a 2a7a 2339 7ebd 3cb9 08ca d63a
00000090: 196a 9639 8ef6 9aba 1852 5839 4885 fdba
000000a0: daa1 65ba 7376 413a 061d cdba 37d6 8738
000000b0: 98ad 43ba 067f 30ba 700f 683a 9be1 11ba
000000c0: c79d cdb8 9248 1cba e528 b9ba 684d eb39
000000d0: 404d ddba 3177 89ba 0aa9 0039 c973 05bb
000000e0: cdfd 76ba f39b cab9 8eaf 28b9 4a6a 9cba
000000f0: f5a7 113b 2a65 cdb9 e054 12ba 966f bb38
00000100: 8c59 03ba b2c0 8039 8b5e dd38 8981 fe38
00000110: ea78 c139 1c79 703a 91eb 723a e003 bb3a
00000120: ed8d 0dbb 8bbc 2a3a 70ee a13a a53b 0cb9
00000130: 021e a83a 24b7 15ba ffa3 3d3a 87a4 a0ba
00000140: c795 f039 5c9f 2b39 5cd1 15bb 0101 293a
00000150: 099d c7b9 1649 27b9 70c8 393a 3a49 ee38
00000160: e276 a838 bbc6 d739 8d68 04bb a98a 9f39
00000170: 920e 67ba 1ad0 a33a 2879 513a 3cdf 4fba
00000180: 7c28 b13a 8613 b939 df49 8db9 0f66 5039

1.0.mdl.input_to_hidden.0.cscale.bias f4 [100]
9.19168e-05 -0.9739711 0.4747513 2.3065484 0.6701312 0.5936788 0.14473297 -0.6847809
-1.2215482 -0.48659128 0.7379118 -1.0414622 2.83322 0.5478828 1.5890131 1.5821362
-3.1052368 1.2581066 -0.9213507 3.1009195 -0.2501899 0.26068768 -1.18479 -1.6703898
-0.73318815 0.6037223 1.1149225 1.1766152 2.7063751 0.78416365 1.0618582 -0.47716144
1.5196564 -0.81139255 1.2030234 2.0700614 -2.0390155 1.2699083 -0.40352443 2.6448166
-0.7606575 -0.30728987 -0.26174584 1.0317854 -0.78924406 1.5190018 -1.1222695 -0.47006857
0.7858091 1.7982405 0.71665615 1.0845714 0.9611043 0.6350458 1.0836807 0.58935666
0.8785442 0.5147473 -6.81977e-40 -1.5587468 -1.7416744 -0.50534403 -0.6133833 -1.9575254
-0.6962546 -0.47991192 1.1867571 0.5004539 -1.1622415 -0.94034207 0.43706158 -0.6159598
0.893372 1.02539e-40 -2.3356802 0.50289315 0.2629234 1.2685223 -0.8475659 0.32163012
-1.2586998 0.8664451 0.33523136 -0.48084304 1.1607697 1.0170134 1.7634441 0.54269445
0.7370665 -0.9976799 -1.2844878 0.58517945 -0.82904524 0.94241107 1.2553239 -2.9385715
1.6690825 0.71172065 0.35715812 -1.338159
00000000: 75c3 c038 2c56 79bf 9a12 f33e 7d9e 1340
00000010: b88d 2b3f 55fb 173f e134 143e cd4d 2fbf
00000020: b15b 9cbf 7e22 f9be cae7 3c3f a24e 85bf
00000030: 7a53 3540 0c42 0c3f c864 cb3f 7083 ca3f
00000040: 33bc 46c0 a309 a13f a4dd 6bbf 7775 4640
00000050: e418 80be db78 853e 33a7 97bf 55cf d5bf
00000060: 38b2 3bbf 8b8d 1a3f c8b5 8e3f 549b 963f
00000070: 4035 2d40 f3be 483f f8ea 873f 814e f4be
00000080: 1a84 c23f 6cb7 4fbf acfc 993f e37b 0440
00000090: 3b7f 02c0 5b8c a23f c19a cebe ad44 2940
000000a0: 73ba 42bf 1955 9dbe 8d03 86be 8b11 843f
000000b0: e60b 4abf a76e c23f 87a6 8fbf d4ac f0be
000000c0: c92a 493f bf2c e63f c776 373f 3cd3 8a3f
000000d0: ee0a 763f 5d92 223f 0db6 8a3f 14e0 163f
000000e0: 46e8 603f 7bc6 033f 136d 0780 0485 c7bf
000000f0: 30ef debf 3a5e 01bf b006 1dbf 3190 fabf
00000100: be3d 32bf 04b7 f5be a8e7 973f bf1d 003f
00000110: 54c4 94bf 42ba 70bf 89c6 df3e 8baf 1dbf
00000120: 07b4 643f d61d 0100 c97b 15c0 9bbd 003f
00000130: e59d 863e f05e a23f 14fa 58bf b4ac a43e
00000140: 131d a1bf 59cf 5d3f 72a3 ab3e 0f31 f6be
00000150: 1a94 943f 7f2d 823f 89b8 e13f 06ee 0a3f
00000160: 64b0 3c3f f367 7fbf 196a a4bf 52ce 153f
00000170: 4f3c 54bf da41 713f 74ae a03f 8e11 3cc0
00000180: 7fa4 d53f 5333 363f 6edd b63e cb48 abbf

1.0.mdl.input_to_hidden.0.cbias.weight f4 [100, 1]
0.00056456967 -0.0008479378 -0.00071973616 -0.0012387001 -0.0017198055 -0.0006315803 0.0006044247 -0.0006674887
-0.0013316046 0.0010262972 0.0018119587 -0.00016632279 0.0027337365 -0.0011292092 -0.000406169 0.0012854751
-0.0032450573 -0.0005696178 -0.00091662747 0.0007842296 0.00081633584 0.0008590413 -0.0004236264 -0.0010291024
0.0020307442 -0.0011263036 -0.0006802153 0.00069202075 0.0013331379 -0.00016921415 -0.00040361885 0.0008579718
-0.0013061643 4.3865966e-05 -0.0012218184 0.0019764358 -0.0008161541 -0.0011265394 -0.0006615251 0.0018286968
-0.0004263325 -0.0010482144 0.00014214698 0.000619406 0.0010014296 -0.00074430916 0.000412304 -0.0014241268
-0.00028924624 0.00050208584 -0.0004957096 0.00073413405 2.3293369e-05 -0.0022327094 -0.00022456874 0.0003405626
0.00014251906 -0.0030428553 0.0009803256 -0.0015786618 0.0009380856 0.0011650086 -0.0014687399 -0.0002110686
0.00039513185 -0.0015621856 -0.0009038121 0.0025697893 -0.0012843914 0.0013179498 -0.0007104885 -0.0009184512
-0.00021626991 -6.938698e-05 -0.00032449057 0.00015381766 0.0003874153 -0.00017412589 -0.00084193103 -0.00025995902
-0.0010452465 0.0004906377 0.00090335694 -0.00018587448 0.00060129573 -0.0010446776 -0.0011102154 0.00090619177
-0.001305604 -0.0011367766 -0.00056194706 0.00034567423 -0.00035561464 -0.0013890658 -0.00292642 -0.0014596632
0.00056190917 0.0003851115 0.00041348604 -0.0011732448
00000000: a1ff 133a 2448 5eba adac 3cba e15b a2ba
00000010: 196b e1ba a390 25ba 4172 1e3a 69fa 2eba
00000020: 3c89 aeba d284 863a 3f7f ed3a ef66 2eb9
00000030: 7d28 333b f901 94ba 15f3 d4b9 637d a83a
00000040: 07ab 54bb 6752 15ba d449 70ba c294 4d3a
00000050: 5fff 553a 4931 613a 2c1a deb9 f2e2 86ba
00000060: 3c16 053b 7aa0 93ba 7a50 32ba ba68 353a
00000070: afbc ae3a 146f 31b9 ce9c d3b9 83e9 603a
00000080: 9a33 abba b9fc 3738 6c25 a0ba 1787 013b
00000090: 2df3 55ba 64a8 93ba 336a 2dba e2b0 ef3a
000000a0: 6185 dfb9 3d64 89ba 4a0d 1539 a25f 223a
000000b0: 6742 833a be1d 43ba 822a d839 c4a9 baba
000000c0: f9a5 97b9 699e 033a 82f2 01ba e772 403a
000000d0: 2166 c337 a652 12bb 367a 6bb9 8a8d b239
000000e0: 2b71 1539 a46a 47bb 457e 803a 1aeb ceba
000000f0: dce9 753a 34b3 983a bc82 c0ba 4c52 5db9
00000100: b329 cf39 40c2 ccba ceed 6cba e969 283b
00000110: 0659 a8ba 0fbf ac3a 1340 3aba 37c4 70ba
00000120: 83c6 62b9 da83 91b8 6320 aab9 1d4a 2139
00000130: 001e cb39 9095 36b9 09b5 5cba 1c4b 88b9
00000140: a700 89ba 249e 003a 42cf 6c3a 4de7 42b9
00000150: 46a0 1d3a 90ed 88ba a684 91ba 808d 6d3a
00000160: cd20 abba e5ff 94ba a14f 13ba 9c3b b539
00000170: ca71 bab9 5011 b6ba 2ec9 3fbb 2b52 bfba
00000180: 164d 133a cae8 c939 28c9 d839 90c7 99ba

1.0.mdl.input_to_hidden.0.cbias.bias f4 [100]
1.5457262e-07 0.028255556 -0.42332384 0.6674939 -0.97140175 0.18578789 -0.93176955 0.18883927
-1.2729325 1.505355 0.7385838 1.4431534 0.2669824 0.5923432 1.930779 -1.8291168
-1.7074339 1.1171004 1.3305427 -0.94565845 -1.3481215 -0.69680816 -1.3639957 -0.114995494
-1.1780745 -0.5661939 0.8661169 1.50178 -0.35951528 -0.3173335 -0.17209625 -1.2903696
-1.1183226 -0.84576184 -0.19535786 -1.3311617 0.8495175 -0.5575056 -0.6996624 0.58619815
0.74301875 -0.6209849 -0.6983956 -1.1333355 0.74847484 -0.20702921 -1.2004536 0.9236806
1.2489165 -1.730087 1.4042916 1.5039078 -0.7994508 -1.2657337 1.2106404 -1.1332545
0.85826784 -1.0898132 -0.67563343 0.6365407 1.2761314 1.5041448 0.5798859 -0.72767794
1.2551152 1.5120646 -1.0956663 1.3875668 0.86824775 -0.27057686 1.6582844 -0.91601086
-0.7093154 0.884828 1.2455666 -1.6469836 -0.80319303 -0.9271242 -1.3815786 1.4724938
1.5343975 -0.8135628 -0.9069993 -0.11051428 0.9347989 1.2309195 -1.6281053 -0.6290518
1.2016501 -0.71503353 1.5678749 1.2967343 0.9141558 0.652319 1.2988166 0.34459838
0.10819547 -1.2190596 -1.0441825 -1.4866459
00000000: 99f8 2534 3278 e73c e7bd d8be e1e0 2a3f
00000010: c9ad 78bf 2e3f 3e3e 7388 6ebf 155f 413e
00000020: 74ef a2bf 79af c03f d413 3d3f 40b9 b83f
00000030: ebb1 883e cea3 173f c423 f73f 8020 eabf
00000040: 328d dabf 25fd 8e3f 394f aa3f ac16 72bf
00000050: 3f8f acbf 0562 32bf 6997 aebf c282 ebbd
00000060: 25cb 96bf 15f2 10bf d6b9 5d3f 543a c03f
00000070: 6312 b8be 8979 a2be 003a 30be d52a a5bf
00000080: 3225 8fbf d983 58bf e40b 48be 8263 aabf
00000090: fb79 593f b0b8 0ebf 131d 33bf 1511 163f
000000a0: 7a36 3e3f def8 1ebf 0eca 32bf 2311 91bf
000000b0: 0c9c 3f3f 77ff 53be 77a8 99bf 5576 6c3f
000000c0: 7fdc 9f3f 7e73 ddbf d4bf b33f 0d80 c03f
000000d0: cfa8 4cbf 9003 a2bf 44f6 9a3f 7c0e 91bf
000000e0: 71b7 5b3f 007f 8bbf 50f6 2cbf 55f4 223f
000000f0: 4658 a33f d187 c03f 6773 143f 1a49 3abf
00000100: 9da7 a03f 558b c13f cb3e 8cbf ca9b b13f
00000110: 7c45 5e3f 0d89 8abe aa42 d43f b07f 6abf
00000120: b295 35bf 1684 623f ba6e 9f3f 5cd0 d2bf
00000130: 0f9e 4dbf 0358 6dbf 91d7 b0bf ad7a bc3f
00000140: 2367 c43f a745 50bf 1b31 68bf 5055 e2bd
00000150: fb4e 6f3f c58e 9d3f c165 d0bf 8a09 21bf
00000160: accf 993f 700c 37bf 20b0 c83f 64fb a53f
00000170: 1d06 6a3f 61fe 263f 9f3f a63f 336f b03e
00000180: 9695 dd3d 250a 9cbf c6a7 85bf 6a4a bebf
