models/lhc_binned_en6of8_sp0_e40_s1993_p0.0_h100_faffine_fl5_l1_dsdim16_dsl1_cudaFalse_best_model.pt (torch_old, 195019 bytes, 73 tensors)

0.0.mdl.input_to_hidden.0.direction f4 [100, 14]
-0.06378175 0.020672608 0.0045485813 -0.035120945 0.018895429 -0.010745855 0.044566814 0.012815488
0.00814716 -0.0043533165 0.46866328 0.560455 0.0008852796 0.00043999072 0.036646444 0.011874407
0.018025868 0.04273942 0.024307458 -0.016282141 0.0012014452 -0.09000276 -0.0009661137 -0.0005803942
0.00044715268 0.0005823231 0.0024655925 -0.00019554465 0.03985691 -0.08159294 -0.0034939754 -0.022818295
-0.013177797 0.0012806624 -0.07079273 -0.055412248 0.08872652 0.049447913 -4.8407503e-05 9.501091e-05
-0.001593014 0.00035200987 0.09197522 -6.81082e-05 0.0010800059 3.9466217e-05 0.00069791806 -0.0005666075
0.0011013056 0.00065038225 -0.0014995987 0.0026213385 -0.00041494565 -0.0004911609 -0.00025577797 -0.0020116898
0.0017432998 0.009874192 -0.0014231505 0.00014780645 0.00048650982 -0.0013161297 0.001409579 2.5212592e-05
0.00040909695 -7.88399e-05 0.0006200434 -0.0011398883 -0.0005973862 -0.0004585605 -0.051319133 -0.056591664
0.014637318 0.0115525415 -0.0009077373 0.046716608 0.07976047 0.00042145693 0.000206612 -4.506752e-05
0.0002954498 0.0004350543 0.00037507212 0.0005528683 0.00548993 -0.0038710027 0.1603006 -0.016354563
0.006302753 -0.01984182 0.011360243 0.0052600265 -0.008690742 0.112882964 -0.001115208 0.0010268103
0.00029365165 -0.0008209695 0.021814251 0.025560701 0.0025534583 -0.018716346 0.01121551 -0.0060374276
-0.044398308 0.00346408 -0.008025751 -0.0020882473 0.13774443 0.09869669 0.5620985 -0.0015843477
0.024824282 0.003309809 -0.0025557443 0.008237915 0.005015723 0.040206347 0.035389777 -0.07712432
0.000581891 0.0022056962 -0.00032456164 0.0012135474 0.00084888405 -0.0021338735 -0.015992742 -0.017110916
-1.6664932e-05 -0.20145966 -0.1016737 -0.30500072 0.00051515177 -0.0016924649 -0.0007119426 0.0018168476
-0.00054010376 0.001461201 -0.0018942237 -0.000526119 0.037121963 -0.17101558 0.00082949846 0.009116644
0.0025885254 0.0048241303 0.0046026083 0.0007880044 -0.0006756832 8.1695485e-05 0.0007721279 -0.000120487624
0.00038097444 -0.00013608403 0.004910465 -0.0015879652 0.042007443 0.048145536 0.0108035095 0.07284079
-0.00031692066 -0.00016981484 -0.00022623123 0.0003122648 -0.00012660203 0.00073870405 0.00044300003 -0.0010826449
-0.0040583187 0.008003289 -0.10114058 -0.011545137 -0.02604854 0.014400319 0.03907195 0.005789281
0.003130972 -0.1777265 0.11256028 -0.086800344 -0.0007141277 -0.0001599408 0.019131124 -0.026310816
-0.0042784405 -0.040580694 -0.06373467 -0.2035355 -0.00091020216 -0.00032190888 -0.0008128158 -0.0006903144
-0.0008907651 0.0005615636 -0.00136545 0.0003850561 -0.031546485 -0.051110517 -0.009043384 -0.037418336
-0.05848415 -0.000806894 -0.00015808435 0.0004375139 9.522128e-05 3.309748e-05 -0.0005721171 0.0016780999
0.0008038884 0.0014071753 -0.00051275804 -0.00068244175 -0.06605196 0.09066619 -0.001174816 -4.2232e-05
0.0002932273 -0.002535591 0.0012120585 9.7096236e-05 -0.00059247506 -0.000438611 -0.0007437581 -0.0003936779
0.0048939735 -4.1712933e-06 0.00060287106 0.0008765414 0.000147357 0.0004964249 -0.00047133074 -0.0003288433
-0.0009237825 -0.0009618258 -0.00092022336 -0.0024356118 0.0014988681 0.0010106534 0.030047143 -0.0724542
0.0026083384 -0.076891266 0.05971951 0.0024730861 -0.018497122 0.0137978615 -0.01730997 -0.0038952753
0.53855973 -0.001098606 -0.00019857229 0.00092865573 -0.16095418 -0.13405283 0.0005523212 -0.00086364563
00000000: 02a0 82bd 9a59 a93c 440c 953b fbda 0fbd
00000010: 96ca 9a3c 620f 30bc b18b 363d 0df8 513c
00000020: aa7b 053c 44a6 8ebb a2f4 ef3e fb79 0f3f
00000030: 1c12 683a 8eae e639 951a 163d df8c 423c
00000040: fcaa 933c 880f 2f3d 6f20 c73c 2062 85bc
00000050: d079 9d3a 5e53 b8bd cb42 7dba 9825 18ba
00000060: d16f ea39 0ba7 183a c795 213b 1e0b 4db9
00000070: 0041 233d 331a a7bd 2efb 64bb 6fed babc
00000080: b0e7 57bc e6db a73a c7fb 90bd f4f7 62bd
00000090: 40b6 b53d e589 4a3d 2909 4bb8 9840 c738
000000a0: aecc d0ba f78d b839 815d bc3d 50d5 8eb8
000000b0: fc8e 8d3a 8788 2538 7df4 363a 6388 14ba
000000c0: af59 903a 6a7e 2a3a 2f8e c4ba c3ca 2b3b
000000d0: 108d d9b9 40c1 00ba f019 86b9 8ed6 03bb
000000e0: 6f7f e43a 5dc7 213c 0289 baba 7efc 1a39
000000f0: 3e12 ff39 fc81 acba 9fc1 b83a a17f d337
00000100: 107c d639 d956 a5b8 698a 223a 4e68 95ba
00000110: e999 1cba f36a f0b9 0334 52bd a9cc 67bd
00000120: 5dd1 6f3c df46 3d3c 38f5 6dba ea59 3f3d
00000130: 7559 a33d fef6 dc39 fda5 5839 e206 3db8
00000140: 9ae6 9a39 0018 e439 54a5 c439 5dee 103a
00000150: dfe4 b33b a6b0 7dbb d725 243e 01fa 85bc
00000160: 5387 ce3b 508b a2bc 5020 3a3c 4d5c ac3b
00000170: 9d63 0ebc 2f2f e73d 2c2c 92ba 0996 863a
00000180: 42f5 9939 5536 57ba cdb3 b23c ad64 d13c
00000190: ec57 273b 0653 99bc 42c1 373c 9dd5 c5bb
000001a0: 00db 35bd 9e05 633b 717e 03bc fada 08bb
000001b0: e00c 0d3e 7d21 ca3d b0e5 0f3f e3a9 cfba
000001c0: 4b5c cb3c 61e9 583b 467e 27bb 52f8 063c
000001d0: ef5a a43b 69af 243d dff4 103d 5bf3 9dbd
000001e0: 0b8a 183a 718d 103b ed29 aab9 e50f 9f3a
000001f0: a587 5e3a 75d8 0bbb 3603 83bc 312c 8cbc
00000200: abcb 8bb7 714b 4ebe 4d3a d0bd 0e29 9cbe
00000210: 400b 073a b3d5 ddba a9a1 3aba 4a23 ee3a
00000220: c095 0dba c585 bf3a 9a47 f8ba 40eb 09ba
00000230: 330d 183d b51e 2fbe b372 593a fa5d 153c
00000240: 40a4 293b bd13 9e3b 7ad1 963b 1592 4e3a
00000250: 5520 31ba ee53 ab38 a068 4a3a 4dae fcb8
00000260: 86bd c739 c7b1 0eb9 f7e7 a03b 4523 d0ba
00000270: ff0f 2c3d 4134 453d 3401 313c 8d2d 953d
00000280: 5f28 a6b9 5310 32b9 7c38 6db9 79b7 a339
00000290: 79c0 04b9 97a5 413a 7542 e839 89e7 8dba
000002a0: a5fb 84bb 3a20 033c cb22 cfbd d027 3dbc
000002b0: bf63 d5bc 51ef 6b3c e909 203d 02b4 bd3b
000002c0: fe30 4d3b f0fd 35be 0186 e63d 61c4 b1bd
000002d0: 4c34 3bba c8b5 27b9 e0b8 9c3c c889 d7bc
000002e0: 2932 8cbb f137 26bd 5387 82bd 9c6b 50be
000002f0: a29a 6eba e1c5 a8b9 2513 55ba 37f6 34ba
00000300: 3c82 69ba e535 133a e6f8 b2ba 5be1 c939
00000310: e336 01bd 4359 51bd b42a 14bc f843 19bd
00000320: 138d 6fbd bd85 53ba 72c3 25b9 1f62 e539
00000330: 89b1 c738 26d2 0a38 21fa 15ba b0f3 db3a
00000340: 0abc 523a f870 b83a 9c6a 06ba e4e5 32ba
00000350: 4046 87bd 32af b93d 49fc 99ba 4422 31b8
00000360: 4dbc 9939 282c 26bb efdd 9e3a 25a0 cb38
00000370: 5450 1bba 5ff5 e5b9 c3f8 42ba 8e66 ceb9
00000380: a05d a03b 23f7 8bb6 fe09 1e3a b3c7 653a
00000390: d883 1a39 8322 023a f11c f7b9 9a68 acb9
000003a0: ff29 72ba 0923 7cba 253b 71ba c99e 1fbb
000003b0: ab75 c43a e777 843a 6d25 f63c de62 94bd
000003c0: a8f0 2a3b 2b79 9dbd 729c 743d 8013 223b
000003d0: 4787 97bc 6d10 623c a3cd 8dbc e047 7fbb
000003e0: 0ddf 093f 1aff 8fba d837 50b9 0871 733a
000003f0: 2cd1 24be 2545 09be a6c9 103a 4766 62ba

0.0.mdl.input_to_hidden.0.mask f4 [100, 14]
1.0 1.0 1.0 1.0 1.0 1.0 1.0 1.0
1.0 1.0 1.0 1.0 0.0 0.0 1.0 1.0
1.0 1.0 1.0 1.0 1.0 1.0 0.0 0.0
0.0 0.0 0.0 0.0 1.0 1.0 1.0 1.0
1.0 1.0 1.0 1.0 1.0 1.0 0.0 0.0
0.0 0.0 1.0 0.0 0.0 0.0 0.0 0.0
0.0 0.0 0.0 0.0 0.0 0.0 0.0 0.0
1.0 1.0 0.0 0.0 0.0 0.0 0.0 0.0
0.0 0.0 0.0 0.0 0.0 0.0 1.0 1.0
1.0 1.0 1.0 1.0 1.0 0.0 0.0 0.0
0.0 0.0 0.0 0.0 1.0 1.0 1.0 1.0
1.0 1.0 1.0 1.0 1.0 1.0 0.0 0.0
0.0 0.0 1.0 1.0 1.0 1.0 1.0 1.0
1.0 1.0 1.0 1.0 1.0 1.0 1.0 0.0
1.0 1.0 1.0 1.0 1.0 1.0 1.0 1.0
0.0 0.0 0.0 0.0 0.0 0.0 1.0 1.0
1.0 1.0 1.0 1.0 0.0 0.0 0.0 0.0
0.0 0.0 0.0 0.0 1.0 1.0 1.0 1.0
1.0 1.0 1.0 0.0 0.0 0.0 0.0 0.0
0.0 0.0 1.0 1.0 1.0 1.0 1.0 1.0
0.0 0.0 0.0 0.0 0.0 0.0 0.0 0.0
1.0 1.0 1.0 1.0 1.0 1.0 1.0 1.0
1.0 1.0 1.0 1.0 0.0 0.0 1.0 1.0
1.0 1.0 1.0 1.0 0.0 0.0 0.0 0.0
0.0 0.0 0.0 0.0 1.0 1.0 1.0 1.0
1.0 0.0 0.0 0.0 0.0 0.0 0.0 0.0
0.0 0.0 1.0 1.0 1.0 1.0 0.0 0.0
0.0 0.0 0.0 0.0 0.0 0.0 0.0 0.0
1.0 0.0 0.0 0.0 0.0 0.0 0.0 0.0
0.0 0.0 0.0 0.0 0.0 0.0 1.0 1.0
1.0 1.0 1.0 1.0 1.0 1.0 1.0 1.0
1.0 0.0 0.0 0.0 1.0 1.0 0.0 0.0
00000000: 0000 803f 0000 803f 0000 803f 0000 803f
00000010: 0000 803f 0000 803f 0000 803f 0000 803f
00000020: 0000 803f 0000 803f 0000 803f 0000 803f
00000030: 0000 0000 0000 0000 0000 803f 0000 803f
00000040: 0000 803f 0000 803f 0000 803f 0000 803f
00000050: 0000 803f 0000 803f 0000 0000 0000 0000
00000060: 0000 0000 0000 0000 0000 0000 0000 0000
00000070: 0000 803f 0000 803f 0000 803f 0000 803f
00000080: 0000 803f 0000 803f 0000 803f 0000 803f
00000090: 0000 803f 0000 803f 0000 0000 0000 0000
000000a0: 0000 0000 0000 0000 0000 803f 0000 0000
000000b0: 0000 0000 0000 0000 0000 0000 0000 0000
000000c0: 0000 0000 0000 0000 0000 0000 0000 0000
000000d0: 0000 0000 0000 0000 0000 0000 0000 0000
000000e0: 0000 803f 0000 803f 0000 0000 0000 0000
000000f0: 0000 0000 0000 0000 0000 0000 0000 0000
00000100: 0000 0000 0000 0000 0000 0000 0000 0000
00000110: 0000 0000 0000 0000 0000 803f 0000 803f
00000120: 0000 803f 0000 803f 0000 803f 0000 803f
00000130: 0000 803f 0000 0000 0000 0000 0000 0000
00000140: 0000 0000 0000 0000 0000 0000 0000 0000
00000150: 0000 803f 0000 803f 0000 803f 0000 803f
00000160: 0000 803f 0000 803f 0000 803f 0000 803f
00000170: 0000 803f 0000 803f 0000 0000 0000 0000
00000180: 0000 0000 0000 0000 0000 803f 0000 803f
00000190: 0000 803f 0000 803f 0000 803f 0000 803f
000001a0: 0000 803f 0000 803f 0000 803f 0000 803f
000001b0: 0000 803f 0000 803f 0000 803f 0000 0000
000001c0: 0000 803f 0000 803f 0000 803f 0000 803f
000001d0: 0000 803f 0000 803f 0000 803f 0000 803f
000001e0: 0000 0000 0000 0000 0000 0000 0000 0000
000001f0: 0000 0000 0000 0000 0000 803f 0000 803f
00000200: 0000 803f 0000 803f 0000 803f 0000 803f
00000210: 0000 0000 0000 0000 0000 0000 0000 0000
00000220: 0000 0000 0000 0000 0000 0000 0000 0000
00000230: 0000 803f 0000 803f 0000 803f 0000 803f
00000240: 0000 803f 0000 803f 0000 803f 0000 0000
00000250: 0000 0000 0000 0000 0000 0000 0000 0000
00000260: 0000 0000 0000 0000 0000 803f 0000 803f
00000270: 0000 803f 0000 803f 0000 803f 0000 803f
00000280: 0000 0000 0000 0000 0000 0000 0000 0000
00000290: 0000 0000 0000 0000 0000 0000 0000 0000
000002a0: 0000 803f 0000 803f 0000 803f 0000 803f
000002b0: 0000 803f 0000 803f 0000 803f 0000 803f
000002c0: 0000 803f 0000 803f 0000 803f 0000 803f
000002d0: 0000 0000 0000 0000 0000 803f 0000 803f
000002e0: 0000 803f 0000 803f 0000 803f 0000 803f
000002f0: 0000 0000 0000 0000 0000 0000 0000 0000
00000300: 0000 0000 0000 0000 0000 0000 0000 0000
00000310: 0000 803f 0000 803f 0000 803f 0000 803f
00000320: 0000 803f 0000 0000 0000 0000 0000 0000
00000330: 0000 0000 0000 0000 0000 0000 0000 0000
00000340: 0000 0000 0000 0000 0000 803f 0000 803f
00000350: 0000 803f 0000 803f 0000 0000 0000 0000
00000360: 0000 0000 0000 0000 0000 0000 0000 0000
00000370: 0000 0000 0000 0000 0000 0000 0000 0000
00000380: 0000 803f 0000 0000 0000 0000 0000 0000
00000390: 0000 0000 0000 0000 0000 0000 0000 0000
000003a0: 0000 0000 0000 0000 0000 0000 0000 0000
000003b0: 0000 0000 0000 0000 0000 803f 0000 803f
000003c0: 0000 803f 0000 803f 0000 803f 0000 803f
000003d0: 0000 803f 0000 803f 0000 803f 0000 803f
000003e0: 0000 803f 0000 0000 0000 0000 0000 0000
000003f0: 0000 803f 0000 803f 0000 0000 0000 0000

0.0.mdl.input_to_hidden.0.cscale.weight f4 [100, 1]
-0.00039748187 -0.00037642222 -0.0009669593 0.00010153812 0.00077888416 0.00017763086 -0.00062991155 -0.00023123609
0.0008713835 -0.0006146807 8.4227824e-05 -0.0005645529 -0.00070813025 0.0013919851 0.0015405916 6.5169183e-06
0.0005319462 0.0010744646 0.0017118161 -0.00017016739 0.0015494864 -0.0017513549 0.001332195 0.00017192043
0.00053308025 0.0010686145 -0.00040466414 0.00027221625 -0.0008555763 -0.0007436278 0.0010525446 0.0011608743
0.0016874044 9.7350196e-05 -0.0010569333 -0.0027693245 -0.00082189427 0.001673107 0.00031030504 -8.717511e-05
-4.4755758e-05 -0.0012187312 0.00067573076 -0.0003991764 0.001530199 -0.00030164578 -0.0009755269 -0.0010987221
0.0012234771 -0.0016478323 0.0012060242 0.0010889043 3.682084e-05 0.0003856964 -0.00019085874 -0.0009768857
-0.0008327875 0.00032627108 -0.0009730931 0.00046420787 -0.0005972885 0.0006474964 -0.00047775303 0.00036683044
-0.0012442039 0.00045895937 0.00043721352 0.00062505057 0.00032742237 -0.00032736897 0.00029138516 -0.00042428233
0.00080043054 -0.00016481857 -0.001099061 -0.00036968608 -0.0005097257 -0.00067816715 0.00035645056 -0.00016224397
-0.00025762804 0.00038148143 0.0011832017 -3.1056108e-05 -3.7769225e-06 0.00037998697 0.0024455157 -0.0009308606
-0.0021309294 0.00087794336 -5.274883e-05 -0.00016461054 -0.001174145 6.40375e-05 0.00048605105 -0.0012340037
-0.0011619694 0.0012509713 0.0013713565 -0.0006095275
00000000: 1d65 d0b9 895a c5b9 8a7b 7dba ddf0 d438
00000010: 082e 4c3a 6c42 3a39 a620 25ba f777 72b9
00000020: 8f6d 643a 8622 21ba 78a3 b038 81fe 13ba
00000030: d1a1 39ba 4573 b63a aded c93a e7ab da36
00000040: 4e72 0b3a 0dd5 8c3a 045f e03a f66e 32b9
00000050: 2318 cb3a b88d e5ba 0c9d ae3a 8a45 3439
00000060: 69be 0b3a c110 8c3a 1a29 d4b9 3fb8 8e39
00000070: c148 60ba 04f0 42ba 89f5 893a 7a28 983a
00000080: e52b dd3a 7d28 cc38 cc88 8aba 8e7d 35bb
00000090: 6474 57ba 284c db3a 70b0 a239 c8d1 b6b8
000000a0: 21b8 3bb8 d5bd 9fba 8623 313a 8d48 d1b9
000000b0: f590 c83a 3626 9eb9 81ba 7fba ff02 90ba
000000c0: 145d a03a 14fc d7ba 7513 9e3a 91b9 8e3a
000000d0: 1370 1a38 4b37 ca39 4121 48b9 d80a 80ba
000000e0: 6c4f 5aba 5d0f ab39 2c17 7fba ed60 f339
000000f0: 5a93 1cba bfbc 293a ed7a fab9 2653 c039
00000100: 8e14 a3ba 7ca0 f039 ce39 e539 6fda 233a
00000110: e3a9 ab39 b8a2 abb9 0ec5 9839 3672 deb9
00000120: fcd3 513a 26d3 2cb9 5e0e 90ba 6dd2 c1b9
00000130: 1d9f 05ba 07c7 31ba fce1 ba39 0920 2ab9
00000140: 4012 87b9 9201 c839 a915 9b3a 3e42 02b8
00000150: 0977 7db6 fd38 c739 f244 203b ff04 74ba
00000160: 10a7 0bbb c825 663a a03e 5db8 4e9b 2cb9
00000170: c5e5 99ba df4b 8638 abd4 fe39 4bbe a1ba
00000180: 394d 98ba a2f7 a33a 17bf b33a b3c8 1fba

0.0.mdl.input_to_hidden.0.cscale.bias f4 [100]
-1.0382324 0.12980297 0.6054002 -0.7133986 0.62299716 0.39713886 0.4160203 -1.2448897
-0.9865798 1.1885327 0.74180126 -0.5389095 0.27413896 1.0304254 -0.5535736 -0.3167008
-0.5232496 -1.4402287 -0.29680508 -0.5442791 -1.3347856 0.5973299 -0.66692567 -0.46114612
-0.57489306 -0.53763217 0.34776038 0.29576698 -1.1607499 -0.66031253 -0.81375843 -0.9366675
-0.24831747 0.5252341 0.38406658 -0.33877423 -0.77839756 0.44932878 -1.2290679 -0.68754154
-0.9526289 -1.0847021 -0.60910106 -0.44056988 -0.9626506 0.82192516 0.9626908 -0.43122205
-0.5401441 0.14922652 -0.4080497 0.6732628 -0.7743641 -0.5465789 -0.7562343 0.8581287
-0.68500423 0.5988685 1.0331169 -0.75036633 -0.05944017 -0.14295377 0.33025327 -0.6694693
-1.2688596 0.4338851 0.91933644 -0.5947027 1.2772117 0.90650004 0.7693993 0.92869234
1.0820775 0.1033075 1.0102165 -0.96189374 -0.99533945 0.9786738 -1.0545876 -0.5929107
-1.0247086 -1.0317509 0.71329457 0.9889319 -0.5441651 -0.6406725 0.88823706 -0.24052076
0.65099204 0.32613167 0.47263324 -0.75364614 1.0771877 0.60635513 0.5189451 -0.8183926
0.9131908 0.80185634 0.66017765 -0.8710486
00000000: cde4 84bf 12eb 043e 82fb 1a3f 4aa1 36bf
00000010: be7c 1f3f c955 cb3e 9d00 d53e 8c58 9fbf
00000020: 7e90 7cbf d721 983f b0e6 3d3f f9f5 09bf
00000030: f15b 8c3e fbe4 833f 00b7 0dbf 9b26 a2be
00000040: b0f3 05bf 6a59 b8bf d6f6 97be e055 0bbf
00000050: 41da aabf 9dea 183f a4bb 2abf 581b ecbe
00000060: 312c 13bf 43a2 09bf a60d b23e c56e 973e
00000070: 7493 94bf 3e0a 29bf 7952 50bf 71c9 6fbf
00000080: ef46 7ebe be75 063f 60a4 c43e d173 adbe
00000090: 1045 47bf 6c0e e63e 1952 9dbf b902 30bf
000000a0: 7ddf 73bf 85d7 8abf 0cee 1bbf 6092 e1be
000000b0: 4570 76bf b069 523f e772 763f 23c9 dcbe
000000c0: e246 0abf d6ce 183e e4eb d0be f35a 2c3f
000000d0: ba3c 46bf 98ec 0bbf 9298 41bf 53ae 5b3f
000000e0: 705c 2fbf 724f 193f 2d3d 843f 0218 40bf
000000f0: 8977 73bd 7962 12be f516 a93e 5762 2bbf
00000100: fe69 a2bf 3026 de3e a259 6b3f 703e 18bf
00000110: ac7b a33f 6310 683f 5af7 443f c8be 6d3f
00000120: 8481 8a3f e292 d33d c64e 813f ab3e 76bf
00000130: 91ce 7ebf 5e8a 7a3f bafc 86bf ffc8 17bf
00000140: a729 83bf 6a10 84bf 799a 363f a42a 7d3f
00000150: 674e 0bbf 1d03 24bf 8163 633f 134b 76be
00000160: 6aa7 263f bbfa a63e fcfc f13e f4ee 40bf
00000170: 49e1 893f 173a 1b3f 96d9 043f 2d82 51bf
00000180: dfc6 693f 7546 4d3f 6701 293f 0bfd 5ebf

0.0.mdl.input_to_hidden.0.cbias.weight f4 [100, 1]
-0.00052409794 -0.0007957574 -0.00035882424 -0.0015564294 -0.00041854088 0.00063363777 0.0020193832 -0.0006791511
0.0005530869 0.0005647982 -0.0012090738 0.0013396997 0.0019422405 0.0002432101 -0.003010716 0.00043054004
-0.0008289712 -0.00014634547 -0.00027139357 3.270699e-05 -0.00036563273 0.00036196876 -0.00013906223 -0.0005158576
0.00024611343 0.00077077997 -0.00055794657 0.00077043514 -0.00061629486 -0.0010998527 0.00052960543 0.0014728566
5.0127823e-05 0.00035971956 -4.6408386e-05 -0.00036051148 0.0006639006 -0.001469531 -0.00094132964 -0.00061059085
0.0003510631 0.00054511277 3.91198e-05 0.0017707746 0.0008317596 0.00076641905 0.0009753641 -0.00043253254
-0.0001524939 0.0009506588 -0.0006310885 0.0014625897 0.00061744894 -0.0006556156 -0.00023972672 -0.00043806748
-0.0012005704 -0.0005724705 -0.00078708207 0.0018871215 -0.000825486 0.00026954556 0.0005290098 0.00033155154
-3.6549303e-05 -0.00019190944 -0.0019631647 0.0010155017 -0.0011654404 0.00055945513 -0.0009295665 0.0005081878
-0.00040404784 -0.000458603 0.0012572102 0.0017398469 -0.00037882628 -4.670557e-05 -0.0008119707 -0.00051428244
0.0007999711 0.0012997151 -0.0009256428 -8.564696e-05 -0.00058801885 0.0018878253 -8.752023e-05 -0.0014417162
0.00029501403 -0.0008890812 0.0013166514 -5.8619255e-05 0.0007436301 -0.0013508315 -0.0010597359 -0.0013091788
0.0011205432 -0.00012869312 0.00069536606 -0.00080812466
00000000: 9e63 09ba 609a 50ba 9320 bcb9 1b01 ccba
00000010: 9b6f dbb9 b61a 263a a157 043b 0f09 32ba
00000020: 09fd 103a f70e 143a c979 9eba dd98 af3a
00000030: c792 fe3a 3706 7f39 6f4f 45bb 1bba e139
00000040: 514f 59ba 5074 19b9 d449 8eb9 dd2e 0938
00000050: 65b2 bfb9 a0c6 bd39 3cd1 11b9 9e3a 07ba
00000060: c908 8139 2b0e 4a3a 2943 12ba 07f7 493a
00000070: d98e 21ba ef28 90ba 38d5 0a3a de0c c13a
00000080: 5740 5238 be98 bc39 a0a6 42b8 0803 bdb9
00000090: 9d09 2e3a 479d c0ba 90c3 76ba 0f10 20ba
000000a0: e40e b839 e6e5 0e3a 9114 2438 5619 e83a
000000b0: 710a 5a3a 83e9 483a 94af 7f3a 89c5 e2b9
000000c0: c5e6 1fb9 a235 793a a26f 25ba 5eb4 bf3a
000000d0: 4cdc 213a 9edd 2bba 275f 7bb9 6cac e5b9
000000e0: 755c 9dba d811 16ba 2f54 4eba 4a59 f73a
000000f0: 6d65 58ba cb51 8d39 3fad 0a3a 18d4 ad39
00000100: 844c 19b8 4c3b 49b9 70a8 00bb 951a 853a
00000110: b1c1 98ba 66a8 123a 27ae 73ba e837 053a
00000120: 62d6 d3b9 a770 f0b9 f9c8 a43a 930b e43a
00000130: 349d c6b9 b9e5 43b8 6eda 54ba e9d0 06ba
00000140: 27b5 513a 345b aa3a d6a6 72ba 5d9d b3b8
00000150: 4725 1aba e870 f73a 118b b7b8 f8f7 bcba
00000160: 1dac 9a39 3b11 69ba 7d93 ac3a f2dd 75b8
00000170: 2cf0 423a 620e b1ba d6e6 8aba c098 abba
00000180: 31df 923a ccf1 06b9 3a49 363a 54d8 53ba

0.0.mdl.input_to_hidden.0.cbias.bias f4 [100]
-0.09143711 1.0671966 -0.51268893 0.53905183 -1.5519686 0.5988833 -0.7889696 0.50620365
0.45570335 0.25121713 0.32002026 0.044675525 -0.94915956 -0.7319062 0.764028 -0.20763592
-1.303929 1.5099655 0.5290851 0.23180196 -0.4015119 0.16315848 0.545139 -1.3922946
0.08756617 -1.0712979 0.8920719 1.4105785 -0.05787512 0.8304387 0.12551214 0.10733846
1.2696774 -1.151063 0.48754093 1.1450757 -0.07888997 -1.3010508 -0.14545532 0.9745724
-0.59505665 0.7464421 -0.046065368 0.81776947 0.19314325 0.40416604 1.1991132 0.76670396
1.4483948 0.77160025 1.0923809 0.09042018 0.4476849 0.117081 -1.233115 1.1914024
-0.09875857 -1.2470511 0.9936241 0.5792211 -1.0180458 0.8436607 0.6562987 -0.38871354
-0.37634668 -0.6922194 1.5562407 -1.1937013 0.9276432 -0.20668615 0.21922481 1.029826
0.13632135 -0.90171206 -0.42402354 0.18113017 -0.08215889 0.8364426 0.38450786 0.35405746
1.3519349 0.83328253 0.9211305 0.07914365 0.9245684 0.5913711 0.2567066 1.0785711
-0.43269548 0.7464487 0.25297472 0.2636901 0.7661221 -0.40258196 1.2326047 -0.48827606
-0.8216505 1.3001013 -0.82400095 0.2909718
00000000: 6143 bbbd e699 883f 953f 03bf 4dff 093f
00000010: e8a6 c6bf 6a50 193f e9f9 49bf 9096 013f
00000020: f351 e93e 889f 803e b2d9 a33e affd 363d
00000030: 1ffc 72bf 345e 3bbf 5797 433f 839e 54be
00000040: 25e7 a6bf 8d46 c13f 1f72 073f 7e5d 6d3e
00000050: f892 cdbe 0413 273e 3b8e 0b3f b636 b2bf
00000060: e455 b33d 4a20 89bf d35e 643f d68d b43f
00000070: 760e 6dbd a197 543f 4186 003e 44d4 db3d
00000080: ca84 a23f 0856 93bf f79e f93e d791 923f
00000090: 1191 a1bd d588 a6bf 3df2 14be 947d 793f
000000a0: a255 18bf d416 3f3f 0aaf 3cbd 5759 513f
000000b0: 58c7 453e daee ce3e 8b7c 993f b646 443f
000000c0: 0065 b93f 9887 453f 23d3 8b3f 372e b93d
000000d0: f536 e53e 2ac8 ef3d b6d6 9dbf e07f 983f
000000e0: ef41 cabd 5f9f 9fbf 265e 7e3f d647 143f
000000f0: 534f 82bf 26fa 573f 3103 283f 7605 c7be
00000100: 83b0 c0be 4a35 31bf e532 c73f 34cb 98bf
00000110: 067a 6d3f 89a5 53be 787c 603e 57d1 833f
00000120: d397 0b3e 9ad6 66bf 9d19 d9be 307a 393e
00000130: ec42 a8bd 1a21 563f 37de c43e 0547 b53e
00000140: 340c ad3f 0152 553f 35cf 6b3f 1116 a23d
00000150: 84b0 6c3f 1964 173f 0c6f 833e 9e0e 8a3f
00000160: 438a ddbe 4317 3f3f e785 813e 6402 873e
00000170: 9420 443f 391f cebe fec5 9d3f 52ff f9be
00000180: b057 52bf b869 a63f baf1 52bf 41fa 943e

0.0.mdl.hidden_to_output.direction f4 [28, 100]
-0.00037762936 0.00029498726 -0.0008453082 -0.0011769902 0.00038452315 0.00062888727 -0.00058302126 -0.00051678956
0.0014541121 -0.0003345055 0.0014950205 -0.00070723624 0.00043045238 -2.6754531e-05 3.7993377e-05 -0.00092125573
0.0011076961 0.0009171843 -0.00043767897 0.00025662794 -0.0008315287 -0.00069396273 0.00082711095 -0.00020207866
-0.00028769206 -6.505691e-05 0.00058919756 8.064945e-06 -0.001403478 -0.0004606078 -2.8804066e-05 -0.00061390566
-0.00072333246 0.0012689108 0.00072339486 0.00058878976 0.0004244641 0.00026359298 0.00025552104 0.00015078398
0.0018285393 -0.0008609525 6.516693e-05 -0.00090406655 -0.00021421882 0.001421583 0.0007990009 -0.0014588614
0.0013559634 -0.00064280734 1.1924967e-05 0.00042618456 0.00023865096 0.00042575868 -0.0005691359 -0.00022426725
0.0021374587 -0.00095666805 0.00076969835 -0.0010213172 -0.0006630052 0.00016841857 -0.00037431996 0.00024094274
4.5694615e-05 0.0009900013 -0.0006454705 0.0028432014 0.0009325671 -0.0003317004 0.00031467827 0.0008798886
0.000112791095 -8.5787506e-05 -0.00041598463 0.0013592652 0.00036156928 0.0010464736 0.0016950304 -0.001537366
0.0025457263 -0.002166398 0.00018993451 0.0012601762 -0.00063774164 8.657336e-05 0.00173096 0.00016741424
-0.0031079159 0.0015523607 -5.847331e-05 0.0010383246 0.0011676127 0.00060451153 -0.00124554 -0.00013131215
0.0005841636 -0.0009319586 0.0007837339 0.00016108112 0.00011692653 0.00073152967 -0.0013173438 -0.00085496396
-0.0005072065 -0.0016840163 -0.0005858634 0.0004656841 -0.0003076327 0.0010379029 0.00043278452 0.0006539354
-0.0021613254 -0.00030051958 0.0001608482 -0.0002441781 -0.0012400723 0.0010402997 0.00076518056 -0.0012468409
0.00041311892 -0.0011921066 -0.00096586405 0.00080391316 -0.0009153872 0.0015857264 -0.0005042447 0.0015430403
0.00028481233 -0.00030944854 7.9965364e-05 -0.0012604815 -0.00093773054 -0.00012977925 -0.000784374 -0.00037701594
-0.0005420862 -0.0014606265 0.0006498165 0.0001610766 -0.00049445825 4.5721506e-05 -0.0013370415 -5.1254425e-05
-0.000475234 -0.00096761377 -0.0010212831 -0.0003089741 -0.0010521591 0.0015632953 -0.001193572 9.476114e-06
-0.0008804321 0.00043931295 -0.00055215065 -0.00011144293 0.0013482673 0.00044358528 0.0016636284 -0.002798973
7.344191e-05 0.00020615707 0.00034995575 0.0010558497 -6.97481e-05 0.000294692 -0.0002071734 0.0007234056
-0.0019786914 0.0007855371 0.0011461374 0.00023896967 -0.00059559953 0.0009603598 -0.0005379788 -0.00018651312
-0.00084299495 -0.00028908547 -0.00052851584 0.0010567226 -0.0014773983 0.0014570118 -0.00011933558 -0.000260309
8.11467e-05 -0.00106834 0.001826783 -0.00012678014 -0.0014326473 -0.000602649 -0.0016570732 -0.00081173994
0.0008574026 0.0005641262 -0.00010676136 0.0005070833 7.1584276e-05 0.00047245208 -0.0006567453 -0.00016126943
9.0124995e-06 -4.19481e-40 -6.37812e-40 -0.053734545 -1.492314e-39 -3.4569e-41 9.72822e-40 -7.2498494e-08
-3.92058e-40 2.641824e-23 8.45473e-40 1.673548e-39 2.15545e-40 1.0109196e-08 -1.4130263e-31 1.23457e-39
-0.001778097 -1.102177e-39 -1.127098e-39 1.350663e-39 -1.4649145e-13 9.04517e-40 -7.919307e-18 -0.0018839167
2.0699e-40 -9.5254384e-14 -9.27207e-40 4.4768e-40 3.09987e-18 -3.42888e-40 -1.8847294e-08 -2.9563284e-05
-1.3940608e-05 5.29112e-40 0.00012100693 2.7884972e-09 7.8103e-40 -2.5621562e-23 7.71182e-40 -6.84847e-40
-8.71546e-40 -2.0221e-40 -9.1087e-40 -1.4248713e-29 1.736049e-39 1.888398e-39 0.0003121614 -1.1293644e-22
1.32736e-39 -5.639946e-16 -3.2335252e-14 -2.9491302e-13 -0.0049780817 1.131736e-39 2.52286e-40 -0.061811194
00000000: 8efc c5b9 85a8 9a39 ac97 5dba 3d45 9aba
00000010: d399 c939 e9db 243a e5d5 18ba 2979 07ba
00000020: e897 be3a 9160 afb9 90f4 c33a d265 39ba
00000030: 57ae e139 eb6e e0b7 145b 1f38 6d80 71ba
00000040: 1d30 913a 326f 703a 4778 e5b9 058c 8639
00000050: f2fa 59ba 0deb 35ba 7ad2 583a 14e5 53b9
00000060: 60d5 96b9 2a6f 88b8 6174 1a3a ad4e 0737
00000070: e8f4 b7ba bb7d f1b9 43a0 f1b7 83ee 20ba
00000080: 059e 3dba 9551 a63a 35a2 3d3a 0359 1a3a
00000090: 9b8a de39 da32 8a39 74f7 8539 c41b 1e39
000000a0: 99ab ef3a 8bb1 61ba 3baa 8838 e1fe 6cba
000000b0: ed9f 60b9 6954 ba3a 0b74 513a 4437 bfba
000000c0: 95ba b13a 1282 28ba 5811 4837 8671 df39
000000d0: 613e 7a39 5d38 df39 1032 15ba 4829 6bb9
000000e0: 9b14 0c3b e8c8 7aba 95c5 493a b8dd 85ba
000000f0: 87cd 2dba 8499 3039 6040 c4b9 93a5 7c39
00000100: 38a8 3f38 eec2 813a cb34 29ba 0155 3a3b
00000110: 8577 743a 13e8 adb9 67fb a439 53a8 663a
00000120: 428a ec38 d1e8 b3b8 8318 dab9 5f29 b23a
00000130: 0291 bd39 d429 893a c82b de3a 7181 c9ba
00000140: 33d6 263b 21fa 0dbb 2829 4739 7f2c a53a
00000150: 1e2e 27ba b88e b538 61e1 e23a eb8b 2f39
00000160: 2dae 4bbb 9578 cb3a 3d41 75b8 6418 883a
00000170: 950a 993a 1578 1e3a 6341 a3ba d6b0 09b9
00000180: 8e22 193a af4e 74ba 7e73 4d3a e2e7 2839
00000190: 7436 f538 20c4 3f3a b9aa acba a91f 60ba
000001a0: 0df6 04ba 36ba dcba a194 19ba 1027 f439
000001b0: c349 a1b9 3e0a 883a 5be7 e239 dd6c 2b3a
000001c0: 06a5 0dbb 0e8f 9db9 5ca9 2839 0805 80b9
000001d0: ec89 a2ba aa5a 883a 6696 483a 0a6d a3ba
000001e0: e297 d839 7640 9cba 0a32 7dba b3bd 523a
000001f0: 98f6 6fba 26d8 cf3a 4a2f 04ba d73f ca3a
00000200: dd52 9539 7b3d a2b9 14b3 a738 be36 a5ba
00000210: 08d2 75ba 5a15 08b9 739e 4dba 39aa c5b9
00000220: ca1a 0eba 7e72 bfba 7258 2a3a ace6 2839
00000230: 889e 01ba 18c5 3f38 ab3f afba 05fa 56b8
00000240: d428 f9b9 76a7 7dba 93dc 85ba cdfd a1b9
00000250: 9ae8 89ba 7ce7 cc3a a171 9cba 9afb 1e37
00000260: cccc 66ba 9653 e639 34be 10ba 78b6 e9b8
00000270: 58b8 b03a 0291 e839 1b0e da3a f96e 37bb
00000280: d304 9a38 de2b 5839 447a b739 7064 8a3a
00000290: ba45 92b8 e480 9a39 b03c 59b9 eea2 3d3a
000002a0: efac 01bb 81ec 4d3a fd39 963a ef93 7a39
000002b0: 0222 1cba a8c0 7b3a 2507 0dba bc92 43b9
000002c0: 6ffc 5cba 6590 97b9 198c 0aba ba81 8a3a
000002d0: 43a5 c1ba 34f9 be3a cd43 fab8 157a 88b9
000002e0: 4e2d aa38 8b07 8cba aa70 ef3a 49f0 04b9
000002f0: abc7 bbba 17fb 1dba 2632 d9ba f2ca 54ba
00000300: 51c3 603a dee1 133a 12e5 dfb8 c9ed 043a
00000310: 841f 9638 72b3 f739 6e29 2cba 6f1a 29b9
00000320: 6434 1737 5891 0480 f6f1 0680 c118 5cbd
00000330: f73f 1080 5d60 0080 d597 0a00 78b0 9bb3
00000340: e644 0480 6580 ff19 d634 0900 2c39 1200
00000350: da58 0200 b7ac 2d32 da6b 378c 7b71 0d00
00000360: 090f e9ba 6c00 0c80 e445 0c80 19b5 0e00
00000370: 49ef 24aa 6dd9 0900 df15 12a3 c1ed f6ba
00000380: 0141 0200 6a7e d6a9 ad18 0a80 f3df 0400
00000390: e4ba 6422 d5bb 0380 a3e5 a1b2 abfe f7b7
000003a0: 75e2 69b7 f3c2 0500 1ac5 fd38 c39f 3f31
000003b0: 3281 0800 eacb f799 be65 0800 1375 0780
000003c0: 847d 0980 ae33 0280 23eb 0980 c67f 908f
000003d0: 66e7 1200 1690 1400 98a9 a339 2388 089b
000003e0: 2474 0e00 758f 22a6 02a0 11a9 7205 a6aa
000003f0: 2d1f a3bb d252 0c00 45bf 0200 bc2d 7dbd

0.0.mdl.hidden_to_output.cscale.weight f4 [28, 1]
0.0002395967 0.00085169193 -0.00044051505 -0.00028015207 -0.0005040056 1.9092578e-05 -0.00025844527 -0.0005968561
-0.00044278626 5.5285753e-05 0.00097285036 0.00035046786 -0.0008330388 -0.000625593 -0.0005045915 0.0008866651
0.00063305476 0.00024793367 -0.000958378 -0.00042378437 -4.013395e-05 -0.0007541715 7.095386e-05 0.00060603954
0.0009134329 0.000929466 -0.000640337 -0.0007057284
00000000: 403c 7b39 1444 5f3a eef4 e6b9 60e1 92b9
00000010: 3e1f 04ba 0029 a037 f07f 87b9 5676 1cba
00000020: c425 e8b9 a0e2 6738 e206 7f3a 00bf b739
00000030: 4a60 5aba d6fe 23ba 9046 04ba 166f 683a
00000040: 96f3 253a 18fd 8139 a93b 7bba 602f deb9
00000050: 8055 28b8 98b3 45ba 10cd 9438 a0de 1e3a
00000060: 7273 6f3a 68a7 733a 4adc 27ba a200 39ba

0.0.mdl.hidden_to_output.cscale.bias f4 [28]
0.0 0.0 -0.11571892 -0.06146091 -0.22262657 -0.06977319 0.41879413 0.034933824
0.30759156 -0.07531817 0.15633026 -0.05863267 -0.15645109 0.07136345 -0.6200354 -0.03965006
-0.6326589 -0.041312754 -0.40159163 0.053135734 -0.24240257 -0.033198737 -0.1545099 0.03393325
-0.20148346 -0.026899017 0.18301336 0.028516268
00000000: 0000 0000 0000 0000 0bfe ecbd 6fbe 7bbd
00000010: 38f8 63be 3fe5 8ebd 2f6c d63e c516 0f3d
00000020: a47c 9d3e 6a40 9abd 0a15 203e d028 70bd
00000030: b734 20be 0027 923d a4ba 1ebf 1a68 22bd
00000040: eff5 21bf 9037 29bd 6b9d cdbe dba4 593d
00000050: 6138 78be 66fb 07bd d837 1ebe 97fd 0a3d
00000060: ae51 4ebe 545b dcbc db67 3b3e f39a e93c

0.0.mdl.hidden_to_output.cbias.weight f4 [28, 1]
0.00024458265 0.00013946381 0.000925462 -0.00010852708 1.9892468e-05 -0.00020328263 -0.00027584517 -0.00086275535
-0.00017288531 -0.00044723955 0.0008395895 -0.0006322713 -0.00015541568 -3.854523e-05 0.0009358353 -0.0009455312
-0.00092366687 -0.00070392387 0.0008079249 -0.0001289213 0.00040975062 -0.00058882893 -0.0009090455 -0.00022659043
-0.0005400507 -0.00014298572 6.1479164e-05 -0.0009776991
00000000: 543b 8039 083d 1239 b49a 723a 0899 e3b8
00000010: c0de a637 4428 55b9 509f 90b9 882a 62ba
00000020: 8c48 35b9 7a7b eab9 e617 5c3a 02bf 25ba
00000030: 14f7 22b9 a0ab 21b8 d852 753a 86dd 77ba
00000040: 3c22 72ba 8887 38ba ecca 533a 0c2f 07b9
00000050: ccd3 d639 a45b 1aba 034d 6eba e898 6db9
00000060: 3092 0dba 70ee 15b9 60ee 8038 2326 80ba

0.0.mdl.hidden_to_output.cbias.bias f4 [28]
-0.07997648 1.9434029 0.0788925 1.9426483 0.10535499 1.9265068 0.41220456 2.0392194
0.29196548 1.903787 0.07802703 1.95817 0.028492955 1.9007936 -0.092749156 1.584415
-0.13086705 1.5626303 -0.10032449 1.6430794 0.12143565 1.7508733 0.0059990617 1.8281013
0.2583567 1.8920832 0.23604609 1.9224062
00000000: b5ca a3bd 6dc1 f83f 6492 a13d b3a8 f83f
00000010: 5bc4 d73d c697 f63f 7a0c d33e 9282 0240
00000020: 807c 953e 4baf f33f a3cc 9f3d 51a5 fa3f
00000030: 0f6a e93c 344d f33f 45f3 bdbd 1cce ca3f
00000040: 0302 06be 4504 c83f ed76 cdbd 6d50 d23f
00000050: 41b3 f83d 9e1c e03f c793 c43b 39ff e93f
00000060: 5447 843e c82f f23f 11b6 713e 6811 f63f

1.0.mdl.input_to_hidden.0.direction f4 [100, 14]
-0.015071327 -0.0041038985 -0.040057193 -0.033032425 -0.08766716 0.018623117 -0.0019186295 0.022232033
0.028777359 -0.009435904 0.009343533 -0.10523524 0.0074331244 0.0009454811 -0.22171448 -0.20824715
-0.11885799 -0.107644275 0.013775373 0.016254745 0.04154654 -0.13501108 -0.11311527 -0.09501484
0.000530261 -0.0006885309 0.001006184 0.0007201465 -0.1046374 -0.098671205 0.000950043 -5.2824562e-05
0.00073002436 0.0019232669 0.000438012 0.00048647667 0.00030330225 -0.0019950247 7.509325e-05 0.0013097352
-0.0012782775 0.00028773482 0.46528825 0.00028404914 0.001887603 -0.0013044289 -0.0023220014 0.00050269894
0.0008433272 0.0010752894 0.0008565299 0.0007963858 -5.5972865e-05 -0.0014441074 -0.0005852554 -0.0003555556
-0.10561337 -0.08449645 -0.067291975 -0.07070059 0.04933646 0.007125252 0.05525866 -0.06524297
-0.012756248 -0.0672587 -0.08864076 -0.000663661 -0.0004442396 -0.0011041878 0.23622897 0.19723873
-0.016990066 0.09976602 -0.07030496 -0.01235326 -0.07293138 0.19314553 0.0019658988 -0.00019467612
0.0016590656 -0.0010413796 0.00066814193 -0.00026257997 0.15719576 0.1397755 0.08670969 0.087693855
-0.0018318674 -0.009735335 0.029884188 -0.00054651004 -0.00084577285 -0.00028811378 -0.0014425793 0.0011462047
-0.00027856007 -0.00017731155 0.09498487 0.08400529 0.12657797 0.00044761493 -0.00013534025 0.0018629836
0.0004963301 -0.0011347575 0.0015942383 -0.0011414129 -0.00048804318 0.00037917178 5.1625277e-05 6.489493e-05
-0.1721218 -0.15239173 -0.06787573 -0.08828151 0.018056203 0.00495694 0.0328441 -0.12459226
0.00050527736 -0.00071864034 -0.00087263173 -2.9867162e-05 0.00053548964 -0.0017610572 -0.14731139 -0.1287018
-0.054263756 -0.067968614 0.0021803905 0.026417889 0.020766921 -0.08928125 0.000760372 -6.4346175e-05
0.0011967564 0.0004039415 -0.0012923492 0.00033857377 -0.13993514 -0.118960194 -0.073025845 -0.065321855
0.022640217 0.0067952056 0.00030707679 -0.0002875413 -0.00041211405 0.00023314457 0.00036515135 -0.0019953046
-0.001395843 0.001201452 0.15195099 0.112907946 0.06658964 0.10441117 -0.03054306 -0.009098165
-0.03866393 0.058203284 0.028362347 0.031491358 0.036866955 0.008800277 0.0005400899 -0.00061415747
0.2846755 0.28142738 0.18102418 0.17997313 -0.029339686 -0.06457669 0.0073561375 0.16712974
0.16527563 0.15202227 0.15539148 -0.011757465 -0.019460749 -0.0014007791 0.20599404 0.16206306
-0.0029833475 0.13799535 0.00020054216 -8.6219494e-05 0.0007896178 -0.00018879779 -0.0013937935 0.00018382796
-0.0004324543 -0.0015629972 0.0015473273 0.0016861511 0.038125426 0.017837122 -0.011176295 -0.026947374
-0.20139039 -0.010762507 -0.004358136 -0.010569335 -0.05075534 -0.0057515753 0.009333028 0.10387694
0.00013865529 -0.0010197354 0.046928372 0.04004668 -0.0046201684 -0.0055208546 -0.0007045172 0.03546125
0.0804743 0.014528822 -0.0002472761 0.00044600465 -0.0008092565 -0.0017953817 -0.00013126328 -0.00083761854
-0.16875505 -0.16825467 -0.18185171 0.00028127362 -0.00063310424 -0.0006192436 -0.00045191855 0.0011501992
-0.0010608308 0.00021119814 -0.0007751917 -0.003159303 -0.00012446461 -0.000100161145 -0.2718075 -0.22795753
0.02337517 -0.14369683 0.13273525 0.04198453 -0.00042713428 -0.0005777054 0.00027110742 -0.0018142348
0.001653719 0.0018514575 -0.0014101001 -8.3813546e-05 0.12190245 0.10963126 0.044757113 0.07870709
00000000: baed 76bc ff79 86bb 0313 24bd 024d 07bd
00000010: d78a b3bd 828f 983c 867a fbba f41f b63c
00000020: 7fbe eb3c 0d99 1abc 9e15 193c 9385 d7bd
00000030: 9191 f33b 2ada 773a 1f09 63be be3e 55be
00000040: d16b f3bd 9a74 dcbd 1ab2 613c ac28 853c
00000050: b42c 2a3d 5840 0abe fba8 e7bd 2497 c2bd
00000060: 3701 0b3a 877e 34ba efe1 833a 37c8 3c3a
00000070: 224c d6bd 2114 cabd 4e0c 793a f18f 5db8
00000080: 1b5f 3f3a 2116 fc3a faa4 e539 cb0d ff39
00000090: 8a04 9f39 f6be 02bb 627b 9d38 6cab ab3a
000000a0: e08b a7ba 1ddb 9639 433a ee3e 6eec 9439
000000b0: 7269 f73a 5ff9 aaba b82c 18bb 8ec7 033a
000000c0: bb12 5d3a baf0 8c3a c088 603a 8cc4 503a
000000d0: 68c4 6ab8 3448 bdba d36b 19ba dd69 bab9
000000e0: d34b d8bd 7a0c adbd 60d0 89bd 79cb 90bd
000000f0: 0715 4a3d f27a e93b e856 623d 1b9e 85bd
00000100: 95ff 50bc eebe 89bd 4989 b5bd 89f9 2dba
00000110: d4e8 e8b9 65ba 90ba 02e6 713e f3f8 493e
00000120: c02e 8bbc 2152 cc3d 0cfc 8fbd 5465 4abc
00000130: 0c5d 95bd f1c7 453e 4fd6 003b f921 4cb9
00000140: 0175 d93a e77e 88ba 3f26 2f3a e3aa 89b9
00000150: edf7 203e 4f21 0f3e da94 b13d d698 b33d
00000160: 451b f0ba f480 1fbc afcf f43c ab43 0fba
00000170: dbb6 5dba fa0d 97b9 ee14 bdba 3f3c 963a
00000180: b30b 92b9 b5ec 39b9 6d87 c23d f70a ac3d
00000190: a89d 013e dcad ea39 1fea 0db9 5b2f f43a
000001a0: 261c 023a 25bc 94ba c3f5 d03a 769b 95ba
000001b0: 0ce0 ffb9 93cb c639 3888 5838 3318 8838
000001c0: b240 30be 940c 1cbe 6e02 8bbd f0cc b4bd
000001d0: 9aea 933c d46d a23b 8987 063d 3a2a ffbd
000001e0: 9774 043a 2363 3cba 53c1 64ba 3e8b fab7
000001f0: 1a60 0c3a 46d3 e6ba ccd8 16be 68ca 03be
00000200: ac43 5ebd 2133 8bbd e2e4 0e3b 546a d83c
00000210: 641f aa3c 17d9 b6bd b353 473a 97f1 86b8
00000220: 7bdc 9c3a 1cc8 d339 0b64 a9ba 9a82 b139
00000230: 284b 0fbe 67a1 f3bd 938e 95bd 77c7 85bd
00000240: fa77 b93c 51aa de3b 26ff a039 24c1 96b9
00000250: 0311 d8b9 4578 7439 c971 bf39 a8c3 02bb
00000260: b8f4 b6ba 0a7a 9d3a 0a99 1b3e 483c e73d
00000270: 2660 883d 86d5 d53d 7035 fabc 7810 15bc
00000280: 125e 1ebd 9166 6e3d 2758 e83c 15fd 003d
00000290: ce01 173d 092f 103c d294 0d3a 69ff 20ba
000002a0: fdc0 913e 4017 903e 675e 393e e04a 383e
000002b0: c859 f0bc c940 84bd c10b f13b 0f24 2b3e
000002c0: 043e 293e baab 1b3e f21e 1f3e 62a2 40bc
000002d0: 266c 9fbc 599a b7ba 1af0 523e dcf3 253e
000002e0: 4484 43bb a74e 0d3e a048 5239 bdd0 b4b8
000002f0: 5bfe 4e3a 05f8 45b9 f3af b6ba f1c1 4039
00000300: 09bb e2b9 7cdd ccba b0cf ca3a d801 dd3a
00000310: 6829 1c3d 281f 923c c71c 37bc bdc0 dcbc
00000320: 4839 4ebe 3a55 30bc b2ce 8ebb 012b 2dbc
00000330: d5e4 4fbd b677 bcbb 8fe9 183c 6fbd d43d
00000340: ff63 1139 a4a8 85ba f737 403d fd07 243d
00000350: c864 97bb 49e8 b4bb 59af 38ba d13f 113d
00000360: b6cf a43d 4c0a 6e3c d6a4 81b9 bbd5 e939
00000370: 4924 54ba 0353 ebba b8a3 09b9 a193 5bba
00000380: 20ce 2cbe f44a 2cbe 5637 3abe e877 9339
00000390: e8f6 25ba bc54 22ba 7bef ecb9 48c2 963a
000003a0: 930b 8bba 1275 5d39 3c36 4bba 4f0c 4fbb
000003b0: b782 02b9 9b0d d2b8 5a2a 8bbe b36d 69be
000003c0: 497d bf3c 4325 13be c0eb 073e f8f7 2b3d
000003d0: fef0 dfb9 2771 17ba 6c23 8e39 9ecb edba
000003e0: 9ac1 d83a 9bac f23a 1cd3 b8ba 0ec5 afb8
000003f0: fea7 f93d 5b86 e03d 3c53 373d 2f31 a13d

1.0.mdl.input_to_hidden.0.mask f4 [100, 14]
1.0 1.0 1.0 1.0 1.0 1.0 1.0 1.0
1.0 1.0 1.0 1.0 1.0 0.0 1.0 1.0
1.0 1.0 1.0 1.0 1.0 1.0 1.0 1.0
0.0 0.0 0.0 0.0 1.0 1.0 0.0 0.0
0.0 0.0 0.0 0.0 0.0 0.0 0.0 0.0
0.0 0.0 1.0 0.0 0.0 0.0 0.0 0.0
0.0 0.0 0.0 0.0 0.0 0.0 0.0 0.0
1.0 1.0 1.0 1.0 1.0 1.0 1.0 1.0
1.0 1.0 1.0 0.0 0.0 0.0 1.0 1.0
1.0 1.0 1.0 1.0 1.0 1.0 0.0 0.0
0.0 0.0 0.0 0.0 1.0 1.0 1.0 1.0
1.0 1.0 1.0 0.0 0.0 0.0 0.0 0.0
0.0 0.0 1.0 1.0 1.0 0.0 0.0 0.0
0.0 0.0 0.0 0.0 0.0 0.0 0.0 0.0
1.0 1.0 1.0 1.0 1.0 1.0 1.0 1.0
0.0 0.0 0.0 0.0 0.0 0.0 1.0 1.0
1.0 1.0 1.0 1.0 1.0 1.0 0.0 0.0
0.0 0.0 0.0 0.0 1.0 1.0 1.0 1.0
1.0 1.0 0.0 0.0 0.0 0.0 0.0 0.0
0.0 0.0 1.0 1.0 1.0 1.0 1.0 1.0
1.0 1.0 1.0 1.0 1.0 1.0 0.0 0.0
1.0 1.0 1.0 1.0 1.0 1.0 1.0 1.0
1.0 1.0 1.0 1.0 1.0 0.0 1.0 1.0
1.0 1.0 0.0 0.0 0.0 0.0 0.0 0.0
0.0 0.0 0.0 0.0 1.0 1.0 1.0 1.0
1.0 1.0 1.0 1.0 1.0 1.0 1.0 1.0
0.0 0.0 1.0 1.0 1.0 1.0 1.0 1.0
1.0 1.0 0.0 0.0 0.0 0.0 0.0 0.0
1.0 1.0 1.0 0.0 0.0 0.0 0.0 0.0
0.0 0.0 0.0 0.0 0.0 0.0 1.0 1.0
1.0 1.0 1.0 1.0 0.0 0.0 0.0 0.0
0.0 0.0 0.0 0.0 1.0 1.0 1.0 1.0
00000000: 0000 803f 0000 803f 0000 803f 0000 803f
00000010: 0000 803f 0000 803f 0000 803f 0000 803f
00000020: 0000 803f 0000 803f 0000 803f 0000 803f
00000030: 0000 803f 0000 0000 0000 803f 0000 803f
00000040: 0000 803f 0000 803f 0000 803f 0000 803f
00000050: 0000 803f 0000 803f 0000 803f 0000 803f
00000060: 0000 0000 0000 0000 0000 0000 0000 0000
00000070: 0000 803f 0000 803f 0000 0000 0000 0000
00000080: 0000 0000 0000 0000 0000 0000 0000 0000
00000090: 0000 0000 0000 0000 0000 0000 0000 0000
000000a0: 0000 0000 0000 0000 0000 803f 0000 0000
000000b0: 0000 0000 0000 0000 0000 0000 0000 0000
000000c0: 0000 0000 0000 0000 0000 0000 0000 0000
000000d0: 0000 0000 0000 0000 0000 0000 0000 0000
000000e0: 0000 803f 0000 803f 0000 803f 0000 803f
000000f0: 0000 803f 0000 803f 0000 803f 0000 803f
00000100: 0000 803f 0000 803f 0000 803f 0000 0000
00000110: 0000 0000 0000 0000 0000 803f 0000 803f
00000120: 0000 803f 0000 803f 0000 803f 0000 803f
00000130: 0000 803f 0000 803f 0000 0000 0000 0000
00000140: 0000 0000 0000 0000 0000 0000 0000 0000
00000150: 0000 803f 0000 803f 0000 803f 0000 803f
00000160: 0000 803f 0000 803f 0000 803f 0000 0000
00000170: 0000 0000 0000 0000 0000 0000 0000 0000
00000180: 0000 0000 0000 0000 0000 803f 0000 803f
00000190: 0000 803f 0000 0000 0000 0000 0000 0000
000001a0: 0000 0000 0000 0000 0000 0000 0000 0000
000001b0: 0000 0000 0000 0000 0000 0000 0000 0000
000001c0: 0000 803f 0000 803f 0000 803f 0000 803f
000001d0: 0000 803f 0000 803f 0000 803f 0000 803f
000001e0: 0000 0000 0000 0000 0000 0000 0000 0000
000001f0: 0000 0000 0000 0000 0000 803f 0000 803f
00000200: 0000 803f 0000 803f 0000 803f 0000 803f
00000210: 0000 803f 0000 803f 0000 0000 0000 0000
00000220: 0000 0000 0000 0000 0000 0000 0000 0000
00000230: 0000 803f 0000 803f 0000 803f 0000 803f
00000240: 0000 803f 0000 803f 0000 0000 0000 0000
00000250: 0000 0000 0000 0000 0000 0000 0000 0000
00000260: 0000 0000 0000 0000 0000 803f 0000 803f
00000270: 0000 803f 0000 803f 0000 803f 0000 803f
00000280: 0000 803f 0000 803f 0000 803f 0000 803f
00000290: 0000 803f 0000 803f 0000 0000 0000 0000
000002a0: 0000 803f 0000 803f 0000 803f 0000 803f
000002b0: 0000 803f 0000 803f 0000 803f 0000 803f
000002c0: 0000 803f 0000 803f 0000 803f 0000 803f
000002d0: 0000 803f 0000 0000 0000 803f 0000 803f
000002e0: 0000 803f 0000 803f 0000 0000 0000 0000
000002f0: 0000 0000 0000 0000 0000 0000 0000 0000
00000300: 0000 0000 0000 0000 0000 0000 0000 0000
00000310: 0000 803f 0000 803f 0000 803f 0000 803f
00000320: 0000 803f 0000 803f 0000 803f 0000 803f
00000330: 0000 803f 0000 803f 0000 803f 0000 803f
00000340: 0000 0000 0000 0000 0000 803f 0000 803f
00000350: 0000 803f 0000 803f 0000 803f 0000 803f
00000360: 0000 803f 0000 803f 0000 0000 0000 0000
00000370: 0000 0000 0000 0000 0000 0000 0000 0000
00000380: 0000 803f 0000 803f 0000 803f 0000 0000
00000390: 0000 0000 0000 0000 0000 0000 0000 0000
000003a0: 0000 0000 0000 0000 0000 0000 0000 0000
000003b0: 0000 0000 0000 0000 0000 803f 0000 803f
000003c0: 0000 803f 0000 803f 0000 803f 0000 803f
000003d0: 0000 0000 0000 0000 0000 0000 0000 0000
000003e0: 0000 0000 0000 0000 0000 0000 0000 0000
000003f0: 0000 803f 0000 803f 0000 803f 0000 803f

1.0.mdl.input_to_hidden.0.cscale.weight f4 [100, 1]
-0.0017185583 0.0008632797 0.00041633635 0.0010499788 -0.0007654029 0.001191892 -0.001080313 -0.0009870912
0.00015153218 -9.540602e-05 -0.00067547476 -0.0020611845 4.0434836e-05 0.0021435574 -0.00040138085 0.0016176257
-0.0003278508 -0.0011173175 -0.00042693267 -0.00028877327 -0.0013057102 -0.0013307652 -0.0006787083 0.0023294573
-0.00044787597 0.00027956392 0.0010688406 -0.00035218685 -0.00027619617 0.0013599521 0.0005310308 -0.00015910112
0.00030548227 0.00021850766 -0.00015001175 -0.0025118394 -0.00020452042 0.0020693862 0.00033373947 -0.001284575
0.00037245077 0.00075804384 0.00035326194 0.00046289444 0.0018995156 0.0013821078 -0.0014214057 0.00073686626
0.0010698878 0.0001971442 0.00071482814 -0.0025315972 8.597918e-05 0.00013772097 0.00026218896 0.00086753804
-0.0005722032 -0.0020235707 -0.0013866577 0.0018675345 -0.00034162527 1.4188921e-05 0.00020577549 -0.0015957876
0.0016909679 -0.00020066526 0.00069903705 0.00029979646 0.00048789682 -0.0006388871 -0.00043414338 0.0006392814
-0.00090966077 0.0013733853 -0.00025378767 0.00080499693 0.0007659236 0.0007570691 -0.00038992494 0.00041659464
0.00011162933 1.9488225e-05 -0.00010876714 -0.0002959722 0.001565306 0.00086694426 -0.00072015927 -0.0021680926
-0.0004118095 -0.0015625276 0.00045394013 -0.00013014158 -0.0014579264 0.0004838851 -0.00025766809 0.0021730834
-0.0016810184 0.00032618587 -0.00056476606 -0.0002818017
00000000: 3f41 e1ba b84d 623a b847 da39 719f 893a
00000010: 52a5 48ba 4239 9c3a 4a99 8dba 4961 81ba
00000020: 9ce4 1e39 b814 c8b8 5812 31ba f014 07bb
00000030: 9398 2938 ed7a 0c3b 6d70 d2b9 8306 d43a
00000040: 64e3 abb9 f472 92ba efd5 dfb9 7e66 97b9
00000050: 5d24 abba 126d aeba 58eb 31ba cfa9 183b
00000060: e5d0 eab9 6f92 9239 5718 8c3a b8a5 b8b9
00000070: 6cce 90b9 6c40 b23a e034 0b3a 62d4 26b9
00000080: 2329 a039 341f 6539 794c 1db9 ac9d 24bb
00000090: 8874 56b9 8a9e 073b c1f9 ae39 2f5f a8ba
000000a0: 7f45 c339 76b7 463a 0436 b939 a4b0 f239
000000b0: 2bf9 f83a d827 b53a 764e baba 422a 413a
000000c0: 7a3b 8c3a 7eb8 4e39 4e63 3b3a 27e9 25bb
000000d0: b94f b438 3169 1039 6876 8939 7e6b 633a
000000e0: e8ff 15ba e29d 04bb 83c0 b5ba 0fc8 f43a
000000f0: 2b1c b3b9 f40c 6e37 70c5 5739 bf29 d1ba
00000100: 78a3 dd3a ac69 52b9 953f 373a 002e 9d39
00000110: 67cc ff39 fd7a 27ba bd9d e3b9 7395 273a
00000120: 4d76 6eba 2a03 b43a ce0e 85b9 6e06 533a
00000130: 43c8 483a 0c76 463a d76e ccb9 636a da39
00000140: 8a1a ea38 a57a a337 ea19 e4b8 b72c 9bb9
00000150: f42a cd3a a543 633a 12c9 3cba 8f16 0ebb
00000160: 23e8 d7b9 bacd ccba d0fe ed39 9d76 08b9
00000170: e417 bfba f5b1 fd39 a017 87b9 4a6a 0e3b
00000180: 9e55 dcba ed03 ab39 cf0c 14ba c9be 93b9

1.0.mdl.input_to_hidden.0.cscale.bias f4 [100]
0.76637214 0.31008857 0.89139384 -0.74504936 -0.965936 0.2753247 -0.60935974 -0.4756253
0.4976913 0.5253219 0.59656954 0.5308831 -0.34839603 0.4766777 0.75422513 -1.1701894
0.29160103 -0.18553425 0.94672984 0.23592769 -0.99156404 -1.1172054 -0.4102559 0.44154707
0.6200121 -0.3802523 -1.2246181 0.9977663 -0.65986073 1.0389287 1.125621 0.44085994
0.6929502 -0.9496597 -0.82195014 -0.49642968 0.7123812 -0.24923888 0.56375545 0.6043979
0.57538617 -0.2763004 -0.7069062 0.642516 0.5398806 -0.7713334 -1.0908782 1.0770735
-0.87279016 -0.33359152 1.0581264 0.26705104 0.3271595 -1.1717322 -0.51193476 -1.1863242
-0.64770806 0.43847135 -1.0560094 -0.29149833 -0.8100283 -0.82395685 0.78651935 0.21063986
1.1344053 0.90219396 1.0571014 -0.8596909 -0.36553532 -0.6049247 -0.90130365 0.32453206
-0.71203196 -0.61791354 -0.74601126 0.5055791 -0.40040585 0.34060544 0.58185613 0.36508748
-0.7317394 0.382927 1.0812806 0.7162793 0.34535676 0.6188615 -1.0331695 0.7993414
0.63800114 0.8176977 -0.74793345 -0.95720047 -0.7250899 0.39822483 1.0033998 0.6565377
-0.6950488 0.51106423 -0.5160322 1.1701802
00000000: f730 443f eec3 9e3e 6332 643f 8ebb 3ebf
00000010: 9547 77bf 5cf7 8c3e 00ff 1bbf 2985 f3be
00000020: 65d1 fe3e 7f7b 063f c8b8 183f f4e7 073f
00000030: f760 b2be 190f f43e e614 413f c4c8 95bf
00000040: bb4c 953e b1fc 3dbe e35c 723f 0797 713e
00000050: 24d7 7dbf 9600 8fbf 100d d2be 7512 e23e
00000060: 1db9 1e3f 6eb0 c2be 49c0 9cbf 9d6d 7f3f
00000070: a2ec 28bf 9efb 843f 5914 903f 65b8 e13e
00000080: 2f65 313f e61c 73bf 536b 52bf 082c febe
00000090: 9d5e 363f 7a38 7fbe 4752 103f d2b9 1a3f
000000a0: 824c 133f 3f77 8dbe cef7 34bf ee7b 243f
000000b0: 9d35 0a3f 1b76 45bf e6a1 8bbf 8bdd 893f
000000c0: 2d6f 5fbf 82cc aabe b070 873f eaba 883e
000000d0: 7381 a73e 52fb 95bf 280e 03bf 79d9 97bf
000000e0: 32d0 25bf 517f e03e 512b 87bf 453f 95be
000000f0: 045e 4fbf d6ee 52bf 5559 493f fab1 573e
00000100: 3134 913f 2ff6 663f 194f 873f b414 5cbf
00000110: 7227 bbbe 58dc 1abf d6bb 66bf 1129 a63e
00000120: ba47 36bf 952f 1ebf 98fa 3ebf a26d 013f
00000130: ff01 cdbe d663 ae3e 86f4 143f bfec ba3e
00000140: 4653 3bbf 020f c43e 6767 8a3f 155e 373f
00000150: 9ad2 b03e b56d 1e3f e63e 84bf a3a1 4c3f
00000160: 0b54 233f a354 513f 9178 3fbf 170b 75bf
00000170: 7e9f 39bf 20e4 cb3e 686f 803f db12 283f
00000180: b8ee 31bf 1bd5 023f b01a 04bf 77c8 953f

1.0.mdl.input_to_hidden.0.cbias.weight f4 [100, 1]
0.00091092486 0.00040647978 -0.0005279747 0.0004247712 0.00034810463 -0.00018403478 -0.00015929395 -0.00035274785
0.00096695864 0.00071447814 0.00054672454 0.00043481783 -0.00013714051 0.0017507784 -0.00041850845 0.00011348023
0.00022248943 0.0009662186 0.00052201975 -0.00045899948 0.00043676604 0.0015487269 -0.001325718 -0.0007150608
0.002138354 0.0034841138 -0.00052864925 0.00051038235 0.000349465 -0.0009222914 0.00027894782 -0.0025152655
-0.00014218873 0.000336354 -0.0010919839 -0.0005242196 -0.0019061792 0.0006968253 -0.00034763626 -0.0004100389
0.00018956714 0.0010898521 -0.0016488234 -0.000700159 5.3247055e-07 2.0838337e-05 -0.00022986562 0.0006717
0.00061925786 0.0005343846 0.0013111434 -0.002063522 -0.00028178212 0.0008340092 -0.0005995089 -0.0005582414
0.0011103285 0.0011771459 -0.00074423966 -7.5101896e-05 0.00016715274 -0.0005559474 0.00087400957 0.00064993394
0.0013286514 0.0015440569 0.00034038993 -0.0015412623 0.0013467722 -0.0013556296 0.0014131953 0.0010008954
-0.0019445512 0.00039799782 0.0015933776 0.0016963746 0.0015693998 -4.191244e-05 0.00029312485 -0.0014184585
-0.0012417885 0.00045159098 0.00049694057 -0.0012006989 -0.0010345654 -0.00019213824 -0.0013239981 0.00018040132
-0.0009334376 -0.00057357724 0.0007028635 0.001567772 -0.0017567925 0.0018698619 0.002100351 0.0010181334
0.00029943752 0.0014349519 -0.0008260925 0.00051666994
00000000: 22cb 6e3a cb1c d539 c867 0aba d3b3 de39
00000010: d081 b639 76f9 40b9 2508 27b9 04f1 b8b9
00000020: 7f7b 7d3a d14b 3b3a 1052 0f3a 43f8 e339
00000030: 60cd 0fb9 607a e53a 416b dbb9 3cfc ed38
00000040: 0d4c 6939 d549 7d3a 27d8 083a dea5 f0b9
00000050: bffd e439 a7fe ca3a b7c3 adba eb72 3bba
00000060: a023 0c3b bb55 643b 0d95 0aba 2ecb 053a
00000070: 6638 b739 eec5 71ba be3f 9239 27d7 24bb
00000080: 7f18 15b9 ab58 b039 e620 8fba c86b 09ba
00000090: c3d8 f9ba 27ab 363a f342 b6b9 7dfa d6b9
000000a0: 8bc6 4639 5ed9 8e3a 551d d8ba e08a 37ba
000000b0: 19ef 0e35 fdcd ae37 1508 71b9 0615 303a
000000c0: b155 223a f215 0c3a acda ab3a 283c 07bb
000000d0: 28bc 93b9 69a1 5a3a 5c28 1dba f256 12ba
000000e0: 7188 913a 764a 9a3a 1419 43ba 0680 9db8
000000f0: b945 2f39 00bd 11ba ca1d 653a 5460 2a3a
00000100: 2526 ae3a f461 ca3a 5d76 b239 2e04 caba
00000110: 2d86 b03a 62af b1ba f73a b93a 7a30 833a
00000120: 50e0 feba 5daa d039 e1d8 d03a e358 de3a
00000130: 52b4 cd3a 24cb 2fb8 8dae 9939 92eb b9ba
00000140: 82c3 a2ba 84c3 ec39 1e45 023a c560 9dba
00000150: 419a 87ba b778 49b9 018a adba 1c2a 3d39
00000160: f0b1 74ba 1e5c 16ba 5f40 383a b37d cd3a
00000170: 2d44 e6ba 2716 f53a 0ba6 093b e372 853a
00000180: d3fd 9c39 ff14 bc3a 218e 58ba 2271 073a
