models/lhc_binned_en9of10_sp0_e400_s1993_p0.0_h100_faffine_fl5_l1_dsdim16_dsl1_cudaFalse_last_model.pt (torch_old, 195175 bytes, 73 tensors)

0.0.mdl.input_to_hidden.0.direction f4 [100, 14]
000000 9e 50 84 bc 0e a4 20 3c 39 67 4c 3d 33 27 e4 3a
       -0.016151723 0.009804739 0.04990313 0.0017406702
000010 43 9e 0a b7 5f fd 92 39 91 dc c8 3a 7e 9d 0f 3a
       -8.262289e-06 0.00028036066 0.0015324523 0.0005478485
000020 df f6 dd b9 60 e2 9c 3a 8f e4 91 ba ba 9a 06 3b
       -0.00042336338 0.001196932 -0.0011130738 0.0020539002
000030 1c 12 68 3a 8c ae e6 39 66 b8 9a 3b d2 0f ad bb
       0.0008852796 0.00043999066 0.004721689 -0.005281427
000040 5f f4 84 3a d0 70 0f 3e 8b 08 5b 3e 00 63 0f 3b
       0.0010143629 0.14007878 0.21389978 0.0021879077
000050 e7 ba 80 38 8e bb 76 39 c6 42 7d ba a2 25 18 ba
       6.138329e-05 0.00023530258 -0.0009661134 -0.00058039476
000060 d1 6f ea 39 0b a7 18 3a c7 95 21 3b 65 0b 4d b9
       0.00044715268 0.0005823231 0.0024655925 -0.00019554568
000070 b0 bc 74 3c 43 d8 aa b8 ce 31 93 3b 02 ba 8c bf
       0.014937565 -8.1465136e-05 0.004492021 -1.0994265
000080 68 8e 87 bf 8e da 8b bf 69 33 88 bf b0 59 d6 3b
       -1.0590334 -1.0926073 -1.0640689 0.0065414533
000090 9e 2b 69 b9 63 ad 43 3a 29 09 4b b8 98 40 c7 38
       -0.0002223686 0.00074644963 -4.8407503e-05 9.501091e-05
0000a0 ac cc d0 ba f6 8d b8 39 7d 5c f2 bc 71 81 aa bc
       -0.0015930138 0.00035200984 -0.029585117 -0.020813676
0000b0 74 d6 f0 ba b2 6d 2c bd 8d 18 5e 3d a9 87 e6 3d
       -0.0018374459 -0.0420968 0.054222632 0.11256344
0000c0 0a 78 3f be e2 b2 a2 bd 9e c2 93 bd c3 ca 2b 3b
       -0.18698135 -0.079442754 -0.07214855 0.0026213385
0000d0 0e 8d d9 b9 3f c1 00 ba f0 19 86 b9 8e d6 03 bb
       -0.0004149456 -0.00049116084 -0.00025577797 -0.0020116898
0000e0 5b 54 5a 3b 1b 34 60 bc 96 62 24 bd 8d 91 e0 3d
       0.003331444 -0.013684298 -0.04013308 0.109652616
0000f0 8f 9d 78 bd 67 f1 0a be c8 38 76 3e 0f a2 ca 3b
       -0.060697135 -0.1356865 0.24045098 0.0061838697
000100 35 9a 7c bc 9a 62 23 3d c3 6f f8 bd 1b 1a 3a bf
       -0.015417625 0.039888956 -0.12130692 -0.72696084
000110 e9 99 1c ba f4 6a f0 b9 c8 4f a0 3b 9c c0 6c 3c
       -0.0005973862 -0.00045856053 0.004892323 0.0144502185
000120 3f 59 2f b9 01 f0 b1 3d 4e 31 fc 3d 78 75 cf be
       -0.00016722547 0.08688355 0.123140916 -0.4051931
000130 ec 9b f6 b8 fe f6 dc 39 fc a5 58 39 e2 06 3d b8
       -0.00011759237 0.00042145693 0.00020661199 -4.506752e-05
000140 9a e6 9a 39 00 18 e4 39 55 a5 c4 39 5e ee 10 3a
       0.0002954498 0.0004350543 0.00037507215 0.00055286835
000150 1c e6 06 bb 51 59 63 bd a0 88 f7 b8 4e 3e 4c be
       -0.0020583933 -0.0555051 -0.00011803326 -0.19945642
000160 c3 e1 81 bf e1 52 a1 ba 1b d7 c4 b9 78 82 07 ba
       -1.0147022 -0.0012308025 -0.000375443 -0.00051692827
000170 d7 8f 2c 38 0f e5 32 ba 2c 2c 92 ba 0c 96 86 3a
       4.1141957e-05 -0.00068242935 -0.001115208 0.0010268106
000180 43 f5 99 39 55 36 57 ba b0 ce b7 3b 60 75 b3 3c
       0.00029365168 -0.0008209695 0.005609356 0.021906555
000190 cb e7 98 3b ef 76 aa bd 5b b5 01 3e 77 0d bb 3a
       0.0046663038 -0.08323466 0.12666838 0.0014270981
0001a0 53 c5 50 39 a0 d9 8a b9 b6 b2 68 3a f5 a4 35 ba
       0.00019909935 -0.00026483554 0.00088767277 -0.00069291826
0001b0 6f 7a cf 3a 10 5a a3 ba eb b4 3b ba e3 a9 cf ba
       0.0015829335 -0.0012462754 -0.0007160443 -0.0015843477
0001c0 f6 b5 08 3d 2b 9d b9 3c e8 5c 28 bd 04 78 a8 bd
       0.033376656 0.022657951 -0.041104227 -0.08226016
0001d0 5c f7 22 3e c6 72 c5 3c 35 79 a9 be 89 73 cb 3c
       0.15914673 0.02410258 -0.33100286 0.024835365
0001e0 1c aa 94 3c 4a 39 3b 3d ed 29 aa b9 e5 0f 9f 3a
       0.01814752 0.045708932 -0.00032456164 0.0012135474
0001f0 a5 87 5e 3a 76 d8 0b bb 50 65 82 3c 20 a4 39 3e
       0.00084888405 -0.0021338738 0.01591745 0.18129015
000200 ca 01 3b 39 65 86 2a bc fd f2 fe 3b 61 03 d0 3b
       0.00017834376 -0.010408019 0.0077804313 0.006348059
000210 ce 2f 32 bb 7e 8b 8c 3c a8 f8 3c 3e 4f b2 1e 3a
       -0.0027189138 0.017156359 0.1845423 0.0006053792
000220 b4 07 2a bb c5 85 bf 3a 9a 47 f8 ba 40 eb 09 ba
       -0.0025944533 0.001461201 -0.0018942237 -0.000526119
000230 73 fc 73 3c 30 21 1e bb 05 7f 5a ba b2 3d 8a 3a
       0.014891732 -0.0024128668 -0.00083349674 0.0010546951
000240 15 6b 9f 3a d2 c6 b7 37 be 5b ba 39 15 92 4e 3a
       0.001216265 2.1907883e-05 0.00035545038 0.0007880044
000250 55 20 31 ba ee 53 ab 38 9f 68 4a 3a 4d ae fc b8
       -0.0006756832 8.1695485e-05 0.0007721278 -0.000120487624
000260 84 bd c7 39 c6 b1 0e b9 15 89 0e 3d fb c9 da 3a
       0.00038097438 -0.00013608401 0.0347987 0.0016692275
000270 d9 6c 59 3b 92 53 37 3e da 45 7a 3f 2d af 66 bd
       0.003317645 0.17902973 0.97762835 -0.056319404
000280 5b 61 68 bd c1 1b 8f bc 99 b3 74 3b 7f b7 a3 39
       -0.05673347 -0.017469289 0.0037338494 0.00031226498
000290 79 c0 04 b9 96 a5 41 3a 75 42 e8 39 88 e7 8d ba
       -0.00012660203 0.000738704 0.00044300003 -0.0010826448
0002a0 93 6e 95 3c 81 ac 40 3d 56 5d 82 3b 25 bb 0a be
       0.018241202 0.047039513 0.0039784117 -0.13547952
0002b0 68 9d 2d b7 46 ae d6 39 71 71 b6 b8 f8 8f 42 3a
       -1.03482525e-05 0.00040947105 -8.6995664e-05 0.0007421966
0002c0 82 eb 28 ba 6f b5 2c b9 14 6f 4e 3b 83 60 cb ba
       -0.0006443785 -0.00016470788 0.0031499313 -0.0015516434
0002d0 54 34 3b ba c8 b5 27 b9 6e e0 91 3a 93 ab 74 3a
       -0.00071412814 -0.0001599408 0.0011129507 0.0009333428
0002e0 c1 b8 a9 3c 1d 82 43 be 20 81 6e 3a 95 14 92 3a
       0.02071798 -0.19092603 0.00090982206 0.001114505
0002f0 9c 9a 6e ba e1 c5 a8 b9 28 13 55 ba 36 f6 34 ba
       -0.0009102018 -0.00032190888 -0.00081281597 -0.00069031434
000300 3c 82 69 ba e5 35 13 3a e6 f8 b2 ba 5c e1 c9 39
       -0.0008907651 0.0005615636 -0.00136545 0.00038505613
000310 25 b2 90 3c 5a e3 71 3d 0d 68 9a bd 1e 3b ba 3c
       0.017663071 0.05905471 -0.07539377 0.022733267
000320 1e 26 1f bd 27 de 36 3d 86 b8 f1 ba 94 61 81 bc
       -0.03885471 0.044645455 -0.0018441833 -0.0157936
000330 46 df 21 3e 79 87 78 3d 22 fa 15 ba b0 f3 db 3a
       0.15807828 0.06067607 -0.00057211716 0.0016780999
000340 09 bc 52 3a f8 70 b8 3a fe 89 c6 bc 6b 0f 57 38
       0.00080388837 0.0014071753 -0.024235722 5.1274354e-05
000350 20 d1 f1 ba 76 8e de 3a 49 fc 99 ba 77 22 31 b8
       -0.0018449165 0.0016979713 -0.001174816 -4.2232186e-05
000360 4d bc 99 39 28 2c 26 bb ef dd 9e 3a 25 a0 cb 38
       0.0002932273 -0.002535591 0.0012120585 9.7096236e-05
000370 54 50 1b ba 5f f5 e5 b9 c3 f8 42 ba 8d 66 ce b9
       -0.00059247506 -0.000438611 -0.0007437581 -0.00039367788
000380 a8 52 00 bc a8 12 97 b8 8e 8e 83 ba 51 8e 06 3e
       -0.007832207 -7.203716e-05 -0.0010036991 0.13140227
000390 1e 4f 4c bd a4 07 0e be e5 9a 0e 3d 50 bf 29 bd
       -0.04988014 -0.13870102 0.034815688 -0.041442215
0003a0 ff 29 72 ba 09 23 7c ba 25 3b 71 ba cb 9e 1f bb
       -0.0009237825 -0.0009618258 -0.00092022336 -0.0024356123
0003b0 ab 75 c4 3a e6 77 84 3a 17 3c 28 bd 2f 6e 81 bd
       0.0014988681 0.0010106533 -0.04107293 -0.06319844
0003c0 cf 53 8a 39 07 21 1b 3c 44 f7 c8 3d e3 bf 56 be
       0.00026383853 0.009468324 0.09812787 -0.20971636
0003d0 ff 2d c3 bd 5e 08 06 bd 87 b3 c0 bd 13 29 ab 3a
       -0.095302574 -0.032722823 -0.09409242 0.0013058506
0003e0 ab 35 9a 3a 1a ff 8f ba d8 37 50 b9 0d 71 73 3a
       0.0011765262 -0.001098606 -0.00019857229 0.000928656
0003f0 eb 7e 74 bb ea a3 85 3a 3f ed 9f 3b 15 be b7 be
       -0.0037307094 0.0010195945 0.004880577 -0.3588721

0.0.mdl.input_to_hidden.0.mask f4 [100, 14]
000000 00 00 80 3f 00 00 80 3f 00 00 80 3f 00 00 00 00
       1.0 1.0 1.0 0.0
000010 00 00 00 00 00 00 00 00 00 00 00 00 00 00 00 00
       0.0 0.0 0.0 0.0
000020 00 00 00 00 00 00 00 00 00 00 00 00 00 00 00 00
       0.0 0.0 0.0 0.0
000030 00 00 00 00 00 00 00 00 00 00 80 3f 00 00 80 3f
       0.0 0.0 1.0 1.0
000040 00 00 80 3f 00 00 80 3f 00 00 80 3f 00 00 00 00
       1.0 1.0 1.0 0.0
000050 00 00 00 00 00 00 00 00 00 00 00 00 00 00 00 00
       0.0 0.0 0.0 0.0
000060 00 00 00 00 00 00 00 00 00 00 00 00 00 00 00 00
       0.0 0.0 0.0 0.0
000070 00 00 80 3f 00 00 80 3f 00 00 80 3f 00 00 80 3f
       1.0 1.0 1.0 1.0
000080 00 00 80 3f 00 00 80 3f 00 00 80 3f 00 00 80 3f
       1.0 1.0 1.0 1.0
000090 00 00 00 00 00 00 00 00 00 00 00 00 00 00 00 00
       0.0 0.0 0.0 0.0
0000a0 00 00 00 00 00 00 00 00 00 00 80 3f 00 00 80 3f
       0.0 0.0 1.0 1.0
0000b0 00 00 80 3f 00 00 80 3f 00 00 80 3f 00 00 80 3f
       1.0 1.0 1.0 1.0
0000c0 00 00 80 3f 00 00 80 3f 00 00 80 3f 00 00 00 00
       1.0 1.0 1.0 0.0
0000d0 00 00 00 00 00 00 00 00 00 00 00 00 00 00 00 00
       0.0 0.0 0.0 0.0
0000e0 00 00 80 3f 00 00 80 3f 00 00 80 3f 00 00 80 3f
       1.0 1.0 1.0 1.0
0000f0 00 00 80 3f 00 00 80 3f 00 00 80 3f 00 00 80 3f
       1.0 1.0 1.0 1.0
000100 00 00 80 3f 00 00 80 3f 00 00 80 3f 00 00 80 3f
       1.0 1.0 1.0 1.0
000110 00 00 00 00 00 00 00 00 00 00 80 3f 00 00 80 3f
       0.0 0.0 1.0 1.0
000120 00 00 80 3f 00 00 80 3f 00 00 80 3f 00 00 80 3f
       1.0 1.0 1.0 1.0
000130 00 00 00 00 00 00 00 00 00 00 00 00 00 00 00 00
       0.0 0.0 0.0 0.0
000140 00 00 00 00 00 00 00 00 00 00 00 00 00 00 00 00
       0.0 0.0 0.0 0.0
000150 00 00 80 3f 00 00 80 3f 00 00 80 3f 00 00 80 3f
       1.0 1.0 1.0 1.0
000160 00 00 80 3f 00 00 00 00 00 00 00 00 00 00 00 00
       1.0 0.0 0.0 0.0
000170 00 00 00 00 00 00 00 00 00 00 00 00 00 00 00 00
       0.0 0.0 0.0 0.0
000180 00 00 00 00 00 00 00 00 00 00 80 3f 00 00 80 3f
       0.0 0.0 1.0 1.0
000190 00 00 80 3f 00 00 80 3f 00 00 80 3f 00 00 00 00
       1.0 1.0 1.0 0.0
0001a0 00 00 00 00 00 00 00 00 00 00 00 00 00 00 00 00
       0.0 0.0 0.0 0.0
0001b0 00 00 00 00 00 00 00 00 00 00 00 00 00 00 00 00
       0.0 0.0 0.0 0.0
0001c0 00 00 80 3f 00 00 80 3f 00 00 80 3f 00 00 80 3f
       1.0 1.0 1.0 1.0
0001d0 00 00 80 3f 00 00 80 3f 00 00 80 3f 00 00 80 3f
       1.0 1.0 1.0 1.0
0001e0 00 00 80 3f 00 00 80 3f 00 00 00 00 00 00 00 00
       1.0 1.0 0.0 0.0
0001f0 00 00 00 00 00 00 00 00 00 00 80 3f 00 00 80 3f
       0.0 0.0 1.0 1.0
000200 00 00 80 3f 00 00 80 3f 00 00 80 3f 00 00 80 3f
       1.0 1.0 1.0 1.0
000210 00 00 80 3f 00 00 80 3f 00 00 80 3f 00 00 80 3f
       1.0 1.0 1.0 1.0
000220 00 00 80 3f 00 00 00 00 00 00 00 00 00 00 00 00
       1.0 0.0 0.0 0.0
000230 00 00 80 3f 00 00 00 00 00 00 00 00 00 00 00 00
       1.0 0.0 0.0 0.0
000240 00 00 00 00 00 00 00 00 00 00 00 00 00 00 00 00
       0.0 0.0 0.0 0.0
000250 00 00 00 00 00 00 00 00 00 00 00 00 00 00 00 00
       0.0 0.0 0.0 0.0
000260 00 00 00 00 00 00 00 00 00 00 80 3f 00 00 80 3f
       0.0 0.0 1.0 1.0
000270 00 00 80 3f 00 00 80 3f 00 00 80 3f 00 00 80 3f
       1.0 1.0 1.0 1.0
000280 00 00 80 3f 00 00 80 3f 00 00 80 3f 00 00 00 00
       1.0 1.0 1.0 0.0
000290 00 00 00 00 00 00 00 00 00 00 00 00 00 00 00 00
       0.0 0.0 0.0 0.0
0002a0 00 00 80 3f 00 00 80 3f 00 00 80 3f 00 00 80 3f
       1.0 1.0 1.0 1.0
0002b0 00 00 00 00 00 00 00 00 00 00 00 00 00 00 00 00
       0.0 0.0 0.0 0.0
0002c0 00 00 00 00 00 00 00 00 00 00 00 00 00 00 00 00
       0.0 0.0 0.0 0.0
0002d0 00 00 00 00 00 00 00 00 00 00 80 3f 00 00 80 3f
       0.0 0.0 1.0 1.0
0002e0 00 00 80 3f 00 00 80 3f 00 00 00 00 00 00 00 00
       1.0 1.0 0.0 0.0
0002f0 00 00 00 00 00 00 00 00 00 00 00 00 00 00 00 00
       0.0 0.0 0.0 0.0
000300 00 00 00 00 00 00 00 00 00 00 00 00 00 00 00 00
       0.0 0.0 0.0 0.0
000310 00 00 80 3f 00 00 80 3f 00 00 80 3f 00 00 80 3f
       1.0 1.0 1.0 1.0
000320 00 00 80 3f 00 00 80 3f 00 00 80 3f 00 00 80 3f
       1.0 1.0 1.0 1.0
000330 00 00 80 3f 00 00 80 3f 00 00 00 00 00 00 00 00
       1.0 1.0 0.0 0.0
000340 00 00 00 00 00 00 00 00 00 00 80 3f 00 00 00 00
       0.0 0.0 1.0 0.0
000350 00 00 00 00 00 00 00 00 00 00 00 00 00 00 00 00
       0.0 0.0 0.0 0.0
000360 00 00 00 00 00 00 00 00 00 00 00 00 00 00 00 00
       0.0 0.0 0.0 0.0
000370 00 00 00 00 00 00 00 00 00 00 00 00 00 00 00 00
       0.0 0.0 0.0 0.0
000380 00 00 80 3f 00 00 80 3f 00 00 80 3f 00 00 80 3f
       1.0 1.0 1.0 1.0
000390 00 00 80 3f 00 00 80 3f 00 00 80 3f 00 00 80 3f
       1.0 1.0 1.0 1.0
0003a0 00 00 00 00 00 00 00 00 00 00 00 00 00 00 00 00
       0.0 0.0 0.0 0.0
0003b0 00 00 00 00 00 00 00 00 00 00 80 3f 00 00 80 3f
       0.0 0.0 1.0 1.0
0003c0 00 00 80 3f 00 00 80 3f 00 00 80 3f 00 00 80 3f
       1.0 1.0 1.0 1.0
0003d0 00 00 80 3f 00 00 80 3f 00 00 80 3f 00 00 80 3f
       1.0 1.0 1.0 1.0
0003e0 00 00 00 00 00 00 00 00 00 00 00 00 00 00 00 00
       0.0 0.0 0.0 0.0
0003f0 00 00 80 3f 00 00 80 3f 00 00 80 3f 00 00 80 3f
       1.0 1.0 1.0 1.0

0.0.mdl.input_to_hidden.0.cscale.weight f4 [100, 1]
000000 1a 65 d0 b9 94 5a c5 b9 8a 7b 7d ba b7 f0 d4 38
       -0.00039748178 -0.00037642254 -0.0009669593 0.000101537844
000010 08 2e 4c 3a 6c 42 3a 39 a6 20 25 ba f7 77 72 b9
       0.00077888416 0.00017763086 -0.00062991155 -0.00023123609
000020 90 6d 64 3a 83 22 21 ba 98 a3 b0 38 83 fe 13 ba
       0.0008713836 -0.0006146805 8.422806e-05 -0.000564553
000030 d1 a1 39 ba 45 73 b6 3a ad ed c9 3a 60 ac da 36
       -0.00070813025 0.0013919851 0.0015405916 6.5169734e-06
000040 4f 72 0b 3a 0e d5 8c 3a 04 5f e0 3a f1 6e 32 b9
       0.00053194625 0.0010744648 0.0017118161 -0.00017016732
000050 20 18 cb 3a b8 8d e5 ba 0b 9d ae 3a 8a 45 34 39
       0.0015494861 -0.0017513549 0.0013321949 0.00017192043
000060 69 be 0b 3a c1 10 8c 3a 1a 29 d4 b9 40 b8 8e 39
       0.00053308025 0.0010686145 -0.00040466414 0.00027221628
000070 cf 48 60 ba 04 f0 42 ba 89 f5 89 3a 7a 28 98 3a
       -0.0008555771 -0.0007436278 0.0010525446 0.0011608743
000080 e5 2b dd 3a 7c 28 cc 38 cc 88 8a ba 8e 7d 35 bb
       0.0016874044 9.735019e-05 -0.0010569333 -0.0027693245
000090 65 74 57 ba 28 4c db 3a 70 b0 a2 39 c9 d1 b6 b8
       -0.0008218943 0.001673107 0.00031030504 -8.717512e-05
0000a0 21 b8 3b b8 d5 bd 9f ba 86 23 31 3a 8d 48 d1 b9
       -4.4755758e-05 -0.0012187312 0.00067573076 -0.0003991764
0000b0 f4 90 c8 3a 37 26 9e b9 81 ba 7f ba ff 02 90 ba
       0.0015301988 -0.0003016458 -0.0009755269 -0.0010987221
0000c0 10 5d a0 3a 13 fc d7 ba 75 13 9e 3a 91 b9 8e 3a
       0.0012234766 -0.0016478322 0.0012060242 0.0010889043
0000d0 14 70 1a 38 4e 37 ca 39 40 21 48 b9 d8 0a 80 ba
       3.6820842e-05 0.00038569648 -0.00019085873 -0.0009768857
0000e0 74 4f 5a ba 6b 0f ab 39 2c 17 7f ba ed 60 f3 39
       -0.00083278795 0.0003262715 -0.0009730931 0.00046420787
0000f0 5a 93 1c ba bf bc 29 3a ed 7a fa b9 26 53 c0 39
       -0.0005972885 0.0006474964 -0.00047775303 0.00036683044
000100 8d 14 a3 ba 7c a0 f0 39 cf 39 e5 39 6c da 23 3a
       -0.0012442038 0.00045895937 0.00043721354 0.0006250504
000110 e3 a9 ab 39 c4 a2 ab b9 0f c5 98 39 37 72 de b9
       0.00032742237 -0.00032736931 0.0002913852 -0.00042428236
000120 02 d4 51 3a 27 d3 2c b9 5e 0e 90 ba 77 d2 c1 b9
       0.0008004309 -0.00016481859 -0.001099061 -0.00036968637
000130 1d 9f 05 ba 04 c7 31 ba fb e1 ba 39 02 20 2a b9
       -0.0005097257 -0.000678167 0.00035645053 -0.00016224387
000140 40 12 87 b9 92 01 c8 39 a9 15 9b 3a 3e 42 02 b8
       -0.00025762804 0.00038148143 0.0011832017 -3.1056108e-05
000150 09 77 7d b6 fd 38 c7 39 f2 44 20 3b 08 05 74 ba
       -3.7769225e-06 0.00037998697 0.0024455157 -0.0009308611
000160 11 a7 0b bb c9 25 66 3a a0 3e 5d b8 4e 9b 2c b9
       -0.0021309296 0.0008779434 -5.274883e-05 -0.00016461054
000170 c5 e5 99 ba df 4b 86 38 ab d4 fe 39 47 be a1 ba
       -0.001174145 6.40375e-05 0.00048605105 -0.0012340032
000180 35 4d 98 ba a2 f7 a3 3a 17 bf b3 3a b3 c8 1f ba
       -0.0011619689 0.0012509713 0.0013713565 -0.0006095275

0.0.mdl.input_to_hidden.0.cscale.bias f4 [100]
000000 bc be 04 bf b8 f2 3e 3e 5c 04 9f 3f 24 6a 1c bf
       -0.5185354 0.18647277 1.2423205 -0.6109946
000010 fa ad 65 3f ae 11 eb 3e 68 98 97 3f 1b 4d 79 bf
       0.8971859 0.45911926 1.1843386 -0.9738328
000020 7f ed 70 bf 8d eb c8 3f 8a 9c 17 3f 8f a5 87 bf
       -0.9411239 1.5696884 0.59223235 -1.05974
000030 e3 92 e3 3d 65 e7 50 3f 6d 58 19 bf f2 a8 0f be
       0.11112001 0.8160308 -0.5990055 -0.14029291
000040 6d 3f c7 be 4e c0 57 bf 21 72 ac be bb 75 04 bf
       -0.38915578 -0.8427781 -0.33680823 -0.5174214
000050 58 74 a6 bf bf a5 bc 3e 6f 06 2d bf a2 c6 11 bf
       -1.3004255 0.36845204 -0.6758794 -0.56943715
000060 9b 20 11 bf 8c 8e b4 be 47 54 c9 3e cf 7f c5 3e
       -0.56690377 -0.35265005 0.3932211 0.38574073
000070 7c 29 72 bf 3f 4c 22 bf a5 6d 99 be 5a 01 45 bf
       -0.9459455 -0.6339759 -0.29966465 -0.7695519
000080 de 09 6e 9c e4 55 82 3d 8d 61 fd 3e 88 1b 0b be
       -7.8760347e-22 0.063640386 0.49488488 -0.13584721
000090 3f 49 39 bf 89 d5 02 3f 29 4f 7e bf 9c fd 2f bf
       -0.7237739 0.5110708 -0.9933954 -0.6874635
0000a0 c5 70 20 bf 5f fd 4f bf c8 49 ee bf 7a f7 55 bf
       -0.6267207 -0.8124599 -1.8616266 -0.83580744
0000b0 db a7 9c bf 21 2d 7b 3f 4f d6 65 3f 87 ff b7 be
       -1.2238725 0.98115736 0.89780134 -0.3593714
0000c0 5a 56 0b bf 56 b8 f9 38 45 c5 db be d0 f0 df 3e
       -0.5442864 0.000119075805 -0.42923942 0.43738413
0000d0 6b f0 97 bf 10 a4 6c bf 6f 94 3f bf b9 09 36 3f
       -1.1870245 -0.9243784 -0.74835867 0.71108586
0000e0 32 0a 29 bf 7a 06 07 3f 12 0b 85 3f 86 00 14 bf
       -0.6603118 0.5274426 1.0394003 -0.578133
0000f0 e7 38 d2 bd f2 40 2d be fd 8a 98 3e c8 b4 1a bf
       -0.102647595 -0.16919306 0.2979354 -0.604321
000100 95 02 49 bf d7 16 f0 3e 8e 3c 15 3f 79 33 92 bd
       -0.78519565 0.46892425 0.58295524 -0.07138724
000110 f3 ed 87 3f 75 48 40 3f 62 48 72 3f 06 53 2b 3f
       1.0619491 0.7511056 0.946417 0.6692356
000120 ec b1 85 3f 13 fc 85 3f 1f 34 40 3f c9 30 b6 bf
       1.0444922 1.0467552 0.7507953 -1.4233638
000130 07 78 4d bf c7 86 7f 3f ca 4d a9 bf a5 3f 29 bf
       -0.8026127 0.9981503 -1.3226864 -0.6611274
000140 15 15 02 bf fe 5a 45 bf ef 11 22 3f 2c 8e 81 3f
       -0.5081342 -0.7709197 0.63308614 1.0121512
000150 a8 b7 31 bf 54 e7 2e bf 53 f5 86 3f d4 46 68 be
       -0.6942086 -0.6832173 1.0543617 -0.22683269
000160 24 0b 0c 3f 0d 97 64 3e 97 b5 f6 3e 85 52 92 bf
       0.547045 0.22323246 0.48185417 -1.1431433
000170 12 24 cf 3f cc 45 75 3f 9c 15 64 3f b1 bb 67 bf
       1.6182883 0.95809627 0.89095473 -0.9052077
000180 1d 8f 8d 3f 52 5a 38 3f a0 2e 36 3f ca 58 62 bf
       1.10593 0.7201282 0.71164894 -0.8841673

0.0.mdl.input_to_hidden.0.cbias.weight f4 [100, 1]
000000 9e 63 09 ba 61 9a 50 ba 93 20 bc b9 1b 01 cc ba
       -0.00052409794 -0.00079575746 -0.00035882424 -0.0015564294
000010 9b 6f db b9 b7 1a 26 3a 9c 57 04 3b 10 09 32 ba
       -0.00041854088 0.0006336378 0.002019382 -0.00067915116
000020 09 fd 10 3a f7 0e 14 3a c9 79 9e ba dc 98 af 3a
       0.0005530869 0.0005647982 -0.0012090738 0.0013396996
000030 c7 92 fe 3a 36 06 7f 39 73 4f 45 bb 1a ba e1 39
       0.0019422405 0.00024321009 -0.003010717 0.00043054
000040 50 4f 59 ba 50 74 19 b9 d3 49 8e b9 dd 2e 09 38
       -0.00082897115 -0.00014634547 -0.00027139354 3.270699e-05
000050 6f b2 bf b9 a0 c6 bd 39 38 d1 11 b9 9e 3a 07 ba
       -0.00036563302 0.00036196876 -0.00013906218 -0.0005158576
000060 cf 08 81 39 2b 0e 4a 3a 29 43 12 ba 07 f7 49 3a
       0.0002461136 0.00077077997 -0.00055794657 0.00077043514
000070 d5 8e 21 ba ef 28 90 ba 38 d5 0a 3a de 0c c1 3a
       -0.0006162946 -0.0010998527 0.00052960543 0.0014728566
000080 57 40 52 38 be 98 bc 39 a0 a6 42 b8 01 03 bd b9
       5.0127823e-05 0.00035971956 -4.6408386e-05 -0.00036051127
000090 9d 09 2e 3a 47 9d c0 ba 90 c3 76 ba 10 10 20 ba
       0.0006639006 -0.001469531 -0.00094132964 -0.0006105909
0000a0 e4 0e b8 39 e6 e5 0e 3a 91 14 24 38 56 19 e8 3a
       0.0003510631 0.00054511277 3.91198e-05 0.0017707746
0000b0 71 0a 5a 3a 83 e9 48 3a 94 af 7f 3a 86 c5 e2 b9
       0.0008317596 0.00076641905 0.0009753641 -0.00043253246
0000c0 c5 e6 1f b9 9d 35 79 3a a1 6f 25 ba 5f b4 bf 3a
       -0.0001524939 0.0009506585 -0.00063108845 0.0014625898
0000d0 4c dc 21 3a 9e dd 2b ba 27 5f 7b b9 6d ac e5 b9
       0.00061744894 -0.0006556156 -0.00023972672 -0.0004380675
0000e0 75 5c 9d ba e0 11 16 ba 2e 54 4e ba 48 59 f7 3a
       -0.0012005704 -0.00057247095 -0.000787082 0.0018871212
0000f0 6e 65 58 ba d0 51 8d 39 3f ad 0a 3a 18 d4 ad 39
       -0.00082548603 0.0002695457 0.0005290098 0.00033155154
000100 84 4c 19 b8 4b 3b 49 b9 71 a8 00 bb 96 1a 85 3a
       -3.6549303e-05 -0.00019190942 -0.001963165 0.0010155018
000110 b1 c1 98 ba 66 a8 12 3a 25 ae 73 ba e8 37 05 3a
       -0.0011654404 0.00055945513 -0.0009295664 0.0005081878
000120 62 d6 d3 b9 a7 70 f0 b9 f9 c8 a4 3a 93 0b e4 3a
       -0.00040404784 -0.000458603 0.0012572102 0.0017398469
000130 33 9d c6 b9 b7 e5 43 b8 6f da 54 ba e9 d0 06 ba
       -0.00037882625 -4.670556e-05 -0.00081197073 -0.00051428244
000140 27 b5 51 3a 32 5b aa 3a d6 a6 72 ba 5c 9d b3 b8
       0.0007999711 0.0012997149 -0.0009256428 -8.5646956e-05
000150 44 25 1a ba e8 70 f7 3a 10 8b b7 b8 f8 f7 bc ba
       -0.0005880187 0.0018878253 -8.7520224e-05 -0.0014417162
000160 1d ac 9a 39 3b 11 69 ba 7d 93 ac 3a f3 dd 75 b8
       0.00029501403 -0.0008890812 0.0013166514 -5.861926e-05
000170 2e f0 42 3a 62 0e b1 ba d5 e6 8a ba c1 98 ab ba
       0.0007436302 -0.0013508315 -0.0010597358 -0.0013091789
000180 31 df 92 3a cc f1 06 b9 39 49 36 3a 54 d8 53 ba
       0.0011205432 -0.00012869312 0.000695366 -0.00080812466

0.0.mdl.input_to_hidden.0.cbias.bias f4 [100]
000000 e3 34 5f be 8f 00 06 40 ad ad db bf 8f 9f 03 3f
       -0.21797518 2.093784 -1.7162377 0.5141534
000010 74 f5 82 3f c3 62 23 3f 75 0a 1c 40 c7 75 b7 3f
       1.0231156 0.63822573 2.4381382 1.4332818
000020 e8 dc 1a 40 f4 09 0c 3f ab 3e 88 3f ca 40 ef 3d
       2.419733 0.5470269 1.0644125 0.116822794
000030 08 68 b9 bf 21 ce b9 40 37 3e cd 3f d0 3c c3 bf
       -1.4484873 5.806412 1.6034611 -1.5252934
000040 36 2a 01 c0 00 29 53 3f 0d 8a c8 3f d7 5a a9 3f
       -2.0182014 0.82484436 1.566713 1.3230847
000050 4c cc 06 40 f4 89 9e bf 15 30 93 3f 1c 57 c7 3d
       2.1062193 -1.238585 1.1499048 0.09733412
000060 40 77 38 bf 61 a2 d4 bf dc 75 05 40 65 19 15 40
       -0.7205696 -1.6612054 2.0853186 2.329675
000070 f5 7b 27 3e b5 d2 c5 3f 21 de ce 3e e7 8f 58 3f
       0.1635588 1.5454928 0.40403846 0.8459458
000080 4c ea fd 3f a7 d7 03 c0 ef 15 8d 3f 7e 0f e4 3f
       1.9837127 -2.0600374 1.1022319 1.7817228
000090 3a 1f 9b 3d ce 2c 9d be be 44 8d 3e 50 f6 b3 3f
       0.07574315 -0.30698246 0.2759151 1.4059544
0000a0 d2 b8 88 40 4c 37 18 40 27 e5 60 40 69 f1 1c 40
       4.272561 2.378375 3.5139863 2.4522345
0000b0 ff a0 95 3f f9 f8 0e 40 9e 28 0e 40 f9 72 d8 3f
       1.1689757 2.233946 2.221229 1.6910087
0000c0 e6 1c d8 3f 81 92 95 3f 6f bd a2 3f bb 73 b4 3f
       1.6883819 1.1685334 1.271406 1.4097818
0000d0 b8 1c 16 40 e0 2e 14 40 8e 70 91 3f ac 4b 00 40
       2.3455029 2.315361 1.1362474 2.0046186
0000e0 49 ec 07 bd e2 1b f6 bf cc 0b bb 3f 77 30 aa 3e
       -0.033184323 -1.9227259 1.4612975 0.332401
0000f0 55 f6 b6 bf 46 88 e7 b9 fa 28 a8 3f 95 ba d8 3e
       -1.4293925 -0.00044161285 1.3137505 0.4232985
000100 48 8f c1 bf 66 54 85 3f 00 c2 ca 3f 73 44 e5 bf
       -1.5121851 1.0416381 1.5840454 -1.7911514
000110 05 6e 51 3f ef ac 93 bf d6 9c 4d bf a6 7f f0 3f
       0.818085 -1.153715 -0.8031744 1.8788955
000120 6e 49 d4 3e 69 bc 97 bf d7 54 06 c0 cb 88 d8 3f
       0.41462272 -1.1854373 -2.0989282 1.6916746
000130 4a f1 18 3f 57 00 8f 3f ac c1 11 3f d7 7b 2e 3f
       0.5974318 1.1171979 0.56936145 0.68157715
000140 fd 36 73 40 bb a9 8e 40 8a 02 c1 3f f5 f6 6c 3f
       3.8002312 4.458219 1.50789 0.92564327
000150 6e 1d e0 3f 52 16 aa 3f 09 1a 4b bf 2f 96 eb 3f
       1.7508981 1.3288062 -0.793366 1.8405207
000160 0d eb c7 3f 58 08 ec 3f a7 5f ae 3f 12 ff 18 40
       1.5618607 1.8440046 1.3622941 2.3905683
000170 35 2e 79 40 8a a5 1a 40 06 45 13 40 34 e1 e9 3f
       3.8934453 2.4163537 2.3010879 1.8271852
000180 83 48 19 40 e6 26 ef 3f c7 6c bc bd 7f 4e 07 3f
       2.3950508 1.8683746 -0.09200435 0.5285415

0.0.mdl.hidden_to_output.direction f4 [28, 100]
000000 88 fc c5 b9 85 a8 9a 39 a6 97 5d ba 3e 45 9a ba
       -0.00037762919 0.00029498726 -0.00084530783 -0.0011769903
000010 d3 99 c9 39 e9 db 24 3a e5 d5 18 ba 29 79 07 ba
       0.00038452315 0.00062888727 -0.00058302126 -0.00051678956
000020 e8 97 be 3a 91 60 af b9 92 f4 c3 3a cd 65 39 ba
       0.0014541121 -0.0003345055 0.0014950207 -0.00070723594
000030 57 ae e1 39 90 6f e0 b7 14 5b 1f 38 6d 80 71 ba
       0.00043045238 -2.6754831e-05 3.7993377e-05 -0.00092125573
000040 1c 30 91 3a 31 6f 70 3a 47 78 e5 b9 05 8c 86 39
       0.001107696 0.0009171842 -0.00043767897 0.00025662794
000050 f2 fa 59 ba 0e eb 35 ba 7a d2 58 3a 14 e5 53 b9
       -0.0008315287 -0.0006939628 0.00082711095 -0.00020207866
000060 73 d5 96 b9 66 6f 88 b8 61 74 1a 3a ad 4e 07 37
       -0.00028769262 -6.505735e-05 0.00058919756 8.064945e-06
000070 e8 f4 b7 ba b7 7d f1 b9 43 a0 f1 b7 83 ee 20 ba
       -0.001403478 -0.00046060767 -2.8804066e-05 -0.00061390566
000080 02 9e 3d ba 96 51 a6 3a 35 a2 3d 3a 03 59 1a 3a
       -0.0007233323 0.001268911 0.00072339486 0.00058878976
000090 9b 8a de 39 da 32 8a 39 76 f7 85 39 94 1b 1e 39
       0.0004244641 0.00026359298 0.0002555211 0.00015078328
0000a0 99 ab ef 3a 8b b1 61 ba 3b aa 88 38 e0 fe 6c ba
       0.0018285393 -0.0008609525 6.516693e-05 -0.0009040665
0000b0 ed 9f 60 b9 69 54 ba 3a 0a 74 51 3a 44 37 bf ba
       -0.00021421882 0.001421583 0.00079900085 -0.0014588614
0000c0 95 ba b1 3a 19 82 28 ba 58 11 48 37 86 71 df 39
       0.0013559634 -0.00064280775 1.1924967e-05 0.00042618456
0000d0 61 3e 7a 39 5d 38 df 39 11 32 15 ba 48 29 6b b9
       0.00023865096 0.00042575868 -0.00056913594 -0.00022426725
0000e0 9b 14 0c 3b e2 c8 7a ba 95 c5 49 3a b8 dd 85 ba
       0.0021374587 -0.0009566677 0.00076969835 -0.0010213172
0000f0 87 cd 2d ba 84 99 30 39 5d 40 c4 b9 95 a5 7c 39
       -0.0006630052 0.00016841857 -0.00037431988 0.00024094277
000100 37 a8 3f 38 ee c2 81 3a cb 34 29 ba 01 55 3a 3b
       4.569461e-05 0.0009900013 -0.0006454705 0.0028432014
000110 85 77 74 3a 0f e8 ad b9 67 fb a4 39 53 a8 66 3a
       0.0009325671 -0.00033170028 0.00031467827 0.0008798886
000120 42 8a ec 38 d0 e8 b3 b8 85 18 da b9 5f 29 b2 3a
       0.000112791095 -8.57875e-05 -0.0004159847 0.0013592652
000130 01 91 bd 39 d4 29 89 3a c8 2b de 3a 71 81 c9 ba
       0.00036156925 0.0010464736 0.0016950304 -0.001537366
000140 2d d6 26 3b 21 fa 0d bb 28 29 47 39 7e 2c a5 3a
       0.0025457249 -0.002166398 0.00018993451 0.0012601761
000150 1e 2e 27 ba b8 8e b5 38 61 e1 e2 3a eb 8b 2f 39
       -0.00063774164 8.657336e-05 0.00173096 0.00016741424
000160 32 ae 4b bb 94 78 cb 3a 3d 41 75 b8 64 18 88 3a
       -0.003107917 0.0015523606 -5.847331e-05 0.0010383246
000170 95 0a 99 3a 15 78 1e 3a 63 41 a3 ba d6 b0 09 b9
       0.0011676127 0.00060451153 -0.00124554 -0.00013131215
000180 8d 22 19 3a af 4e 74 ba 78 73 4d 3a e5 e7 28 39
       0.0005841635 -0.0009319586 0.00078373356 0.00016108116
000190 61 36 f5 38 21 c4 3f 3a b9 aa ac ba a7 1f 60 ba
       0.00011692639 0.0007315297 -0.0013173438 -0.00085496384
0001a0 0d f6 04 ba 36 ba dc ba a8 94 19 ba 0f 27 f4 39
       -0.0005072065 -0.0016840163 -0.00058586383 0.00046568408
0001b0 c5 49 a1 b9 3e 0a 88 3a 5b e7 e2 39 e0 6c 2b 3a
       -0.00030763276 0.0010379029 0.00043278452 0.0006539356
0001c0 06 a5 0d bb 0e 8f 9d b9 5c a9 28 39 08 05 80 b9
       -0.0021613254 -0.00030051958 0.0001608482 -0.0002441781
0001d0 ee 89 a2 ba aa 5a 88 3a 65 96 48 3a 07 6d a3 ba
       -0.0012400725 0.0010402997 0.0007651805 -0.0012468406
0001e0 e2 97 d8 39 76 40 9c ba 0a 32 7d ba b4 bd 52 3a
       0.00041311892 -0.0011921066 -0.00096586405 0.0008039132
0001f0 95 f6 6f ba 26 d8 cf 3a 4a 2f 04 ba da 3f ca 3a
       -0.000915387 0.0015857264 -0.0005042447 0.0015430406
000200 d4 52 95 39 7b 3d a2 b9 14 b3 a7 38 be 36 a5 ba
       0.00028481206 -0.00030944854 7.9965364e-05 -0.0012604815
000210 06 d2 75 ba 5a 15 08 b9 73 9e 4d ba 3a aa c5 b9
       -0.0009377304 -0.00012977925 -0.000784374 -0.00037701597
000220 cc 1a 0e ba 7c 72 bf ba 72 58 2a 3a ac e6 28 39
       -0.0005420863 -0.0014606263 0.0006498165 0.0001610766
000230 87 9e 01 ba 18 c5 3f 38 ab 3f af ba ec f9 56 b8
       -0.0004944582 4.5721506e-05 -0.0013370415 -5.1254334e-05
000240 d3 28 f9 b9 75 a7 7d ba 94 dc 85 ba cd fd a1 b9
       -0.00047523397 -0.0009676137 -0.0010212832 -0.0003089741
000250 99 e8 89 ba 7c e7 cc 3a a0 71 9c ba 9a fb 1e 37
       -0.001052159 0.0015632953 -0.0011935718 9.476114e-06
000260 ce cc 66 ba 96 53 e6 39 30 be 10 ba 78 b6 e9 b8
       -0.0008804322 0.00043931295 -0.0005521504 -0.00011144293
000270 58 b8 b0 3a 02 91 e8 39 1b 0e da 3a f9 6e 37 bb
       0.0013482673 0.00044358528 0.0016636284 -0.002798973
000280 d3 04 9a 38 de 2b 58 39 44 7a b7 39 70 64 8a 3a
       7.344191e-05 0.00020615707 0.00034995575 0.0010558497
000290 ba 45 92 b8 e3 80 9a 39 af 3c 59 b9 ee a2 3d 3a
       -6.97481e-05 0.00029469197 -0.00020717339 0.0007234056
0002a0 ef ac 01 bb 81 ec 4d 3a fd 39 96 3a ef 93 7a 39
       -0.0019786914 0.0007855371 0.0011461374 0.00023896967
0002b0 02 22 1c ba a8 c0 7b 3a 25 07 0d ba bc 92 43 b9
       -0.00059559953 0.0009603598 -0.0005379788 -0.00018651312
0002c0 6f fc 5c ba 76 90 97 b9 1a 8c 0a ba ba 81 8a 3a
       -0.00084299495 -0.00028908596 -0.0005285159 0.0010567226
0002d0 43 a5 c1 ba 34 f9 be 3a ce 43 fa b8 15 7a 88 b9
       -0.0014773983 0.0014570118 -0.000119335586 -0.000260309
0002e0 4e 2d aa 38 8a 07 8c ba aa 70 ef 3a 49 f0 04 b9
       8.11467e-05 -0.0010683399 0.001826783 -0.00012678014
0002f0 ac c7 bb ba 17 fb 1d ba 26 32 d9 ba f2 ca 54 ba
       -0.0014326475 -0.000602649 -0.0016570732 -0.00081173994
000300 51 c3 60 3a dc e1 13 3a 13 e5 df b8 ca ed 04 3a
       0.0008574026 0.00056412607 -0.00010676137 0.0005070834
000310 84 1f 96 38 72 b3 f7 39 6d 29 2c ba 6f 1a 29 b9
       7.1584276e-05 0.00047245208 -0.0006567452 -0.00016126943
000320 4a 6b 84 ae 67 4b 70 32 9b 4f 00 80 53 5e 00 80
       -6.0217234e-11 1.3986983e-08 -2.8557e-41 -3.3837e-41
000330 dc 6b ef 2d 1b 57 00 80 19 36 3f b1 bb ed 89 14
       2.7219053e-11 -3.1248e-41 -2.782491e-09 1.3927233e-26
000340 13 3f 00 80 f0 7e 00 00 16 13 8f 3c 91 11 00 00
       -2.2627e-41 4.5537e-41 0.017465156 6.302e-42
000350 09 41 03 80 c8 6c 8a b6 2f b5 01 80 86 f7 82 3b
       -2.98837e-40 -4.1253843e-06 -1.56832e-40 0.0039967922
000360 fe 03 00 80 2c a1 00 80 11 7e 87 ad 1c 0f 01 00
       -1.432e-42 -5.7818e-41 -1.5403708e-11 9.7256e-41
000370 29 5a 86 ba e9 75 2d 3b 23 0d 00 00 26 6a 92 2b
       -0.0010250258 0.0026467985 4.713e-42 1.0403386e-12
000380 2e 08 01 00 09 ed 9a 3b 6c 0c 01 80 27 05 00 00
       9.477e-41 0.004727964 -9.6292e-41 1.848e-42
000390 18 cc 01 80 2c 8e 01 00 66 3e 00 80 ca 02 00 80
       -1.6505e-40 1.42837e-40 -2.2384e-41 -1e-42
0003a0 5c 9c 20 3a df 02 01 80 84 60 00 80 6c 7b 00 80
       0.0006126815 -9.2865e-41 -3.4623e-41 -4.4275e-41
0003b0 3e 3b 00 00 da f8 a5 2f 69 28 00 00 99 3f 01 80
       2.1252e-41 3.0190145e-10 1.4496e-41 -1.1465e-40
0003c0 76 18 0b b8 49 ca 01 00 dd 9c 00 00 03 36 85 17
       -3.3162964e-05 1.64402e-40 5.6272e-41 8.608558e-25
0003d0 33 1f 00 80 b3 f5 1b b9 36 b9 d4 b4 ec a0 00 00
       -1.1192e-41 -0.00014873482 -3.9622836e-07 5.7728e-41
0003e0 4e 98 d5 bc 20 00 00 00 a8 02 00 80 04 1e b2 8f
       -0.026073601 4.5e-44 -9.53e-43 -1.7563717e-29
0003f0 4b 44 00 80 8d f5 00 00 6c e6 00 00 a8 9f 00 00
       -2.4499e-41 8.8087e-41 8.266e-41 5.7274e-41

0.0.mdl.hidden_to_output.cscale.weight f4 [28, 1]
000000 40 3c 7b 39 14 44 5f 3a ee f4 e6 b9 60 e1 92 b9
       0.0002395967 0.00085169193 -0.00044051505 -0.00028015207
000010 3e 1f 04 ba 00 29 a0 37 f0 7f 87 b9 56 76 1c ba
       -0.0005040056 1.9092578e-05 -0.00025844527 -0.0005968561
000020 c4 25 e8 b9 a0 e2 67 38 e2 06 7f 3a 00 bf b7 39
       -0.00044278626 5.5285753e-05 0.00097285036 0.00035046786
000030 4a 60 5a ba d6 fe 23 ba 90 46 04 ba 16 6f 68 3a
       -0.0008330388 -0.000625593 -0.0005045915 0.0008866651
000040 96 f3 25 3a 18 fd 81 39 a9 3b 7b ba 60 2f de b9
       0.00063305476 0.00024793367 -0.000958378 -0.00042378437
000050 80 55 28 b8 98 b3 45 ba 10 cd 94 38 a0 de 1e 3a
       -4.013395e-05 -0.0007541715 7.095386e-05 0.00060603954
000060 72 73 6f 3a 68 a7 73 3a 4a dc 27 ba a2 00 39 ba
       0.0009134329 0.000929466 -0.000640337 -0.0007057284

0.0.mdl.hidden_to_output.cscale.bias f4 [28]
000000 00 00 00 00 00 00 00 00 cc 75 32 3f 4d 85 d7 3d
       0.0 0.0 0.69710994 0.10523472
000010 2b ad e5 be 9e 63 f8 3d d3 6e 6f 3f 81 9b d1 3c
       -0.4485868 0.121283755 0.9352848 0.025586845
000020 d3 19 30 bf c0 78 b7 3d 4a 24 97 3e fb b2 7e bd
       -0.68789405 0.08958578 0.29519874 -0.062182408
000030 e7 e1 74 be 79 7d 8c 3d c9 08 99 bf f3 16 9e bc
       -0.239143 0.068598695 -1.1955806 -0.019298052
000040 00 50 99 bf 56 d9 c9 3c 47 a7 b1 3f 55 af 46 3d
       -1.1977539 0.024639767 1.3879174 0.048507053
000050 21 91 b1 be fe ba 03 bd 5f e0 6a be a1 5a 07 3d
       -0.34681037 -0.03216075 -0.22937153 0.033045415
000060 62 9e 4c be 3f 14 fa bc 31 8d 49 3e 96 33 0d 3d
       -0.19982293 -0.030527232 0.19682766 0.034473024

0.0.mdl.hidden_to_output.cbias.weight f4 [28, 1]
000000 54 3b 80 39 08 3d 12 39 b4 9a 72 3a 08 99 e3 b8
       0.00024458265 0.00013946381 0.000925462 -0.00010852708
000010 c0 de a6 37 44 28 55 b9 50 9f 90 b9 88 2a 62 ba
       1.9892468e-05 -0.00020328263 -0.00027584517 -0.00086275535
000020 8c 48 35 b9 7a 7b ea b9 e6 17 5c 3a 02 bf 25 ba
       -0.00017288531 -0.00044723955 0.0008395895 -0.0006322713
000030 14 f7 22 b9 a0 ab 21 b8 d8 52 75 3a 86 dd 77 ba
       -0.00015541568 -3.854523e-05 0.0009358353 -0.0009455312
000040 3c 22 72 ba 88 87 38 ba ec ca 53 3a 0c 2f 07 b9
       -0.00092366687 -0.00070392387 0.0008079249 -0.0001289213
000050 cc d3 d6 39 a4 5b 1a ba 03 4d 6e ba e8 98 6d b9
       0.00040975062 -0.00058882893 -0.0009090455 -0.00022659043
000060 30 92 0d ba 70 ee 15 b9 60 ee 80 38 23 26 80 ba
       -0.0005400507 -0.00014298572 6.1479164e-05 -0.0009776991

0.0.mdl.hidden_to_output.cbias.bias f4 [28]
000000 41 24 44 be 36 e8 dc 3f 16 80 ed be 17 87 e0 3f
       -0.19154455 1.7258365 -0.46386784 1.7541226
000010 43 72 78 3d 4a bb b3 3f 8c 69 bf 3c 0c 1c 09 40
       0.060655843 1.4041531 0.023365758 2.1423368
000020 62 1f d5 bd 1e 3f 71 3f b5 97 7d 3e 39 6b ca 3f
       -0.104063764 0.94236934 0.24764903 1.5813972
000030 dc f7 08 be 26 c9 f3 3f 5e fa a8 bd d7 ca af 3f
       -0.13375801 1.9045761 -0.08250879 1.3733777
000040 1b 0b f4 bd 66 56 af 3f b7 e2 cc bd 0e 9f a7 3f
       -0.11916181 1.3698242 -0.1000418 1.3095415
000050 a5 b2 18 3f a8 99 bd 3f 1c b5 1e 3e 2f dc c5 3f
       0.5964759 1.4812517 0.15498775 1.545782
000060 28 86 b1 3d e2 a2 a5 3f cb af 2d 3f 9a e5 80 3f
       0.086681664 1.2940333 0.67846364 1.0070069

1.0.mdl.input_to_hidden.0.direction f4 [100, 14]
000000 f2 96 bb 3e 5d 2e ea 3d 4a 7c 3b bb 31 56 f1 bc
       0.366386 0.11434624 -0.0028608018 -0.029460045
000010 48 cc fc 39 7f 43 71 ba 68 32 10 3b b5 c3 85 bd
       0.00048217387 -0.0009203478 0.00220027 -0.06531469
000020 cb b2 83 3c 69 f0 82 bd a7 e0 58 bd 3b 16 0e bb
       0.016076466 -0.06393511 -0.05294862 -0.002168073
000030 15 6f ad b8 2a da 77 3a 23 70 50 be 3e 12 a7 bd
       -8.2699735e-05 0.0009454811 -0.20355277 -0.08157776
000040 79 6c 49 be 06 f0 66 bb 38 3b 7a 3d b1 4b 46 b9
       -0.19670285 -0.003523828 0.06109163 -0.00018910949
000050 53 e5 11 bb f2 86 20 39 c1 47 be ba 11 a0 ec 3a
       -0.0022261932 0.0001530906 -0.0014517234 0.0018053075
000060 37 01 0b 3a 88 7e 34 ba ef e1 83 3a 37 c8 3c 3a
       0.000530261 -0.00068853097 0.001006184 0.0007201465
000070 05 fc 39 be 39 5e c1 bd 17 f4 3f 3d 60 20 4e bd
       -0.18162544 -0.094418 0.04686364 -0.050323844
000080 1c 5f 3f 3a 22 16 fc 3a fc a4 e5 39 cb 0d ff 39
       0.0007300244 0.001923267 0.00043801207 0.00048647667
000090 8a 04 9f 39 f5 be 02 bb 64 7b 9d 38 6c ab ab 3a
       0.00030330225 -0.0019950245 7.509327e-05 0.0013097352
0000a0 df 8b a7 ba 1d db 96 39 2a 3e 64 3e f8 d7 45 3d
       -0.0012782774 0.00028773482 0.22289339 0.048301667
0000b0 7b f9 83 3d d9 8c 08 bc 6c 3a 62 bc a0 9f 1f 3e
       0.06444069 -0.008334362 -0.013807874 0.15588236
0000c0 fb b7 94 3e 68 da f7 3b 0e 26 55 3d 80 71 9c bc
       0.29046616 0.007563878 0.052038245 -0.01909709
0000d0 09 23 b3 3c 81 2e 54 ba 53 14 9a 3a d5 69 ba b9
       0.021867292 -0.0008094088 0.0011755325 -0.00035555536
0000e0 bd a4 09 be ae be 43 3d 07 e9 66 3d 56 36 00 bd
       -0.13441749 0.04778927 0.056374576 -0.03130182
0000f0 fb 82 a5 ba a0 d0 30 bb be 5c 05 bb 77 d2 15 bd
       -0.0012627536 -0.002697982 -0.0020349468 -0.036577668
000100 aa 6a d7 bc 00 3f f3 bd 8b df 03 be 8a f9 2d ba
       -0.026295979 -0.11877251 -0.12878244 -0.00066366105
000110 d4 e8 e8 b9 65 ba 90 ba 40 ec 8b 3e 77 92 37 ba
       -0.0004442396 -0.0011041878 0.27328682 -0.0007002721
000120 b5 b7 b0 b9 af 4f d1 39 51 ac 01 3b 2e 00 3f b9
       -0.00033706208 0.00039922955 0.0019786546 -0.00018215246
000130 7e 8e a9 37 ea 62 2e b9 4f d6 00 3b ed 21 4c b9
       2.0212723e-05 -0.00016630781 0.0019658988 -0.00019467594
000140 01 75 d9 3a e8 7e 88 ba 3f 26 2f 3a e3 aa 89 b9
       0.0016590656 -0.0010413798 0.00066814193 -0.00026257997
000150 19 fe 34 3e 36 47 96 3d 8c 15 82 bd c6 00 37 bb
       0.17675056 0.07337801 -0.06351766 -0.0027924045
000160 de 70 8d 3b 42 b6 33 3e f7 69 55 3b 1d 9a 6f bd
       0.0043164333 0.17549995 0.003256438 -0.058496583
000170 b7 2c 98 bc fa 0d 97 b9 e9 14 bd ba 3e 3c 96 3a
       -0.01857601 -0.00028811378 -0.0014425787 0.0011462045
000180 b3 0b 92 b9 b5 ec 39 b9 5d 18 03 3f b1 c6 80 3e
       -0.00027856007 -0.00017731155 0.5120905 0.2515159
000190 59 4a 6f 3d b2 84 a2 3d ea af 10 bb 96 e2 b7 bc
       0.058420513 0.07935466 -0.002207751 -0.022446912
0001a0 38 98 cc bc 25 bc 94 ba c3 f5 d0 3a 76 9b 95 ba
       -0.024974927 -0.0011347575 0.0015942383 -0.0011414129
0001b0 0c e0 ff b9 93 cb c6 39 38 88 58 38 32 18 88 38
       -0.00048804318 0.00037917178 5.1625277e-05 6.489492e-05
0001c0 aa de 44 bc 59 63 3f ba ed 0f 8b be d5 58 16 bd
       -0.012015978 -0.0007300876 -0.27160588 -0.03670581
0001d0 d4 d8 54 bd 98 7d 6b ba 22 f0 d6 39 f6 f3 bd 3a
       -0.051964596 -0.00089832535 0.00040996174 0.0014492262
0001e0 97 74 04 3a 23 63 3c ba 53 c1 64 ba 3e 8b fa b7
       0.00050527736 -0.00071864034 -0.00087263173 -2.9867162e-05
0001f0 1a 60 0c 3a 46 d3 e6 ba 8d 42 f4 be 73 05 82 be
       0.00053548964 -0.0017610572 -0.47707024 -0.25394782
000200 72 5f 96 bd 08 0b a3 bd 1a d7 d5 3a fc 23 cd bc
       -0.073424235 -0.079610884 0.0016314716 -0.025041573
000210 91 be d9 bc cf 84 a0 bc b3 53 47 3a 97 f1 86 b8
       -0.026580127 -0.019594578 0.000760372 -6.4346175e-05
000220 7b dc 9c 3a 29 c8 d3 39 0b 64 a9 ba 9a 82 b1 39
       0.0011967564 0.00040394187 -0.0012923492 0.00033857377
000230 f4 1f a4 bd 9a 56 63 be 41 de b1 bd d1 a9 31 3b
       -0.08013907 -0.22201005 -0.0868497 0.0027109275
000240 54 54 79 ba e2 05 89 3a 26 ff a0 39 24 c1 96 b9
       -0.0009511162 0.0010454024 0.00030707679 -0.0002875413
000250 03 11 d8 b9 46 78 74 39 c9 71 bf 39 a8 c3 02 bb
       -0.00041211405 0.00023314459 0.00036515135 -0.0019953046
000260 b8 f4 b6 ba 09 7a 9d 3a 1a 63 5a 3e 9f 32 2a 3e
       -0.001395843 0.0012014519 0.21326867 0.16620873
000270 a3 1e 3e 3e 83 5c d4 b9 f0 45 26 3a d8 97 81 39
       0.18566374 -0.00040504718 0.0006342819 0.0002471793
000280 43 03 9f 3a ae c3 5e 39 45 73 67 ba e7 d6 ad 39
       0.0012131709 0.00021244466 -0.0008829127 0.00033157246
000290 a5 fa 7d 36 9b c1 9d b9 d2 94 0d 3a 69 ff 20 ba
       3.7845832e-06 -0.0003008962 0.0005400899 -0.00061415747
0002a0 cd d7 9e 3d 90 db 11 3f b9 97 b8 b9 3f 40 cd b9
       0.077560045 0.5697565 -0.00035208257 -0.00039148514
0002b0 61 30 9e 38 f0 b5 3e ba d8 1d 63 3a f6 ee 3f 38
       7.5430384e-05 -0.00072750356 0.000866381 4.57605e-05
0002c0 58 7a 80 3a b2 0e e5 39 42 e9 b8 37 34 01 22 3a
       0.0009802086 0.00043689233 2.2043128e-05 0.0006179989
0002d0 c0 ef 88 3a 59 9a b7 ba 80 e9 f9 3d 95 11 f5 bd
       0.0010447428 -0.0014007791 0.1220274 -0.11966244
0002e0 fe 69 86 bd 72 b0 23 3d 6b e2 da bb f1 63 83 3d
       -0.06563185 0.039963193 -0.006679823 0.06415547
0002f0 7c a5 58 3d 7c f2 04 bd b9 49 95 bb 20 03 70 3c
       0.052892193 -0.032457814 -0.0045559076 0.014649183
000300 96 73 3a bd 65 39 3f bc c7 f8 4c bc d8 01 dd 3a
       -0.045520388 -0.011671399 -0.012510485 0.0016861511
000310 21 8d 86 bf 90 f2 bb 3a c5 a7 1f 3b 88 db 83 3a
       -1.0511819 0.0014339257 0.0024361473 0.0010059932
000320 fc 71 ed b9 22 49 c0 ba c8 ef fb ba 46 58 fc b9
       -0.00045289088 -0.0014670233 -0.0019221241 -0.00048130954
000330 8d 76 d6 3a 7d 68 86 ba 62 ee 84 3a b3 d2 a2 ba
       0.0016362235 -0.0010254529 0.0010141844 -0.0012422412
000340 ff 63 11 39 a4 a8 85 ba 01 cf 62 3e 0e bc af 3d
       0.00013865529 -0.0010197354 0.22149278 0.085807905
000350 0d fc 10 be d1 ac 06 b8 9f 42 69 3a b1 4d 63 3a
       -0.1415865 -3.2109037e-05 0.0008898172 0.000867094
000360 df 1a f2 3a 71 b1 ab 3a d9 a4 81 b9 ba d5 e9 39
       0.0018471143 0.0013099146 -0.00024727618 0.00044600462
000370 49 24 54 ba 03 53 eb ba d5 a3 09 b9 aa 93 5b ba
       -0.0008092565 -0.0017953817 -0.0001312637 -0.00083761907
000380 95 7d 06 bf 53 2f ee be c3 0b 8b bd 5c f6 8b bd
       -0.5253537 -0.4652048 -0.06789353 -0.06834099
000390 80 4a d0 3b 15 12 d0 bc 6d 45 a3 bd fe 7c 37 3d
       0.0063565373 -0.025399247 -0.07972226 0.044796936
0003a0 0d 3f 39 bd 1b 2c 37 bf 3c 36 4b ba 4f 0c 4f bb
       -0.045226146 -0.71551675 -0.0007751917 -0.003159303
0003b0 b6 82 02 b9 9b 0d d2 b8 7b 80 8b be dc 75 a4 be
       -0.0001244646 -0.000100161145 -0.2724646 -0.3212117
0003c0 4b e4 a2 ba 7c b8 96 3a f9 69 2a b9 6d 4a 3c 3b
       -0.0012427656 0.0011499072 -0.00016251941 0.0028730885
0003d0 fe f0 df b9 27 71 17 ba 6c 23 8e 39 9d cb ed ba
       -0.00042713428 -0.0005777054 0.00027110742 -0.0018142347
0003e0 9c c1 d8 3a 9b ac f2 3a 1c d3 b8 ba 0e c5 af b8
       0.0016537192 0.0018514575 -0.0014101001 -8.3813546e-05
0003f0 45 8b 5d 39 cf 56 44 bd 4f d7 7b bd a6 3d 71 bb
       0.00021128084 -0.04793435 -0.06148463 -0.0036810427

1.0.mdl.input_to_hidden.0.mask f4 [100, 14]
000000 00 00 80 3f 00 00 80 3f 00 00 80 3f 00 00 80 3f
       1.0 1.0 1.0 1.0
000010 00 00 80 3f 00 00 80 3f 00 00 80 3f 00 00 80 3f
       1.0 1.0 1.0 1.0
000020 00 00 80 3f 00 00 80 3f 00 00 80 3f 00 00 00 00
       1.0 1.0 1.0 0.0
000030 00 00 00 00 00 00 00 00 00 00 80 3f 00 00 80 3f
       0.0 0.0 1.0 1.0
000040 00 00 80 3f 00 00 80 3f 00 00 80 3f 00 00 80 3f
       1.0 1.0 1.0 1.0
000050 00 00 80 3f 00 00 00 00 00 00 00 00 00 00 00 00
       1.0 0.0 0.0 0.0
000060 00 00 00 00 00 00 00 00 00 00 00 00 00 00 00 00
       0.0 0.0 0.0 0.0
000070 00 00 80 3f 00 00 80 3f 00 00 80 3f 00 00 80 3f
       1.0 1.0 1.0 1.0
000080 00 00 00 00 00 00 00 00 00 00 00 00 00 00 00 00
       0.0 0.0 0.0 0.0
000090 00 00 00 00 00 00 00 00 00 00 00 00 00 00 00 00
       0.0 0.0 0.0 0.0
0000a0 00 00 00 00 00 00 00 00 00 00 80 3f 00 00 80 3f
       0.0 0.0 1.0 1.0
0000b0 00 00 80 3f 00 00 80 3f 00 00 80 3f 00 00 80 3f
       1.0 1.0 1.0 1.0
0000c0 00 00 80 3f 00 00 80 3f 00 00 80 3f 00 00 80 3f
       1.0 1.0 1.0 1.0
0000d0 00 00 80 3f 00 00 80 3f 00 00 80 3f 00 00 00 00
       1.0 1.0 1.0 0.0
0000e0 00 00 80 3f 00 00 80 3f 00 00 80 3f 00 00 80 3f
       1.0 1.0 1.0 1.0
0000f0 00 00 80 3f 00 00 80 3f 00 00 80 3f 00 00 80 3f
       1.0 1.0 1.0 1.0
000100 00 00 80 3f 00 00 80 3f 00 00 80 3f 00 00 00 00
       1.0 1.0 1.0 0.0
000110 00 00 00 00 00 00 00 00 00 00 80 3f 00 00 00 00
       0.0 0.0 1.0 0.0
000120 00 00 00 00 00 00 00 00 00 00 00 00 00 00 00 00
       0.0 0.0 0.0 0.0
000130 00 00 00 00 00 00 00 00 00 00 00 00 00 00 00 00
       0.0 0.0 0.0 0.0
000140 00 00 00 00 00 00 00 00 00 00 00 00 00 00 00 00
       0.0 0.0 0.0 0.0
000150 00 00 80 3f 00 00 80 3f 00 00 80 3f 00 00 80 3f
       1.0 1.0 1.0 1.0
000160 00 00 80 3f 00 00 80 3f 00 00 80 3f 00 00 80 3f
       1.0 1.0 1.0 1.0
000170 00 00 80 3f 00 00 00 00 00 00 00 00 00 00 00 00
       1.0 0.0 0.0 0.0
000180 00 00 00 00 00 00 00 00 00 00 80 3f 00 00 80 3f
       0.0 0.0 1.0 1.0
000190 00 00 80 3f 00 00 80 3f 00 00 80 3f 00 00 80 3f
       1.0 1.0 1.0 1.0
0001a0 00 00 80 3f 00 00 00 00 00 00 00 00 00 00 00 00
       1.0 0.0 0.0 0.0
0001b0 00 00 00 00 00 00 00 00 00 00 00 00 00 00 00 00
       0.0 0.0 0.0 0.0
0001c0 00 00 80 3f 00 00 80 3f 00 00 80 3f 00 00 80 3f
       1.0 1.0 1.0 1.0
0001d0 00 00 80 3f 00 00 80 3f 00 00 00 00 00 00 00 00
       1.0 1.0 0.0 0.0
0001e0 00 00 00 00 00 00 00 00 00 00 00 00 00 00 00 00
       0.0 0.0 0.0 0.0
0001f0 00 00 00 00 00 00 00 00 00 00 80 3f 00 00 80 3f
       0.0 0.0 1.0 1.0
000200 00 00 80 3f 00 00 80 3f 00 00 80 3f 00 00 80 3f
       1.0 1.0 1.0 1.0
000210 00 00 80 3f 00 00 80 3f 00 00 00 00 00 00 00 00
       1.0 1.0 0.0 0.0
000220 00 00 00 00 00 00 00 00 00 00 00 00 00 00 00 00
       0.0 0.0 0.0 0.0
000230 00 00 80 3f 00 00 80 3f 00 00 80 3f 00 00 00 00
       1.0 1.0 1.0 0.0
000240 00 00 00 00 00 00 00 00 00 00 00 00 00 00 00 00
       0.0 0.0 0.0 0.0
000250 00 00 00 00 00 00 00 00 00 00 00 00 00 00 00 00
       0.0 0.0 0.0 0.0
000260 00 00 00 00 00 00 00 00 00 00 80 3f 00 00 80 3f
       0.0 0.0 1.0 1.0
000270 00 00 80 3f 00 00 00 00 00 00 00 00 00 00 00 00
       1.0 0.0 0.0 0.0
000280 00 00 00 00 00 00 00 00 00 00 00 00 00 00 00 00
       0.0 0.0 0.0 0.0
000290 00 00 00 00 00 00 00 00 00 00 00 00 00 00 00 00
       0.0 0.0 0.0 0.0
0002a0 00 00 80 3f 00 00 80 3f 00 00 00 00 00 00 00 00
       1.0 1.0 0.0 0.0
0002b0 00 00 00 00 00 00 00 00 00 00 00 00 00 00 00 00
       0.0 0.0 0.0 0.0
0002c0 00 00 00 00 00 00 00 00 00 00 00 00 00 00 00 00
       0.0 0.0 0.0 0.0
0002d0 00 00 00 00 00 00 00 00 00 00 80 3f 00 00 80 3f
       0.0 0.0 1.0 1.0
0002e0 00 00 80 3f 00 00 80 3f 00 00 80 3f 00 00 80 3f
       1.0 1.0 1.0 1.0
0002f0 00 00 80 3f 00 00 80 3f 00 00 80 3f 00 00 80 3f
       1.0 1.0 1.0 1.0
000300 00 00 80 3f 00 00 80 3f 00 00 80 3f 00 00 00 00
       1.0 1.0 1.0 0.0
000310 00 00 80 3f 00 00 00 00 00 00 00 00 00 00 00 00
       1.0 0.0 0.0 0.0
000320 00 00 00 00 00 00 00 00 00 00 00 00 00 00 00 00
       0.0 0.0 0.0 0.0
000330 00 00 00 00 00 00 00 00 00 00 00 00 00 00 00 00
       0.0 0.0 0.0 0.0
000340 00 00 00 00 00 00 00 00 00 00 80 3f 00 00 80 3f
       0.0 0.0 1.0 1.0
000350 00 00 80 3f 00 00 00 00 00 00 00 00 00 00 00 00
       1.0 0.0 0.0 0.0
000360 00 00 00 00 00 00 00 00 00 00 00 00 00 00 00 00
       0.0 0.0 0.0 0.0
000370 00 00 00 00 00 00 00 00 00 00 00 00 00 00 00 00
       0.0 0.0 0.0 0.0
000380 00 00 80 3f 00 00 80 3f 00 00 80 3f 00 00 80 3f
       1.0 1.0 1.0 1.0
000390 00 00 80 3f 00 00 80 3f 00 00 80 3f 00 00 80 3f
       1.0 1.0 1.0 1.0
0003a0 00 00 80 3f 00 00 80 3f 00 00 00 00 00 00 00 00
       1.0 1.0 0.0 0.0
0003b0 00 00 00 00 00 00 00 00 00 00 80 3f 00 00 80 3f
       0.0 0.0 1.0 1.0
0003c0 00 00 00 00 00 00 00 00 00 00 00 00 00 00 00 00
       0.0 0.0 0.0 0.0
0003d0 00 00 00 00 00 00 00 00 00 00 00 00 00 00 00 00
       0.0 0.0 0.0 0.0
0003e0 00 00 00 00 00 00 00 00 00 00 00 00 00 00 00 00
       0.0 0.0 0.0 0.0
0003f0 00 00 80 3f 00 00 80 3f 00 00 80 3f 00 00 80 3f
       1.0 1.0 1.0 1.0

1.0.mdl.input_to_hidden.0.cscale.weight f4 [100, 1]
000000 3f 41 e1 ba b8 4d 62 3a ad 47 da 39 71 9f 89 3a
       -0.0017185583 0.0008632797 0.00041633603 0.0010499788
000010 52 a5 48 ba 42 39 9c 3a 4a 99 8d ba 49 61 81 ba
       -0.0007654029 0.001191892 -0.001080313 -0.0009870912
000020 9d e4 1e 39 b7 14 c8 b8 5c 12 31 ba f0 14 07 bb
       0.0001515322 -9.5406016e-05 -0.000675475 -0.0020611845
000030 c5 98 29 38 ed 7a 0c 3b 6d 70 d2 b9 83 06 d4 3a
       4.0435018e-05 0.0021435574 -0.00040138085 0.0016176257
000040 64 e3 ab b9 f4 72 92 ba ec d5 df b9 7e 66 97 b9
       -0.0003278508 -0.0011173175 -0.0004269326 -0.00028877327
000050 5d 24 ab ba 12 6d ae ba 59 eb 31 ba ce a9 18 3b
       -0.0013057102 -0.0013307652 -0.00067870837 0.002329457
000060 e5 d0 ea b9 6f 92 92 39 59 18 8c 3a b8 a5 b8 b9
       -0.00044787597 0.00027956392 0.0010688409 -0.00035218685
000070 6c ce 90 b9 6c 40 b2 3a e0 34 0b 3a ad d4 26 b9
       -0.00027619617 0.0013599521 0.0005310308 -0.00015910222
000080 23 29 a0 39 39 1f 65 39 79 4c 1d b9 ac 9d 24 bb
       0.00030548227 0.00021850773 -0.00015001175 -0.0025118394
000090 87 74 56 b9 8b 9e 07 3b aa f9 ae 39 2f 5f a8 ba
       -0.0002045204 0.0020693864 0.0003337388 -0.001284575
0000a0 7f 45 c3 39 76 b7 46 3a 04 36 b9 39 a5 b0 f2 39
       0.00037245077 0.00075804384 0.00035326194 0.00046289447
0000b0 2b f9 f8 3a d7 27 b5 3a 77 4e ba ba 42 2a 41 3a
       0.0018995156 0.0013821077 -0.0014214058 0.00073686626
0000c0 7a 3b 8c 3a 7e b8 4e 39 4e 63 3b 3a 27 e9 25 bb
       0.0010698878 0.0001971442 0.00071482814 -0.0025315972
0000d0 a3 4f b4 38 31 69 10 39 68 76 89 39 7e 6b 63 3a
       8.597902e-05 0.00013772097 0.00026218896 0.00086753804
0000e0 e8 ff 15 ba e2 9d 04 bb 83 c0 b5 ba 0f c8 f4 3a
       -0.0005722032 -0.0020235707 -0.0013866577 0.0018675345
0000f0 2c 1c b3 b9 f3 0c 6e 37 6f c5 57 39 bf 29 d1 ba
       -0.0003416253 1.418892e-05 0.00020577548 -0.0015957876
000100 74 a3 dd 3a a0 69 52 b9 95 3f 37 3a 00 2e 9d 39
       0.0016909675 -0.00020066509 0.00069903705 0.00029979646
000110 67 cc ff 39 fd 7a 27 ba bc 9d e3 b9 72 95 27 3a
       0.00048789682 -0.0006388871 -0.00043414335 0.00063928135
000120 5b 76 6e ba 2a 03 b4 3a cf 0e 85 b9 6e 06 53 3a
       -0.0009096616 0.0013733853 -0.0002537877 0.00080499693
000130 43 c8 48 3a 0c 76 46 3a d7 6e cc b9 62 6a da 39
       0.0007659236 0.0007570691 -0.00038992494 0.00041659462
000140 8c 1a ea 38 a5 7a a3 37 e9 19 e4 b8 b7 2c 9b b9
       0.00011162934 1.9488225e-05 -0.00010876713 -0.0002959722
000150 ee 2a cd 3a a5 43 63 3a 13 c9 3c ba 8f 16 0e bb
       0.0015653053 0.00086694426 -0.0007201593 -0.0021680926
000160 40 e8 d7 b9 b9 cd cc ba c5 fe ed 39 9d 76 08 b9
       -0.00041181035 -0.0015625275 0.0004539398 -0.00013014158
000170 eb 17 bf ba f5 b1 fd 39 9b 17 87 b9 4a 6a 0e 3b
       -0.0014579272 0.0004838851 -0.00025766794 0.0021730834
000180 9c 55 dc ba f9 03 ab 39 d2 0c 14 ba ca be 93 b9
       -0.0016810182 0.00032618621 -0.00056476623 -0.00028180174
