models/lhc_binned_en7of10_sp0_e400_s1993_p0.0_h100_faffine_fl5_l1_dsdim16_dsl1_cudaFalse_last_model.pt (torch_old, 195175 bytes, 73 tensors)

0.0.mdl.input_to_hidden.0.direction f4 [100, 14]
000000 34 b5 9a bb b3 7b 70 3c 8e a3 ef bc 33 27 e4 3a
       -0.004721308 0.01467793 -0.029252794 0.0017406702
000010 43 9e 0a b7 5f fd 92 39 91 dc c8 3a 7e 9d 0f 3a
       -8.262289e-06 0.00028036066 0.0015324523 0.0005478485
000020 df f6 dd b9 60 e2 9c 3a 8f e4 91 ba ba 9a 06 3b
       -0.00042336338 0.001196932 -0.0011130738 0.0020539002
000030 1c 12 68 3a 8c ae e6 39 4c b4 89 ba cc bb 23 3a
       0.0008852796 0.00043999066 -0.0010506003 0.00062459405
000040 49 62 78 bc 8a 3b 25 3e e2 31 3e 3e 00 63 0f 3b
       -0.015160152 0.16135994 0.18573716 0.0021879077
000050 e7 ba 80 38 8e bb 76 39 c6 42 7d ba a2 25 18 ba
       6.138329e-05 0.00023530258 -0.0009661134 -0.00058039476
000060 d1 6f ea 39 0b a7 18 3a c7 95 21 3b 65 0b 4d b9
       0.00044715268 0.0005823231 0.0024655925 -0.00019554568
000070 3d 29 9e bd 52 3d de ba 62 aa 82 3d 58 1e b2 3b
       -0.07722709 -0.0016955531 0.06380154 0.005435746
000080 bc 90 c2 3c c4 86 4f bc 08 2e 42 bd 2d fa a0 bd
       0.023750655 -0.012666408 -0.04740718 -0.07860217
000090 9e 2b 69 b9 63 ad 43 3a 29 09 4b b8 98 40 c7 38
       -0.0002223686 0.00074644963 -4.8407503e-05 9.501091e-05
0000a0 ac cc d0 ba f6 8d b8 39 3d 14 cf bc 43 3d 89 bc
       -0.0015930138 0.00035200984 -0.025278205 -0.016752845
0000b0 5e ea dd 3d c2 f0 2a be 48 ce 48 3d 1e 7f 2a 3e
       0.108357176 -0.16693404 0.04902485 0.16650054
0000c0 14 31 d9 3d c7 91 d5 bc 1b 02 8d bc c3 ca 2b 3b
       0.10605064 -0.026070489 -0.017212918 0.0026213385
0000d0 0e 8d d9 b9 3f c1 00 ba f0 19 86 b9 8e d6 03 bb
       -0.0004149456 -0.00049116084 -0.00025577797 -0.0020116898
0000e0 c8 a5 4a 3d 57 b1 98 ba b6 4a 40 3b f3 a6 67 3d
       0.049474508 -0.0011649531 0.0029341406 0.0565557
0000f0 4b cb 36 bc cb 1f 4d bd 13 0f 57 bd 90 0a 63 3d
       -0.011156867 -0.05007915 -0.05250461 0.055429995
000100 71 d3 d3 ba 97 ef 9f 3d 10 e0 16 be cc da 2c 3e
       -0.0016161037 0.0780937 -0.1473391 0.1688034
000110 e9 99 1c ba f4 6a f0 b9 16 97 3e 3d ca 6d 56 3a
       -0.0005973862 -0.00045856053 0.046530806 0.0008179812
000120 8b 61 33 bb 9d 2e 43 be 3f 22 72 bd 61 0b 8a 3e
       -0.0027371373 -0.1906075 -0.05911469 0.26961806
000130 ec 9b f6 b8 fe f6 dc 39 fc a5 58 39 e2 06 3d b8
       -0.00011759237 0.00042145693 0.00020661199 -4.506752e-05
000140 9a e6 9a 39 00 18 e4 39 55 a5 c4 39 5e ee 10 3a
       0.0002954498 0.0004350543 0.00037507215 0.00055286835
000150 42 e6 3c 3b 55 e4 bc b9 14 81 02 bd 52 5c 85 3c
       0.0028823768 -0.00036028275 -0.03186138 0.016279373
000160 ff fd 02 bf e1 52 a1 ba 1b d7 c4 b9 78 82 07 ba
       -0.5116882 -0.0012308025 -0.000375443 -0.00051692827
000170 d7 8f 2c 38 0f e5 32 ba 2c 2c 92 ba 0c 96 86 3a
       4.1141957e-05 -0.00068242935 -0.001115208 0.0010268106
000180 43 f5 99 39 55 36 57 ba ec 6f 86 3c 53 92 3c 3d
       0.00029365168 -0.0008209695 0.01641079 0.046037983
000190 fa 91 5a 3a 28 29 05 3d ce 94 03 3c 77 0d bb 3a
       0.0008337792 0.032509953 0.008031083 0.0014270981
0001a0 53 c5 50 39 a0 d9 8a b9 b6 b2 68 3a f5 a4 35 ba
       0.00019909935 -0.00026483554 0.00088767277 -0.00069291826
0001b0 6f 7a cf 3a 10 5a a3 ba eb b4 3b ba e3 a9 cf ba
       0.0015829335 -0.0012462754 -0.0007160443 -0.0015843477
0001c0 a3 82 a5 bc 84 92 be 3b b8 5e 65 bd a5 90 04 3d
       -0.020203894 0.005815806 -0.055998534 0.032364506
0001d0 c5 a6 3e bd ee 48 22 bd 69 4d 51 3d f2 72 f8 bc
       -0.046545763 -0.039620332 0.051099215 -0.030328248
0001e0 42 a7 68 3d ab 43 29 3d ed 29 aa b9 e5 0f 9f 3a
       0.056800134 0.0413243 -0.00032456164 0.0012135474
0001f0 a5 87 5e 3a 76 d8 0b bb 9e 99 92 3d 87 01 c0 3b
       0.00084888405 -0.0021338738 0.071582064 0.005859557
000200 f4 96 75 3b f9 d0 bc 3b 83 dd 50 bc ec 8d 16 bc
       0.0037474008 0.005762216 -0.012748125 -0.00918911
000210 d8 50 57 3d 7b 57 6f bc 93 e9 fc bb 58 12 d0 bb
       0.052567333 -0.014608259 -0.007718274 -0.006349843
000220 e1 eb 2d bf c5 85 bf 3a 9a 47 f8 ba 40 eb 09 ba
       -0.6793805 0.001461201 -0.0018942237 -0.000526119
000230 de 68 22 3d 30 21 1e bb 05 7f 5a ba b2 3d 8a 3a
       0.03965079 -0.0024128668 -0.00083349674 0.0010546951
000240 15 6b 9f 3a d2 c6 b7 37 be 5b ba 39 15 92 4e 3a
       0.001216265 2.1907883e-05 0.00035545038 0.0007880044
000250 55 20 31 ba ee 53 ab 38 9f 68 4a 3a 4d ae fc b8
       -0.0006756832 8.1695485e-05 0.0007721278 -0.000120487624
000260 84 bd c7 39 c6 b1 0e b9 c5 37 c1 3d be c1 35 be
       0.00038097438 -0.00013608401 0.09434465 -0.17749688
000270 3c 93 18 ba b1 0e 82 3b 65 c2 70 bb d0 90 d2 bb
       -0.00058202795 0.0039690365 -0.0036736962 -0.0064259544
000280 ec ea 9f 3c b4 b3 c6 3d 36 a6 39 be 7f b7 a3 39
       0.0195212 0.097022444 -0.1812981 0.00031226498
000290 79 c0 04 b9 96 a5 41 3a 75 42 e8 39 88 e7 8d ba
       -0.00012660203 0.000738704 0.00044300003 -0.0010826448
0002a0 35 8c 5a bd 8c e9 6e bc 11 91 0f 3a 00 79 27 be
       -0.053356368 -0.014582049 0.00054766337 -0.16354752
0002b0 68 9d 2d b7 46 ae d6 39 71 71 b6 b8 f8 8f 42 3a
       -1.03482525e-05 0.00040947105 -8.6995664e-05 0.0007421966
0002c0 82 eb 28 ba 6f b5 2c b9 14 6f 4e 3b 83 60 cb ba
       -0.0006443785 -0.00016470788 0.0031499313 -0.0015516434
0002d0 54 34 3b ba c8 b5 27 b9 c0 0b 81 bc 1f 56 35 bd
       -0.00071412814 -0.0001599408 -0.015752673 -0.044271585
0002e0 3e 4f f0 39 6f 4c c4 be 20 81 6e 3a 95 14 92 3a
       0.00045835407 -0.38339564 0.00090982206 0.001114505
0002f0 9c 9a 6e ba e1 c5 a8 b9 28 13 55 ba 36 f6 34 ba
       -0.0009102018 -0.00032190888 -0.00081281597 -0.00069031434
000300 3c 82 69 ba e5 35 13 3a e6 f8 b2 ba 5c e1 c9 39
       -0.0008907651 0.0005615636 -0.00136545 0.00038505613
000310 05 34 6b 3d d2 3b e2 3c 21 57 2b 3b 15 b7 6e 3d
       0.057422657 0.027616415 0.0026144462 0.05828007
000320 cd 03 d8 bc fc d6 a3 bd ed 5f be bd 83 49 0f 3e
       -0.026369 -0.079999894 -0.0929564 0.13992886
000330 80 ed b0 3d a8 2f 14 ba 22 fa 15 ba b0 f3 db 3a
       0.086390495 -0.0005652853 -0.00057211716 0.0016780999
000340 09 bc 52 3a f8 70 b8 3a 43 99 c8 bc 6b 0f 57 38
       0.00080388837 0.0014071753 -0.024487143 5.1274354e-05
000350 20 d1 f1 ba 76 8e de 3a 49 fc 99 ba 77 22 31 b8
       -0.0018449165 0.0016979713 -0.001174816 -4.2232186e-05
000360 4d bc 99 39 28 2c 26 bb ef dd 9e 3a 25 a0 cb 38
       0.0002932273 -0.002535591 0.0012120585 9.7096236e-05
000370 54 50 1b ba 5f f5 e5 b9 c3 f8 42 ba 8d 66 ce b9
       -0.00059247506 -0.000438611 -0.0007437581 -0.00039367788
000380 d1 e2 99 bc 9b 93 a3 bc 9e 3f c4 3a 7c 72 b8 3d
       -0.018784912 -0.019967845 0.0014972573 0.09006211
000390 12 ff b9 bc c1 c3 17 bd af 2f 40 3d 00 a8 5b bd
       -0.022704635 -0.03705192 0.046920475 -0.053627014
0003a0 ff 29 72 ba 09 23 7c ba 25 3b 71 ba cb 9e 1f bb
       -0.0009237825 -0.0009618258 -0.00092022336 -0.0024356123
0003b0 ab 75 c4 3a e6 77 84 3a c8 64 b9 bc a6 7b 37 bd
       0.0014988681 0.0010106533 -0.022631064 -0.044795655
0003c0 78 31 fa 3a fb 4b c4 3b 2a f5 e0 3c 53 d6 87 bd
       0.0019088229 0.005990503 0.027460653 -0.06632676
0003d0 8a 29 f9 bc 1b a1 46 bd dc e9 e5 bd f4 e9 9f b9
       -0.030415315 -0.048493486 -0.11226246 -0.00030501152
0003e0 ab 35 9a 3a 1a ff 8f ba d8 37 50 b9 0d 71 73 3a
       0.0011765262 -0.001098606 -0.00019857229 0.000928656
0003f0 d6 ac 54 bd 37 0b 79 3a 18 ae 8a 3a 08 fa be be
       -0.05192264 0.00095002673 0.0010580448 -0.37300134

0.0.mdl.input_to_hidden.0.mask f4 [100, 14]
000000 00 00 80 3f 00 00 80 3f 00 00 80 3f 00 00 00 00
       1.0 1.0 1.0 0.0
000010 00 00 00 00 00 00 00 00 00 00 00 00 00 00 00 00
       0.0 0.0 0.0 0.0
000020 00 00 00 00 00 00 00 00 00 00 00 00 00 00 00 00
       0.0 0.0 0.0 0.0
000030 00 00 00 00 00 00 00 00 00 00 80 3f 00 00 80 3f
       0.0 0.0 1.0 1.0
000040 00 00 80 3f 00 00 80 3f 00 00 80 3f 00 00 00 00
       1.0 1.0 1.0 0.0
000050 00 00 00 00 00 00 00 00 00 00 00 00 00 00 00 00
       0.0 0.0 0.0 0.0
000060 00 00 00 00 00 00 00 00 00 00 00 00 00 00 00 00
       0.0 0.0 0.0 0.0
000070 00 00 80 3f 00 00 80 3f 00 00 80 3f 00 00 80 3f
       1.0 1.0 1.0 1.0
000080 00 00 80 3f 00 00 80 3f 00 00 80 3f 00 00 80 3f
       1.0 1.0 1.0 1.0
000090 00 00 00 00 00 00 00 00 00 00 00 00 00 00 00 00
       0.0 0.0 0.0 0.0
0000a0 00 00 00 00 00 00 00 00 00 00 80 3f 00 00 80 3f
       0.0 0.0 1.0 1.0
0000b0 00 00 80 3f 00 00 80 3f 00 00 80 3f 00 00 80 3f
       1.0 1.0 1.0 1.0
0000c0 00 00 80 3f 00 00 80 3f 00 00 80 3f 00 00 00 00
       1.0 1.0 1.0 0.0
0000d0 00 00 00 00 00 00 00 00 00 00 00 00 00 00 00 00
       0.0 0.0 0.0 0.0
0000e0 00 00 80 3f 00 00 80 3f 00 00 80 3f 00 00 80 3f
       1.0 1.0 1.0 1.0
0000f0 00 00 80 3f 00 00 80 3f 00 00 80 3f 00 00 80 3f
       1.0 1.0 1.0 1.0
000100 00 00 80 3f 00 00 80 3f 00 00 80 3f 00 00 80 3f
       1.0 1.0 1.0 1.0
000110 00 00 00 00 00 00 00 00 00 00 80 3f 00 00 80 3f
       0.0 0.0 1.0 1.0
000120 00 00 80 3f 00 00 80 3f 00 00 80 3f 00 00 80 3f
       1.0 1.0 1.0 1.0
000130 00 00 00 00 00 00 00 00 00 00 00 00 00 00 00 00
       0.0 0.0 0.0 0.0
000140 00 00 00 00 00 00 00 00 00 00 00 00 00 00 00 00
       0.0 0.0 0.0 0.0
000150 00 00 80 3f 00 00 80 3f 00 00 80 3f 00 00 80 3f
       1.0 1.0 1.0 1.0
000160 00 00 80 3f 00 00 00 00 00 00 00 00 00 00 00 00
       1.0 0.0 0.0 0.0
000170 00 00 00 00 00 00 00 00 00 00 00 00 00 00 00 00
       0.0 0.0 0.0 0.0
000180 00 00 00 00 00 00 00 00 00 00 80 3f 00 00 80 3f
       0.0 0.0 1.0 1.0
000190 00 00 80 3f 00 00 80 3f 00 00 80 3f 00 00 00 00
       1.0 1.0 1.0 0.0
0001a0 00 00 00 00 00 00 00 00 00 00 00 00 00 00 00 00
       0.0 0.0 0.0 0.0
0001b0 00 00 00 00 00 00 00 00 00 00 00 00 00 00 00 00
       0.0 0.0 0.0 0.0
0001c0 00 00 80 3f 00 00 80 3f 00 00 80 3f 00 00 80 3f
       1.0 1.0 1.0 1.0
0001d0 00 00 80 3f 00 00 80 3f 00 00 80 3f 00 00 80 3f
       1.0 1.0 1.0 1.0
0001e0 00 00 80 3f 00 00 80 3f 00 00 00 00 00 00 00 00
       1.0 1.0 0.0 0.0
0001f0 00 00 00 00 00 00 00 00 00 00 80 3f 00 00 80 3f
       0.0 0.0 1.0 1.0
000200 00 00 80 3f 00 00 80 3f 00 00 80 3f 00 00 80 3f
       1.0 1.0 1.0 1.0
000210 00 00 80 3f 00 00 80 3f 00 00 80 3f 00 00 80 3f
       1.0 1.0 1.0 1.0
000220 00 00 80 3f 00 00 00 00 00 00 00 00 00 00 00 00
       1.0 0.0 0.0 0.0
000230 00 00 80 3f 00 00 00 00 00 00 00 00 00 00 00 00
       1.0 0.0 0.0 0.0
000240 00 00 00 00 00 00 00 00 00 00 00 00 00 00 00 00
       0.0 0.0 0.0 0.0
000250 00 00 00 00 00 00 00 00 00 00 00 00 00 00 00 00
       0.0 0.0 0.0 0.0
000260 00 00 00 00 00 00 00 00 00 00 80 3f 00 00 80 3f
       0.0 0.0 1.0 1.0
000270 00 00 80 3f 00 00 80 3f 00 00 80 3f 00 00 80 3f
       1.0 1.0 1.0 1.0
000280 00 00 80 3f 00 00 80 3f 00 00 80 3f 00 00 00 00
       1.0 1.0 1.0 0.0
000290 00 00 00 00 00 00 00 00 00 00 00 00 00 00 00 00
       0.0 0.0 0.0 0.0
0002a0 00 00 80 3f 00 00 80 3f 00 00 80 3f 00 00 80 3f
       1.0 1.0 1.0 1.0
0002b0 00 00 00 00 00 00 00 00 00 00 00 00 00 00 00 00
       0.0 0.0 0.0 0.0
0002c0 00 00 00 00 00 00 00 00 00 00 00 00 00 00 00 00
       0.0 0.0 0.0 0.0
0002d0 00 00 00 00 00 00 00 00 00 00 80 3f 00 00 80 3f
       0.0 0.0 1.0 1.0
0002e0 00 00 80 3f 00 00 80 3f 00 00 00 00 00 00 00 00
       1.0 1.0 0.0 0.0
0002f0 00 00 00 00 00 00 00 00 00 00 00 00 00 00 00 00
       0.0 0.0 0.0 0.0
000300 00 00 00 00 00 00 00 00 00 00 00 00 00 00 00 00
       0.0 0.0 0.0 0.0
000310 00 00 80 3f 00 00 80 3f 00 00 80 3f 00 00 80 3f
       1.0 1.0 1.0 1.0
000320 00 00 80 3f 00 00 80 3f 00 00 80 3f 00 00 80 3f
       1.0 1.0 1.0 1.0
000330 00 00 80 3f 00 00 80 3f 00 00 00 00 00 00 00 00
       1.0 1.0 0.0 0.0
000340 00 00 00 00 00 00 00 00 00 00 80 3f 00 00 00 00
       0.0 0.0 1.0 0.0
000350 00 00 00 00 00 00 00 00 00 00 00 00 00 00 00 00
       0.0 0.0 0.0 0.0
000360 00 00 00 00 00 00 00 00 00 00 00 00 00 00 00 00
       0.0 0.0 0.0 0.0
000370 00 00 00 00 00 00 00 00 00 00 00 00 00 00 00 00
       0.0 0.0 0.0 0.0
000380 00 00 80 3f 00 00 80 3f 00 00 80 3f 00 00 80 3f
       1.0 1.0 1.0 1.0
000390 00 00 80 3f 00 00 80 3f 00 00 80 3f 00 00 80 3f
       1.0 1.0 1.0 1.0
0003a0 00 00 00 00 00 00 00 00 00 00 00 00 00 00 00 00
       0.0 0.0 0.0 0.0
0003b0 00 00 00 00 00 00 00 00 00 00 80 3f 00 00 80 3f
       0.0 0.0 1.0 1.0
0003c0 00 00 80 3f 00 00 80 3f 00 00 80 3f 00 00 80 3f
       1.0 1.0 1.0 1.0
0003d0 00 00 80 3f 00 00 80 3f 00 00 80 3f 00 00 80 3f
       1.0 1.0 1.0 1.0
0003e0 00 00 00 00 00 00 00 00 00 00 00 00 00 00 00 00
       0.0 0.0 0.0 0.0
0003f0 00 00 80 3f 00 00 80 3f 00 00 80 3f 00 00 80 3f
       1.0 1.0 1.0 1.0

0.0.mdl.input_to_hidden.0.cscale.weight f4 [100, 1]
000000 1a 65 d0 b9 94 5a c5 b9 8a 7b 7d ba b7 f0 d4 38
       -0.00039748178 -0.00037642254 -0.0009669593 0.000101537844
000010 08 2e 4c 3a 6c 42 3a 39 a6 20 25 ba f7 77 72 b9
       0.00077888416 0.00017763086 -0.00062991155 -0.00023123609
000020 90 6d 64 3a 83 22 21 ba 98 a3 b0 38 83 fe 13 ba
       0.0008713836 -0.0006146805 8.422806e-05 -0.000564553
000030 d1 a1 39 ba 45 73 b6 3a ad ed c9 3a 60 ac da 36
       -0.00070813025 0.0013919851 0.0015405916 6.5169734e-06
000040 4f 72 0b 3a 0e d5 8c 3a 04 5f e0 3a f1 6e 32 b9
       0.00053194625 0.0010744648 0.0017118161 -0.00017016732
000050 20 18 cb 3a b8 8d e5 ba 0b 9d ae 3a 8a 45 34 39
       0.0015494861 -0.0017513549 0.0013321949 0.00017192043
000060 69 be 0b 3a c1 10 8c 3a 1a 29 d4 b9 40 b8 8e 39
       0.00053308025 0.0010686145 -0.00040466414 0.00027221628
000070 cf 48 60 ba 04 f0 42 ba 89 f5 89 3a 7a 28 98 3a
       -0.0008555771 -0.0007436278 0.0010525446 0.0011608743
000080 e5 2b dd 3a 7c 28 cc 38 cc 88 8a ba 8e 7d 35 bb
       0.0016874044 9.735019e-05 -0.0010569333 -0.0027693245
000090 65 74 57 ba 28 4c db 3a 70 b0 a2 39 c9 d1 b6 b8
       -0.0008218943 0.001673107 0.00031030504 -8.717512e-05
0000a0 21 b8 3b b8 d5 bd 9f ba 86 23 31 3a 8d 48 d1 b9
       -4.4755758e-05 -0.0012187312 0.00067573076 -0.0003991764
0000b0 f4 90 c8 3a 37 26 9e b9 81 ba 7f ba ff 02 90 ba
       0.0015301988 -0.0003016458 -0.0009755269 -0.0010987221
0000c0 10 5d a0 3a 13 fc d7 ba 75 13 9e 3a 91 b9 8e 3a
       0.0012234766 -0.0016478322 0.0012060242 0.0010889043
0000d0 14 70 1a 38 4e 37 ca 39 40 21 48 b9 d8 0a 80 ba
       3.6820842e-05 0.00038569648 -0.00019085873 -0.0009768857
0000e0 74 4f 5a ba 6b 0f ab 39 2c 17 7f ba ed 60 f3 39
       -0.00083278795 0.0003262715 -0.0009730931 0.00046420787
0000f0 5a 93 1c ba bf bc 29 3a ed 7a fa b9 26 53 c0 39
       -0.0005972885 0.0006474964 -0.00047775303 0.00036683044
000100 8d 14 a3 ba 7c a0 f0 39 cf 39 e5 39 6c da 23 3a
       -0.0012442038 0.00045895937 0.00043721354 0.0006250504
000110 e3 a9 ab 39 c4 a2 ab b9 0f c5 98 39 37 72 de b9
       0.00032742237 -0.00032736931 0.0002913852 -0.00042428236
000120 02 d4 51 3a 27 d3 2c b9 5e 0e 90 ba 77 d2 c1 b9
       0.0008004309 -0.00016481859 -0.001099061 -0.00036968637
000130 1d 9f 05 ba 04 c7 31 ba fb e1 ba 39 02 20 2a b9
       -0.0005097257 -0.000678167 0.00035645053 -0.00016224387
000140 40 12 87 b9 92 01 c8 39 a9 15 9b 3a 3e 42 02 b8
       -0.00025762804 0.00038148143 0.0011832017 -3.1056108e-05
000150 09 77 7d b6 fd 38 c7 39 f2 44 20 3b 08 05 74 ba
       -3.7769225e-06 0.00037998697 0.0024455157 -0.0009308611
000160 11 a7 0b bb c9 25 66 3a a0 3e 5d b8 4e 9b 2c b9
       -0.0021309296 0.0008779434 -5.274883e-05 -0.00016461054
000170 c5 e5 99 ba df 4b 86 38 ab d4 fe 39 47 be a1 ba
       -0.001174145 6.40375e-05 0.00048605105 -0.0012340032
000180 35 4d 98 ba a2 f7 a3 3a 17 bf b3 3a b3 c8 1f ba
       -0.0011619689 0.0012509713 0.0013713565 -0.0006095275

0.0.mdl.input_to_hidden.0.cscale.bias f4 [100]
000000 1c 02 01 bf a2 ae 51 3e 65 46 10 3f cf bc 2a bf
       -0.50393844 0.20476773 0.56357414 -0.6669435
000010 05 ea 19 3f b0 98 c4 3e da 8c a1 3e 35 af 72 bf
       0.6012271 0.3839774 0.31552774 -0.94798595
000020 ce 3a 66 bf 81 23 9e 3f ab 43 20 3f 1f 5a be bf
       -0.8993348 1.2354585 0.62603253 -1.4871253
000030 9f 11 2c 3e f4 a5 9d 3f 74 5c 0f bf ef bf 17 be
       0.16803597 1.231627 -0.5600045 -0.1481931
000040 f7 ca b6 be 0a a3 58 bf 2c 54 b9 be d2 9a e1 be
       -0.35701725 -0.8462378 -0.3619703 -0.4406343
000050 fd 99 b9 bf f4 5e 0b 3f 29 97 01 bf 8a ad 04 bf
       -1.4500118 0.5444176 -0.5062128 -0.518273
000060 10 06 af bf 2d ad ba be 9d 3e 8e 3e 85 b4 9d 3e
       -1.3673725 -0.36460248 0.27782145 0.30801788
000070 6e 2b d5 bf a1 d4 24 bf 10 98 41 be 8c fa 86 bf
       -1.6653879 -0.64386946 -0.18905663 -1.0545211
000080 d6 4f 3a 36 51 ec a1 3d c9 04 c0 3e bf f0 51 be
       2.776263e-06 0.07906402 0.3750365 -0.20501994
000090 56 42 58 bf a1 f7 14 3f 20 87 78 bf ad 22 55 bf
       -0.8447622 0.5819035 -0.97081184 -0.83256036
0000a0 8c e5 6c bf 08 38 99 bf 5d ac 82 bf 51 30 7e be
       -0.9253776 -1.1970224 -1.0208851 -0.24823119
0000b0 a5 6a e4 be f6 c8 a8 3e 41 a3 6a 3f b3 c9 ce be
       -0.44612613 0.3296582 0.91655356 -0.4038826
0000c0 b6 91 0c bf fb 84 11 3e 40 bf d9 be 8a 41 d9 3e
       -0.5490984 0.14210884 -0.42528725 0.42432815
0000d0 46 f1 92 bf 27 76 69 bf 28 2a 45 bf f1 29 3a 3f
       -1.1479881 -0.9119591 -0.7701745 0.7272025
0000e0 6e fc 2f bf e4 11 87 36 fe 91 83 3f ed 0d 18 bf
       -0.6874455 4.0253963e-06 1.0278928 -0.5939625
0000f0 12 f1 c8 bd 05 b7 17 be 49 21 b3 3e 62 fc 80 be
       -0.098116055 -0.1481591 0.34986332 -0.25192553
000100 c0 51 3a bf 6f 26 63 3f 65 3d 17 3f 98 44 7f bd
       -0.7278099 0.8873052 0.59078056 -0.062321275
000110 ed 79 a0 3f ba 8a 70 3f 6d e5 64 3f 08 fe 7b 3f
       1.2537209 0.9396168 0.89412576 0.98434496
000120 f1 86 36 3f 9c af 92 3e e1 4b b8 3e 7b b3 6c bf
       0.71299654 0.28649604 0.3599539 -0.92461365
000130 d4 67 32 bf e3 7f 7c 3f 0b cc 66 bf 92 4e 36 bf
       -0.6968968 0.9863264 -0.90155095 -0.7121364
000140 5a 50 b1 bf 33 20 a7 bf 25 05 2c 3f eb 88 82 3f
       -1.3852646 -1.3056701 0.6719535 1.0198034
000150 37 69 78 bf 38 70 12 bf 04 70 90 3f ff 3d ac be
       -0.97035545 -0.5720248 1.1284184 -0.3364105
000160 88 ec 02 3f 2e 32 99 3e 8c 8f 24 3f 64 d0 8d bf
       0.5114217 0.29921097 0.64281535 -1.1079221
000170 50 08 80 3f 47 46 84 3f e2 40 e9 3e 19 a3 1b bf
       1.0002537 1.0333947 0.45557314 -0.6079574
000180 ea 1d 91 3f 9c ae 4f 3f 8d dc 2b 3f 97 5b 68 bf
       1.1337254 0.8112581 0.6713341 -0.90764755

0.0.mdl.input_to_hidden.0.cbias.weight f4 [100, 1]
000000 9e 63 09 ba 61 9a 50 ba 93 20 bc b9 1b 01 cc ba
       -0.00052409794 -0.00079575746 -0.00035882424 -0.0015564294
000010 9b 6f db b9 b7 1a 26 3a 9c 57 04 3b 10 09 32 ba
       -0.00041854088 0.0006336378 0.002019382 -0.00067915116
000020 09 fd 10 3a f7 0e 14 3a c9 79 9e ba dc 98 af 3a
       0.0005530869 0.0005647982 -0.0012090738 0.0013396996
000030 c7 92 fe 3a 36 06 7f 39 73 4f 45 bb 1a ba e1 39
       0.0019422405 0.00024321009 -0.003010717 0.00043054
000040 50 4f 59 ba 50 74 19 b9 d3 49 8e b9 dd 2e 09 38
       -0.00082897115 -0.00014634547 -0.00027139354 3.270699e-05
000050 6f b2 bf b9 a0 c6 bd 39 38 d1 11 b9 9e 3a 07 ba
       -0.00036563302 0.00036196876 -0.00013906218 -0.0005158576
000060 cf 08 81 39 2b 0e 4a 3a 29 43 12 ba 07 f7 49 3a
       0.0002461136 0.00077077997 -0.00055794657 0.00077043514
000070 d5 8e 21 ba ef 28 90 ba 38 d5 0a 3a de 0c c1 3a
       -0.0006162946 -0.0010998527 0.00052960543 0.0014728566
000080 57 40 52 38 be 98 bc 39 a0 a6 42 b8 01 03 bd b9
       5.0127823e-05 0.00035971956 -4.6408386e-05 -0.00036051127
000090 9d 09 2e 3a 47 9d c0 ba 90 c3 76 ba 10 10 20 ba
       0.0006639006 -0.001469531 -0.00094132964 -0.0006105909
0000a0 e4 0e b8 39 e6 e5 0e 3a 91 14 24 38 56 19 e8 3a
       0.0003510631 0.00054511277 3.91198e-05 0.0017707746
0000b0 71 0a 5a 3a 83 e9 48 3a 94 af 7f 3a 86 c5 e2 b9
       0.0008317596 0.00076641905 0.0009753641 -0.00043253246
0000c0 c5 e6 1f b9 9d 35 79 3a a1 6f 25 ba 5f b4 bf 3a
       -0.0001524939 0.0009506585 -0.00063108845 0.0014625898
0000d0 4c dc 21 3a 9e dd 2b ba 27 5f 7b b9 6d ac e5 b9
       0.00061744894 -0.0006556156 -0.00023972672 -0.0004380675
0000e0 75 5c 9d ba e0 11 16 ba 2e 54 4e ba 48 59 f7 3a
       -0.0012005704 -0.00057247095 -0.000787082 0.0018871212
0000f0 6e 65 58 ba d0 51 8d 39 3f ad 0a 3a 18 d4 ad 39
       -0.00082548603 0.0002695457 0.0005290098 0.00033155154
000100 84 4c 19 b8 4b 3b 49 b9 71 a8 00 bb 96 1a 85 3a
       -3.6549303e-05 -0.00019190942 -0.001963165 0.0010155018
000110 b1 c1 98 ba 66 a8 12 3a 25 ae 73 ba e8 37 05 3a
       -0.0011654404 0.00055945513 -0.0009295664 0.0005081878
000120 62 d6 d3 b9 a7 70 f0 b9 f9 c8 a4 3a 93 0b e4 3a
       -0.00040404784 -0.000458603 0.0012572102 0.0017398469
000130 33 9d c6 b9 b7 e5 43 b8 6f da 54 ba e9 d0 06 ba
       -0.00037882625 -4.670556e-05 -0.00081197073 -0.00051428244
000140 27 b5 51 3a 32 5b aa 3a d6 a6 72 ba 5c 9d b3 b8
       0.0007999711 0.0012997149 -0.0009256428 -8.5646956e-05
000150 44 25 1a ba e8 70 f7 3a 10 8b b7 b8 f8 f7 bc ba
       -0.0005880187 0.0018878253 -8.7520224e-05 -0.0014417162
000160 1d ac 9a 39 3b 11 69 ba 7d 93 ac 3a f3 dd 75 b8
       0.00029501403 -0.0008890812 0.0013166514 -5.861926e-05
000170 2e f0 42 3a 62 0e b1 ba d5 e6 8a ba c1 98 ab ba
       0.0007436302 -0.0013508315 -0.0010597358 -0.0013091789
000180 31 df 92 3a cc f1 06 b9 39 49 36 3a 54 d8 53 ba
       0.0011205432 -0.00012869312 0.000695366 -0.00080812466

0.0.mdl.input_to_hidden.0.cbias.bias f4 [100]
000000 66 fa ec bf c6 71 de 3f 54 de 12 c0 8d 8d 8d 3f
       -1.8513916 1.7378471 -2.2948198 1.1058823
000010 c5 71 4d 3f fc f1 8c 3f 10 cd 5e 3e 45 0e 8f 3f
       0.80251724 1.1011348 0.21757913 1.117623
000020 92 4b 16 40 75 37 54 40 7b ac 86 3f 42 9c 66 bd
       2.3483624 3.3158848 1.0521387 -0.056301363
000030 22 55 bb bf 47 bb e6 3f 25 9d cf 3f d8 c4 a1 bf
       -1.4635355 1.8025903 1.6219832 -1.2638197
000040 d0 4a e8 bf 50 b7 04 40 ec ff c6 3f 4e 7f 2b be
       -1.8147831 2.0736885 1.5546851 -0.16747782
000050 b3 1e bc 3f 81 d2 11 3f db 0d 81 3f f6 6e 4c 3f
       1.4696869 0.5696183 1.0082353 0.7985681
000060 f4 2b a4 bf 99 ef b2 bf 73 6e 14 40 44 d3 1e 40
       -1.2825913 -1.3979369 2.3192413 2.4816446
000070 c3 55 0f bf 92 d5 72 3f 3b df 71 bf be 6d d8 3f
       -0.55990237 0.9485713 -0.9448125 1.6908491
000080 ff 70 08 40 11 3f f8 bf 9a ed 9f 3f 6a 96 ef 3f
       2.1318967 -1.9394246 1.2494385 1.8717778
000090 d4 f0 58 3f 6f b7 0d 3e 39 03 c2 bd a0 3d f2 3f
       0.84742475 0.13839506 -0.09473271 1.8925056
0000a0 e1 13 8b 3f ad 45 12 3e af 66 53 40 ce 59 b2 3f
       1.0865442 0.14284392 3.3031423 1.3933656
0000b0 4b a2 9f 40 fa c2 8c be 0f db c9 3f 39 4a b6 3f
       4.988561 -0.27492505 1.5769976 1.4241401
0000c0 06 ed f1 3f 12 a1 bd 3f 64 1b 21 3f 2d fe 01 40
       1.8900459 1.481478 0.6293242 2.0311387
0000d0 7f 3b a5 40 72 e9 f5 3f a9 22 c0 3e 09 b9 7e 3f
       5.1635127 1.9211867 0.37526444 0.9950109
0000e0 6d 8d 50 3f 19 28 c6 be a9 57 b8 3f 88 44 b2 3f
       0.814658 -0.38702467 1.4401752 1.3927164
0000f0 e8 4e bd bf 92 ba b4 3f 0d d6 9a 3f 0c 87 f3 bf
       -1.4789705 1.4119437 1.2096573 -1.9025588
000100 d1 14 75 bf c3 bc ac 40 db 58 df 3f a7 c7 e3 bf
       -0.9573489 5.398042 1.7448992 -1.7795304
000110 0f 07 90 3f 76 db c0 3e 06 47 45 3f 21 50 4d 40
       1.1252154 0.37667435 0.770615 3.2080157
000120 f9 7a 9a 3f 0e fb ba bf e2 b0 f9 bf 8b 06 d2 3f
       1.2068778 -1.4607866 -1.9507105 1.6408247
000130 37 cc 82 3f c9 c7 86 3f 50 f0 b9 bf 1a 33 e1 3f
       1.0218571 1.052972 -1.4526463 1.759372
000140 e3 56 92 3f 8f 93 3d bf 03 56 0c 40 09 e6 40 3f
       1.1432766 -0.7405328 2.1927497 0.75351006
000150 de 27 56 40 ca a7 de 3f 38 2b 9b 3e c0 a5 f8 3f
       3.3461833 1.7394955 0.3030641 1.9425583
000160 37 ba 80 bd aa 33 eb 3f df 4c d6 bf 68 82 a3 40
       -0.06285518 1.8375142 -1.6742209 5.1096687
000170 8a 54 67 40 4d db 8f 3f ae 89 0a 40 14 dd 9d 3f
       3.6145349 1.12388 2.1646533 1.2333093
000180 0f 92 ee 3f d7 d7 e8 3f 51 7a 3a 3f b7 4a 93 3f
       1.8638324 1.8190869 0.7284289 1.1507176

0.0.mdl.hidden_to_output.direction f4 [28, 100]
000000 88 fc c5 b9 85 a8 9a 39 a6 97 5d ba 3e 45 9a ba
       -0.00037762919 0.00029498726 -0.00084530783 -0.0011769903
000010 d3 99 c9 39 e9 db 24 3a e5 d5 18 ba 29 79 07 ba
       0.00038452315 0.00062888727 -0.00058302126 -0.00051678956
000020 e8 97 be 3a 91 60 af b9 92 f4 c3 3a cd 65 39 ba
       0.0014541121 -0.0003345055 0.0014950207 -0.00070723594
000030 57 ae e1 39 90 6f e0 b7 14 5b 1f 38 6d 80 71 ba
       0.00043045238 -2.6754831e-05 3.7993377e-05 -0.00092125573
000040 1c 30 91 3a 31 6f 70 3a 47 78 e5 b9 05 8c 86 39
       0.001107696 0.0009171842 -0.00043767897 0.00025662794
000050 f2 fa 59 ba 0e eb 35 ba 7a d2 58 3a 14 e5 53 b9
       -0.0008315287 -0.0006939628 0.00082711095 -0.00020207866
000060 73 d5 96 b9 66 6f 88 b8 61 74 1a 3a ad 4e 07 37
       -0.00028769262 -6.505735e-05 0.00058919756 8.064945e-06
000070 e8 f4 b7 ba b7 7d f1 b9 43 a0 f1 b7 83 ee 20 ba
       -0.001403478 -0.00046060767 -2.8804066e-05 -0.00061390566
000080 02 9e 3d ba 96 51 a6 3a 35 a2 3d 3a 03 59 1a 3a
       -0.0007233323 0.001268911 0.00072339486 0.00058878976
000090 9b 8a de 39 da 32 8a 39 76 f7 85 39 94 1b 1e 39
       0.0004244641 0.00026359298 0.0002555211 0.00015078328
0000a0 99 ab ef 3a 8b b1 61 ba 3b aa 88 38 e0 fe 6c ba
       0.0018285393 -0.0008609525 6.516693e-05 -0.0009040665
0000b0 ed 9f 60 b9 69 54 ba 3a 0a 74 51 3a 44 37 bf ba
       -0.00021421882 0.001421583 0.00079900085 -0.0014588614
0000c0 95 ba b1 3a 19 82 28 ba 58 11 48 37 86 71 df 39
       0.0013559634 -0.00064280775 1.1924967e-05 0.00042618456
0000d0 61 3e 7a 39 5d 38 df 39 11 32 15 ba 48 29 6b b9
       0.00023865096 0.00042575868 -0.00056913594 -0.00022426725
0000e0 9b 14 0c 3b e2 c8 7a ba 95 c5 49 3a b8 dd 85 ba
       0.0021374587 -0.0009566677 0.00076969835 -0.0010213172
0000f0 87 cd 2d ba 84 99 30 39 5d 40 c4 b9 95 a5 7c 39
       -0.0006630052 0.00016841857 -0.00037431988 0.00024094277
000100 37 a8 3f 38 ee c2 81 3a cb 34 29 ba 01 55 3a 3b
       4.569461e-05 0.0009900013 -0.0006454705 0.0028432014
000110 85 77 74 3a 0f e8 ad b9 67 fb a4 39 53 a8 66 3a
       0.0009325671 -0.00033170028 0.00031467827 0.0008798886
000120 42 8a ec 38 d0 e8 b3 b8 85 18 da b9 5f 29 b2 3a
       0.000112791095 -8.57875e-05 -0.0004159847 0.0013592652
000130 01 91 bd 39 d4 29 89 3a c8 2b de 3a 71 81 c9 ba
       0.00036156925 0.0010464736 0.0016950304 -0.001537366
000140 2d d6 26 3b 21 fa 0d bb 28 29 47 39 7e 2c a5 3a
       0.0025457249 -0.002166398 0.00018993451 0.0012601761
000150 1e 2e 27 ba b8 8e b5 38 61 e1 e2 3a eb 8b 2f 39
       -0.00063774164 8.657336e-05 0.00173096 0.00016741424
000160 32 ae 4b bb 94 78 cb 3a 3d 41 75 b8 64 18 88 3a
       -0.003107917 0.0015523606 -5.847331e-05 0.0010383246
000170 95 0a 99 3a 15 78 1e 3a 63 41 a3 ba d6 b0 09 b9
       0.0011676127 0.00060451153 -0.00124554 -0.00013131215
000180 8d 22 19 3a af 4e 74 ba 78 73 4d 3a e5 e7 28 39
       0.0005841635 -0.0009319586 0.00078373356 0.00016108116
000190 61 36 f5 38 21 c4 3f 3a b9 aa ac ba a7 1f 60 ba
       0.00011692639 0.0007315297 -0.0013173438 -0.00085496384
0001a0 0d f6 04 ba 36 ba dc ba a8 94 19 ba 0f 27 f4 39
       -0.0005072065 -0.0016840163 -0.00058586383 0.00046568408
0001b0 c5 49 a1 b9 3e 0a 88 3a 5b e7 e2 39 e0 6c 2b 3a
       -0.00030763276 0.0010379029 0.00043278452 0.0006539356
0001c0 06 a5 0d bb 0e 8f 9d b9 5c a9 28 39 08 05 80 b9
       -0.0021613254 -0.00030051958 0.0001608482 -0.0002441781
0001d0 ee 89 a2 ba aa 5a 88 3a 65 96 48 3a 07 6d a3 ba
       -0.0012400725 0.0010402997 0.0007651805 -0.0012468406
0001e0 e2 97 d8 39 76 40 9c ba 0a 32 7d ba b4 bd 52 3a
       0.00041311892 -0.0011921066 -0.00096586405 0.0008039132
0001f0 95 f6 6f ba 26 d8 cf 3a 4a 2f 04 ba da 3f ca 3a
       -0.000915387 0.0015857264 -0.0005042447 0.0015430406
000200 d4 52 95 39 7b 3d a2 b9 14 b3 a7 38 be 36 a5 ba
       0.00028481206 -0.00030944854 7.9965364e-05 -0.0012604815
000210 06 d2 75 ba 5a 15 08 b9 73 9e 4d ba 3a aa c5 b9
       -0.0009377304 -0.00012977925 -0.000784374 -0.00037701597
000220 cc 1a 0e ba 7c 72 bf ba 72 58 2a 3a ac e6 28 39
       -0.0005420863 -0.0014606263 0.0006498165 0.0001610766
000230 87 9e 01 ba 18 c5 3f 38 ab 3f af ba ec f9 56 b8
       -0.0004944582 4.5721506e-05 -0.0013370415 -5.1254334e-05
000240 d3 28 f9 b9 75 a7 7d ba 94 dc 85 ba cd fd a1 b9
       -0.00047523397 -0.0009676137 -0.0010212832 -0.0003089741
000250 99 e8 89 ba 7c e7 cc 3a a0 71 9c ba 9a fb 1e 37
       -0.001052159 0.0015632953 -0.0011935718 9.476114e-06
000260 ce cc 66 ba 96 53 e6 39 30 be 10 ba 78 b6 e9 b8
       -0.0008804322 0.00043931295 -0.0005521504 -0.00011144293
000270 58 b8 b0 3a 02 91 e8 39 1b 0e da 3a f9 6e 37 bb
       0.0013482673 0.00044358528 0.0016636284 -0.002798973
000280 d3 04 9a 38 de 2b 58 39 44 7a b7 39 70 64 8a 3a
       7.344191e-05 0.00020615707 0.00034995575 0.0010558497
000290 ba 45 92 b8 e3 80 9a 39 af 3c 59 b9 ee a2 3d 3a
       -6.97481e-05 0.00029469197 -0.00020717339 0.0007234056
0002a0 ef ac 01 bb 81 ec 4d 3a fd 39 96 3a ef 93 7a 39
       -0.0019786914 0.0007855371 0.0011461374 0.00023896967
0002b0 02 22 1c ba a8 c0 7b 3a 25 07 0d ba bc 92 43 b9
       -0.00059559953 0.0009603598 -0.0005379788 -0.00018651312
0002c0 6f fc 5c ba 76 90 97 b9 1a 8c 0a ba ba 81 8a 3a
       -0.00084299495 -0.00028908596 -0.0005285159 0.0010567226
0002d0 43 a5 c1 ba 34 f9 be 3a ce 43 fa b8 15 7a 88 b9
       -0.0014773983 0.0014570118 -0.000119335586 -0.000260309
0002e0 4e 2d aa 38 8a 07 8c ba aa 70 ef 3a 49 f0 04 b9
       8.11467e-05 -0.0010683399 0.001826783 -0.00012678014
0002f0 ac c7 bb ba 17 fb 1d ba 26 32 d9 ba f2 ca 54 ba
       -0.0014326475 -0.000602649 -0.0016570732 -0.00081173994
000300 51 c3 60 3a dc e1 13 3a 13 e5 df b8 ca ed 04 3a
       0.0008574026 0.00056412607 -0.00010676137 0.0005070834
000310 84 1f 96 38 72 b3 f7 39 6d 29 2c ba 6f 1a 29 b9
       7.1584276e-05 0.00047245208 -0.0006567452 -0.00016126943
000320 c8 f9 80 b3 ab fe 0b 00 1a 0f 01 80 2b 36 01 80
       -6.0058994e-08 1.101548e-39 -9.7253e-41 -1.11267e-40
000330 95 97 96 b9 f7 1c 01 00 76 48 17 1c 0a 91 01 80
       -0.00028723167 1.02226e-40 5.0055363e-22 -1.43866e-40
000340 1f 5b 09 00 25 96 96 9f 26 69 a4 bc 80 08 02 00
       8.59208e-40 -6.3775864e-20 -0.02006967 1.8672e-40
000350 a2 c0 00 00 6b 9a 00 00 17 c6 01 00 05 a5 7f bb
       6.9104e-41 5.5395e-41 1.62897e-40 -0.0039008271
000360 91 ff 02 00 01 3e 02 80 c6 a5 01 80 56 d1 32 2a
       2.75351e-40 -2.05914e-40 -1.51304e-40 1.5882204e-13
000370 d0 0c 00 00 21 b4 e7 bd fa e6 01 80 0b 49 06 00
       4.596e-42 -0.11313654 -1.74694e-40 5.77216e-40
000380 86 ce 00 00 d5 0d 88 bb c3 43 cf 9f 46 6f 02 00
       7.4087e-41 -0.0041520395 -8.778001e-20 2.23588e-40
000390 6a df 03 80 fc 1c 02 80 93 38 05 00 d6 ef 04 00
       -3.55652e-40 -1.94069e-40 4.79472e-40 4.53379e-40
0003a0 3b 45 42 3b 91 bd 00 00 23 37 01 80 6d 3a 03 00
       0.0029643315 6.8004e-41 -1.11615e-40 2.96466e-40
0003b0 5f 6f 06 80 6f 1c 00 80 61 c1 0a 2f 0a 43 d0 22
       -5.90965e-40 -1.02e-41 1.2619729e-10 5.6449493e-18
0003c0 2a c9 09 80 51 a6 1b 00 9a 2f 08 80 b2 98 b8 b9
       -8.98684e-40 2.539221e-39 -7.5176e-40 -0.00035208982
0003d0 e4 36 29 35 d5 bb 02 00 d6 fd 70 97 53 e6 a2 9f
       6.303728e-07 2.51052e-40 -7.786857e-25 -6.899071e-20
0003e0 3e 83 50 be 24 cf c9 20 e6 82 0d 80 e5 ba 02 00
       -0.20362565 3.4187799e-19 -1.240819e-39 2.50716e-40
0003f0 53 e6 a2 1f 6e 3a 02 80 62 b7 13 00 c6 1b 0f 80
       6.899071e-20 -2.04632e-40 1.81066e-39 -1.387496e-39

0.0.mdl.hidden_to_output.cscale.weight f4 [28, 1]
000000 40 3c 7b 39 14 44 5f 3a ee f4 e6 b9 60 e1 92 b9
       0.0002395967 0.00085169193 -0.00044051505 -0.00028015207
000010 3e 1f 04 ba 00 29 a0 37 f0 7f 87 b9 56 76 1c ba
       -0.0005040056 1.9092578e-05 -0.00025844527 -0.0005968561
000020 c4 25 e8 b9 a0 e2 67 38 e2 06 7f 3a 00 bf b7 39
       -0.00044278626 5.5285753e-05 0.00097285036 0.00035046786
000030 4a 60 5a ba d6 fe 23 ba 90 46 04 ba 16 6f 68 3a
       -0.0008330388 -0.000625593 -0.0005045915 0.0008866651
000040 96 f3 25 3a 18 fd 81 39 a9 3b 7b ba 60 2f de b9
       0.00063305476 0.00024793367 -0.000958378 -0.00042378437
000050 80 55 28 b8 98 b3 45 ba 10 cd 94 38 a0 de 1e 3a
       -4.013395e-05 -0.0007541715 7.095386e-05 0.00060603954
000060 72 73 6f 3a 68 a7 73 3a 4a dc 27 ba a2 00 39 ba
       0.0009134329 0.000929466 -0.000640337 -0.0007057284

0.0.mdl.hidden_to_output.cscale.bias f4 [28]
000000 00 00 00 00 00 00 00 00 f6 19 eb 3e 85 37 76 3d
       0.0 0.0 0.45918244 0.06011154
000010 68 63 b0 be 10 41 be 3d c3 fe e1 3f a3 0d 3d 3e
       -0.3445084 0.092897534 1.7655872 0.18462233
000020 ef 95 74 bf c5 5f 89 3d 68 0c 89 3e 7c c0 ac bd
       -0.9554128 0.0670772 0.26767278 -0.08435151
000030 ba 47 5d be b0 c0 b9 3d 25 e5 99 bf f2 73 b9 bc
       -0.21609393 0.09069955 -1.2023054 -0.022638295
000040 20 d2 9a bf d9 bd d8 3c d0 32 5d 3f 81 15 3d 3d
       -1.2095375 0.026457714 0.8640566 0.046163086
000050 7e f9 2f bf 87 f6 0d bd 68 d5 4b be 3e af 24 3d
       -0.6874007 -0.034658935 -0.19905627 0.040206186
000060 0b e7 30 be 9b 36 25 bd 0f 83 4e 3e b1 39 37 3d
       -0.17275636 -0.04033528 0.20167182 0.044732753

0.0.mdl.hidden_to_output.cbias.weight f4 [28, 1]
000000 54 3b 80 39 08 3d 12 39 b4 9a 72 3a 08 99 e3 b8
       0.00024458265 0.00013946381 0.000925462 -0.00010852708
000010 c0 de a6 37 44 28 55 b9 50 9f 90 b9 88 2a 62 ba
       1.9892468e-05 -0.00020328263 -0.00027584517 -0.00086275535
000020 8c 48 35 b9 7a 7b ea b9 e6 17 5c 3a 02 bf 25 ba
       -0.00017288531 -0.00044723955 0.0008395895 -0.0006322713
000030 14 f7 22 b9 a0 ab 21 b8 d8 52 75 3a 86 dd 77 ba
       -0.00015541568 -3.854523e-05 0.0009358353 -0.0009455312
000040 3c 22 72 ba 88 87 38 ba ec ca 53 3a 0c 2f 07 b9
       -0.00092366687 -0.00070392387 0.0008079249 -0.0001289213
000050 cc d3 d6 39 a4 5b 1a ba 03 4d 6e ba e8 98 6d b9
       0.00040975062 -0.00058882893 -0.0009090455 -0.00022659043
000060 30 92 0d ba 70 ee 15 b9 60 ee 80 38 23 26 80 ba
       -0.0005400507 -0.00014298572 6.1479164e-05 -0.0009776991

0.0.mdl.hidden_to_output.cbias.bias f4 [28]
000000 95 a5 4c 3c 86 ff ed 3f b4 32 e7 3d e4 e1 f2 3f
       0.01249065 1.8593605 0.11288968 1.8975186
000010 b8 2c f0 ba 90 ad b3 3f ae bf d9 3f 0c 2b 14 40
       -0.0018323874 1.4037342 1.7011621 2.3151274
000020 e3 7e 00 3f 0a ee b2 3f e1 b0 b6 3e c7 0e b5 3f
       0.50193614 1.3978894 0.35681823 1.4145135
000030 df 76 cc bc 9c b4 b7 3f ca 50 9d 3e bb 77 a8 3f
       -0.024959026 1.4351993 0.307257 1.3161539
000040 c8 8e 01 3c 1f ef 9b 3f 53 02 0c be 44 e7 85 3f
       0.007907577 1.2182349 -0.13672762 1.0461202
000050 1f b8 21 bd 19 e5 91 3f 4d f2 ed 3e 8d 94 8d 3f
       -0.039482232 1.139804 0.46473923 1.1060959
000060 d9 02 bf 3e 78 ed b2 3f 61 97 ad 3e 92 2d b0 3f
       0.3730686 1.397872 0.33904555 1.3763907

1.0.mdl.input_to_hidden.0.direction f4 [100, 14]
000000 18 e0 24 bd f5 f3 83 bd b6 13 15 be 98 4d fc bb
       -0.040252775 -0.064430155 -0.145583 -0.0076996796
000010 c7 a6 9e b8 6e 66 f3 b9 6b 3c e5 bb 5e 5e 3d bd
       -7.565092e-05 -0.00046424888 -0.006995728 -0.046232574
000020 55 f8 28 be 03 35 05 3d 46 95 35 3c 3b 16 0e bb
       -0.16500981 0.03252126 0.011082953 -0.002168073
000030 15 6f ad b8 2a da 77 3a 2a 38 7d be e4 4d 5a be
       -8.2699735e-05 0.0009454811 -0.24728456 -0.21318775
000040 0e a2 ca bd 40 ed f3 b8 10 1f 94 3d 2a 03 8b ba
       -0.09894191 -0.00011631334 0.07232487 -0.0010605801
000050 f4 66 fc 3a f2 86 20 39 c1 47 be ba 11 a0 ec 3a
       0.0019256757 0.0001530906 -0.0014517234 0.0018053075
000060 37 01 0b 3a 88 7e 34 ba ef e1 83 3a 37 c8 3c 3a
       0.000530261 -0.00068853097 0.001006184 0.0007201465
000070 6f dc 7a 3d da 82 50 3d a7 c7 83 be 07 54 6e be
       0.061245378 0.05090604 -0.2573826 -0.23274241
000080 1c 5f 3f 3a 22 16 fc 3a fc a4 e5 39 cb 0d ff 39
       0.0007300244 0.001923267 0.00043801207 0.00048647667
000090 8a 04 9f 39 f5 be 02 bb 64 7b 9d 38 6c ab ab 3a
       0.00030330225 -0.0019950245 7.509327e-05 0.0013097352
0000a0 df 8b a7 ba 1d db 96 39 89 72 18 3f b7 8c 0f 3f
       -0.0012782774 0.00028773482 0.59549767 0.5607409
0000b0 1a b4 1c 3e 9a 36 39 bd 49 38 85 bb f3 35 8e 3d
       0.15303078 -0.045218088 -0.0040655476 0.06943884
0000c0 8e c3 a9 bb 8b 34 c4 3c e5 06 c1 3c 89 6a ca bb
       -0.0051807826 0.023950836 0.023562858 -0.0061772508
0000d0 90 fd cc bc 62 14 1a 3b fb 2f 63 3c d5 69 ba b9
       -0.025023252 0.0023510684 0.01386642 -0.00035555536
0000e0 05 23 3f 3e 6e 55 22 3e 24 4f df 3d 0f 95 1f 3e
       0.18665703 0.15852901 0.10903767 0.15584205
0000f0 9b 9b a1 3b 89 53 8e bb 58 a0 8d 39 78 77 85 3d
       0.0049318797 -0.0043434543 0.0002701308 0.065169275
000100 62 a5 77 3d 47 21 81 3d 90 86 d9 3d 8a f9 2d ba
       0.060460456 0.06305175 0.10621369 -0.00066366105
000110 d4 e8 e8 b9 65 ba 90 ba 1a a6 d3 3e 77 92 37 ba
       -0.0004442396 -0.0011041878 0.41337663 -0.0007002721
000120 b5 b7 b0 b9 af 4f d1 39 51 ac 01 3b 2e 00 3f b9
       -0.00033706208 0.00039922955 0.0019786546 -0.00018215246
000130 7e 8e a9 37 ea 62 2e b9 4f d6 00 3b ed 21 4c b9
       2.0212723e-05 -0.00016630781 0.0019658988 -0.00019467594
000140 01 75 d9 3a e8 7e 88 ba 3f 26 2f 3a e3 aa 89 b9
       0.0016590656 -0.0010413798 0.00066814193 -0.00026257997
000150 15 1c d9 3e c1 c2 c8 3e 1b 4a c3 3d ec a0 b3 3b
       0.42404237 0.39211085 0.09535619 0.00548183
000160 f9 e7 02 3b e9 31 79 ba 76 e1 88 ba 81 5c b1 bd
       0.0019974692 -0.00095060334 -0.0010443169 -0.08660222
000170 30 db 49 be fa 0d 97 b9 e9 14 bd ba 3e 3c 96 3a
       -0.1971252 -0.00028811378 -0.0014425787 0.0011462045
000180 b3 0b 92 b9 b5 ec 39 b9 38 3a 4c bd 4b b2 d4 bc
       -0.00027856007 -0.00017731155 -0.04986021 -0.025963923
000190 97 52 bd 3e 2e 3b 0a 3e 0b ea 74 bb 96 f9 bc 3c
       0.36977074 0.13499138 -0.0037370946 0.02306823
0001a0 0a 57 0a 3d 25 bc 94 ba c3 f5 d0 3a 76 9b 95 ba
       0.033774413 -0.0011347575 0.0015942383 -0.0011414129
0001b0 0c e0 ff b9 93 cb c6 39 38 88 58 38 32 18 88 38
       -0.00048804318 0.00037917178 5.1625277e-05 6.489492e-05
0001c0 d0 f2 af be 94 57 99 be 36 bc fb bd 1d c6 a8 bb
       -0.3436494 -0.2994963 -0.12291758 -0.00515057
0001d0 bd 71 f4 3c 5f 5e 7b b9 22 f0 d6 39 f6 f3 bd 3a
       0.02983939 -0.00023972381 0.00040996174 0.0014492262
0001e0 97 74 04 3a 23 63 3c ba 53 c1 64 ba 3e 8b fa b7
       0.00050527736 -0.00071864034 -0.00087263173 -2.9867162e-05
0001f0 1a 60 0c 3a 46 d3 e6 ba 1a 35 ba be 9d e8 94 be
       0.00053548964 -0.0017610572 -0.36368638 -0.2908372
000200 67 f1 0b 3d 65 a0 d8 bb 33 58 82 b9 2e 17 85 ba
       0.034165766 -0.0066109174 -0.00024861246 -0.0010154003
000210 c5 a8 02 bd f3 9f d7 bc b3 53 47 3a 97 f1 86 b8
       -0.031899232 -0.026321387 0.000760372 -6.4346175e-05
000220 7b dc 9c 3a 29 c8 d3 39 0b 64 a9 ba 9a 82 b1 39
       0.0011967564 0.00040394187 -0.0012923492 0.00033857377
000230 76 c3 a2 bd 7e c5 af bd 42 de 4f be d1 a9 31 3b
       -0.079474375 -0.085825905 -0.20299628 0.0027109275
000240 54 54 79 ba e2 05 89 3a 26 ff a0 39 24 c1 96 b9
       -0.0009511162 0.0010454024 0.00030707679 -0.0002875413
000250 03 11 d8 b9 46 78 74 39 c9 71 bf 39 a8 c3 02 bb
       -0.00041211405 0.00023314459 0.00036515135 -0.0019953046
000260 b8 f4 b6 ba 09 7a 9d 3a 1b 7a 08 3e 66 d6 40 3e
       -0.001395843 0.0012014519 0.1332783 0.18831787
000270 bd 80 53 3e 83 5c d4 b9 f0 45 26 3a d8 97 81 39
       0.20654579 -0.00040504718 0.0006342819 0.0002471793
000280 43 03 9f 3a ae c3 5e 39 45 73 67 ba e7 d6 ad 39
       0.0012131709 0.00021244466 -0.0008829127 0.00033157246
000290 a5 fa 7d 36 9b c1 9d b9 d2 94 0d 3a 69 ff 20 ba
       3.7845832e-06 -0.0003008962 0.0005400899 -0.00061415747
0002a0 b3 e0 1f 3f 5f 4c 22 3f b9 97 b8 b9 3f 40 cd b9
       0.6245224 0.63397783 -0.00035208257 -0.00039148514
0002b0 61 30 9e 38 f0 b5 3e ba d8 1d 63 3a f6 ee 3f 38
       7.5430384e-05 -0.00072750356 0.000866381 4.57605e-05
0002c0 58 7a 80 3a b2 0e e5 39 42 e9 b8 37 34 01 22 3a
       0.0009802086 0.00043689233 2.2043128e-05 0.0006179989
0002d0 c0 ef 88 3a 59 9a b7 ba df ff 6e 3e c6 ef 63 3e
       0.0010447428 -0.0014007791 0.23339795 0.22259435
0002e0 5c a1 f4 3d 5a 1b b4 3c ab 5b 05 ba fd 4e ec 3d
       0.11944839 0.021985698 -0.0005087207 0.11538503
0002f0 e9 f8 26 bc 06 9f 0a 3d be a2 e6 bc 46 15 a4 3c
       -0.010191181 0.033843063 -0.028153773 0.020029675
000300 15 e8 cd 3b 09 16 9c b9 97 c2 82 bd d8 01 dd 3a
       0.00628377 -0.00029771056 -0.06384771 0.0016861511
000310 af 16 09 bf 90 f2 bb 3a c5 a7 1f 3b 88 db 83 3a
       -0.5355024 0.0014339257 0.0024361473 0.0010059932
000320 fc 71 ed b9 22 49 c0 ba c8 ef fb ba 46 58 fc b9
       -0.00045289088 -0.0014670233 -0.0019221241 -0.00048130954
000330 8d 76 d6 3a 7d 68 86 ba 62 ee 84 3a b3 d2 a2 ba
       0.0016362235 -0.0010254529 0.0010141844 -0.0012422412
000340 ff 63 11 39 a4 a8 85 ba 8d f2 da 3c bf ce de 3c
       0.00013865529 -0.0010197354 0.026726985 0.027198194
000350 30 af fd 3d d1 ac 06 b8 9f 42 69 3a b1 4d 63 3a
       0.1238693 -3.2109037e-05 0.0008898172 0.000867094
000360 df 1a f2 3a 71 b1 ab 3a d9 a4 81 b9 ba d5 e9 39
       0.0018471143 0.0013099146 -0.00024727618 0.00044600462
000370 49 24 54 ba 03 53 eb ba d5 a3 09 b9 aa 93 5b ba
       -0.0008092565 -0.0017953817 -0.0001312637 -0.00083761907
000380 77 dc 7c be 65 6b 20 be 1c 96 92 be f8 e5 d4 bc
       -0.24693476 -0.15665968 -0.2863015 -0.025988564
000390 34 4d 0c bb 07 7a 87 ba 56 93 2f b9 90 85 2b be
       -0.0021408321 -0.001033605 -0.00016744187 -0.16750169
0003a0 66 b0 9d 3d 7b 59 4a 3e 3c 36 4b ba 4f 0c 4f bb
       0.07699661 0.19760697 -0.0007751917 -0.003159303
0003b0 b6 82 02 b9 9b 0d d2 b8 6c 72 85 be d2 b0 be be
       -0.0001244646 -0.000100161145 -0.2606386 -0.37244278
0003c0 4b e4 a2 ba 7c b8 96 3a f9 69 2a b9 6d 4a 3c 3b
       -0.0012427656 0.0011499072 -0.00016251941 0.0028730885
0003d0 fe f0 df b9 27 71 17 ba 6c 23 8e 39 9d cb ed ba
       -0.00042713428 -0.0005777054 0.00027110742 -0.0018142347
0003e0 9c c1 d8 3a 9b ac f2 3a 1c d3 b8 ba 0e c5 af b8
       0.0016537192 0.0018514575 -0.0014101001 -8.3813546e-05
0003f0 79 ea ed 3d 9e ab d7 3d 26 c0 62 3d 1b 3a 0d 3b
       0.11616988 0.1053078 0.05535903 0.0021549526

1.0.mdl.input_to_hidden.0.mask f4 [100, 14]
000000 00 00 80 3f 00 00 80 3f 00 00 80 3f 00 00 80 3f
       1.0 1.0 1.0 1.0
000010 00 00 80 3f 00 00 80 3f 00 00 80 3f 00 00 80 3f
       1.0 1.0 1.0 1.0
000020 00 00 80 3f 00 00 80 3f 00 00 80 3f 00 00 00 00
       1.0 1.0 1.0 0.0
000030 00 00 00 00 00 00 00 00 00 00 80 3f 00 00 80 3f
       0.0 0.0 1.0 1.0
000040 00 00 80 3f 00 00 80 3f 00 00 80 3f 00 00 80 3f
       1.0 1.0 1.0 1.0
000050 00 00 80 3f 00 00 00 00 00 00 00 00 00 00 00 00
       1.0 0.0 0.0 0.0
000060 00 00 00 00 00 00 00 00 00 00 00 00 00 00 00 00
       0.0 0.0 0.0 0.0
000070 00 00 80 3f 00 00 80 3f 00 00 80 3f 00 00 80 3f
       1.0 1.0 1.0 1.0
000080 00 00 00 00 00 00 00 00 00 00 00 00 00 00 00 00
       0.0 0.0 0.0 0.0
000090 00 00 00 00 00 00 00 00 00 00 00 00 00 00 00 00
       0.0 0.0 0.0 0.0
0000a0 00 00 00 00 00 00 00 00 00 00 80 3f 00 00 80 3f
       0.0 0.0 1.0 1.0
0000b0 00 00 80 3f 00 00 80 3f 00 00 80 3f 00 00 80 3f
       1.0 1.0 1.0 1.0
0000c0 00 00 80 3f 00 00 80 3f 00 00 80 3f 00 00 80 3f
       1.0 1.0 1.0 1.0
0000d0 00 00 80 3f 00 00 80 3f 00 00 80 3f 00 00 00 00
       1.0 1.0 1.0 0.0
0000e0 00 00 80 3f 00 00 80 3f 00 00 80 3f 00 00 80 3f
       1.0 1.0 1.0 1.0
0000f0 00 00 80 3f 00 00 80 3f 00 00 80 3f 00 00 80 3f
       1.0 1.0 1.0 1.0
000100 00 00 80 3f 00 00 80 3f 00 00 80 3f 00 00 00 00
       1.0 1.0 1.0 0.0
000110 00 00 00 00 00 00 00 00 00 00 80 3f 00 00 00 00
       0.0 0.0 1.0 0.0
000120 00 00 00 00 00 00 00 00 00 00 00 00 00 00 00 00
       0.0 0.0 0.0 0.0
000130 00 00 00 00 00 00 00 00 00 00 00 00 00 00 00 00
       0.0 0.0 0.0 0.0
000140 00 00 00 00 00 00 00 00 00 00 00 00 00 00 00 00
       0.0 0.0 0.0 0.0
000150 00 00 80 3f 00 00 80 3f 00 00 80 3f 00 00 80 3f
       1.0 1.0 1.0 1.0
000160 00 00 80 3f 00 00 80 3f 00 00 80 3f 00 00 80 3f
       1.0 1.0 1.0 1.0
000170 00 00 80 3f 00 00 00 00 00 00 00 00 00 00 00 00
       1.0 0.0 0.0 0.0
000180 00 00 00 00 00 00 00 00 00 00 80 3f 00 00 80 3f
       0.0 0.0 1.0 1.0
000190 00 00 80 3f 00 00 80 3f 00 00 80 3f 00 00 80 3f
       1.0 1.0 1.0 1.0
0001a0 00 00 80 3f 00 00 00 00 00 00 00 00 00 00 00 00
       1.0 0.0 0.0 0.0
0001b0 00 00 00 00 00 00 00 00 00 00 00 00 00 00 00 00
       0.0 0.0 0.0 0.0
0001c0 00 00 80 3f 00 00 80 3f 00 00 80 3f 00 00 80 3f
       1.0 1.0 1.0 1.0
0001d0 00 00 80 3f 00 00 80 3f 00 00 00 00 00 00 00 00
       1.0 1.0 0.0 0.0
0001e0 00 00 00 00 00 00 00 00 00 00 00 00 00 00 00 00
       0.0 0.0 0.0 0.0
0001f0 00 00 00 00 00 00 00 00 00 00 80 3f 00 00 80 3f
       0.0 0.0 1.0 1.0
000200 00 00 80 3f 00 00 80 3f 00 00 80 3f 00 00 80 3f
       1.0 1.0 1.0 1.0
000210 00 00 80 3f 00 00 80 3f 00 00 00 00 00 00 00 00
       1.0 1.0 0.0 0.0
000220 00 00 00 00 00 00 00 00 00 00 00 00 00 00 00 00
       0.0 0.0 0.0 0.0
000230 00 00 80 3f 00 00 80 3f 00 00 80 3f 00 00 00 00
       1.0 1.0 1.0 0.0
000240 00 00 00 00 00 00 00 00 00 00 00 00 00 00 00 00
       0.0 0.0 0.0 0.0
000250 00 00 00 00 00 00 00 00 00 00 00 00 00 00 00 00
       0.0 0.0 0.0 0.0
000260 00 00 00 00 00 00 00 00 00 00 80 3f 00 00 80 3f
       0.0 0.0 1.0 1.0
000270 00 00 80 3f 00 00 00 00 00 00 00 00 00 00 00 00
       1.0 0.0 0.0 0.0
000280 00 00 00 00 00 00 00 00 00 00 00 00 00 00 00 00
       0.0 0.0 0.0 0.0
000290 00 00 00 00 00 00 00 00 00 00 00 00 00 00 00 00
       0.0 0.0 0.0 0.0
0002a0 00 00 80 3f 00 00 80 3f 00 00 00 00 00 00 00 00
       1.0 1.0 0.0 0.0
0002b0 00 00 00 00 00 00 00 00 00 00 00 00 00 00 00 00
       0.0 0.0 0.0 0.0
0002c0 00 00 00 00 00 00 00 00 00 00 00 00 00 00 00 00
       0.0 0.0 0.0 0.0
0002d0 00 00 00 00 00 00 00 00 00 00 80 3f 00 00 80 3f
       0.0 0.0 1.0 1.0
0002e0 00 00 80 3f 00 00 80 3f 00 00 80 3f 00 00 80 3f
       1.0 1.0 1.0 1.0
0002f0 00 00 80 3f 00 00 80 3f 00 00 80 3f 00 00 80 3f
       1.0 1.0 1.0 1.0
000300 00 00 80 3f 00 00 80 3f 00 00 80 3f 00 00 00 00
       1.0 1.0 1.0 0.0
000310 00 00 80 3f 00 00 00 00 00 00 00 00 00 00 00 00
       1.0 0.0 0.0 0.0
000320 00 00 00 00 00 00 00 00 00 00 00 00 00 00 00 00
       0.0 0.0 0.0 0.0
000330 00 00 00 00 00 00 00 00 00 00 00 00 00 00 00 00
       0.0 0.0 0.0 0.0
000340 00 00 00 00 00 00 00 00 00 00 80 3f 00 00 80 3f
       0.0 0.0 1.0 1.0
000350 00 00 80 3f 00 00 00 00 00 00 00 00 00 00 00 00
       1.0 0.0 0.0 0.0
000360 00 00 00 00 00 00 00 00 00 00 00 00 00 00 00 00
       0.0 0.0 0.0 0.0
000370 00 00 00 00 00 00 00 00 00 00 00 00 00 00 00 00
       0.0 0.0 0.0 0.0
000380 00 00 80 3f 00 00 80 3f 00 00 80 3f 00 00 80 3f
       1.0 1.0 1.0 1.0
000390 00 00 80 3f 00 00 80 3f 00 00 80 3f 00 00 80 3f
       1.0 1.0 1.0 1.0
0003a0 00 00 80 3f 00 00 80 3f 00 00 00 00 00 00 00 00
       1.0 1.0 0.0 0.0
0003b0 00 00 00 00 00 00 00 00 00 00 80 3f 00 00 80 3f
       0.0 0.0 1.0 1.0
0003c0 00 00 00 00 00 00 00 00 00 00 00 00 00 00 00 00
       0.0 0.0 0.0 0.0
0003d0 00 00 00 00 00 00 00 00 00 00 00 00 00 00 00 00
       0.0 0.0 0.0 0.0
0003e0 00 00 00 00 00 00 00 00 00 00 00 00 00 00 00 00
       0.0 0.0 0.0 0.0
0003f0 00 00 80 3f 00 00 80 3f 00 00 80 3f 00 00 80 3f
       1.0 1.0 1.0 1.0

1.0.mdl.input_to_hidden.0.cscale.weight f4 [100, 1]
000000 3f 41 e1 ba b8 4d 62 3a ad 47 da 39 71 9f 89 3a
       -0.0017185583 0.0008632797 0.00041633603 0.0010499788
000010 52 a5 48 ba 42 39 9c 3a 4a 99 8d ba 49 61 81 ba
       -0.0007654029 0.001191892 -0.001080313 -0.0009870912
000020 9d e4 1e 39 b7 14 c8 b8 5c 12 31 ba f0 14 07 bb
       0.0001515322 -9.5406016e-05 -0.000675475 -0.0020611845
000030 c5 98 29 38 ed 7a 0c 3b 6d 70 d2 b9 83 06 d4 3a
       4.0435018e-05 0.0021435574 -0.00040138085 0.0016176257
000040 64 e3 ab b9 f4 72 92 ba ec d5 df b9 7e 66 97 b9
       -0.0003278508 -0.0011173175 -0.0004269326 -0.00028877327
000050 5d 24 ab ba 12 6d ae ba 59 eb 31 ba ce a9 18 3b
       -0.0013057102 -0.0013307652 -0.00067870837 0.002329457
000060 e5 d0 ea b9 6f 92 92 39 59 18 8c 3a b8 a5 b8 b9
       -0.00044787597 0.00027956392 0.0010688409 -0.00035218685
000070 6c ce 90 b9 6c 40 b2 3a e0 34 0b 3a ad d4 26 b9
       -0.00027619617 0.0013599521 0.0005310308 -0.00015910222
000080 23 29 a0 39 39 1f 65 39 79 4c 1d b9 ac 9d 24 bb
       0.00030548227 0.00021850773 -0.00015001175 -0.0025118394
000090 87 74 56 b9 8b 9e 07 3b aa f9 ae 39 2f 5f a8 ba
       -0.0002045204 0.0020693864 0.0003337388 -0.001284575
0000a0 7f 45 c3 39 76 b7 46 3a 04 36 b9 39 a5 b0 f2 39
       0.00037245077 0.00075804384 0.00035326194 0.00046289447
0000b0 2b f9 f8 3a d7 27 b5 3a 77 4e ba ba 42 2a 41 3a
       0.0018995156 0.0013821077 -0.0014214058 0.00073686626
0000c0 7a 3b 8c 3a 7e b8 4e 39 4e 63 3b 3a 27 e9 25 bb
       0.0010698878 0.0001971442 0.00071482814 -0.0025315972
0000d0 a3 4f b4 38 31 69 10 39 68 76 89 39 7e 6b 63 3a
       8.597902e-05 0.00013772097 0.00026218896 0.00086753804
0000e0 e8 ff 15 ba e2 9d 04 bb 83 c0 b5 ba 0f c8 f4 3a
       -0.0005722032 -0.0020235707 -0.0013866577 0.0018675345
0000f0 2c 1c b3 b9 f3 0c 6e 37 6f c5 57 39 bf 29 d1 ba
       -0.0003416253 1.418892e-05 0.00020577548 -0.0015957876
000100 74 a3 dd 3a a0 69 52 b9 95 3f 37 3a 00 2e 9d 39
       0.0016909675 -0.00020066509 0.00069903705 0.00029979646
000110 67 cc ff 39 fd 7a 27 ba bc 9d e3 b9 72 95 27 3a
       0.00048789682 -0.0006388871 -0.00043414335 0.00063928135
000120 5b 76 6e ba 2a 03 b4 3a cf 0e 85 b9 6e 06 53 3a
       -0.0009096616 0.0013733853 -0.0002537877 0.00080499693
000130 43 c8 48 3a 0c 76 46 3a d7 6e cc b9 62 6a da 39
       0.0007659236 0.0007570691 -0.00038992494 0.00041659462
000140 8c 1a ea 38 a5 7a a3 37 e9 19 e4 b8 b7 2c 9b b9
       0.00011162934 1.9488225e-05 -0.00010876713 -0.0002959722
000150 ee 2a cd 3a a5 43 63 3a 13 c9 3c ba 8f 16 0e bb
       0.0015653053 0.00086694426 -0.0007201593 -0.0021680926
000160 40 e8 d7 b9 b9 cd cc ba c5 fe ed 39 9d 76 08 b9
       -0.00041181035 -0.0015625275 0.0004539398 -0.00013014158
000170 eb 17 bf ba f5 b1 fd 39 9b 17 87 b9 4a 6a 0e 3b
       -0.0014579272 0.0004838851 -0.00025766794 0.0021730834
000180 9c 55 dc ba f9 03 ab 39 d2 0c 14 ba ca be 93 b9
       -0.0016810182 0.00032618621 -0.00056476623 -0.00028180174
