models/lhc_binned_en5of7_sp0_e40_s1993_p0.0_h100_faffine_fl5_l1_dsdim16_dsl1_cudaFalse_best_model.pt (torch_old, 71337 bytes, 73 tensors)

0.0.mdl.input_to_hidden.0.direction f4 [100, 4]
0.37194553 0.3493792 0.031076796 0.0017406702 0.14841077 0.00028036063 0.0015324526 0.0005478485
-0.03843898 0.001196932 -0.0011130738 0.0020539002 -0.1703513 0.00043999072 -0.00081065483 0.0003041808
-0.4228463 -0.44506082 -0.032378465 0.0021879077 0.1468686 0.00023530259 -0.0009661137 -0.0005803942
-0.40659007 -0.30933395 -0.053223386 -0.00019554465 -0.20635635 -0.0010170912 0.0010414727 -0.0011958015
-0.6892025 -0.07205591 -0.46071517 -4.1764306e-05 -0.29906127 -0.23388521 -0.030255217 9.501091e-05
0.81188637 0.13597675 0.61191046 -6.81082e-05 -0.07370479 0.23975255 0.00069791806 -0.0005666075
-0.07519722 0.00065038225 -0.0014995987 0.0026213385 -0.027961284 -0.0004911609 -0.00025577797 -0.0020116898
-0.7785626 -0.17484038 -0.5461501 0.00014780645 0.20084895 0.16895944 0.001409579 2.5212592e-05
0.41989008 0.43839484 0.037164383 -0.0011398883 0.38893405 0.5103895 0.0012296204 0.001438602
0.090799496 0.000570684 0.00020012898 8.744369e-05 0.06649286 0.00042145693 0.000206612 -4.506752e-05
0.39870927 0.40245345 0.023880705 0.0005528683 0.3511985 0.13305716 -0.0004543569 -0.0017288898
0.10253288 -0.0012308025 -0.000375443 -0.00051692827 0.039546493 -0.00068242877 -0.001115208 0.0010268103
0.10299357 0.29172993 0.0013861367 0.0010605052 0.39657226 0.38310167 0.038794775 0.001427098
0.6109836 -0.02202438 0.120998606 -0.00069291785 0.1423454 -0.0012462755 -0.0007160443 -0.0015843477
0.047575224 0.00012300115 1.1326289e-05 -0.00053270627 -0.16601527 3.8553608e-05 0.0010026903 -0.0014465426
0.18953475 0.11442644 -0.00032456164 0.0012135474 0.31249988 0.24924298 0.030407293 0.0009521194
-0.24212202 -0.26768023 0.00040410974 0.0008508157 -0.45390788 -0.438047 -0.08234269 0.0018168476
-0.40898797 -0.4885318 -0.0018942237 -0.000526119 -0.14420581 -0.0024128668 -0.0008334967 0.0010546952
-0.4389244 -0.039088327 0.00035545038 0.0007880044 -0.25693354 -0.3007564 0.0007721279 -0.000120487624
0.30589935 0.2687256 0.019144261 0.00065246195 0.38543543 0.47850567 0.0016644748 -0.0018404415
0.2555567 0.29095438 -0.00022623123 0.0003122648 0.46033075 0.43764067 0.00044300003 -0.0010826449
0.20816965 0.2720494 -0.001059661 0.0014058332 -0.60888803 0.0356195 -0.11788514 0.00074219634
-0.6941764 -0.065790474 -0.4642764 -0.0015516432 -0.40373552 -0.27897924 -0.05461688 0.00074530125
0.16564633 -0.00020352626 0.00090982206 0.0011145051 -0.14205208 -0.00032190888 -0.0008128158 -0.0006903144
-0.21881795 -0.41686738 -0.00136545 0.0003850561 0.6083261 -0.08816814 0.12815031 0.0005406061
-0.60962194 0.010512668 -0.12826057 0.0004375139 0.82831705 0.23062064 0.5907421 0.0016780999
-0.18843067 0.0014071753 0.0012136191 5.1274357e-05 0.096799985 0.0016979713 -0.001174816 -4.2232e-05
0.27764827 0.33385187 0.0012120585 9.7096236e-05 -0.36782113 -0.46047452 -0.0007437581 -0.0003936779
0.35276437 0.3046376 0.032806322 0.0008765414 -0.41122693 -0.42256933 -0.033201553 -0.0003288433
0.18085185 -0.0009618258 -0.00092022336 -0.0024356118 -0.16049714 0.0010106534 0.00057485217 -0.0008877154
0.21450189 0.12744954 0.00083309796 -0.0014676582 -0.13619499 -0.0015691138 0.0006309039 -0.0003501315
0.6043354 -0.03750243 0.1310917 0.00092865573 0.40807253 0.4144894 0.03558017 -0.00086364563
00000000: a56f be3e d5e1 b23e c494 fe3c 3327 e43a
00000010: fef8 173e 5efd 9239 94dc c83a 7e9d 0f3a
00000020: 3172 1dbd 60e2 9c3a 8fe4 91ba ba9a 063b
00000030: 9270 2ebe 8eae e639 2082 54ba 757a 9f39
00000040: 4f7f d8be 03df e3be 489f 04bd 0063 0f3b
00000050: b964 163e 8fbb 7639 cb42 7dba 9825 18ba
00000060: 932c d0be 0561 9ebe c400 5abd 1e0b 4db9
00000070: 144f 53be eb4f 85ba 0682 883a 71bc 9cba
00000080: 936f 30bf 0d92 93bd dce2 ebbe 152c 2fb8
00000090: 8f1e 99be 9b7f 6fbe cad9 f7bc 9840 c738
000000a0: c9d7 4f3f 7d3d 0b3e 2aa6 1c3f 50d5 8eb8
000000b0: 89f2 96bd b181 753e 7df4 363a 6388 14ba
000000c0: 0001 9abd 6a7e 2a3a 2f8e c4ba c3ca 2b3b
000000d0: 100f e5bc 40c1 00ba f019 86b9 8ed6 03bb
000000e0: e14f 47bf 5b09 33be 7ed0 0bbf 7efc 1a39
000000f0: 59ab 4d3e b403 2d3e 9fc1 b83a a17f d337
00000100: d5fb d63e 4a75 e03e ae39 183d 4e68 95ba
00000110: 5d22 c73e e3a8 023f 372b a13a 798f bc3a
00000120: 16f5 b93d f499 153a b7d9 5139 f961 b738
00000130: 692d 883d fef6 dc39 fda5 5839 e206 3db8
00000140: 9f23 cc3e 610e ce3e 78a1 c33c 5dee 103a
00000150: 4ad0 b33e 2340 083e c036 eeb9 ea9b e2ba
00000160: c2fc d13d e152 a1ba 1bd7 c4b9 7882 07ba
00000170: 81fb 213d 05e5 32ba 2c2c 92ba 0996 863a
00000180: 4bee d23d a05d 953e 08af b53a a600 8b3a
00000190: 850b cb3e e725 c43e 45e7 1e3d 760d bb3a
000001a0: 6c69 1c3f 796c b4bc 1ece f73d eea4 35ba
000001b0: fec2 113e 115a a3ba ebb4 3bba e3a9 cfba
000001c0: 3dde 423d dff9 0039 0a06 3e37 50a5 0bba
000001d0: e8ff 29be 9fb4 2138 b46c 833a ea99 bdba
000001e0: 6615 423e 6958 ea3d ed29 aab9 e50f 9f3a
000001f0: fcff 9f3e 8d39 7f3e b718 f93c a797 793a
00000200: d6ee 77be 620d 89be b1de d339 4609 5f3a
00000210: 9d66 e8be b247 e0be 49a3 a8bd 4a23 ee3a
00000220: df66 d1be d720 fabe 9a47 f8ba 40eb 09ba
00000230: b0aa 13be 3021 1ebb 047f 5aba b33d 8a3a
00000240: b3ba e0be 151b 20bd be5b ba39 1592 4e3a
00000250: cb8c 83be befc 99be a068 4a3a 4dae fcb8
00000260: d79e 9c3e 6796 893e 6dd4 9c3c fb09 2b3a
00000270: cb57 c53e b2fe f43e 822a da3a f83a f1ba
00000280: 54d8 823e f9f7 943e 7c38 6db9 79b7 a339
00000290: 79b0 eb3e 7012 e03e 7542 e839 89e7 8dba
000002a0: 6d2a 553e 0f4a 8b3e 53e4 8aba ef43 b83a
000002b0: 16e0 1bbf c1e5 113d c46d f1bd f48f 423a
000002c0: 8bb5 31bf 28bd 86bd a3b5 edbe 8260 cbba
000002d0: 6cb6 cebe 5ed6 8ebe f3b5 5fbd 5260 433a
000002e0: 319f 293e aa69 55b9 2081 6e3a 9614 923a
000002f0: 1a76 11be e1c5 a8b9 2513 55ba 37f6 34ba
00000300: d011 60be a46f d5be e6f8 b2ba 5be1 c939
00000310: 42bb 1b3f 7f91 b4bd d639 033e 76b7 0d3a
00000320: 2f10 1cbf 533d 2c3c bd56 03be 1f62 e539
00000330: 960c 543f d127 6c3e e03a 173f b0f3 db3a
00000340: f8f3 40be f870 b83a 4d12 9f3a 6c0f 5738
00000350: 123f c63d 768e de3a 49fc 99ba 4422 31b8
00000360: ea27 8e3e a2ee aa3e efdd 9e3a 25a0 cb38
00000370: 0d53 bcbe 51c3 ebbe c3f8 42ba 8e66 ceb9
00000380: 889d b43e 76f9 9b3e ec5f 063d b3c7 653a
00000390: 568c d2be 025b d8be 5afe 07bd 9a68 acb9
000003a0: 3a31 393e 0923 7cba 253b 71ba c99e 1fbb
000003b0: 5d59 24be e777 843a adb1 163a 92b5 68ba
000003c0: 62a6 5b3e 2282 023e 4264 5a3a 705e c0ba
000003d0: b376 0bbe b9aa cdba 3e63 253a db91 b7b9
000003e0: bab5 1a3f 269c 19bd e73c 063e 0871 733a
000003f0: e2ee d03e f437 d43e 83bc 113d 4766 62ba

0.0.mdl.input_to_hidden.0.mask f4 [100, 4]
1.0 1.0 1.0 0.0 1.0 0.0 0.0 0.0
1.0 0.0 0.0 0.0 1.0 0.0 0.0 0.0
1.0 1.0 1.0 0.0 1.0 0.0 0.0 0.0
1.0 1.0 1.0 0.0 1.0 0.0 0.0 0.0
1.0 1.0 1.0 0.0 1.0 1.0 1.0 0.0
1.0 1.0 1.0 0.0 1.0 1.0 0.0 0.0
1.0 0.0 0.0 0.0 1.0 0.0 0.0 0.0
1.0 1.0 1.0 0.0 1.0 1.0 0.0 0.0
1.0 1.0 1.0 0.0 1.0 1.0 0.0 0.0
1.0 0.0 0.0 0.0 1.0 0.0 0.0 0.0
1.0 1.0 1.0 0.0 1.0 1.0 0.0 0.0
1.0 0.0 0.0 0.0 1.0 0.0 0.0 0.0
1.0 1.0 0.0 0.0 1.0 1.0 1.0 0.0
1.0 1.0 1.0 0.0 1.0 0.0 0.0 0.0
1.0 0.0 0.0 0.0 1.0 0.0 0.0 0.0
1.0 1.0 0.0 0.0 1.0 1.0 1.0 0.0
1.0 1.0 0.0 0.0 1.0 1.0 1.0 0.0
1.0 1.0 0.0 0.0 1.0 0.0 0.0 0.0
1.0 1.0 0.0 0.0 1.0 1.0 0.0 0.0
1.0 1.0 1.0 0.0 1.0 1.0 0.0 0.0
1.0 1.0 0.0 0.0 1.0 1.0 0.0 0.0
1.0 1.0 0.0 0.0 1.0 1.0 1.0 0.0
1.0 1.0 1.0 0.0 1.0 1.0 1.0 0.0
1.0 0.0 0.0 0.0 1.0 0.0 0.0 0.0
1.0 1.0 0.0 0.0 1.0 1.0 1.0 0.0
1.0 1.0 1.0 0.0 1.0 1.0 1.0 0.0
1.0 0.0 0.0 0.0 1.0 0.0 0.0 0.0
1.0 1.0 0.0 0.0 1.0 1.0 0.0 0.0
1.0 1.0 1.0 0.0 1.0 1.0 1.0 0.0
1.0 0.0 0.0 0.0 1.0 0.0 0.0 0.0
1.0 1.0 0.0 0.0 1.0 0.0 0.0 0.0
1.0 1.0 1.0 0.0 1.0 1.0 1.0 0.0
00000000: 0000 803f 0000 803f 0000 803f 0000 0000
00000010: 0000 803f 0000 0000 0000 0000 0000 0000
00000020: 0000 803f 0000 0000 0000 0000 0000 0000
00000030: 0000 803f 0000 0000 0000 0000 0000 0000
00000040: 0000 803f 0000 803f 0000 803f 0000 0000
00000050: 0000 803f 0000 0000 0000 0000 0000 0000
00000060: 0000 803f 0000 803f 0000 803f 0000 0000
00000070: 0000 803f 0000 0000 0000 0000 0000 0000
00000080: 0000 803f 0000 803f 0000 803f 0000 0000
00000090: 0000 803f 0000 803f 0000 803f 0000 0000
000000a0: 0000 803f 0000 803f 0000 803f 0000 0000
000000b0: 0000 803f 0000 803f 0000 0000 0000 0000
000000c0: 0000 803f 0000 0000 0000 0000 0000 0000
000000d0: 0000 803f 0000 0000 0000 0000 0000 0000
000000e0: 0000 803f 0000 803f 0000 803f 0000 0000
000000f0: 0000 803f 0000 803f 0000 0000 0000 0000
00000100: 0000 803f 0000 803f 0000 803f 0000 0000
00000110: 0000 803f 0000 803f 0000 0000 0000 0000
00000120: 0000 803f 0000 0000 0000 0000 0000 0000
00000130: 0000 803f 0000 0000 0000 0000 0000 0000
00000140: 0000 803f 0000 803f 0000 803f 0000 0000
00000150: 0000 803f 0000 803f 0000 0000 0000 0000
00000160: 0000 803f 0000 0000 0000 0000 0000 0000
00000170: 0000 803f 0000 0000 0000 0000 0000 0000
00000180: 0000 803f 0000 803f 0000 0000 0000 0000
00000190: 0000 803f 0000 803f 0000 803f 0000 0000
000001a0: 0000 803f 0000 803f 0000 803f 0000 0000
000001b0: 0000 803f 0000 0000 0000 0000 0000 0000
000001c0: 0000 803f 0000 0000 0000 0000 0000 0000
000001d0: 0000 803f 0000 0000 0000 0000 0000 0000
000001e0: 0000 803f 0000 803f 0000 0000 0000 0000
000001f0: 0000 803f 0000 803f 0000 803f 0000 0000
00000200: 0000 803f 0000 803f 0000 0000 0000 0000
00000210: 0000 803f 0000 803f 0000 803f 0000 0000
00000220: 0000 803f 0000 803f 0000 0000 0000 0000
00000230: 0000 803f 0000 0000 0000 0000 0000 0000
00000240: 0000 803f 0000 803f 0000 0000 0000 0000
00000250: 0000 803f 0000 803f 0000 0000 0000 0000
00000260: 0000 803f 0000 803f 0000 803f 0000 0000
00000270: 0000 803f 0000 803f 0000 0000 0000 0000
00000280: 0000 803f 0000 803f 0000 0000 0000 0000
00000290: 0000 803f 0000 803f 0000 0000 0000 0000
000002a0: 0000 803f 0000 803f 0000 0000 0000 0000
000002b0: 0000 803f 0000 803f 0000 803f 0000 0000
000002c0: 0000 803f 0000 803f 0000 803f 0000 0000
000002d0: 0000 803f 0000 803f 0000 803f 0000 0000
000002e0: 0000 803f 0000 0000 0000 0000 0000 0000
000002f0: 0000 803f 0000 0000 0000 0000 0000 0000
00000300: 0000 803f 0000 803f 0000 0000 0000 0000
00000310: 0000 803f 0000 803f 0000 803f 0000 0000
00000320: 0000 803f 0000 803f 0000 803f 0000 0000
00000330: 0000 803f 0000 803f 0000 803f 0000 0000
00000340: 0000 803f 0000 0000 0000 0000 0000 0000
00000350: 0000 803f 0000 0000 0000 0000 0000 0000
00000360: 0000 803f 0000 803f 0000 0000 0000 0000
00000370: 0000 803f 0000 803f 0000 0000 0000 0000
00000380: 0000 803f 0000 803f 0000 803f 0000 0000
00000390: 0000 803f 0000 803f 0000 803f 0000 0000
000003a0: 0000 803f 0000 0000 0000 0000 0000 0000
000003b0: 0000 803f 0000 0000 0000 0000 0000 0000
000003c0: 0000 803f 0000 803f 0000 0000 0000 0000
000003d0: 0000 803f 0000 0000 0000 0000 0000 0000
000003e0: 0000 803f 0000 803f 0000 803f 0000 0000
000003f0: 0000 803f 0000 803f 0000 803f 0000 0000

0.0.mdl.input_to_hidden.0.cscale.weight f4 [100, 1]
-0.001392762 0.00090188213 0.00082547823 0.00042990275 0.00082344154 2.460239e-05 0.0014536467 0.00040442037
-0.00015934205 -0.00063022785 0.000121708275 -0.00045493164 -0.0010067321 0.0006041772 -0.00032787502 -0.0011025191
-0.00040425643 -0.0004337157 -0.0018406138 0.001234506 -0.00047361513 -0.00015525737 -0.0010242166 0.0006651779
0.00048175605 -0.0016549376 0.001957295 0.0 -0.00030855893 0.00086754846 0.0007691514 -0.0014337045
-0.0010287481 -0.0007635758 0.00070160703 -1.892741e-05 -0.00019854553 -0.00057376985 0.0006939214 -0.0017985601
0.0013510722 0.0006795661 0.001755633 -0.00076358014 -0.0021208555 -0.0015435122 3.5703415e-05 0.0011965989
0.0009232459 -2.5340983e-06 0.0003791958 0.0015682474 -3.7537757e-05 0.00033349867 0.0007505939 0.00049180724
0.00021979354 -0.0012924159 -0.00026345724 -0.0011216253 -7.067919e-05 -0.00027590108 -0.00055369514 0.00079065905
0.0012892224 -0.0011838521 9.643953e-06 -0.00034488214 -0.0004581234 0.0012451152 0.00046103864 -0.0009318304
0.0002788377 -0.0006800769 -9.073759e-05 0.001916525 -0.0002246552 -0.00037773166 -1.0643402e-05 0.0013733122
-0.0009702643 -0.00038780045 -0.0019004385 -0.00087839767 -0.00042160097 -0.0004246333 0.0010749681 -0.00048738986
0.0011781623 0.00052115024 -0.00052829203 0.001247816 0.00049107877 -0.00076424866 -0.0010557008 0.0004179006
-0.00026340343 0.0005266694 0.0011023522 9.283432e-05
00000000: 568d b6ba 496c 6c3a e864 583a 9264 e139
00000010: 3adc 573a 3b61 ce37 4a88 be3a 6208 d439
00000020: 0e15 27b9 e035 25ba a23d ff38 e483 eeb9
00000030: 53f4 83ba a561 1e3a a4e6 abb9 6782 90ba
00000040: 61f2 d3b9 5664 e3b9 c040 f1ba 26cf a13a
00000050: 8c4f f8b9 95cc 22b9 023f 86ba 555f 2e3a
00000060: 3494 fc39 7eea d8ba f645 003b 0000 0000
00000070: 14c6 a1b9 316c 633a e0a0 493a 24eb bbba
00000080: 0fd7 86ba b42a 48ba 0dec 373a 4ec6 9eb7
00000090: a930 50b9 0b69 16ba 47e8 353a aabd ebba
000000a0: 7616 b13a e924 323a 451d e63a ff2a 48ba
000000b0: 0dfe 0abb ad4f caba 40c0 1538 32d7 9c3a
000000c0: fc05 723a 7a0f 2ab6 ccce c639 a78d cd3a
000000d0: dc71 1db8 6fd9 ae39 81c3 443a a0ec 003a
000000e0: 6178 6639 4866 a9ba a220 8ab9 8003 93ba
000000f0: 9a39 94b8 d1a6 90b9 da25 11ba 3b44 4f3a
00000100: 20fb a83a 7c2b 9bba 76cc 2137 4cd1 b4b9
00000110: 4830 f0b9 2233 a33a 8fb7 f139 1446 74ba
00000120: f630 9239 3047 32ba 5f4a beb8 e833 fb3a
00000130: 6c91 6bb9 490a c6b9 1091 32b7 b600 b43a
00000140: 5659 7eba b251 cbb9 2218 f9ba 4544 66ba
00000150: 530a ddb9 51a1 deb9 f2e5 8c3a 5c88 ffb9
00000160: 916c 9a3a cd9d 083a 147d 0aba c28d a33a
00000170: bdbb 003a dc57 48ba 715f 8aba ab19 db39
00000180: 6919 8ab9 2f10 0a3a cd7c 903a 0cb0 c238

0.0.mdl.input_to_hidden.0.cscale.bias f4 [100]
-1.1328458 0.20578799 0.58979243 -0.79730666 1.3143759 0.51614594 0.67485946 -1.2202258
-1.7910688 1.2555692 1.6113327 -0.83463794 0.105785176 0.99852 -1.4987192 -0.42767885
-1.1890308 -1.5092906 -0.23221686 -0.5806385 -1.5450313 0.9311329 -0.6649421 -0.5640315
-0.8638433 -1.0314949 0.93695277 0.34254718 -0.9404631 -0.74675715 -0.28147832 -1.1676505
-0.504351 0.7437439 0.96123487 -0.21524559 -1.1757239 0.8947911 -1.403227 -1.2312961
-0.80097467 -1.6784008 -0.91049427 -0.88292915 -1.7670295 0.6279314 1.059958 -0.4946879
-1.0042895 0.70636106 -1.0070226 1.4576348 -0.92629045 -0.611037 -1.1557575 1.3704153
-1.0395017 1.2460614 1.1617358 -0.7788814 -0.24868618 -0.19184245 0.90871644 -1.1708555
-0.7221149 0.4546518 0.7022588 -0.40859136 1.1712195 1.231529 0.83424675 1.4888343
1.4765545 0.17655635 0.9645305 -1.5342393 -1.3097283 1.5744362 -1.4605883 -0.6410507
-1.6166438 -1.6207575 1.3181584 1.0529457 -1.0130308 -0.80386776 1.7329137 -0.747996
0.9861185 0.35851723 1.0635328 -1.6104884 1.1810365 0.93812835 0.90486646 -0.6629725
1.2340602 1.4211202 1.1964403 -1.5121615
00000000: 1701 91bf 16ba 523e a3fc 163f 4a1c 4cbf
00000010: 783d a83f 2422 043f 97c3 2c3f 5c30 9cbf
00000020: be41 e5bf 7eb6 a03f 2640 ce3f d5aa 55bf
00000030: e6a5 d83d 029f 7f3f 08d6 bfbf b9f8 dabe
00000040: 2932 98bf 6f30 c1bf 42ca 6dbe baa4 14bf
00000050: 96c3 c5bf ba5e 6e3f a539 2abf 5e64 10bf
00000060: d624 5dbf 0608 84bf 23dc 6f3f 5862 af3e
00000070: 31c2 70bf 7a2b 3fbf ed1d 90be 9275 95bf
00000080: 261d 01bf 0066 3e3f 7d13 763f 5769 5cbe
00000090: 1f7e 96bf 0811 653f f19c b3bf 1c9b 9dbf
000000a0: ad0c 4dbf d6d5 d6bf 2716 69bf a507 62bf
000000b0: 062e e2bf 1dc0 203f b4ac 873f bc47 fdbe
000000c0: 8f8c 80bf 14d4 343f 1ee6 80bf c793 ba3f
000000d0: 5f21 6dbf ec6c 1cbf ddef 93bf c569 af3f
000000e0: 640e 85bf f17e 9f3f c2b3 943f c564 47bf
000000f0: 97a7 7ebe 5972 44be a4a1 683f 98de 95bf
00000100: 86dc 38bf 1fc8 e83e 3cc7 333f e332 d1be
00000110: 85ea 953f bea2 9d3f 3291 553f 1f92 be3f
00000120: bdff bc3f 30cb 343e 79eb 763f f461 c4bf
00000130: 2da5 a7bf 2087 c93f 8ff4 babf e61b 24bf
00000140: 2fee cebf fb74 cfbf 6ab9 a83f edc6 863f
00000150: feaa 81bf 47ca 4dbf 1ed0 dd3f aa7c 3fbf
00000160: 4372 7c3f 928f b73e d821 883f 7c24 cebf
00000170: 342c 973f 2e29 703f 54a5 673f 91b8 29bf
00000180: aff5 9d3f 44e7 b53f f524 993f 828e c1bf

0.0.mdl.input_to_hidden.0.cbias.weight f4 [100, 1]
0.0006515315 -0.00042674722 0.0007235567 -0.0011527154 0.0015689005 -0.00034095746 0.0013564404 -0.0008421897
0.0011139398 0.0006966865 0.002090673 -0.00127139 0.00012694247 -0.0014672688 0.0002132389 0.0010869673
-0.0002348349 -0.0005094528 -0.0007735398 0.00067472487 0.0006260144 0.00025670673 0.00088686653 0.0013373852
-0.00047504797 0.0005714975 0.00077320536 0.0014582325 0.0007314907 7.781329e-05 -0.00107186 0.0014987829
0.0014997047 0.00061768666 0.0012108563 6.563492e-05 0.00015633562 -0.000824595 -0.00035281334 -0.00020664807
0.00062346016 -0.00020572827 0.0008256979 0.0008474787 0.0005049787 0.0004362378 -0.0007043303 -0.0016753617
-0.00018337509 0.0003748399 0.001218126 -3.942035e-05 0.00055635325 0.00052157097 -5.438503e-07 -0.0010167162
2.8065979e-05 0.001960251 -0.00035763456 -0.0002506606 -0.00071443926 0.0002446932 -0.0008686659 0.0013592881
0.0016578167 0.00073851604 0.0005566211 0.00010917449 -0.0017961091 0.00037866496 0.00034067515 0.000693078
0.0003931758 -0.00011247133 -5.3112097e-05 -0.0008486218 -0.00070191175 0.0001949239 -0.0010631743 -0.00030801666
7.6096426e-06 0.001574729 0.00065690646 -0.0010707702 0.0006405248 0.00052451703 -0.0005978734 -0.0013633679
-1.4237929e-05 -0.0004706661 0.0006927836 -0.0014077068 -0.0009950389 -0.0031379007 -0.00016298157 0.0014910863
-0.0011076789 -0.00049554656 -0.0011346908 -0.0010588911
00000000: 8acb 2a3a 0bbd dfb9 11ad 3d3a b616 97ba
00000010: 91a3 cd3a 89c2 b2b9 96ca b13a 65c6 5cba
00000020: 9e01 923a d7a1 363a ac03 093b c5a4 a6ba
00000030: dc1b 0539 5f51 c0ba e298 5f39 9278 8e3a
00000040: 033e 76b9 cc8c 05ba 61c7 4aba 05e0 303a
00000050: 1d1b 243a 9896 8639 9b7c 683a 334b af3a
00000060: dc0f f9b9 8cd0 153a efb0 4a3a 2a22 bf3a
00000070: 83c1 3f3a b12f a338 a77d 8cba cf72 c43a
00000080: bd91 c43a 40ec 213a 98b5 9e3a 7ba5 8938
00000090: 06ee 2339 a229 58ba cef9 b8b9 abaf 58b9
000000a0: b46f 233a c3b8 57b9 a673 583a 5529 5e3a
000000b0: 8c60 043a d9b6 e439 cea2 38ba cf97 dbba
000000c0: 6048 40b9 2986 c439 87a9 9f3a 4757 25b8
000000d0: 3cd8 113a 09ba 083a 1cfd 11b5 5643 85ba
000000e0: 3b6f eb37 8e77 003b e680 bbb9 196b 83b9
000000f0: 3549 3bba 2a4a 8039 2fb7 63ba 242a b23a
00000100: 194b d93a f998 413a 36ea 113a 9cf4 e438
00000110: 6c6b ebba 8d87 c639 a59c b239 adaf 353a
00000120: 2a23 ce39 96de ebb8 aec4 5eb8 0c76 5eba
00000130: 8000 38ba 7c64 4c39 365a 8bba 4c7d a1b9
00000140: 5556 ff36 2367 ce3a 3f34 2c3a 1659 8cba
00000150: e4e8 273a be7f 093a 9bba 1cba 09b3 b2ba
00000160: 70df 6eb7 bcc3 f6b9 ec9b 353a cd82 b8ba
00000170: f76b 82ba 3da5 4dbb 08e6 2ab9 8e70 c33a
00000180: 892f 91ba 91e7 01ba e8b9 94ba 7dca 8aba

0.0.mdl.input_to_hidden.0.cbias.bias f4 [100]
-1.0675836 1.5609437 -1.6168218 0.80288374 -1.5196302 0.9204498 -0.9047481 0.89961016
0.9199118 -0.70510167 0.6788228 -0.8692801 -1.4054892 -1.4413995 0.774081 -1.0344186
-1.4306675 0.98645777 -0.69305164 -0.92954403 -1.4442853 -0.522189 -0.6675201 -1.6084942
-0.98550135 -1.1479357 1.2776225 1.618845 -1.0689887 1.0125902 -0.96853405 -0.73788846
1.5126555 -1.4377626 0.66580755 1.6280354 -0.4958661 -1.2746155 -0.9157872 0.95172274
-1.297948 0.72259825 -1.0816399 1.1995412 0.87603724 -0.8181497 1.4587016 1.2142558
1.8228418 0.9288901 1.3320524 0.7532103 0.91946656 -0.68193793 -1.3523438 1.1450981
-0.88576424 -1.3874776 1.3388542 1.0803962 -1.1010447 1.1512855 1.1523145 -1.3201774
-1.5290403 -0.8434614 1.5398836 -1.2434976 1.2951035 -1.2837999 0.8757087 0.9531001
-0.5724527 -0.9423483 -1.6173607 0.7204071 -0.86782485 0.7607254 -0.5254849 -0.68959296
1.4575733 1.1389939 1.3464226 -0.92238814 0.79355294 1.0679599 0.737682 1.6562812
-0.68180895 1.561476 0.53322816 0.7538345 0.7613838 -1.4044024 1.1023198 -1.2503688
-1.4566056 1.4348158 -1.0442762 0.5662404
00000000: 94a6 88bf 01cd c73f 04f4 cebf ca89 4d3f
00000010: 3e83 c2bf 99a2 6b3f 929d 67bf da4c 663f
00000020: 577f 6b3f 8b81 34bf 55c7 2d3f 2489 5ebf
00000030: 12e7 b3bf c77f b8bf 2c2a 463f d467 84bf
00000040: 1d20 b7bf 7f88 7c3f d56b 31bf 99f6 6dbf
00000050: 57de b8bf 2eae 05bf 99e2 2abf 23e3 cdbf
00000060: d149 7cbf 8fef 92bf 2289 a33f 5036 cf3f
00000070: 9fd4 88bf 8e9c 813f d9f1 77bf 42e6 3cbf
00000080: b29e c13f 9b08 b8bf 5d72 2a3f 7763 d03f
00000090: 29e2 fdbe 9a26 a3bf 0871 6abf 1aa4 733f
000000a0: 2923 a6bf 33fc 383f 2d73 8abf 918a 993f
000000b0: fa43 603f 4272 51bf bcb6 ba3f bc6c 9b3f
000000c0: e152 e93f becb 6d3f b180 aa3f 64d2 403f
000000d0: 2962 6b3f 7c93 2ebf 9a19 adbf 9392 923f
000000e0: 72c1 62bf de98 b1bf 935f ab3f 6c4a 8a3f
000000f0: 08ef 8cbf 535d 933f 0b7f 933f 93fb a8bf
00000100: 98b7 c3bf 16ed 57bf e81a c53f ee2a 9fbf
00000110: f4c5 a53f 8e53 a4bf 722e 603f 5efe 733f
00000120: 438c 12bf bd3d 71bf ad05 cfbf 9a6c 383f
00000130: c529 5ebf e6be 423f 2e86 06bf 2a89 30bf
00000140: c391 ba3f 8dca 913f 9357 ac3f a121 6cbf
00000150: 4926 4b3f e9b2 883f bad8 3c3f 0601 d43f
00000160: 088b 2ebf 72de c73f a481 083f 4cfb 403f
00000170: 0cea 423f 75c3 b3bf d118 8d3f 160c a0bf
00000180: 0d72 babf 0ba8 b73f d8aa 85bf 21f5 103f

0.0.mdl.hidden_to_output.direction f4 [8, 100]
-0.00071777985 0.00022195985 -0.002494171 0.0002967741 -0.0003447465 0.0009258443 0.0011402265 -0.0013417689
-0.0013622334 -0.00085789897 0.0015205066 0.00022539492 0.0014054842 0.0006118918 -0.00053044944 -0.00012540756
-0.0005296059 -0.0007861733 0.0011852712 -0.0010241725 -0.0022642678 0.00038685233 0.0012112276 -0.0013180904
-9.6301526e-05 -0.0010581224 0.0017229413 -0.0002960959 0.0009158553 0.0006283395 0.0006443205 0.0010043816
-0.00043508428 -0.0016961453 -0.00094916776 0.00013651513 0.0004977863 0.00031561972 0.0015151588 -0.00025109408
-0.00010194863 -0.0011856507 0.0017939054 0.00011420314 -0.0016245432 -8.295512e-05 0.000573409 -0.0007202924
-0.00041141082 -0.0006578588 0.0009466972 0.00046301138 -0.0025947308 0.0020193052 0.00078312366 -0.0006921294
0.00044568378 0.00069391914 -7.37308e-05 -0.00047077713 0.0013074513 0.0015436439 0.0001695942 -0.00033297154
0.00056032976 0.001159259 -2.0107766e-05 0.0003730072 9.552433e-05 0.0021844725 5.4902197e-05 -0.00028429943
0.00023147246 -0.0006589649 0.00044503825 0.00015640426 -0.0003514009 -0.00045671294 -0.00050620985 0.0011875983
0.0003225242 -0.0006876353 0.0007373884 -0.001035635 0.0024966062 -0.0011048552 -1.5166043e-05 -0.00057776633
-0.00075555936 0.002063148 -0.00050921045 -0.00062089605 -0.0009234846 6.30224e-05 -0.00055754086 0.0006409648
0.0014031709 -0.00096985395 6.0139882e-06 0.00028322483 8.6645276e-05 0.00010818418 -0.0006709302 -0.00045004924
0.0014448244 -0.0001480041 -0.00020427057 -0.0007117046 0.00010065042 -0.0012897069 -0.0018571308 -0.002328223
0.00021928249 -0.0005545432 -0.001130752 6.2244806e-05 -0.00037823775 0.00022773084 -0.0009555667 -0.00048925
0.0031073133 0.000486624 0.000634818 -0.001036896 0.0006624277 0.0010111568 0.001432004 -0.0014499109
-6.663577e-05 -0.0008000003 -0.00041503212 0.00058090047 -0.00060759287 -0.0005244798 0.00019012172 -0.00093691394
0.0009027179 0.0004476008 -0.0003828388 -0.00012204276 -0.00023018935 0.0003411173 -0.001493074 -0.0022829694
-0.00088223466 -0.0008010431 0.0003578993 0.00047040792 0.0016729671 0.0022157491 0.0004903759 0.00047214498
0.00013131998 -0.0015783237 8.2730374e-05 -0.0008672452 0.0010213159 0.0012597562 7.569688e-05 -0.0010174542
0.00087850686 -0.001255734 -0.0009994798 0.0014526777 0.00064955966 -0.0010508257 0.0010756322 -0.00011826746
0.0015896808 0.0012396069 0.00035966834 -0.0014256283 -0.0019247584 -0.0009865112 -2.6447256e-05 -0.0013412621
-0.00078412966 -0.0010455716 -0.00052284513 0.000276124 -0.00040005604 0.0003269013 0.00017605493 0.00030248504
0.0009901145 0.00067455694 0.0011633384 0.0014128865 0.0005044663 0.00037132791 0.0004581326 -0.0014364374
0.00028150072 8.135691e-05 0.0016072142 -0.00028967555 0.001429337 0.00029559265 -0.0013565758 -0.00027278092
6.99039e-40 -0.04616871 0.024774758 -0.0096068485 -5.985e-42 -0.021043438 -4.68946e-40 0.004729401
3.2578348e-05 -6.22357e-40 6.00999e-40 -1.90607e-40 0.023586929 0.023296604 4.30954e-40 -7.55298e-40
-1.7723653e-29 2.5174e-41 0.014243969 0.017004067 1.9553e-40 1.3748e-41 0.011531493 0.02472586
1.2655e-41 -4.0362e-41 -4.6993e-41 -0.04594374 0.018649561 -0.017986873 -1.911e-41 2.1918e-41
1.1691e-41 -1.4948e-41 1.06487e-40 -0.04826128 -2.7283e-41 -1.6647424e-28 -4.21813e-40 1.6677e-41
-5.15633e-40 5.82808e-40 3.85923e-40 -2.2862464e-06 1.5092e-41 2.2666e-41 -0.025627054 -0.03131974
-4.7357e-41 -6.32193e-40 -1.45808e-40 -2.322e-42 -0.00800324 0.01254975 -6.576e-42 -5.7314e-40
00000000: 6429 3cba e5bd 6839 3f75 23bb 5898 9b39
00000010: 18bf b4b9 5cb4 723a a773 953a 4bde afba
00000020: f88c b2ba a0e4 60ba bc4b c73a fd57 6c39
00000030: 3938 b83a 5d67 203a dc0d 0bba d67f 03b9
00000040: 40d5 0aba 3217 4eba 1a5b 9b3a 873d 86ba
00000050: 1c64 14bb 71d2 ca39 0ec2 9e3a c6c3 acba
00000060: 7df5 c9b8 b2b0 8aba 51d4 e13a 523d 9bb9
00000070: 0216 703a 26b7 243a 9ee7 283a 74a5 833a
00000080: 061c e4b9 3151 deba 92d1 78ba 8025 0f39
00000090: e07d 023a c379 a539 4b98 c63a 47a5 83b9
000000a0: 41cd d5b8 d667 9bba 7a21 eb3a 5880 ef38
000000b0: a0ee d4ba 31f8 adb8 d450 163a 01d2 3cba
000000c0: a0b2 d7b9 2874 2cba c62b 783a 56c0 f239
000000d0: 5c0c 2abb 5256 043b 8a4a 4d3a 0570 35ba
000000e0: aaaa e939 20e8 353a ec9f 9ab8 a3d2 f6b9
000000f0: c95e ab3a 1854 ca3a 19d5 3139 af92 aeb9
00000100: 18e3 123a 47f2 973a 19ad a8b7 2e90 c339
00000110: 3c54 c838 5e29 0f3b c946 6638 060e 95b9
00000120: 6ab7 7239 63be 2cba 0654 e939 7300 2439
00000130: 3b3c b8b9 f972 efb9 2bb3 04ba 30a9 9b3a
00000140: 7718 a939 6d42 34ba 4c4d 413a 25be 87ba
00000150: 1a9e 233b cad0 90ba a971 7eb7 3e75 17ba
00000160: bb10 46ba e135 073b 897c 05ba a1c3 22ba
00000170: 0116 72ba e52a 8438 ef27 12ba 6b06 283a
00000180: 9aea b73a cc3d 7eba c4cb c936 cb7d 9439
00000190: 54b5 b538 f0e0 e238 5de1 2fba 96f4 ebb9
000001a0: 4360 bd3a 8c31 1bb9 7731 56b9 b091 3aba
000001b0: 4814 d338 620b a9ba f86a f3ba 1a95 18bb
000001c0: 32ef 6539 c45e 11ba be35 94ba 6d89 8238
000001d0: 364e c6b9 08cb 6e39 ff7e 7aba 0341 00ba
000001e0: 11a4 4b3b 9121 ff39 ea69 263a 75e8 87ba
000001f0: c5a6 2d3a cb88 843a 15b2 bb3a f00a beba
00000200: cebe 8bb8 1db7 51ba ab98 d9b9 9247 183a
00000210: de46 1fba 3e7d 09ba 695b 4739 3b9b 75ba
00000220: 5fa4 6c3a f6ab ea39 c1b7 c8b9 35f1 ffb8
00000230: fc5e 71b9 fdd7 b239 40b3 c3ba df9d 15bb
00000240: c445 67ba 18fd 51ba 6ea4 bb39 15a1 f639
00000250: 7647 db3a 1a36 113b 928c 003a 3a8a f739
00000260: f0b2 0939 c1df ceba 887f ad38 d757 63ba
00000270: addd 853a 671e a53a 74bf 9e38 195c 85ba
00000280: 994b 663a 7197 a4ba fa00 83ba c667 be3a
00000290: 3647 2a3a dcbb 89ba 3afc 8c3a 5c06 f8b8
000002a0: d65c d03a 4e7a a23a de91 bc39 26dc baba
000002b0: 2d48 fcba d34d 81ba 0ddb ddb7 4acd afba
000002c0: 0d8e 4dba 900b 89ba 8b0f 09ba bcc4 9039
000002d0: 9dbe d1b9 f363 ab39 639b 3839 db96 9e39
000002e0: bbc6 813a c0d4 303a 297b 983a 9b30 b93a
000002f0: 293e 043a caae c239 8431 f039 d746 bcba
00000300: 6396 9339 299e aa38 29a9 d23a 98df 97b9
00000310: 9758 bb3a c6f9 9a39 21cf b1ba 0904 8fb9
00000320: a39c 0700 671b 3dbd 6ff4 ca3c 0b66 1dbc
00000330: af10 0080 4a63 acbc 3b1b 0580 17f9 9a3b
00000340: bca4 0838 e1c6 0680 578b 0600 5613 0280
00000350: 6039 c13c 85d8 be3c 53b1 0400 7739 0880
00000360: 3cbd b38f 2d46 0000 895f 693c 1d4c 8b3c
00000370: 0f21 0200 5326 0000 96ee 3c3c e38d ca3c
00000380: 4723 0000 8370 0080 ff82 0080 812f 3cbd
00000390: f7c6 983c 3559 93bc 4535 0080 193d 0000
000003a0: 9720 0000 ab29 0080 d828 0100 9fad 45bd
000003b0: 0e4c 0080 fb07 5391 d897 0480 7d2e 0000
000003c0: 609d 0580 a258 0600 cc33 0400 6a6d 19b6
000003d0: 122a 0000 2f3f 0000 d4ef d1bc 2149 00bd
000003e0: 0384 0080 4ce2 0680 7496 0180 7906 0080
000003f0: 0620 03bc 779d 4d3c 5512 0080 ae3d 0680

0.0.mdl.hidden_to_output.cscale.weight f4 [8, 1]
0.000989427 -0.00048166135 0.00019354804 0.00016221614 0.00045406795 -0.00039129163 7.006677e-05 -0.00013638852
00000000: a9af 813a 7e87 fcb9 28f3 4a39 9018 2a39
00000010: f80f ee39 4626 cdb9 d0f0 9238 8403 0fb9

0.0.mdl.hidden_to_output.cscale.bias f4 [8]
0.0 0.0 -0.41120332 -0.7691496 -0.40921122 -0.54145896 -0.5617501 -0.25808463
00000000: 0000 0000 0000 0000 3e89 d2be fde6 44bf
00000010: 2284 d1be 0e9d 0abf dbce 0fbf ab23 84be

0.0.mdl.hidden_to_output.cbias.weight f4 [8, 1]
-0.00096560933 -0.00020182692 0.00059011753 0.0006717233 -3.8391445e-06 -0.0008568876 0.0009106549 0.00039436994
00000000: f220 7dba 80a1 53b9 1eb2 1a3a 9616 303a
00000010: 00d2 80b6 c1a0 60ba 04b9 6e3a 70c3 ce39

0.0.mdl.hidden_to_output.cbias.bias f4 [8]
0.113957554 3.4985049 -0.07310279 2.7723475 0.3548802 2.2259552 -0.37024865 2.2330902
00000000: 9462 e93d 81e7 5f40 eab6 95bd 246e 3140
00000010: dcb2 b53e 0d76 0e40 3b91 bdbe f3ea 0e40

1.0.mdl.input_to_hidden.0.direction f4 [100, 4]
-0.052939016 0.38216063 -1.5051247e-05 -0.00085370307 -0.7201536 0.51382166 -0.00052851584 0.0010567226
0.08120105 -0.0006533281 -0.0015335622 0.0023876706 -0.18567392 -0.00106834 0.001826783 -0.00012678014
0.09358593 -0.0021195333 -0.0013801365 0.0015427864 -1.0490806 0.1066277 -0.24473755 0.0005070833
0.038768493 -0.3887014 0.0008822187 0.0001784214 0.04998607 -0.0002185492 -0.0013724187 0.0011003201
0.5140289 -0.20228042 0.62677586 0.00061349303 -0.12457355 0.0009622492 0.0021768175 -0.0015075655
0.02836081 -0.36033762 -0.00094520155 0.0011896148 -0.5475047 0.5357256 -0.0007654677 -0.00084034196
0.6875231 -0.5289577 -0.00027011347 0.00027287315 -0.11700873 0.0011718797 0.0010864099 -0.00049155834
0.720382 -0.20495413 0.7096128 -0.00076703355 0.027990459 -0.36147425 -0.0006532119 0.0015130166
-0.33898315 0.5115624 -0.00035402432 0.00039738763 -1.0482342 0.09381369 -0.24506083 0.0007376468
0.019727468 0.00074752205 -0.00026988675 0.0010453111 -0.07051621 0.36932525 -0.0017317792 0.0009838699
1.0848109 -0.06921939 0.22239898 -0.0010579891 -0.15276358 0.00021875811 -0.0010025066 -0.00043713648
0.12259605 0.00081595825 -0.00041634846 0.0011612785 0.7008897 -0.5129019 0.00062821456 0.00070670684
-0.52974206 0.18299903 -0.35266626 0.0005783159 0.6591546 -0.49373794 0.0009953756 0.00018251553
0.06893392 -0.0018044078 0.00080914114 -0.00074489013 -0.0673041 0.36969352 -0.0014648122 0.0014531283
0.18515986 0.0021886993 -0.0018354846 -0.00081542163 0.735529 -0.60262835 -0.00089099805 0.0005046528
0.6508784 -0.5127757 0.00052579434 -0.00039765466 0.86942583 -0.16582328 3.758607e-05 0.00013488457
0.3725453 -0.5090446 -0.0010357696 0.0010618973 -0.29871446 0.0005471435 0.00026770003 0.0006766273
-0.011364464 0.0006116119 0.00050169125 0.0004302671 -0.09104883 0.38801768 -0.00021870605 9.496198e-05
0.53832006 -6.0599563e-05 -0.00031974993 -0.00023823223 0.09653491 -2.1544487e-05 0.00021675818 -0.0005823974
1.0351795 -0.08546407 0.23847604 0.0005458512 0.054730196 -0.00044187022 0.00024209912 -0.002575647
0.5288515 -0.20775105 0.6426035 -0.0015927007 0.7210624 -0.0018785005 0.00039158078 0.00050466775
-0.94359285 0.17871721 -0.32497084 0.0002514957 0.01947465 -0.41220167 0.00068893813 0.0008918569
-0.014588902 -0.00037855736 -0.0009692409 -0.0002918081 0.65578055 -0.4906477 0.0014442776 0.00017180147
0.011829961 -0.43003505 -0.00040644864 -0.00053785153 -0.091136225 -0.0007486379 -0.00026665855 6.537133e-05
0.035250135 0.0018409042 0.0029469943 -0.0012310228 0.0069269636 0.0012194479 0.0015014242 0.0014741044
-0.01260743 -3.381678e-05 -0.0008265556 -0.0005555769 -1.099749 0.06695727 -0.21918069 0.0005030736
-0.7781416 0.17765665 -0.66012645 -0.00011433746 -0.16922477 -8.269381e-05 0.0023643135 -0.00049015484
0.52659273 -0.20864792 0.6388783 0.00096704887 -1.0708659 0.05805435 -0.21427988 0.00038055374
0.5849245 -0.14668731 0.2778639 0.0013130251 -0.8095261 0.17147484 -0.60416234 -0.00090630236
0.62456256 -0.14676264 0.2797018 0.0010986663 -0.9493359 0.0003765487 4.0655472e-05 0.00066642696
-0.05739545 -0.0003418717 7.3288775e-06 0.0007272033 1.2236444 0.06762669 0.12112 0.0009159014
-0.8966631 0.18243524 -0.5459584 0.0019138434 1.1798215 0.0358481 0.12677076 -0.00021696709
00000000: 95d6 58bd 8faa c33e 9d84 7cb7 0bcb 5fba
00000010: fd5b 38bf d189 033f 198c 0aba ba81 8a3a
00000020: bc4c a63d 1b44 2bba cf01 c9ba 777a 1c3b
00000030: 4e21 3ebe 8b07 8cba aa70 ef3a 49f0 04b9
00000040: fba9 bf3d dee7 0abb b2e5 b4ba 5237 ca3a
00000050: 4648 86bf a05f da3d 7b9c 7abe c9ed 043a
00000060: b6cb 1e3d df03 c7be b244 673a a116 3b39
00000070: 31be 4c3d 5b2a 65b9 bbe2 b3ba 9e38 903a
00000080: 6697 033f 9922 4fbe 6274 203f d2d2 203a
00000090: 6b20 ffbd 733f 7c3a f0a8 0e3b 8199 c5ba
000000a0: ee54 e83c 2c7e b8be 67c7 77ba d9ec 9b3a
000000b0: 4529 0cbf 5025 093f aba9 48ba 654a 5cba
000000c0: 8401 303f c669 07bf 049e 8db9 6a10 8f39
000000d0: 46a2 efbd c299 993a de65 8e3a ecdb 00ba
000000e0: f46a 383f 7fdf 51be 2fa9 353f c012 49ba
000000f0: 3f4c e53c 2713 b9be 4f3c 2bba 6a50 c63a
00000100: 338f adbe c1f5 023f 579c b9b9 7758 d039
00000110: 8a2c 86bf 6421 c03d 3af1 7abe a45e 413a
00000120: 809b a13c 5bf5 433a 967f 8db9 d202 893a
00000130: cd6a 90bd 3318 bd3e defc e2ba 32f5 803a
00000140: 15db 8a3f e5c2 8dbd 8fbc 633e 39ac 8aba
00000150: 0e6e 1cbe 6f62 6539 8a66 83ba 772f e5b9
00000160: a313 fb3d 08e6 553a 5849 dab9 0a36 983a
00000170: 826d 333f 8a4d 03bf c4ae 243a 4b42 393a
00000180: 2d9d 07bf 1964 3b3e ac90 b4be 209a 173a
00000190: 5bbe 283f 38cb fcbe 4377 823a a461 3f39
000001a0: 3a2d 8d3d e181 ecba 8b1c 543a bb44 43ba
000001b0: bbd6 89bd 7848 bd3e f1fe bfba e576 be3a
000001c0: 8c9a 3d3e 4870 0f3b a594 f0ba 05c2 55ba
000001d0: a14b 3c3f da45 1abf de91 69ba ad4a 043a
000001e0: f89f 263f 4545 03bf 76d5 093a 4e7c d0b9
000001f0: b192 5e3f 94cd 29be bca5 1d38 cd6f 0d39
00000200: 42be be3e bf50 02bf a9c2 87ba 5c2f 8b3a
00000210: 1af1 98be 2e6e 0f3a 175a 8c39 b15f 313a
00000220: 0432 3abc 9454 203a ee83 033a 7995 e139
00000230: cf77 babd 41aa c63e 7554 65b9 5326 c738
00000240: 58cf 093f 492c 7eb8 1ca4 a7b9 facd 79b9
00000250: 18b4 c53d 6fba b4b7 9549 6339 07ac 18ba
00000260: c380 843f c907 afbd 1033 743e 7417 0f3a
00000270: c52c 603d d1aa e7b9 fddb 7d39 30cc 28bb
00000280: d062 073f b1bc 54be aa81 243f 2bc2 d0ba
00000290: 8c97 383f 0438 f6ba 154d cd39 ae4b 043a
000002a0: 4d8f 71bf a501 373e 9462 a6be 2edb 8339
000002b0: 4d89 9f3c 190c d3be db99 343a 81cb 693a
000002c0: 4a06 6fbc 1c79 c6b9 a814 7eba d2fd 98b9
000002d0: 3ce1 273f 2d36 fbbe ea4d bd3a 9b25 3439
000002e0: 74d2 413c 8e2d dcbe 9d18 d5b9 9bfe 0cba
000002f0: a1a5 babd 3d40 44ba 4ece 8bb9 f717 8938
00000300: 7262 103d 7f4a f13a 5c22 413b 455a a1ba
00000310: 95fb e23b e2d5 9f3a 70cb c43a bc36 c13a
00000320: 658f 4ebc 7ed6 0db8 35ad 58ba 22a4 11ba
00000330: 93c4 8cbf e520 893d e770 60be b3e0 033a
00000340: 4a34 47bf a0eb 353e 0cfe 28bf 75c8 efb8
00000350: 4249 2dbe e76b adb8 99f2 1a3b bc7d 00ba
00000360: c8ce 063f cda7 55be 878d 233f 8d81 7d3a
00000370: 2212 89bf 66ca 6d3d 2f6c 5bbe 0f85 c739
00000380: 9dbd 153f 3335 16be 2d44 8e3e d019 ac3a
00000390: 1a3d 4fbf 1a97 2f3e 62aa 1abf ec94 6dba
000003a0: 55e3 1f3f f248 16be 1335 8f3e 2001 903a
000003b0: ad07 73bf 836b c539 7b85 2a38 28b3 2e3a
000003c0: 7e17 6bbd 3e3d b3b9 94ea f536 caa1 3e3a
000003d0: 61a0 9c3f dd7f 8a3d c30d f83d 1a19 703a
000003e0: b78b 65bf 4ed0 3a3e eec3 0bbf eed9 fa3a
000003f0: 6404 973f 75d5 123d 32d0 013e a981 63b9

1.0.mdl.input_to_hidden.0.mask f4 [100, 4]
1.0 1.0 0.0 0.0 1.0 1.0 0.0 0.0
1.0 0.0 0.0 0.0 1.0 0.0 0.0 0.0
1.0 0.0 0.0 0.0 1.0 1.0 1.0 0.0
1.0 1.0 0.0 0.0 1.0 0.0 0.0 0.0
1.0 1.0 1.0 0.0 1.0 0.0 0.0 0.0
1.0 1.0 0.0 0.0 1.0 1.0 0.0 0.0
1.0 1.0 0.0 0.0 1.0 0.0 0.0 0.0
1.0 1.0 1.0 0.0 1.0 1.0 0.0 0.0
1.0 1.0 0.0 0.0 1.0 1.0 1.0 0.0
1.0 0.0 0.0 0.0 1.0 1.0 0.0 0.0
1.0 1.0 1.0 0.0 1.0 0.0 0.0 0.0
1.0 0.0 0.0 0.0 1.0 1.0 0.0 0.0
1.0 1.0 1.0 0.0 1.0 1.0 0.0 0.0
1.0 0.0 0.0 0.0 1.0 1.0 0.0 0.0
1.0 0.0 0.0 0.0 1.0 1.0 0.0 0.0
1.0 1.0 0.0 0.0 1.0 1.0 0.0 0.0
1.0 1.0 0.0 0.0 1.0 0.0 0.0 0.0
1.0 0.0 0.0 0.0 1.0 1.0 0.0 0.0
1.0 0.0 0.0 0.0 1.0 0.0 0.0 0.0
1.0 1.0 1.0 0.0 1.0 0.0 0.0 0.0
1.0 1.0 1.0 0.0 1.0 0.0 0.0 0.0
1.0 1.0 1.0 0.0 1.0 1.0 0.0 0.0
1.0 0.0 0.0 0.0 1.0 1.0 0.0 0.0
1.0 1.0 0.0 0.0 1.0 0.0 0.0 0.0
1.0 0.0 0.0 0.0 1.0 0.0 0.0 0.0
1.0 0.0 0.0 0.0 1.0 1.0 1.0 0.0
1.0 1.0 1.0 0.0 1.0 0.0 0.0 0.0
1.0 1.0 1.0 0.0 1.0 1.0 1.0 0.0
1.0 1.0 1.0 0.0 1.0 1.0 1.0 0.0
1.0 1.0 1.0 0.0 1.0 0.0 0.0 0.0
1.0 0.0 0.0 0.0 1.0 1.0 1.0 0.0
1.0 1.0 1.0 0.0 1.0 1.0 1.0 0.0
00000000: 0000 803f 0000 803f 0000 0000 0000 0000
00000010: 0000 803f 0000 803f 0000 0000 0000 0000
00000020: 0000 803f 0000 0000 0000 0000 0000 0000
00000030: 0000 803f 0000 0000 0000 0000 0000 0000
00000040: 0000 803f 0000 0000 0000 0000 0000 0000
00000050: 0000 803f 0000 803f 0000 803f 0000 0000
00000060: 0000 803f 0000 803f 0000 0000 0000 0000
00000070: 0000 803f 0000 0000 0000 0000 0000 0000
00000080: 0000 803f 0000 803f 0000 803f 0000 0000
00000090: 0000 803f 0000 0000 0000 0000 0000 0000
000000a0: 0000 803f 0000 803f 0000 0000 0000 0000
000000b0: 0000 803f 0000 803f 0000 0000 0000 0000
000000c0: 0000 803f 0000 803f 0000 0000 0000 0000
000000d0: 0000 803f 0000 0000 0000 0000 0000 0000
000000e0: 0000 803f 0000 803f 0000 803f 0000 0000
000000f0: 0000 803f 0000 803f 0000 0000 0000 0000
00000100: 0000 803f 0000 803f 0000 0000 0000 0000
00000110: 0000 803f 0000 803f 0000 803f 0000 0000
00000120: 0000 803f 0000 0000 0000 0000 0000 0000
00000130: 0000 803f 0000 803f 0000 0000 0000 0000
00000140: 0000 803f 0000 803f 0000 803f 0000 0000
00000150: 0000 803f 0000 0000 0000 0000 0000 0000
00000160: 0000 803f 0000 0000 0000 0000 0000 0000
00000170: 0000 803f 0000 803f 0000 0000 0000 0000
00000180: 0000 803f 0000 803f 0000 803f 0000 0000
00000190: 0000 803f 0000 803f 0000 0000 0000 0000
000001a0: 0000 803f 0000 0000 0000 0000 0000 0000
000001b0: 0000 803f 0000 803f 0000 0000 0000 0000
000001c0: 0000 803f 0000 0000 0000 0000 0000 0000
000001d0: 0000 803f 0000 803f 0000 0000 0000 0000
000001e0: 0000 803f 0000 803f 0000 0000 0000 0000
000001f0: 0000 803f 0000 803f 0000 0000 0000 0000
00000200: 0000 803f 0000 803f 0000 0000 0000 0000
00000210: 0000 803f 0000 0000 0000 0000 0000 0000
00000220: 0000 803f 0000 0000 0000 0000 0000 0000
00000230: 0000 803f 0000 803f 0000 0000 0000 0000
00000240: 0000 803f 0000 0000 0000 0000 0000 0000
00000250: 0000 803f 0000 0000 0000 0000 0000 0000
00000260: 0000 803f 0000 803f 0000 803f 0000 0000
00000270: 0000 803f 0000 0000 0000 0000 0000 0000
00000280: 0000 803f 0000 803f 0000 803f 0000 0000
00000290: 0000 803f 0000 0000 0000 0000 0000 0000
000002a0: 0000 803f 0000 803f 0000 803f 0000 0000
000002b0: 0000 803f 0000 803f 0000 0000 0000 0000
000002c0: 0000 803f 0000 0000 0000 0000 0000 0000
000002d0: 0000 803f 0000 803f 0000 0000 0000 0000
000002e0: 0000 803f 0000 803f 0000 0000 0000 0000
000002f0: 0000 803f 0000 0000 0000 0000 0000 0000
00000300: 0000 803f 0000 0000 0000 0000 0000 0000
00000310: 0000 803f 0000 0000 0000 0000 0000 0000
00000320: 0000 803f 0000 0000 0000 0000 0000 0000
00000330: 0000 803f 0000 803f 0000 803f 0000 0000
00000340: 0000 803f 0000 803f 0000 803f 0000 0000
00000350: 0000 803f 0000 0000 0000 0000 0000 0000
00000360: 0000 803f 0000 803f 0000 803f 0000 0000
00000370: 0000 803f 0000 803f 0000 803f 0000 0000
00000380: 0000 803f 0000 803f 0000 803f 0000 0000
00000390: 0000 803f 0000 803f 0000 803f 0000 0000
000003a0: 0000 803f 0000 803f 0000 803f 0000 0000
000003b0: 0000 803f 0000 0000 0000 0000 0000 0000
000003c0: 0000 803f 0000 0000 0000 0000 0000 0000
000003d0: 0000 803f 0000 803f 0000 803f 0000 0000
000003e0: 0000 803f 0000 803f 0000 803f 0000 0000
000003f0: 0000 803f 0000 803f 0000 803f 0000 0000

1.0.mdl.input_to_hidden.0.cscale.weight f4 [100, 1]
-0.0013634118 -3.140419e-05 4.9180027e-05 -0.0017194682 0.0007864472 -0.0010783258 -8.522714e-05 6.5446206e-06
0.00036382818 0.0006655473 -0.0007160326 0.00037763786 0.0011081776 0.00025046786 0.0017979197 -0.00046628452
-0.0010807858 0.0005365834 0.0016245092 -0.001123452 0.001480545 0.0013201425 0.00025466687 -0.0008119735
-0.00042825946 0.0016864254 -0.00041019233 0.00038727297 -0.0013853933 -0.002248134 0.00061318214 0.0007144158
-0.0003909185 -0.00081830635 -0.00088784716 -0.0015431372 0.00021894394 -0.000997149 -0.0006060908 0.00074070296
0.00049174164 0.0008037154 0.0014004512 0.00030169735 -0.0022068073 0.00022471564 -0.0018227583 0.00047972138
0.00039363327 -0.00012973961 0.0010027818 0.00027011754 -0.001359213 -0.00044783083 -0.00045017453 5.2255855e-05
-0.00027260152 0.0007476974 -5.1696785e-05 -1.8926874e-05 -0.0027010052 0.00046460493 0.0006067529 -0.00055533275
-0.0001439815 -6.657008e-05 0.00014529451 -0.0015054381 0.001567003 -0.00085080933 0.000515701 -0.0010570075
0.00039444584 0.0012695699 -0.00031947065 -0.0012075317 0.0010489014 0.00030215253 -0.00090107217 -0.001350026
-0.0003431725 0.0015120313 -0.0005868368 -0.0007772188 0.00033962328 0.00037776018 0.0010380275 -0.0013670259
-0.0015170671 -0.00079407444 -6.365932e-05 0.00054914475 -0.00031489434 -0.00039409305 -0.00040450224 0.0011178964
-0.0007709885 0.0013998249 -0.0003399906 0.00044242715
00000000: 82b4 b2ba feb7 03b8 a746 4e38 c75f e1ba
00000010: 9429 4e3a 9c56 8dba f9bb b2b8 dd99 db36
00000020: 31c0 be39 2078 2e3a 22b4 3bba b2fd c539
00000030: 4540 913a 3a51 8339 2da8 eb3a a677 f4b9
00000040: 27a9 8dba 81a9 0c3a 7ced d43a cb40 93ba
00000050: d90e c23a a208 ad3a cf84 8539 9fda 54ba
00000060: 0388 e0b9 0c0b dd3a 150f d7b9 e60a cb39
00000070: 1696 b5ba 6e55 13bb f5bd 203a a247 3b3a
00000080: 31f4 ccb9 9c83 56ba 6abe 68ba 1843 caba
00000090: 5194 6539 c5b2 82ba 11e2 1eba bc2b 423a
000000a0: 39e8 003a 6db0 523a 588f b73a 222d 9e39
000000b0: 15a0 10bb a5a1 6b39 9fe9 eeba 1d83 fb39
000000c0: 9060 ce39 b60a 08b9 c66f 833a 909e 8d39
000000d0: 9f27 b2ba d6ca eab9 6705 ecb9 4c2d 5b38
000000e0: f5eb 8eb9 2001 443a 00d5 58b8 27c5 9eb7
000000f0: 5903 31bb 3896 f339 7f0e 1f3a c093 11ba
00000100: bdf9 16b9 8a9b 8bb8 335a 1839 1f52 c5ba
00000110: e563 cd3a d908 5fba 1c30 073a 498b 8aba
00000120: a0cd ce39 b267 a63a a07e a7b9 0a46 9eba
00000130: 4a7b 893a 3a6a 9e39 ee35 6cba 5bf3 b0ba
00000140: d5eb b3b9 5a2f c63a f3d5 19ba 45be 4bba
00000150: 770f b239 1d0e c639 6c0e 883a c72d b3ba
00000160: 53d8 c6ba 6f29 50ba d680 85b8 7bf4 0f3a
00000170: 6718 a5b9 469e ceb9 5f13 d4b9 6186 923a
00000180: 2a1c 4aba 547a b73a c440 b2b9 91f5 e739

1.0.mdl.input_to_hidden.0.cscale.bias f4 [100]
-0.672255 1.7527423 -0.25190246 0.95020366 -0.13963902 -1.4184828 0.74581176 -0.54701024
-1.0722196 0.98832023 0.86065567 0.97260773 -1.4517943 0.19624887 -1.8623922 0.86366504
0.76510817 -1.8068864 -0.4973621 -0.60059935 1.818861 0.39703527 -0.88147974 -1.5957239
-0.6851813 -1.6140113 -0.8677761 -0.6170838 -0.6645186 -1.8585999 -0.9805975 1.8918611
-0.934149 0.7955037 0.4287321 -0.5082173 -1.4440602 -0.14564103 2.058583 -0.49504292
-0.97556895 -1.0264164 -1.0500711 0.83776027 0.21791539 -1.730196 0.9001737 0.75792956
-0.4750267 -0.20274228 0.02061565 -1.7345561 1.1381727 0.69178706 -0.9583943 -2.02126
0.95081604 1.5638279 0.9541596 1.7624243 0.77146614 2.3076193 2.0255647 2.0396397
-0.8611837 2.0261118 0.835595 1.0066099 1.2992977 -0.73141396 -1.201045 -1.2334937
1.1212682 -1.6103764 1.4494166 -0.74476016 1.1216695 -1.982535 0.26309344 -1.0754553
1.6606523 -1.6937617 -1.6620574 -1.5845674 1.634261 -0.62567717 0.6153743 -1.4931386
1.1098844 -0.6210139 -1.2241259 -1.9225246 -1.3286127 -1.7609929 1.6980139 -0.40083948
-1.0782531 1.9547297 -0.9833816 0.49492154
00000000: e718 2cbf dc59 e03f 5cf9 80be 8c40 733f
00000010: 88fd 0ebe d890 b5bf 85ed 3e3f dd08 0cbf
00000020: 7e3e 89bf 8e02 7d3f ee53 5c3f d2fc 783f
00000030: 65d4 b9bf 77f5 483e de62 eebf 2719 5d3f
00000040: 21de 433f 0e48 e7bf 3fa6 febe e1c0 19bf
00000050: 70d0 e83f 3548 cb3e a8a8 61bf ae40 ccbf
00000060: 0b68 2fbf ec97 cebf 9326 5ebf 34f9 1dbf
00000070: e41d 2abf 9ae6 edbf 7008 7bbf 8128 f23f
00000080: 6424 6fbf 21a6 4b3f c682 db3e 871a 02bf
00000090: f7d6 b8bf ec22 15be d3bf 0340 4476 fdbe
000000a0: e3be 79bf 9d61 83bf bb68 86bf 7577 563f
000000b0: 3625 5f3e 1077 ddbf c971 663f ac07 423f
000000c0: b336 f3be ac9b 4fbe 27e2 a83c ef05 debf
000000d0: a5af 913f f518 313f 5459 75bf 535c 01c0
000000e0: ae68 733f 832b c83f ce43 743f 1f97 e13f
000000f0: ce7e 453f 09b0 1340 daa2 0140 7589 0240
00000100: 8976 5cbf d1ab 0140 8ee9 553f 98d8 803f
00000110: 634f a63f f23d 3bbf d8bb 99bf 1fe3 9dbf
00000120: b785 8f3f d020 cebf 7c86 b93f 9aa8 3ebf
00000130: de92 8f3f b5c3 fdbf 2fb4 863e 85a8 89bf
00000140: 4190 d43f 2fcd d8bf 4cbe d4bf 1bd3 cabf
00000150: 772f d13f 612c 20bf 2c89 1d3f 2a1f bfbf
00000160: b110 8e3f c4fa 1ebf 28b0 9cbf 4915 f6bf
00000170: fb0f aabf 3768 e1bf 8558 d93f d53a cdbe
00000180: 3304 8abf 9534 fa3f e6be 7bbf 5b66 fd3e

1.0.mdl.input_to_hidden.0.cbias.weight f4 [100, 1]
0.00021317288 -0.00014215977 0.00019725347 -4.9082482e-06 0.0010154623 0.0003532043 -0.00096881983 -0.0006812795
-3.746735e-05 0.00057915604 -0.00035154226 0.0010884184 0.0010791679 -0.00017688225 0.0016301519 0.0014329047
-0.0006007846 0.0007592665 0.00085161877 0.0005952416 0.0020195865 0.00033137747 -0.0009975173 0.0018082554
-0.0005669082 -0.0012836757 0.00087395986 0.0010632025 0.0001879732 -0.0006251735 0.00022159403 -0.0006112576
-0.0008681491 0.0005719802 -0.0005195321 0.00031682078 -0.00013097408 0.00076141534 0.0017580545 0.0011203827
-0.0018926489 4.0405084e-06 7.335646e-05 -0.0017462664 0.0011855141 0.0001936702 0.0006690112 -0.0015103319
-0.00054879225 7.8579236e-05 -0.0015956584 0.0005954446 0.000160243 0.0015858434 0.001616116 -0.001685888
-0.00027867995 0.00035937483 0.00027478728 0.00036528983 -0.00087311637 0.0006271126 -0.001117272 0.00038914054
-0.00034039715 0.0010379648 -0.00083248725 -0.00018882978 0.00090340583 0.00035309364 -0.00086821936 0.00010918793
0.0013226058 0.00017964514 -0.00079163746 -0.0010205241 0.0010736681 -0.0001482479 0.0025237608 6.8067675e-05
-0.0017679812 -0.0013887715 -0.00075659325 0.0014905952 0.00018125263 -0.00045457034 0.00054891757 0.0009054906
-0.0005597409 0.0016249912 -0.0030381498 -0.0021080594 -0.0005486122 0.0005339524 -0.00025328968 0.00037727656
0.0013294893 -0.0008596387 -0.0017995834 0.0010103171
00000000: 2987 5f39 b910 15b9 d3d5 4e39 88b1 a4b6
00000010: 4319 853a 472e b939 66f8 7dba e597 32ba
00000020: 4326 1db8 81d2 173a 344f b8b9 43a9 8e3a
00000030: de72 8d3a 7879 39b9 d2aa d53a 4ed0 bb3a
00000040: f97d 1dba 8309 473a 2b3f 5f3a fd09 1c3a
00000050: 0a5b 043b bbbc ad39 20bf 82ba fc02 ed3a
00000060: 919c 14ba 0241 a8ba 741a 653a 285b 8b3a
00000070: ac1a 4539 afe2 23ba b25b 6839 ce3c 20ba
00000080: 8094 63ba f1f0 153a 3631 08ba f71a a639
00000090: 1656 09b9 b899 473a 856e e63a ced9 923a
000000a0: c212 f8ba b493 8736 f3d6 9938 fae2 e4ba
000000b0: 4163 9b3a f313 4b39 9560 2f3a 54f6 c5ba
000000c0: d3dc 0fba e8ca a438 6925 d1ba 9c17 1c3a
000000d0: e706 2839 13dc cf3a dbd3 d33a 04f9 dcba
000000e0: ca1b 92b9 796a bc39 5311 9039 5f84 bf39
000000f0: d9e1 64ba d064 243a 6d71 92ba 8f05 cc39
00000100: 5577 b2b9 520c 883a 463b 5aba 9c00 46b9
00000110: 8ad2 6c3a 6d1f b939 3799 63ba d3fb e438
00000120: 495b ad3a 205f 3c39 e485 4fba 1bc3 85ba
00000130: 53ba 8c3a fe72 1bb9 ae65 253b 8ebf 8e38
00000140: 9bbb e7ba 7007 b6ba 1d56 46ba 1360 c33a
00000150: a20e 3e39 6653 eeb9 3ce5 0f3a 725e 6d3a
00000160: 93bb 12ba a8fd d43a b21b 47bb 5e27 0abb
00000170: bed0 0fba f0f8 0b3a f7cb 84b9 34cd c539
00000180: 4242 ae3a 6059 61ba 00e0 ebba 9e6c 843a

1.0.mdl.input_to_hidden.0.cbias.bias f4 [100]
-1.116599 1.5563495 0.81480694 -1.3632907 -1.4076309 -0.6757506 -1.0512797 1.2609184
1.5018021 1.536929 -1.4404737 1.0289085 0.56998646 -1.1897277 1.1758012 -1.4344472
1.2733651 -0.48809677 1.4875667 -1.2704152 -0.5999669 -1.0716226 1.3996998 1.347744
-0.87830824 1.1698432 -0.76230544 -1.2608984 -1.4093874 0.4950584 0.7104948 -0.51404804
1.3225964 0.9603721 1.3819071 -1.1040523 1.1956059 -1.2264124 -0.4195699 -0.7345116
1.3289449 0.5604323 -0.55150914 -0.8964138 0.9937909 1.1103362 -0.79909676 1.3169729
-0.6215833 1.0219066 1.1423489 -0.6575292 0.6215731 -1.1991987 1.3212152 -0.5516508
-1.0322195 0.7352776 -0.980419 0.43182003 -0.67701274 -1.1352054 0.76277596 -1.0693369
1.2598643 0.7959698 -1.0370215 -0.49739784 0.5595168 -0.5903242 0.74105597 0.45853654
-0.5209577 -0.445363 -0.375151 -1.3222532 1.1007608 0.8305512 1.3395671 1.4670229
0.73013806 -0.53565276 0.5425899 0.5039966 -0.5604535 -1.3517838 -0.81574893 0.9408663
1.3262105 -0.9435771 0.4471028 -0.5013869 -1.1320605 -0.49607617 -0.95260024 -1.0159066
1.1205213 -0.7995021 -0.95304525 -1.419189
00000000: b7ec 8ebf 7636 c73f 3097 503f 4f80 aebf
00000010: 402d b4bf fefd 2cbf 5590 86bf c665 a13f
00000020: 0d3b c03f 17ba c43f 7161 b8bf 46b3 833f
00000030: a2ea 113f ff48 98bf a780 963f f79b b7bf
00000040: a1fd a23f d2e7 f9be 9668 be3f f79c a2bf
00000050: 6e97 19bf ee2a 89bf 5d29 b33f e082 ac3f
00000060: cfd8 60bf 6cbd 953f 7326 43bf 1e65 a1bf
00000070: ce66 b4bf 4b78 fd3e fde2 353f a798 03bf
00000080: d74a a93f f2da 753f 55e2 b03f 9651 8dbf
00000090: 9d09 993f 15fb 9cbf ded1 d6be f408 3cbf
000000a0: de1a aa3f 7e78 0f3f b42f 0dbf 607b 65bf
000000b0: 1569 7e3f 7f1f 8e3f 9b91 4cbf 9192 a83f
000000c0: 1520 1fbf d6cd 823f 7d38 923f d553 28bf
000000d0: 6a1f 1f3f 587f 99bf 941d a93f fd38 0dbf
000000e0: c51f 84bf 273b 3c3f bdfc 7abf 8417 dd3e
000000f0: b550 2dbf 694e 91bf 4945 433f 08e0 88bf
00000100: 3c43 a13f adc4 4b3f 1fbd 84bf eeaa febe
00000110: 7e3c 0f3f 7d1f 17bf d8b5 3d3f 4dc5 ea3e
00000120: 7c5d 05bf 9e06 e4be cb13 c0be 983f a9bf
00000130: bbe5 8c3f 019f 543f ef76 ab3f 68c7 bb3f
00000140: 54ea 3a3f 8a20 09bf 2ce7 0a3f ec05 013f
00000150: e179 0fbf 4007 adbf ecd4 50bf 9ddc 703f
00000160: 44c1 a93f 458e 71bf a8ea e43e e45a 00bf
00000170: 5ce7 90bf b2fd fdbe 9cdd 73bf 3a09 82bf
00000180: 3e6d 8f3f 2bac 4cbf c6fa 73bf fca7 b5bf
