models/lhc_binned_en8of10_sp0_e400_s1993_p0.0_h100_faffine_fl5_l1_dsdim16_dsl1_cudaFalse_last_model.pt (torch_old, 195175 bytes, 73 tensors)

0.0.mdl.input_to_hidden.0.direction f4 [100, 14]
000000 c7 39 8c 3a 30 81 5f bb d0 28 99 3d 33 27 e4 3a
       0.0010698371 -0.0034104101 0.074784875 0.0017406702
000010 43 9e 0a b7 5f fd 92 39 91 dc c8 3a 7e 9d 0f 3a
       -8.262289e-06 0.00028036066 0.0015324523 0.0005478485
000020 df f6 dd b9 60 e2 9c 3a 8f e4 91 ba ba 9a 06 3b
       -0.00042336338 0.001196932 -0.0011130738 0.0020539002
000030 1c 12 68 3a 8c ae e6 39 6f 90 c5 3a 13 f7 ed 3a
       0.0008852796 0.00043999066 0.0015072952 0.0018155299
000040 ed b9 07 3c 0e f3 36 3e d9 80 51 3d 00 63 0f 3b
       0.008284074 0.17866156 0.05114827 0.0021879077
000050 e7 ba 80 38 8e bb 76 39 c6 42 7d ba a2 25 18 ba
       6.138329e-05 0.00023530258 -0.0009661134 -0.00058039476
000060 d1 6f ea 39 0b a7 18 3a c7 95 21 3b 65 0b 4d b9
       0.00044715268 0.0005823231 0.0024655925 -0.00019554568
000070 a7 b7 25 bc dd 07 63 bc cd 50 1e bd 58 1b 63 3c
       -0.010114587 -0.013856855 -0.038651276 0.0138615
000080 45 62 f8 3c ac b5 83 bd 9a ec 05 be 47 5d 53 bc
       0.030320296 -0.064311355 -0.13078538 -0.012900657
000090 9e 2b 69 b9 63 ad 43 3a 29 09 4b b8 98 40 c7 38
       -0.0002223686 0.00074644963 -4.8407503e-05 9.501091e-05
0000a0 ac cc d0 ba f6 8d b8 39 b8 d5 7a bb f3 cf 09 be
       -0.0015930138 0.00035200984 -0.003827436 -0.13458233
0000b0 21 b1 32 bb 0e 9f a3 bc 64 27 03 3d 6c 75 0e bd
       -0.0027266222 -0.019973304 0.032019988 -0.03477995
0000c0 10 e4 6d 3c ce fc 80 bc bc a2 31 be c3 ca 2b 3b
       0.014519706 -0.015745547 -0.17347234 0.0026213385
0000d0 0e 8d d9 b9 3f c1 00 ba f0 19 86 b9 8e d6 03 bb
       -0.0004149456 -0.00049116084 -0.00025577797 -0.0020116898
0000e0 2e 00 96 3d a0 53 16 3e 9f 94 9c 37 ab 61 9a bb
       0.07324253 0.14680338 1.8665856e-05 -0.00471135
0000f0 ba a1 00 3c fb 56 44 3c d4 6e 53 bd 58 7a 9a 3d
       0.007851059 0.011983628 -0.051619366 0.075428665
000100 38 38 18 3e ca 28 4e b9 a1 9b a6 3c 9e c7 d4 bc
       0.14865196 -0.00019660886 0.020337882 -0.025974091
000110 e9 99 1c ba f4 6a f0 b9 14 73 44 bb 82 ca e8 3c
       -0.0005973862 -0.00045856053 -0.0029975818 0.028416876
000120 04 01 df 3c f5 88 55 3c 56 fb d3 bd 69 f9 b1 3d
       0.027222164 0.013033141 -0.10350673 0.08690149
000130 ec 9b f6 b8 fe f6 dc 39 fc a5 58 39 e2 06 3d b8
       -0.00011759237 0.00042145693 0.00020661199 -4.506752e-05
000140 9a e6 9a 39 00 18 e4 39 55 a5 c4 39 5e ee 10 3a
       0.0002954498 0.0004350543 0.00037507215 0.00055286835
000150 e1 69 5a 3a 89 ce 16 3a 5b 1d e2 bb eb 1b 62 3e
       0.0008331817 0.0005752822 -0.006900472 0.22080962
000160 ab df 1e bf e1 52 a1 ba 1b d7 c4 b9 78 82 07 ba
       -0.6206004 -0.0012308025 -0.000375443 -0.00051692827
000170 d7 8f 2c 38 0f e5 32 ba 2c 2c 92 ba 0c 96 86 3a
       4.1141957e-05 -0.00068242935 -0.001115208 0.0010268106
000180 43 f5 99 39 55 36 57 ba 6f 34 36 3c 49 1d 4e 3d
       0.00029365168 -0.0008209695 0.0111209 0.050320897
000190 9b 7a 95 3b 77 3f 38 3c 92 05 83 3d 77 0d bb 3a
       0.004561735 0.0112456 0.06397547 0.0014270981
0001a0 53 c5 50 39 a0 d9 8a b9 b6 b2 68 3a f5 a4 35 ba
       0.00019909935 -0.00026483554 0.00088767277 -0.00069291826
0001b0 6f 7a cf 3a 10 5a a3 ba eb b4 3b ba e3 a9 cf ba
       0.0015829335 -0.0012462754 -0.0007160443 -0.0015843477
0001c0 88 6c 29 3d 0f 33 1b 3c 13 c7 94 bd 94 1e 44 3d
       0.04136327 0.009472623 -0.07264533 0.047880724
0001d0 d2 04 68 bd e6 0d 8b 3c 39 06 d6 bc 5e 14 61 bc
       -0.056645222 0.0169744 -0.026126014 -0.013737766
0001e0 a6 4a 0b 3d 4c b6 7f 3d ed 29 aa b9 e5 0f 9f 3a
       0.034006737 0.06242971 -0.00032456164 0.0012135474
0001f0 a5 87 5e 3a 76 d8 0b bb a2 0f dc 3c 0f 8f 89 3d
       0.00084888405 -0.0021338738 0.026862923 0.067167394
000200 fc dd 49 bb 74 ac 00 3d 5a e8 94 bd fd 37 95 3c
       -0.003080248 0.031414464 -0.0727088 0.018215174
000210 07 47 91 3d 4c 80 a3 39 38 e7 a8 3c e2 28 32 3b
       0.070936255 0.0003118537 0.020618066 0.0027185013
000220 0c 16 41 bf c5 85 bf 3a 9a 47 f8 ba 40 eb 09 ba
       -0.75424266 0.001461201 -0.0018942237 -0.000526119
000230 d0 fd 59 3c 30 21 1e bb 05 7f 5a ba b2 3d 8a 3a
       0.0133051425 -0.0024128668 -0.00083349674 0.0010546951
000240 15 6b 9f 3a d2 c6 b7 37 be 5b ba 39 15 92 4e 3a
       0.001216265 2.1907883e-05 0.00035545038 0.0007880044
000250 55 20 31 ba ee 53 ab 38 9f 68 4a 3a 4d ae fc b8
       -0.0006756832 8.1695485e-05 0.0007721278 -0.000120487624
000260 84 bd c7 39 c6 b1 0e b9 2a 65 0f 3c 8a 79 8e bb
       0.00038097438 -0.00013608401 0.008752147 -0.0043479847
000270 df 5a 05 bc 22 45 d6 3e ab 52 49 3f 7d 93 05 be
       -0.008139341 0.4184962 0.78641766 -0.13044544
000280 37 fa 1c 3c 1c 7b 30 bc 9a 0b 61 bd 7f b7 a3 39
       0.00958114 -0.010771539 -0.054942705 0.00031226498
000290 79 c0 04 b9 96 a5 41 3a 75 42 e8 39 88 e7 8d ba
       -0.00012660203 0.000738704 0.00044300003 -0.0010826448
0002a0 6d 9d 83 bd 45 a2 0b bc b6 93 ab 3a 02 55 55 be
       -0.06426511 -0.008522575 0.0013090286 -0.20833209
0002b0 68 9d 2d b7 46 ae d6 39 71 71 b6 b8 f8 8f 42 3a
       -1.03482525e-05 0.00040947105 -8.6995664e-05 0.0007421966
0002c0 82 eb 28 ba 6f b5 2c b9 14 6f 4e 3b 83 60 cb ba
       -0.0006443785 -0.00016470788 0.0031499313 -0.0015516434
0002d0 54 34 3b ba c8 b5 27 b9 dd b1 61 3d b4 98 aa bb
       -0.00071412814 -0.0001599408 0.055101264 -0.005206192
0002e0 df c8 f6 b9 ce 55 ca be 20 81 6e 3a 95 14 92 3a
       -0.00047070437 -0.3951859 0.00090982206 0.001114505
0002f0 9c 9a 6e ba e1 c5 a8 b9 28 13 55 ba 36 f6 34 ba
       -0.0009102018 -0.00032190888 -0.00081281597 -0.00069031434
000300 3c 82 69 ba e5 35 13 3a e6 f8 b2 ba 5c e1 c9 39
       -0.0008907651 0.0005615636 -0.00136545 0.00038505613
000310 ad 88 2c 3d ed 1b ad 3d 4e 5f 31 38 46 ec 9e 3c
       0.04212253 0.08452592 4.2288848e-05 0.019399773
000320 6f 4b a6 3d 5a 0d 09 be 37 78 98 3d b4 68 b6 3d
       0.081198566 -0.13384 0.07444804 0.08906689
000330 23 03 23 3e c2 a8 5d 3b 22 fa 15 ba b0 f3 db 3a
       0.15919165 0.0033822511 -0.00057211716 0.0016780999
000340 09 bc 52 3a f8 70 b8 3a b7 09 d0 bc 6b 0f 57 38
       0.00080388837 0.0014071753 -0.025395257 5.1274354e-05
000350 20 d1 f1 ba 76 8e de 3a 49 fc 99 ba 77 22 31 b8
       -0.0018449165 0.0016979713 -0.001174816 -4.2232186e-05
000360 4d bc 99 39 28 2c 26 bb ef dd 9e 3a 25 a0 cb 38
       0.0002932273 -0.002535591 0.0012120585 9.7096236e-05
000370 54 50 1b ba 5f f5 e5 b9 c3 f8 42 ba 8d 66 ce b9
       -0.00059247506 -0.000438611 -0.0007437581 -0.00039367788
000380 45 db 8d 3b b0 77 78 3b 21 19 4a bb 4a fc 0e 3f
       0.0043291175 0.0037913136 -0.0030837732 0.5585371
000390 96 f0 fe 3e fc 14 07 3f c0 88 ff 3e b9 14 1d 39
       0.49792928 0.52766395 0.4990902 0.00014980407
0003a0 ff 29 72 ba 09 23 7c ba 25 3b 71 ba cb 9e 1f bb
       -0.0009237825 -0.0009618258 -0.00092022336 -0.0024356123
0003b0 ab 75 c4 3a e6 77 84 3a aa af 05 3c 37 6a 28 bd
       0.0014988681 0.0010106533 0.008159557 -0.04111692
0003c0 4c 5e 00 bb ff 65 4d 3d 27 50 85 3d 37 61 ac bd
       -0.0019587455 0.0501461 0.065094285 -0.0841698
0003d0 fb 00 54 be b1 28 23 bc bc e2 0d be 1a c6 4e 39
       -0.20703499 -0.009958432 -0.13856024 0.0001971949
0003e0 ab 35 9a 3a 1a ff 8f ba d8 37 50 b9 0d 71 73 3a
       0.0011765262 -0.001098606 -0.00019857229 0.000928656
0003f0 47 05 15 bd 5a 54 a2 3c 06 bb a9 ba 2c 59 b7 be
       -0.036381986 0.019815613 -0.0012949414 -0.3581022

0.0.mdl.input_to_hidden.0.mask f4 [100, 14]
000000 00 00 80 3f 00 00 80 3f 00 00 80 3f 00 00 00 00
       1.0 1.0 1.0 0.0
000010 00 00 00 00 00 00 00 00 00 00 00 00 00 00 00 00
       0.0 0.0 0.0 0.0
000020 00 00 00 00 00 00 00 00 00 00 00 00 00 00 00 00
       0.0 0.0 0.0 0.0
000030 00 00 00 00 00 00 00 00 00 00 80 3f 00 00 80 3f
       0.0 0.0 1.0 1.0
000040 00 00 80 3f 00 00 80 3f 00 00 80 3f 00 00 00 00
       1.0 1.0 1.0 0.0
000050 00 00 00 00 00 00 00 00 00 00 00 00 00 00 00 00
       0.0 0.0 0.0 0.0
000060 00 00 00 00 00 00 00 00 00 00 00 00 00 00 00 00
       0.0 0.0 0.0 0.0
000070 00 00 80 3f 00 00 80 3f 00 00 80 3f 00 00 80 3f
       1.0 1.0 1.0 1.0
000080 00 00 80 3f 00 00 80 3f 00 00 80 3f 00 00 80 3f
       1.0 1.0 1.0 1.0
000090 00 00 00 00 00 00 00 00 00 00 00 00 00 00 00 00
       0.0 0.0 0.0 0.0
0000a0 00 00 00 00 00 00 00 00 00 00 80 3f 00 00 80 3f
       0.0 0.0 1.0 1.0
0000b0 00 00 80 3f 00 00 80 3f 00 00 80 3f 00 00 80 3f
       1.0 1.0 1.0 1.0
0000c0 00 00 80 3f 00 00 80 3f 00 00 80 3f 00 00 00 00
       1.0 1.0 1.0 0.0
0000d0 00 00 00 00 00 00 00 00 00 00 00 00 00 00 00 00
       0.0 0.0 0.0 0.0
0000e0 00 00 80 3f 00 00 80 3f 00 00 80 3f 00 00 80 3f
       1.0 1.0 1.0 1.0
0000f0 00 00 80 3f 00 00 80 3f 00 00 80 3f 00 00 80 3f
       1.0 1.0 1.0 1.0
000100 00 00 80 3f 00 00 80 3f 00 00 80 3f 00 00 80 3f
       1.0 1.0 1.0 1.0
000110 00 00 00 00 00 00 00 00 00 00 80 3f 00 00 80 3f
       0.0 0.0 1.0 1.0
000120 00 00 80 3f 00 00 80 3f 00 00 80 3f 00 00 80 3f
       1.0 1.0 1.0 1.0
000130 00 00 00 00 00 00 00 00 00 00 00 00 00 00 00 00
       0.0 0.0 0.0 0.0
000140 00 00 00 00 00 00 00 00 00 00 00 00 00 00 00 00
       0.0 0.0 0.0 0.0
000150 00 00 80 3f 00 00 80 3f 00 00 80 3f 00 00 80 3f
       1.0 1.0 1.0 1.0
000160 00 00 80 3f 00 00 00 00 00 00 00 00 00 00 00 00
       1.0 0.0 0.0 0.0
000170 00 00 00 00 00 00 00 00 00 00 00 00 00 00 00 00
       0.0 0.0 0.0 0.0
000180 00 00 00 00 00 00 00 00 00 00 80 3f 00 00 80 3f
       0.0 0.0 1.0 1.0
000190 00 00 80 3f 00 00 80 3f 00 00 80 3f 00 00 00 00
       1.0 1.0 1.0 0.0
0001a0 00 00 00 00 00 00 00 00 00 00 00 00 00 00 00 00
       0.0 0.0 0.0 0.0
0001b0 00 00 00 00 00 00 00 00 00 00 00 00 00 00 00 00
       0.0 0.0 0.0 0.0
0001c0 00 00 80 3f 00 00 80 3f 00 00 80 3f 00 00 80 3f
       1.0 1.0 1.0 1.0
0001d0 00 00 80 3f 00 00 80 3f 00 00 80 3f 00 00 80 3f
       1.0 1.0 1.0 1.0
0001e0 00 00 80 3f 00 00 80 3f 00 00 00 00 00 00 00 00
       1.0 1.0 0.0 0.0
0001f0 00 00 00 00 00 00 00 00 00 00 80 3f 00 00 80 3f
       0.0 0.0 1.0 1.0
000200 00 00 80 3f 00 00 80 3f 00 00 80 3f 00 00 80 3f
       1.0 1.0 1.0 1.0
000210 00 00 80 3f 00 00 80 3f 00 00 80 3f 00 00 80 3f
       1.0 1.0 1.0 1.0
000220 00 00 80 3f 00 00 00 00 00 00 00 00 00 00 00 00
       1.0 0.0 0.0 0.0
000230 00 00 80 3f 00 00 00 00 00 00 00 00 00 00 00 00
       1.0 0.0 0.0 0.0
000240 00 00 00 00 00 00 00 00 00 00 00 00 00 00 00 00
       0.0 0.0 0.0 0.0
000250 00 00 00 00 00 00 00 00 00 00 00 00 00 00 00 00
       0.0 0.0 0.0 0.0
000260 00 00 00 00 00 00 00 00 00 00 80 3f 00 00 80 3f
       0.0 0.0 1.0 1.0
000270 00 00 80 3f 00 00 80 3f 00 00 80 3f 00 00 80 3f
       1.0 1.0 1.0 1.0
000280 00 00 80 3f 00 00 80 3f 00 00 80 3f 00 00 00 00
       1.0 1.0 1.0 0.0
000290 00 00 00 00 00 00 00 00 00 00 00 00 00 00 00 00
       0.0 0.0 0.0 0.0
0002a0 00 00 80 3f 00 00 80 3f 00 00 80 3f 00 00 80 3f
       1.0 1.0 1.0 1.0
0002b0 00 00 00 00 00 00 00 00 00 00 00 00 00 00 00 00
       0.0 0.0 0.0 0.0
0002c0 00 00 00 00 00 00 00 00 00 00 00 00 00 00 00 00
       0.0 0.0 0.0 0.0
0002d0 00 00 00 00 00 00 00 00 00 00 80 3f 00 00 80 3f
       0.0 0.0 1.0 1.0
0002e0 00 00 80 3f 00 00 80 3f 00 00 00 00 00 00 00 00
       1.0 1.0 0.0 0.0
0002f0 00 00 00 00 00 00 00 00 00 00 00 00 00 00 00 00
       0.0 0.0 0.0 0.0
000300 00 00 00 00 00 00 00 00 00 00 00 00 00 00 00 00
       0.0 0.0 0.0 0.0
000310 00 00 80 3f 00 00 80 3f 00 00 80 3f 00 00 80 3f
       1.0 1.0 1.0 1.0
000320 00 00 80 3f 00 00 80 3f 00 00 80 3f 00 00 80 3f
       1.0 1.0 1.0 1.0
000330 00 00 80 3f 00 00 80 3f 00 00 00 00 00 00 00 00
       1.0 1.0 0.0 0.0
000340 00 00 00 00 00 00 00 00 00 00 80 3f 00 00 00 00
       0.0 0.0 1.0 0.0
000350 00 00 00 00 00 00 00 00 00 00 00 00 00 00 00 00
       0.0 0.0 0.0 0.0
000360 00 00 00 00 00 00 00 00 00 00 00 00 00 00 00 00
       0.0 0.0 0.0 0.0
000370 00 00 00 00 00 00 00 00 00 00 00 00 00 00 00 00
       0.0 0.0 0.0 0.0
000380 00 00 80 3f 00 00 80 3f 00 00 80 3f 00 00 80 3f
       1.0 1.0 1.0 1.0
000390 00 00 80 3f 00 00 80 3f 00 00 80 3f 00 00 80 3f
       1.0 1.0 1.0 1.0
0003a0 00 00 00 00 00 00 00 00 00 00 00 00 00 00 00 00
       0.0 0.0 0.0 0.0
0003b0 00 00 00 00 00 00 00 00 00 00 80 3f 00 00 80 3f
       0.0 0.0 1.0 1.0
0003c0 00 00 80 3f 00 00 80 3f 00 00 80 3f 00 00 80 3f
       1.0 1.0 1.0 1.0
0003d0 00 00 80 3f 00 00 80 3f 00 00 80 3f 00 00 80 3f
       1.0 1.0 1.0 1.0
0003e0 00 00 00 00 00 00 00 00 00 00 00 00 00 00 00 00
       0.0 0.0 0.0 0.0
0003f0 00 00 80 3f 00 00 80 3f 00 00 80 3f 00 00 80 3f
       1.0 1.0 1.0 1.0

0.0.mdl.input_to_hidden.0.cscale.weight f4 [100, 1]
000000 1a 65 d0 b9 94 5a c5 b9 8a 7b 7d ba b7 f0 d4 38
       -0.00039748178 -0.00037642254 -0.0009669593 0.000101537844
000010 08 2e 4c 3a 6c 42 3a 39 a6 20 25 ba f7 77 72 b9
       0.00077888416 0.00017763086 -0.00062991155 -0.00023123609
000020 90 6d 64 3a 83 22 21 ba 98 a3 b0 38 83 fe 13 ba
       0.0008713836 -0.0006146805 8.422806e-05 -0.000564553
000030 d1 a1 39 ba 45 73 b6 3a ad ed c9 3a 60 ac da 36
       -0.00070813025 0.0013919851 0.0015405916 6.5169734e-06
000040 4f 72 0b 3a 0e d5 8c 3a 04 5f e0 3a f1 6e 32 b9
       0.00053194625 0.0010744648 0.0017118161 -0.00017016732
000050 20 18 cb 3a b8 8d e5 ba 0b 9d ae 3a 8a 45 34 39
       0.0015494861 -0.0017513549 0.0013321949 0.00017192043
000060 69 be 0b 3a c1 10 8c 3a 1a 29 d4 b9 40 b8 8e 39
       0.00053308025 0.0010686145 -0.00040466414 0.00027221628
000070 cf 48 60 ba 04 f0 42 ba 89 f5 89 3a 7a 28 98 3a
       -0.0008555771 -0.0007436278 0.0010525446 0.0011608743
000080 e5 2b dd 3a 7c 28 cc 38 cc 88 8a ba 8e 7d 35 bb
       0.0016874044 9.735019e-05 -0.0010569333 -0.0027693245
000090 65 74 57 ba 28 4c db 3a 70 b0 a2 39 c9 d1 b6 b8
       -0.0008218943 0.001673107 0.00031030504 -8.717512e-05
0000a0 21 b8 3b b8 d5 bd 9f ba 86 23 31 3a 8d 48 d1 b9
       -4.4755758e-05 -0.0012187312 0.00067573076 -0.0003991764
0000b0 f4 90 c8 3a 37 26 9e b9 81 ba 7f ba ff 02 90 ba
       0.0015301988 -0.0003016458 -0.0009755269 -0.0010987221
0000c0 10 5d a0 3a 13 fc d7 ba 75 13 9e 3a 91 b9 8e 3a
       0.0012234766 -0.0016478322 0.0012060242 0.0010889043
0000d0 14 70 1a 38 4e 37 ca 39 40 21 48 b9 d8 0a 80 ba
       3.6820842e-05 0.00038569648 -0.00019085873 -0.0009768857
0000e0 74 4f 5a ba 6b 0f ab 39 2c 17 7f ba ed 60 f3 39
       -0.00083278795 0.0003262715 -0.0009730931 0.00046420787
0000f0 5a 93 1c ba bf bc 29 3a ed 7a fa b9 26 53 c0 39
       -0.0005972885 0.0006474964 -0.00047775303 0.00036683044
000100 8d 14 a3 ba 7c a0 f0 39 cf 39 e5 39 6c da 23 3a
       -0.0012442038 0.00045895937 0.00043721354 0.0006250504
000110 e3 a9 ab 39 c4 a2 ab b9 0f c5 98 39 37 72 de b9
       0.00032742237 -0.00032736931 0.0002913852 -0.00042428236
000120 02 d4 51 3a 27 d3 2c b9 5e 0e 90 ba 77 d2 c1 b9
       0.0008004309 -0.00016481859 -0.001099061 -0.00036968637
000130 1d 9f 05 ba 04 c7 31 ba fb e1 ba 39 02 20 2a b9
       -0.0005097257 -0.000678167 0.00035645053 -0.00016224387
000140 40 12 87 b9 92 01 c8 39 a9 15 9b 3a 3e 42 02 b8
       -0.00025762804 0.00038148143 0.0011832017 -3.1056108e-05
000150 09 77 7d b6 fd 38 c7 39 f2 44 20 3b 08 05 74 ba
       -3.7769225e-06 0.00037998697 0.0024455157 -0.0009308611
000160 11 a7 0b bb c9 25 66 3a a0 3e 5d b8 4e 9b 2c b9
       -0.0021309296 0.0008779434 -5.274883e-05 -0.00016461054
000170 c5 e5 99 ba df 4b 86 38 ab d4 fe 39 47 be a1 ba
       -0.001174145 6.40375e-05 0.00048605105 -0.0012340032
000180 35 4d 98 ba a2 f7 a3 3a 17 bf b3 3a b3 c8 1f ba
       -0.0011619689 0.0012509713 0.0013713565 -0.0006095275

0.0.mdl.input_to_hidden.0.cscale.bias f4 [100]
000000 f9 47 1f bf 4f 0a 11 3e 31 d9 d8 3e 9a 5f 51 bf
       -0.62219197 0.14164089 0.42353204 -0.817865
000010 3b 6d a1 3f 30 c4 8c 3e 49 4c 37 3f 2e 3e 7c bf
       1.261146 0.2749343 0.71600777 -0.9853238
000020 ca 31 76 bf 08 c3 bf 3f 03 65 0f 3f 7c bf 7e bf
       -0.9616972 1.4981394 0.56013507 -0.9951093
000030 bf 00 2d 3e 77 d4 a8 3f 5c 12 3c bf 35 4a 11 be
       0.16894816 1.3189839 -0.73465514 -0.14188464
000040 c0 e8 8e bf 87 78 65 bf 84 f2 b5 be 3b 0c 44 bf
       -1.116478 -0.89637035 -0.35536587 -0.7658116
000050 91 e6 a6 bf 71 50 d2 3e 97 d6 82 bf cc 41 23 bf
       -1.3039113 0.41076997 -1.0221738 -0.63772273
000060 dc 77 a7 bf de 87 ac be 72 95 bb 3e ca a3 8a 3e
       -1.3083453 -0.33697408 0.36637455 0.27078086
000070 15 7b 61 bf bf 8f 1b bf f2 83 07 bf 68 1c 30 bf
       -0.88078433 -0.60766214 -0.5293571 -0.68793344
000080 53 20 75 bd d3 04 63 3d e2 ce d2 3e 6a 25 ee b9
       -0.05984528 0.055424523 0.41173464 -0.00045422773
000090 5c 27 72 bf 94 93 11 3f b8 25 ad bf 16 07 30 bf
       -0.9459131 0.5686581 -1.3527136 -0.6876081
0000a0 b0 cb c7 be 56 8d 73 bf 0e ee 13 bf e5 7d 44 bf
       -0.3902259 -0.95137537 -0.5778512 -0.767546
0000b0 89 86 7b bf 1d 78 90 3f 76 af 60 3f c7 2d b8 be
       -0.9825216 1.1286656 0.8776773 -0.35972425
0000c0 7d 7f 00 bf 5d 4f cc 3d 75 7d f1 be 2e c1 fd 3e
       -0.5019453 0.09976075 -0.4716603 0.49561447
0000d0 03 12 57 bf 51 28 38 bf 9a 90 3b bf 66 37 56 3f
       -0.8401186 -0.7193652 -0.7326752 0.8367828
0000e0 cf cc 30 bf c9 db 2a 3f 70 13 82 3f 9d f4 29 bf
       -0.69062513 0.66741616 1.0162182 -0.66388875
0000f0 ed 4d d9 3c d1 e5 3d be db 0e 91 3e 20 f3 6c be
       0.026526416 -0.18544699 0.28331646 -0.2313962
000100 5f 96 22 bf c9 0d 0b 3f d0 a1 16 3f 89 ac 80 bd
       -0.635107 0.5431791 0.58840656 -0.062829085
000110 54 38 d8 3f 2d 98 43 3f 2d 30 4a 3f 0f 9a 55 3f
       1.689219 0.76404077 0.7897976 0.834382
000120 69 bc 77 3f 1f 72 61 3e 30 54 2f 3f 8d 1e a8 bf
       0.96771866 0.2201619 0.68487835 -1.3134323
000130 e5 b4 85 bf 48 33 80 3f 80 81 89 bf e5 5f 1f bf
       -1.044583 1.001565 -1.0742645 -0.622557
000140 b4 17 6a bf 0f 71 1c bf 0f 72 83 3f 6b 52 8b 3f
       -0.9144242 -0.61110014 1.0269183 1.0884527
000150 bc 49 81 bf da 3d 42 bf a6 ca 77 3f 98 4f ca be
       -1.0100627 -0.7587563 0.9679359 -0.3951385
000160 f1 08 24 3f 71 ad 7a 3e cb fd 7a 3f fa bc 94 bf
       0.64076144 0.24480225 0.9804351 -1.1620171
000170 04 13 ae 3f 56 81 8b 3f ac f2 da 3e 82 60 16 bf
       1.3599553 1.0898845 0.4276327 -0.5874101
000180 f4 7d b0 3f 34 8d 4a 3f 9f 66 35 3f b6 0a 67 bf
       1.3788438 0.7912171 0.7085971 -0.9025072

0.0.mdl.input_to_hidden.0.cbias.weight f4 [100, 1]
000000 9e 63 09 ba 61 9a 50 ba 93 20 bc b9 1b 01 cc ba
       -0.00052409794 -0.00079575746 -0.00035882424 -0.0015564294
000010 9b 6f db b9 b7 1a 26 3a 9c 57 04 3b 10 09 32 ba
       -0.00041854088 0.0006336378 0.002019382 -0.00067915116
000020 09 fd 10 3a f7 0e 14 3a c9 79 9e ba dc 98 af 3a
       0.0005530869 0.0005647982 -0.0012090738 0.0013396996
000030 c7 92 fe 3a 36 06 7f 39 73 4f 45 bb 1a ba e1 39
       0.0019422405 0.00024321009 -0.003010717 0.00043054
000040 50 4f 59 ba 50 74 19 b9 d3 49 8e b9 dd 2e 09 38
       -0.00082897115 -0.00014634547 -0.00027139354 3.270699e-05
000050 6f b2 bf b9 a0 c6 bd 39 38 d1 11 b9 9e 3a 07 ba
       -0.00036563302 0.00036196876 -0.00013906218 -0.0005158576
000060 cf 08 81 39 2b 0e 4a 3a 29 43 12 ba 07 f7 49 3a
       0.0002461136 0.00077077997 -0.00055794657 0.00077043514
000070 d5 8e 21 ba ef 28 90 ba 38 d5 0a 3a de 0c c1 3a
       -0.0006162946 -0.0010998527 0.00052960543 0.0014728566
000080 57 40 52 38 be 98 bc 39 a0 a6 42 b8 01 03 bd b9
       5.0127823e-05 0.00035971956 -4.6408386e-05 -0.00036051127
000090 9d 09 2e 3a 47 9d c0 ba 90 c3 76 ba 10 10 20 ba
       0.0006639006 -0.001469531 -0.00094132964 -0.0006105909
0000a0 e4 0e b8 39 e6 e5 0e 3a 91 14 24 38 56 19 e8 3a
       0.0003510631 0.00054511277 3.91198e-05 0.0017707746
0000b0 71 0a 5a 3a 83 e9 48 3a 94 af 7f 3a 86 c5 e2 b9
       0.0008317596 0.00076641905 0.0009753641 -0.00043253246
0000c0 c5 e6 1f b9 9d 35 79 3a a1 6f 25 ba 5f b4 bf 3a
       -0.0001524939 0.0009506585 -0.00063108845 0.0014625898
0000d0 4c dc 21 3a 9e dd 2b ba 27 5f 7b b9 6d ac e5 b9
       0.00061744894 -0.0006556156 -0.00023972672 -0.0004380675
0000e0 75 5c 9d ba e0 11 16 ba 2e 54 4e ba 48 59 f7 3a
       -0.0012005704 -0.00057247095 -0.000787082 0.0018871212
0000f0 6e 65 58 ba d0 51 8d 39 3f ad 0a 3a 18 d4 ad 39
       -0.00082548603 0.0002695457 0.0005290098 0.00033155154
000100 84 4c 19 b8 4b 3b 49 b9 71 a8 00 bb 96 1a 85 3a
       -3.6549303e-05 -0.00019190942 -0.001963165 0.0010155018
000110 b1 c1 98 ba 66 a8 12 3a 25 ae 73 ba e8 37 05 3a
       -0.0011654404 0.00055945513 -0.0009295664 0.0005081878
000120 62 d6 d3 b9 a7 70 f0 b9 f9 c8 a4 3a 93 0b e4 3a
       -0.00040404784 -0.000458603 0.0012572102 0.0017398469
000130 33 9d c6 b9 b7 e5 43 b8 6f da 54 ba e9 d0 06 ba
       -0.00037882625 -4.670556e-05 -0.00081197073 -0.00051428244
000140 27 b5 51 3a 32 5b aa 3a d6 a6 72 ba 5c 9d b3 b8
       0.0007999711 0.0012997149 -0.0009256428 -8.5646956e-05
000150 44 25 1a ba e8 70 f7 3a 10 8b b7 b8 f8 f7 bc ba
       -0.0005880187 0.0018878253 -8.7520224e-05 -0.0014417162
000160 1d ac 9a 39 3b 11 69 ba 7d 93 ac 3a f3 dd 75 b8
       0.00029501403 -0.0008890812 0.0013166514 -5.861926e-05
000170 2e f0 42 3a 62 0e b1 ba d5 e6 8a ba c1 98 ab ba
       0.0007436302 -0.0013508315 -0.0010597358 -0.0013091789
000180 31 df 92 3a cc f1 06 b9 39 49 36 3a 54 d8 53 ba
       0.0011205432 -0.00012869312 0.000695366 -0.00080812466

0.0.mdl.input_to_hidden.0.cbias.bias f4 [100]
000000 0a d6 23 bf d8 7e 0e 40 39 3c 12 c0 2a 9a ec 3e
       -0.6399847 2.226492 -2.2849257 0.46211368
000010 df 08 c2 be 85 b4 7a 3f af 57 0d 40 2a c4 8a 3f
       -0.37897393 0.979317 2.2084768 1.0841115
000020 72 45 c1 3f ac 79 46 40 9c c1 91 3f 91 48 81 3f
       1.5099318 3.1011763 1.138721 1.010027
000030 0a e5 a0 bf 50 62 f6 3f e6 ad ae 3f c0 87 a3 bf
       -1.2569897 1.9248753 1.364682 -1.2775803
000040 8f a4 b3 bf ad 8b ba 3f 85 95 bf 3f c5 61 bf 3f
       -1.4034594 1.4573876 1.4967505 1.4951712
000050 2c 4b 00 40 3a 45 52 bf ee 1d 37 3f 66 c6 03 c0
       2.0045881 -0.8213688 0.71530044 -2.0589843
000060 a6 3c 86 bf 3e ba b9 bf 01 cf e8 3f 3b 37 bf 3f
       -1.0487258 -1.4509962 1.8188173 1.493873
000070 e7 50 5f bf b4 15 a1 3f 72 67 7b bf a6 bd 0a 3f
       -0.8723282 1.2584748 -0.9820472 0.5419563
000080 59 54 e8 3f f8 41 f3 bf 28 e2 1a 3f 84 64 0d 40
       1.8150741 -1.9004507 0.6050134 2.20926
000090 1a d5 1b be 75 e9 05 c0 08 b2 47 40 0b fe a7 3f
       -0.1521801 -2.092374 3.1202412 1.3124403
0000a0 ed 64 9c bf a8 af e1 3f e3 77 10 3f 47 8f eb 3e
       -1.22183 1.7631731 0.5643293 0.4600775
0000b0 82 26 83 3f ab 87 7e bf 7f e1 05 40 21 14 9f 3f
       1.0246127 -0.9942576 2.0918882 1.2428018
0000c0 1a b0 ee 3f 2f 95 2e 3f 85 d2 07 40 58 c6 87 3f
       1.8647492 0.68196386 2.122224 1.0607405
0000d0 e7 af 1c 40 ea bd 23 40 cc 25 51 3f 06 5f cc 3f
       2.4482362 2.5584664 0.816983 1.5966499
0000e0 6a 4c 48 3f 3a fd 78 bf eb 70 e2 3f 6e 53 8b 3f
       0.782416 -0.97261393 1.769071 1.0884836
0000f0 ab d7 d4 bf 15 87 1e 3f 95 3f c0 3f a6 68 f9 bf
       -1.6628317 0.6192487 1.5019404 -1.9485061
000100 a4 69 52 bf 44 2a a5 3e 5e cb 06 40 f8 e0 d1 bf
       -0.82192445 0.3225881 2.1061625 -1.639678
000110 b7 c5 10 3f a7 c9 4e bf ec 8b 9b 3f 8c 06 00 40
       0.5655169 -0.8077645 1.2152076 2.0003996
000120 be 23 d6 3e e4 9d 92 bf ac 07 ec bf 6c c4 2f 3f
       0.41824144 -1.1454434 -1.8439841 0.6865909
000130 e6 29 9d 3e 98 60 32 3f 1c c8 f2 3d b1 ac 8e 3f
       0.30696028 0.6967864 0.11854574 1.1146451
000140 32 2d 21 40 13 5c 90 40 21 77 80 3f 37 d6 db 3e
       2.5183835 4.5112395 1.0036355 0.4293687
000150 c9 ba 10 40 75 43 81 3f a2 1a 8b 3f bb a2 d5 3f
       2.2614005 1.0098711 1.0867503 1.6690286
000160 92 07 57 3f ce c9 d4 3f 79 a3 11 40 2c c6 3a 40
       0.83995926 1.6624086 2.2756026 2.9183455
000170 17 f8 4d 40 ab 77 fb 3f 3f ea af 3f 7b a9 27 3f
       3.2182672 1.9645895 1.3743361 0.6549298
000180 c2 61 26 40 3f 3c e9 3f 8f 8b a3 3e cc ee 30 3f
       2.5997167 1.8221511 0.31942412 0.69114375

0.0.mdl.hidden_to_output.direction f4 [28, 100]
000000 88 fc c5 b9 85 a8 9a 39 a6 97 5d ba 3e 45 9a ba
       -0.00037762919 0.00029498726 -0.00084530783 -0.0011769903
000010 d3 99 c9 39 e9 db 24 3a e5 d5 18 ba 29 79 07 ba
       0.00038452315 0.00062888727 -0.00058302126 -0.00051678956
000020 e8 97 be 3a 91 60 af b9 92 f4 c3 3a cd 65 39 ba
       0.0014541121 -0.0003345055 0.0014950207 -0.00070723594
000030 57 ae e1 39 90 6f e0 b7 14 5b 1f 38 6d 80 71 ba
       0.00043045238 -2.6754831e-05 3.7993377e-05 -0.00092125573
000040 1c 30 91 3a 31 6f 70 3a 47 78 e5 b9 05 8c 86 39
       0.001107696 0.0009171842 -0.00043767897 0.00025662794
000050 f2 fa 59 ba 0e eb 35 ba 7a d2 58 3a 14 e5 53 b9
       -0.0008315287 -0.0006939628 0.00082711095 -0.00020207866
000060 73 d5 96 b9 66 6f 88 b8 61 74 1a 3a ad 4e 07 37
       -0.00028769262 -6.505735e-05 0.00058919756 8.064945e-06
000070 e8 f4 b7 ba b7 7d f1 b9 43 a0 f1 b7 83 ee 20 ba
       -0.001403478 -0.00046060767 -2.8804066e-05 -0.00061390566
000080 02 9e 3d ba 96 51 a6 3a 35 a2 3d 3a 03 59 1a 3a
       -0.0007233323 0.001268911 0.00072339486 0.00058878976
000090 9b 8a de 39 da 32 8a 39 76 f7 85 39 94 1b 1e 39
       0.0004244641 0.00026359298 0.0002555211 0.00015078328
0000a0 99 ab ef 3a 8b b1 61 ba 3b aa 88 38 e0 fe 6c ba
       0.0018285393 -0.0008609525 6.516693e-05 -0.0009040665
0000b0 ed 9f 60 b9 69 54 ba 3a 0a 74 51 3a 44 37 bf ba
       -0.00021421882 0.001421583 0.00079900085 -0.0014588614
0000c0 95 ba b1 3a 19 82 28 ba 58 11 48 37 86 71 df 39
       0.0013559634 -0.00064280775 1.1924967e-05 0.00042618456
0000d0 61 3e 7a 39 5d 38 df 39 11 32 15 ba 48 29 6b b9
       0.00023865096 0.00042575868 -0.00056913594 -0.00022426725
0000e0 9b 14 0c 3b e2 c8 7a ba 95 c5 49 3a b8 dd 85 ba
       0.0021374587 -0.0009566677 0.00076969835 -0.0010213172
0000f0 87 cd 2d ba 84 99 30 39 5d 40 c4 b9 95 a5 7c 39
       -0.0006630052 0.00016841857 -0.00037431988 0.00024094277
000100 37 a8 3f 38 ee c2 81 3a cb 34 29 ba 01 55 3a 3b
       4.569461e-05 0.0009900013 -0.0006454705 0.0028432014
000110 85 77 74 3a 0f e8 ad b9 67 fb a4 39 53 a8 66 3a
       0.0009325671 -0.00033170028 0.00031467827 0.0008798886
000120 42 8a ec 38 d0 e8 b3 b8 85 18 da b9 5f 29 b2 3a
       0.000112791095 -8.57875e-05 -0.0004159847 0.0013592652
000130 01 91 bd 39 d4 29 89 3a c8 2b de 3a 71 81 c9 ba
       0.00036156925 0.0010464736 0.0016950304 -0.001537366
000140 2d d6 26 3b 21 fa 0d bb 28 29 47 39 7e 2c a5 3a
       0.0025457249 -0.002166398 0.00018993451 0.0012601761
000150 1e 2e 27 ba b8 8e b5 38 61 e1 e2 3a eb 8b 2f 39
       -0.00063774164 8.657336e-05 0.00173096 0.00016741424
000160 32 ae 4b bb 94 78 cb 3a 3d 41 75 b8 64 18 88 3a
       -0.003107917 0.0015523606 -5.847331e-05 0.0010383246
000170 95 0a 99 3a 15 78 1e 3a 63 41 a3 ba d6 b0 09 b9
       0.0011676127 0.00060451153 -0.00124554 -0.00013131215
000180 8d 22 19 3a af 4e 74 ba 78 73 4d 3a e5 e7 28 39
       0.0005841635 -0.0009319586 0.00078373356 0.00016108116
000190 61 36 f5 38 21 c4 3f 3a b9 aa ac ba a7 1f 60 ba
       0.00011692639 0.0007315297 -0.0013173438 -0.00085496384
0001a0 0d f6 04 ba 36 ba dc ba a8 94 19 ba 0f 27 f4 39
       -0.0005072065 -0.0016840163 -0.00058586383 0.00046568408
0001b0 c5 49 a1 b9 3e 0a 88 3a 5b e7 e2 39 e0 6c 2b 3a
       -0.00030763276 0.0010379029 0.00043278452 0.0006539356
0001c0 06 a5 0d bb 0e 8f 9d b9 5c a9 28 39 08 05 80 b9
       -0.0021613254 -0.00030051958 0.0001608482 -0.0002441781
0001d0 ee 89 a2 ba aa 5a 88 3a 65 96 48 3a 07 6d a3 ba
       -0.0012400725 0.0010402997 0.0007651805 -0.0012468406
0001e0 e2 97 d8 39 76 40 9c ba 0a 32 7d ba b4 bd 52 3a
       0.00041311892 -0.0011921066 -0.00096586405 0.0008039132
0001f0 95 f6 6f ba 26 d8 cf 3a 4a 2f 04 ba da 3f ca 3a
       -0.000915387 0.0015857264 -0.0005042447 0.0015430406
000200 d4 52 95 39 7b 3d a2 b9 14 b3 a7 38 be 36 a5 ba
       0.00028481206 -0.00030944854 7.9965364e-05 -0.0012604815
000210 06 d2 75 ba 5a 15 08 b9 73 9e 4d ba 3a aa c5 b9
       -0.0009377304 -0.00012977925 -0.000784374 -0.00037701597
000220 cc 1a 0e ba 7c 72 bf ba 72 58 2a 3a ac e6 28 39
       -0.0005420863 -0.0014606263 0.0006498165 0.0001610766
000230 87 9e 01 ba 18 c5 3f 38 ab 3f af ba ec f9 56 b8
       -0.0004944582 4.5721506e-05 -0.0013370415 -5.1254334e-05
000240 d3 28 f9 b9 75 a7 7d ba 94 dc 85 ba cd fd a1 b9
       -0.00047523397 -0.0009676137 -0.0010212832 -0.0003089741
000250 99 e8 89 ba 7c e7 cc 3a a0 71 9c ba 9a fb 1e 37
       -0.001052159 0.0015632953 -0.0011935718 9.476114e-06
000260 ce cc 66 ba 96 53 e6 39 30 be 10 ba 78 b6 e9 b8
       -0.0008804322 0.00043931295 -0.0005521504 -0.00011144293
000270 58 b8 b0 3a 02 91 e8 39 1b 0e da 3a f9 6e 37 bb
       0.0013482673 0.00044358528 0.0016636284 -0.002798973
000280 d3 04 9a 38 de 2b 58 39 44 7a b7 39 70 64 8a 3a
       7.344191e-05 0.00020615707 0.00034995575 0.0010558497
000290 ba 45 92 b8 e3 80 9a 39 af 3c 59 b9 ee a2 3d 3a
       -6.97481e-05 0.00029469197 -0.00020717339 0.0007234056
0002a0 ef ac 01 bb 81 ec 4d 3a fd 39 96 3a ef 93 7a 39
       -0.0019786914 0.0007855371 0.0011461374 0.00023896967
0002b0 02 22 1c ba a8 c0 7b 3a 25 07 0d ba bc 92 43 b9
       -0.00059559953 0.0009603598 -0.0005379788 -0.00018651312
0002c0 6f fc 5c ba 76 90 97 b9 1a 8c 0a ba ba 81 8a 3a
       -0.00084299495 -0.00028908596 -0.0005285159 0.0010567226
0002d0 43 a5 c1 ba 34 f9 be 3a ce 43 fa b8 15 7a 88 b9
       -0.0014773983 0.0014570118 -0.000119335586 -0.000260309
0002e0 4e 2d aa 38 8a 07 8c ba aa 70 ef 3a 49 f0 04 b9
       8.11467e-05 -0.0010683399 0.001826783 -0.00012678014
0002f0 ac c7 bb ba 17 fb 1d ba 26 32 d9 ba f2 ca 54 ba
       -0.0014326475 -0.000602649 -0.0016570732 -0.00081173994
000300 51 c3 60 3a dc e1 13 3a 13 e5 df b8 ca ed 04 3a
       0.0008574026 0.00056412607 -0.00010676137 0.0005070834
000310 84 1f 96 38 72 b3 f7 39 6d 29 2c ba 6f 1a 29 b9
       7.1584276e-05 0.00047245208 -0.0006567452 -0.00016126943
000320 b9 28 c0 32 b7 d1 18 18 11 a1 75 b3 19 b6 62 2d
       2.237026e-08 1.9751418e-24 -5.7189997e-08 1.28870465e-11
000330 f4 81 5a ba 1f 8d 09 80 93 52 0d 80 27 69 19 00
       -0.00083354046 -8.77144e-40 -1.223483e-39 2.333609e-39
000340 cb 30 18 80 8b 57 15 80 de fe 51 3d 74 07 0f 80
       -2.221556e-39 -1.95995e-39 0.05126845 -1.380206e-39
000350 b3 bd 08 24 5c 81 22 80 b4 90 07 00 23 40 b6 3b
       2.965098e-17 -3.168812e-39 6.94758e-40 0.005561845
000360 f7 e5 9e a8 23 e2 0b 00 d3 05 10 00 c4 70 16 b7
       -1.7641255e-14 1.091313e-39 1.471457e-39 -8.966952e-06
000370 16 61 14 00 21 b7 b1 3b f7 f4 41 36 a5 61 db 8c
       1.871538e-39 0.005423442 2.890183e-06 -3.380106e-31
000380 43 69 0c 80 17 2c 4f 3b f5 8c 69 2f f5 8c 69 2f
       -1.139787e-39 0.0031611973 2.1241305e-10 2.1241305e-10
000390 2d 85 e2 b6 7b 1d 9c 30 3c c9 01 00 a7 5f 25 b0
       -6.7508286e-06 1.1358873e-09 1.64025e-40 -6.016258e-10
0003a0 ec 2d ad 3b 6c 8a c5 31 19 b6 62 2d c0 55 0c 31
       0.0052850153 5.7491913e-09 1.28870465e-11 2.0421425e-09
0003b0 55 80 17 00 54 07 63 a8 a4 ac 24 32 b7 c2 3f 34
       2.158253e-39 -1.260262e-14 9.58531e-09 1.7859098e-07
0003c0 2e 09 02 00 b6 41 75 b5 1b 17 53 ac 2d 85 e2 b6
       1.86964e-40 -9.1365234e-07 -2.999773e-12 -6.7508286e-06
0003d0 3a 4d 1c 80 ae 6c b7 b6 8f 9a cd a7 48 30 1f 00
       -2.599098e-39 -5.466477e-06 -5.7066503e-15 2.86422e-39
0003e0 2d df f1 3d ae 7c 75 2c 10 a4 a5 a4 0f 0e 1e 80
       0.118101455 3.4885805e-12 -7.1835276e-17 -2.760108e-39
0003f0 a7 8d 0f 00 49 eb 21 8c 65 f8 0d 80 4b ba 1d 1e
       1.428348e-39 -1.2473792e-31 -1.282969e-39 8.350035e-21

0.0.mdl.hidden_to_output.cscale.weight f4 [28, 1]
000000 40 3c 7b 39 14 44 5f 3a ee f4 e6 b9 60 e1 92 b9
       0.0002395967 0.00085169193 -0.00044051505 -0.00028015207
000010 3e 1f 04 ba 00 29 a0 37 f0 7f 87 b9 56 76 1c ba
       -0.0005040056 1.9092578e-05 -0.00025844527 -0.0005968561
000020 c4 25 e8 b9 a0 e2 67 38 e2 06 7f 3a 00 bf b7 39
       -0.00044278626 5.5285753e-05 0.00097285036 0.00035046786
000030 4a 60 5a ba d6 fe 23 ba 90 46 04 ba 16 6f 68 3a
       -0.0008330388 -0.000625593 -0.0005045915 0.0008866651
000040 96 f3 25 3a 18 fd 81 39 a9 3b 7b ba 60 2f de b9
       0.00063305476 0.00024793367 -0.000958378 -0.00042378437
000050 80 55 28 b8 98 b3 45 ba 10 cd 94 38 a0 de 1e 3a
       -4.013395e-05 -0.0007541715 7.095386e-05 0.00060603954
000060 72 73 6f 3a 68 a7 73 3a 4a dc 27 ba a2 00 39 ba
       0.0009134329 0.000929466 -0.000640337 -0.0007057284

0.0.mdl.hidden_to_output.cscale.bias f4 [28]
000000 00 00 00 00 00 00 00 00 1a 01 2d 3e 42 94 21 3e
       0.0 0.0 0.16894951 0.15779212
000010 51 00 fc be 27 b0 08 3e 2d 0c b9 3f 0e e4 e7 3d
       -0.4921899 0.13348447 1.4456841 0.11322795
000020 66 26 8d bf e5 f7 d7 3d 30 15 4a 3e 66 a2 a8 bd
       -1.1027343 0.10545329 0.19734645 -0.082341
000030 88 86 94 be 23 84 a7 3d ed 7f a6 bf 84 8c bd bc
       -0.2900889 0.081795 -1.300779 -0.023138292
000040 9f f5 8d bf b1 77 d3 3c 86 ff b0 3f 15 aa 5f 3d
       -1.1090583 0.02581391 1.382798 0.054605562
000050 81 09 10 bf f6 f4 c8 bc 72 ba 81 be 18 c6 cf 3c
       -0.562645 -0.024530869 -0.2533756 0.025363013
000060 0c 33 60 be ab e8 13 bd 79 05 5e 3e 32 12 24 3d
       -0.21894473 -0.03611056 0.21681775 0.040056415

0.0.mdl.hidden_to_output.cbias.weight f4 [28, 1]
000000 54 3b 80 39 08 3d 12 39 b4 9a 72 3a 08 99 e3 b8
       0.00024458265 0.00013946381 0.000925462 -0.00010852708
000010 c0 de a6 37 44 28 55 b9 50 9f 90 b9 88 2a 62 ba
       1.9892468e-05 -0.00020328263 -0.00027584517 -0.00086275535
000020 8c 48 35 b9 7a 7b ea b9 e6 17 5c 3a 02 bf 25 ba
       -0.00017288531 -0.00044723955 0.0008395895 -0.0006322713
000030 14 f7 22 b9 a0 ab 21 b8 d8 52 75 3a 86 dd 77 ba
       -0.00015541568 -3.854523e-05 0.0009358353 -0.0009455312
000040 3c 22 72 ba 88 87 38 ba ec ca 53 3a 0c 2f 07 b9
       -0.00092366687 -0.00070392387 0.0008079249 -0.0001289213
000050 cc d3 d6 39 a4 5b 1a ba 03 4d 6e ba e8 98 6d b9
       0.00040975062 -0.00058882893 -0.0009090455 -0.00022659043
000060 30 92 0d ba 70 ee 15 b9 60 ee 80 38 23 26 80 ba
       -0.0005400507 -0.00014298572 6.1479164e-05 -0.0009776991

0.0.mdl.hidden_to_output.cbias.bias f4 [28]
000000 6d 19 ad 3d 28 60 e8 3f ee 4e 37 3e cf de e7 3f
       0.08452115 1.8154345 0.17901203 1.8114871
000010 0c e0 26 3f 50 d9 bd 3f 62 2b d9 3f 37 0c 09 40
       0.6518562 1.4831944 1.6966364 2.1413705
000020 f3 d5 21 3f e9 83 9d 3f c0 5b 19 3f a5 25 ae 3f
       0.63217086 1.2305881 0.59905624 1.3605238
000030 8a 4a fd bd 2a 35 e0 3f 0f da 34 3e 29 f9 b0 3f
       -0.12367733 1.7516224 0.17661308 1.3826038
000040 9e 56 56 be 03 8a ab 3f 1e b4 a3 be ef 74 92 3f
       -0.2093148 1.3401493 -0.31973356 1.1441935
000050 a5 e8 c0 3e 3f 04 81 3f de 4d 45 bc 47 e2 c6 3f
       0.37677494 1.0079421 -0.012042491 1.5537804
000060 37 51 ad 3e 65 98 be 3f 97 e0 ce 3e be f2 8e 3f
       0.33851025 1.4890257 0.40405723 1.1167829

1.0.mdl.input_to_hidden.0.direction f4 [100, 14]
000000 61 ad db 3d e5 35 8d 3b 00 00 58 bd 4a f3 ff bb
       0.10726429 0.0043094032 -0.052734375 -0.0078109847
000010 3f b3 0f 3b cc 4a ac bb f1 02 45 3c 41 ec f5 bb
       0.0021926907 -0.00525794 0.012024627 -0.0075049703
000020 84 7f 34 bd f2 f7 91 3d a9 b9 be 3b 3b 16 0e bb
       -0.04406692 0.0712737 0.0058204723 -0.002168073
000030 15 6f ad b8 2a da 77 3a ce 04 be bc 6d 6d ac 3d
       -8.2699735e-05 0.0009454811 -0.02319565 0.08419309
000040 a0 99 28 3d 76 af 50 bc 88 50 8b 3d 28 ce 68 bb
       0.041162133 -0.012737146 0.068024695 -0.003552327
000050 97 aa a5 bb f2 86 20 39 c1 47 be ba 11 a0 ec 3a
       -0.0050557363 0.0001530906 -0.0014517234 0.0018053075
000060 37 01 0b 3a 88 7e 34 ba ef e1 83 3a 37 c8 3c 3a
       0.000530261 -0.00068853097 0.001006184 0.0007201465
000070 1e 08 e1 3c f6 f6 4e bd ae e6 39 be f8 f1 40 be
       0.02746969 -0.05052849 -0.18154404 -0.18842304
000080 1c 5f 3f 3a 22 16 fc 3a fc a4 e5 39 cb 0d ff 39
       0.0007300244 0.001923267 0.00043801207 0.00048647667
000090 8a 04 9f 39 f5 be 02 bb 64 7b 9d 38 6c ab ab 3a
       0.00030330225 -0.0019950245 7.509327e-05 0.0013097352
0000a0 df 8b a7 ba 1d db 96 39 df 8a c7 3e 1a 40 15 3f
       -0.0012782774 0.00028773482 0.38973138 0.58300936
0000b0 e2 7b f3 bb d6 81 a9 bd 2c d6 ed 3c 5f d5 5c bb
       -0.0074305395 -0.08276717 0.02903279 -0.0033696515
0000c0 d6 93 1b 3b a4 0c 64 3d eb 38 8f 3d 2c c1 c7 bd
       0.002373924 0.055676118 0.06993278 -0.097536415
0000d0 75 d3 0e 3e d8 20 3b 3c 2b 28 f7 3a d5 69 ba b9
       0.13947852 0.011421405 0.0018856575 -0.00035555536
0000e0 9e d5 b6 bd 2e aa 0a bc ac c7 21 3d 8b 91 4f bd
       -0.08927463 -0.008463426 0.039497063 -0.05067591
0000f0 ed de 43 bb d8 5d 58 bc 71 28 13 ba c6 8b 02 3c
       -0.0029887513 -0.013205968 -0.0005613631 0.007967895
000100 01 e7 f0 3c 2e 4b b0 bd 42 07 86 bd 8a f9 2d ba
       0.029407026 -0.086080894 -0.06544353 -0.00066366105
000110 d4 e8 e8 b9 65 ba 90 ba 50 09 dc 3e 77 92 37 ba
       -0.0004442396 -0.0011041878 0.42975855 -0.0007002721
000120 b5 b7 b0 b9 af 4f d1 39 51 ac 01 3b 2e 00 3f b9
       -0.00033706208 0.00039922955 0.0019786546 -0.00018215246
000130 7e 8e a9 37 ea 62 2e b9 4f d6 00 3b ed 21 4c b9
       2.0212723e-05 -0.00016630781 0.0019658988 -0.00019467594
000140 01 75 d9 3a e8 7e 88 ba 3f 26 2f 3a e3 aa 89 b9
       0.0016590656 -0.0010413798 0.00066814193 -0.00026257997
000150 52 22 07 3f 3a b1 9a 3e b2 c4 f8 3c f0 8f 0c 3c
       0.52786744 0.30213338 0.03036723 0.008579239
000160 ef e2 70 ba e8 10 11 3d c9 31 7e 3a 04 8a 49 bd
       -0.0009189089 0.035416514 0.00096967496 -0.049203888
000170 6a d2 fd 3c fa 0d 97 b9 e9 14 bd ba 3e 3c 96 3a
       0.030984122 -0.00028811378 -0.0014425787 0.0011462045
000180 b3 0b 92 b9 b5 ec 39 b9 55 a1 be 3d c7 27 4d bd
       -0.00027856007 -0.00017731155 0.093081154 -0.050086763
000190 66 55 56 3e af 7d 31 3d 76 30 99 bd 68 bb c7 bb
       0.20931014 0.04333275 -0.07479946 -0.0060953386
0001a0 e2 0e 36 3c 25 bc 94 ba c3 f5 d0 3a 76 9b 95 ba
       0.011111947 -0.0011347575 0.0015942383 -0.0011414129
0001b0 0c e0 ff b9 93 cb c6 39 38 88 58 38 32 18 88 38
       -0.00048804318 0.00037917178 5.1625277e-05 6.489492e-05
0001c0 e6 28 16 bf 9f f9 dd be 47 af d1 bc fb e6 b0 3a
       -0.58656156 -0.43354508 -0.025596274 0.0013496572
0001d0 a5 c0 92 ba a5 ba e7 3c 22 f0 d6 39 f6 f3 bd 3a
       -0.0011196329 0.028287241 0.00040996174 0.0014492262
0001e0 97 74 04 3a 23 63 3c ba 53 c1 64 ba 3e 8b fa b7
       0.00050527736 -0.00071864034 -0.00087263173 -2.9867162e-05
0001f0 1a 60 0c 3a 46 d3 e6 ba 7f bf 21 be 79 85 01 bd
       0.00053548964 -0.0017610572 -0.15795706 -0.03162143
000200 65 19 4e bd 0a 3b 69 bb dc 44 2d bb 4a 87 a8 bb
       -0.050317187 -0.0035588169 -0.0026438748 -0.005143081
000210 1e de b1 bd 63 07 48 bd b3 53 47 3a 97 f1 86 b8
       -0.086849436 -0.04883517 0.000760372 -6.4346175e-05
000220 7b dc 9c 3a 29 c8 d3 39 0b 64 a9 ba 9a 82 b1 39
       0.0011967564 0.00040394187 -0.0012923492 0.00033857377
000230 44 aa 5e 3e bf c8 e8 bd 12 7a 82 be d1 a9 31 3b
       0.21744639 -0.11366414 -0.25483757 0.0027109275
000240 54 54 79 ba e2 05 89 3a 26 ff a0 39 24 c1 96 b9
       -0.0009511162 0.0010454024 0.00030707679 -0.0002875413
000250 03 11 d8 b9 46 78 74 39 c9 71 bf 39 a8 c3 02 bb
       -0.00041211405 0.00023314459 0.00036515135 -0.0019953046
000260 b8 f4 b6 ba 09 7a 9d 3a 86 85 28 3e cb d2 51 3e
       -0.001395843 0.0012014519 0.16457185 0.20490567
000270 b2 e3 07 3e 83 5c d4 b9 f0 45 26 3a d8 97 81 39
       0.13270453 -0.00040504718 0.0006342819 0.0002471793
000280 43 03 9f 3a ae c3 5e 39 45 73 67 ba e7 d6 ad 39
       0.0012131709 0.00021244466 -0.0008829127 0.00033157246
000290 a5 fa 7d 36 9b c1 9d b9 d2 94 0d 3a 69 ff 20 ba
       3.7845832e-06 -0.0003008962 0.0005400899 -0.00061415747
0002a0 22 65 8e 3e b4 4a e5 3e b9 97 b8 b9 3f 40 cd b9
       0.27811533 0.44783556 -0.00035208257 -0.00039148514
0002b0 61 30 9e 38 f0 b5 3e ba d8 1d 63 3a f6 ee 3f 38
       7.5430384e-05 -0.00072750356 0.000866381 4.57605e-05
0002c0 58 7a 80 3a b2 0e e5 39 42 e9 b8 37 34 01 22 3a
       0.0009802086 0.00043689233 2.2043128e-05 0.0006179989
0002d0 c0 ef 88 3a 59 9a b7 ba b9 a9 5e 3e e4 94 52 3e
       0.0010447428 -0.0014007791 0.21744432 0.2056461
0002e0 8b b3 09 3e ea 24 d6 3b 49 de 49 b9 a1 2d 4c 3e
       0.13447396 0.006535162 -0.00019251661 0.19939281
0002f0 29 66 95 3c ab d8 6d 3d ed 22 02 3d ca 66 d8 3c
       0.01823719 0.05806796 0.03177159 0.026416201
000300 97 bc be bb bb 74 5d ba 9a 9e 4e bd d8 01 dd 3a
       -0.0058208215 -0.0008447875 -0.050444223 0.0016861511
000310 63 a5 75 bf 90 f2 bb 3a c5 a7 1f 3b 88 db 83 3a
       -0.95955485 0.0014339257 0.0024361473 0.0010059932
000320 fc 71 ed b9 22 49 c0 ba c8 ef fb ba 46 58 fc b9
       -0.00045289088 -0.0014670233 -0.0019221241 -0.00048130954
000330 8d 76 d6 3a 7d 68 86 ba 62 ee 84 3a b3 d2 a2 ba
       0.0016362235 -0.0010254529 0.0010141844 -0.0012422412
000340 ff 63 11 39 a4 a8 85 ba 15 88 44 be 3b 4b 94 bd
       0.00013865529 -0.0010197354 -0.19192536 -0.072409116
000350 74 2d ab 3d d1 ac 06 b8 9f 42 69 3a b1 4d 63 3a
       0.08358279 -3.2109037e-05 0.0008898172 0.000867094
000360 df 1a f2 3a 71 b1 ab 3a d9 a4 81 b9 ba d5 e9 39
       0.0018471143 0.0013099146 -0.00024727618 0.00044600462
000370 49 24 54 ba 03 53 eb ba d5 a3 09 b9 aa 93 5b ba
       -0.0008092565 -0.0017953817 -0.0001312637 -0.00083761907
000380 d0 d7 b6 be 9d 93 8c be dd fe 09 3e 5c ad f6 3d
       -0.35711527 -0.2745637 0.13476129 0.120447844
000390 09 d0 7b ba e7 a4 16 3b 08 e6 3e 3a 5c ee 54 bd
       -0.000960589 0.0022986473 0.0007282202 -0.05198513
0003a0 e9 fc 0b bd 8e 12 d0 bd 3c 36 4b ba 4f 0c 4f bb
       -0.03417674 -0.10159789 -0.0007751917 -0.003159303
0003b0 b6 82 02 b9 9b 0d d2 b8 83 10 66 be 38 a7 a1 be
       -0.0001244646 -0.000100161145 -0.22467236 -0.3157289
0003c0 4b e4 a2 ba 7c b8 96 3a f9 69 2a b9 6d 4a 3c 3b
       -0.0012427656 0.0011499072 -0.00016251941 0.0028730885
0003d0 fe f0 df b9 27 71 17 ba 6c 23 8e 39 9d cb ed ba
       -0.00042713428 -0.0005777054 0.00027110742 -0.0018142347
0003e0 9c c1 d8 3a 9b ac f2 3a 1c d3 b8 ba 0e c5 af b8
       0.0016537192 0.0018514575 -0.0014101001 -8.3813546e-05
0003f0 f7 95 53 3e 56 3d d0 3d 09 0c ee 3d d2 cb 3d 3a
       0.20662676 0.10167949 0.11623389 0.00072401494

1.0.mdl.input_to_hidden.0.mask f4 [100, 14]
000000 00 00 80 3f 00 00 80 3f 00 00 80 3f 00 00 80 3f
       1.0 1.0 1.0 1.0
000010 00 00 80 3f 00 00 80 3f 00 00 80 3f 00 00 80 3f
       1.0 1.0 1.0 1.0
000020 00 00 80 3f 00 00 80 3f 00 00 80 3f 00 00 00 00
       1.0 1.0 1.0 0.0
000030 00 00 00 00 00 00 00 00 00 00 80 3f 00 00 80 3f
       0.0 0.0 1.0 1.0
000040 00 00 80 3f 00 00 80 3f 00 00 80 3f 00 00 80 3f
       1.0 1.0 1.0 1.0
000050 00 00 80 3f 00 00 00 00 00 00 00 00 00 00 00 00
       1.0 0.0 0.0 0.0
000060 00 00 00 00 00 00 00 00 00 00 00 00 00 00 00 00
       0.0 0.0 0.0 0.0
000070 00 00 80 3f 00 00 80 3f 00 00 80 3f 00 00 80 3f
       1.0 1.0 1.0 1.0
000080 00 00 00 00 00 00 00 00 00 00 00 00 00 00 00 00
       0.0 0.0 0.0 0.0
000090 00 00 00 00 00 00 00 00 00 00 00 00 00 00 00 00
       0.0 0.0 0.0 0.0
0000a0 00 00 00 00 00 00 00 00 00 00 80 3f 00 00 80 3f
       0.0 0.0 1.0 1.0
0000b0 00 00 80 3f 00 00 80 3f 00 00 80 3f 00 00 80 3f
       1.0 1.0 1.0 1.0
0000c0 00 00 80 3f 00 00 80 3f 00 00 80 3f 00 00 80 3f
       1.0 1.0 1.0 1.0
0000d0 00 00 80 3f 00 00 80 3f 00 00 80 3f 00 00 00 00
       1.0 1.0 1.0 0.0
0000e0 00 00 80 3f 00 00 80 3f 00 00 80 3f 00 00 80 3f
       1.0 1.0 1.0 1.0
0000f0 00 00 80 3f 00 00 80 3f 00 00 80 3f 00 00 80 3f
       1.0 1.0 1.0 1.0
000100 00 00 80 3f 00 00 80 3f 00 00 80 3f 00 00 00 00
       1.0 1.0 1.0 0.0
000110 00 00 00 00 00 00 00 00 00 00 80 3f 00 00 00 00
       0.0 0.0 1.0 0.0
000120 00 00 00 00 00 00 00 00 00 00 00 00 00 00 00 00
       0.0 0.0 0.0 0.0
000130 00 00 00 00 00 00 00 00 00 00 00 00 00 00 00 00
       0.0 0.0 0.0 0.0
000140 00 00 00 00 00 00 00 00 00 00 00 00 00 00 00 00
       0.0 0.0 0.0 0.0
000150 00 00 80 3f 00 00 80 3f 00 00 80 3f 00 00 80 3f
       1.0 1.0 1.0 1.0
000160 00 00 80 3f 00 00 80 3f 00 00 80 3f 00 00 80 3f
       1.0 1.0 1.0 1.0
000170 00 00 80 3f 00 00 00 00 00 00 00 00 00 00 00 00
       1.0 0.0 0.0 0.0
000180 00 00 00 00 00 00 00 00 00 00 80 3f 00 00 80 3f
       0.0 0.0 1.0 1.0
000190 00 00 80 3f 00 00 80 3f 00 00 80 3f 00 00 80 3f
       1.0 1.0 1.0 1.0
0001a0 00 00 80 3f 00 00 00 00 00 00 00 00 00 00 00 00
       1.0 0.0 0.0 0.0
0001b0 00 00 00 00 00 00 00 00 00 00 00 00 00 00 00 00
       0.0 0.0 0.0 0.0
0001c0 00 00 80 3f 00 00 80 3f 00 00 80 3f 00 00 80 3f
       1.0 1.0 1.0 1.0
0001d0 00 00 80 3f 00 00 80 3f 00 00 00 00 00 00 00 00
       1.0 1.0 0.0 0.0
0001e0 00 00 00 00 00 00 00 00 00 00 00 00 00 00 00 00
       0.0 0.0 0.0 0.0
0001f0 00 00 00 00 00 00 00 00 00 00 80 3f 00 00 80 3f
       0.0 0.0 1.0 1.0
000200 00 00 80 3f 00 00 80 3f 00 00 80 3f 00 00 80 3f
       1.0 1.0 1.0 1.0
000210 00 00 80 3f 00 00 80 3f 00 00 00 00 00 00 00 00
       1.0 1.0 0.0 0.0
000220 00 00 00 00 00 00 00 00 00 00 00 00 00 00 00 00
       0.0 0.0 0.0 0.0
000230 00 00 80 3f 00 00 80 3f 00 00 80 3f 00 00 00 00
       1.0 1.0 1.0 0.0
000240 00 00 00 00 00 00 00 00 00 00 00 00 00 00 00 00
       0.0 0.0 0.0 0.0
000250 00 00 00 00 00 00 00 00 00 00 00 00 00 00 00 00
       0.0 0.0 0.0 0.0
000260 00 00 00 00 00 00 00 00 00 00 80 3f 00 00 80 3f
       0.0 0.0 1.0 1.0
000270 00 00 80 3f 00 00 00 00 00 00 00 00 00 00 00 00
       1.0 0.0 0.0 0.0
000280 00 00 00 00 00 00 00 00 00 00 00 00 00 00 00 00
       0.0 0.0 0.0 0.0
000290 00 00 00 00 00 00 00 00 00 00 00 00 00 00 00 00
       0.0 0.0 0.0 0.0
0002a0 00 00 80 3f 00 00 80 3f 00 00 00 00 00 00 00 00
       1.0 1.0 0.0 0.0
0002b0 00 00 00 00 00 00 00 00 00 00 00 00 00 00 00 00
       0.0 0.0 0.0 0.0
0002c0 00 00 00 00 00 00 00 00 00 00 00 00 00 00 00 00
       0.0 0.0 0.0 0.0
0002d0 00 00 00 00 00 00 00 00 00 00 80 3f 00 00 80 3f
       0.0 0.0 1.0 1.0
0002e0 00 00 80 3f 00 00 80 3f 00 00 80 3f 00 00 80 3f
       1.0 1.0 1.0 1.0
0002f0 00 00 80 3f 00 00 80 3f 00 00 80 3f 00 00 80 3f
       1.0 1.0 1.0 1.0
000300 00 00 80 3f 00 00 80 3f 00 00 80 3f 00 00 00 00
       1.0 1.0 1.0 0.0
000310 00 00 80 3f 00 00 00 00 00 00 00 00 00 00 00 00
       1.0 0.0 0.0 0.0
000320 00 00 00 00 00 00 00 00 00 00 00 00 00 00 00 00
       0.0 0.0 0.0 0.0
000330 00 00 00 00 00 00 00 00 00 00 00 00 00 00 00 00
       0.0 0.0 0.0 0.0
000340 00 00 00 00 00 00 00 00 00 00 80 3f 00 00 80 3f
       0.0 0.0 1.0 1.0
000350 00 00 80 3f 00 00 00 00 00 00 00 00 00 00 00 00
       1.0 0.0 0.0 0.0
000360 00 00 00 00 00 00 00 00 00 00 00 00 00 00 00 00
       0.0 0.0 0.0 0.0
000370 00 00 00 00 00 00 00 00 00 00 00 00 00 00 00 00
       0.0 0.0 0.0 0.0
000380 00 00 80 3f 00 00 80 3f 00 00 80 3f 00 00 80 3f
       1.0 1.0 1.0 1.0
000390 00 00 80 3f 00 00 80 3f 00 00 80 3f 00 00 80 3f
       1.0 1.0 1.0 1.0
0003a0 00 00 80 3f 00 00 80 3f 00 00 00 00 00 00 00 00
       1.0 1.0 0.0 0.0
0003b0 00 00 00 00 00 00 00 00 00 00 80 3f 00 00 80 3f
       0.0 0.0 1.0 1.0
0003c0 00 00 00 00 00 00 00 00 00 00 00 00 00 00 00 00
       0.0 0.0 0.0 0.0
0003d0 00 00 00 00 00 00 00 00 00 00 00 00 00 00 00 00
       0.0 0.0 0.0 0.0
0003e0 00 00 00 00 00 00 00 00 00 00 00 00 00 00 00 00
       0.0 0.0 0.0 0.0
0003f0 00 00 80 3f 00 00 80 3f 00 00 80 3f 00 00 80 3f
       1.0 1.0 1.0 1.0

1.0.mdl.input_to_hidden.0.cscale.weight f4 [100, 1]
000000 3f 41 e1 ba b8 4d 62 3a ad 47 da 39 71 9f 89 3a
       -0.0017185583 0.0008632797 0.00041633603 0.0010499788
000010 52 a5 48 ba 42 39 9c 3a 4a 99 8d ba 49 61 81 ba
       -0.0007654029 0.001191892 -0.001080313 -0.0009870912
000020 9d e4 1e 39 b7 14 c8 b8 5c 12 31 ba f0 14 07 bb
       0.0001515322 -9.5406016e-05 -0.000675475 -0.0020611845
000030 c5 98 29 38 ed 7a 0c 3b 6d 70 d2 b9 83 06 d4 3a
       4.0435018e-05 0.0021435574 -0.00040138085 0.0016176257
000040 64 e3 ab b9 f4 72 92 ba ec d5 df b9 7e 66 97 b9
       -0.0003278508 -0.0011173175 -0.0004269326 -0.00028877327
000050 5d 24 ab ba 12 6d ae ba 59 eb 31 ba ce a9 18 3b
       -0.0013057102 -0.0013307652 -0.00067870837 0.002329457
000060 e5 d0 ea b9 6f 92 92 39 59 18 8c 3a b8 a5 b8 b9
       -0.00044787597 0.00027956392 0.0010688409 -0.00035218685
000070 6c ce 90 b9 6c 40 b2 3a e0 34 0b 3a ad d4 26 b9
       -0.00027619617 0.0013599521 0.0005310308 -0.00015910222
000080 23 29 a0 39 39 1f 65 39 79 4c 1d b9 ac 9d 24 bb
       0.00030548227 0.00021850773 -0.00015001175 -0.0025118394
000090 87 74 56 b9 8b 9e 07 3b aa f9 ae 39 2f 5f a8 ba
       -0.0002045204 0.0020693864 0.0003337388 -0.001284575
0000a0 7f 45 c3 39 76 b7 46 3a 04 36 b9 39 a5 b0 f2 39
       0.00037245077 0.00075804384 0.00035326194 0.00046289447
0000b0 2b f9 f8 3a d7 27 b5 3a 77 4e ba ba 42 2a 41 3a
       0.0018995156 0.0013821077 -0.0014214058 0.00073686626
0000c0 7a 3b 8c 3a 7e b8 4e 39 4e 63 3b 3a 27 e9 25 bb
       0.0010698878 0.0001971442 0.00071482814 -0.0025315972
0000d0 a3 4f b4 38 31 69 10 39 68 76 89 39 7e 6b 63 3a
       8.597902e-05 0.00013772097 0.00026218896 0.00086753804
0000e0 e8 ff 15 ba e2 9d 04 bb 83 c0 b5 ba 0f c8 f4 3a
       -0.0005722032 -0.0020235707 -0.0013866577 0.0018675345
0000f0 2c 1c b3 b9 f3 0c 6e 37 6f c5 57 39 bf 29 d1 ba
       -0.0003416253 1.418892e-05 0.00020577548 -0.0015957876
000100 74 a3 dd 3a a0 69 52 b9 95 3f 37 3a 00 2e 9d 39
       0.0016909675 -0.00020066509 0.00069903705 0.00029979646
000110 67 cc ff 39 fd 7a 27 ba bc 9d e3 b9 72 95 27 3a
       0.00048789682 -0.0006388871 -0.00043414335 0.00063928135
000120 5b 76 6e ba 2a 03 b4 3a cf 0e 85 b9 6e 06 53 3a
       -0.0009096616 0.0013733853 -0.0002537877 0.00080499693
000130 43 c8 48 3a 0c 76 46 3a d7 6e cc b9 62 6a da 39
       0.0007659236 0.0007570691 -0.00038992494 0.00041659462
000140 8c 1a ea 38 a5 7a a3 37 e9 19 e4 b8 b7 2c 9b b9
       0.00011162934 1.9488225e-05 -0.00010876713 -0.0002959722
000150 ee 2a cd 3a a5 43 63 3a 13 c9 3c ba 8f 16 0e bb
       0.0015653053 0.00086694426 -0.0007201593 -0.0021680926
000160 40 e8 d7 b9 b9 cd cc ba c5 fe ed 39 9d 76 08 b9
       -0.00041181035 -0.0015625275 0.0004539398 -0.00013014158
000170 eb 17 bf ba f5 b1 fd 39 9b 17 87 b9 4a 6a 0e 3b
       -0.0014579272 0.0004838851 -0.00025766794 0.0021730834
000180 9c 55 dc ba f9 03 ab 39 d2 0c 14 ba ca be 93 b9
       -0.0016810182 0.00032618621 -0.00056476623 -0.00028180174
