models/lhc_binned_en5of8_sp0_e40_s1993_p0.0_h100_faffine_fl5_l1_dsdim16_dsl1_cudaFalse_best_model.pt (torch_old, 195019 bytes, 73 tensors)

0.0.mdl.input_to_hidden.0.direction f4 [100, 14]
-0.007134884 0.007206211 0.05184246 -0.024894949 0.00024423536 -0.02365233 0.028599113 -0.0035786626
0.01693849 -0.043942995 0.63837755 0.83684313 0.0008852796 0.00043999072 4.9360424e-06 -0.00043747886
-0.0016923278 0.23369549 -0.0010048909 0.0021879077 6.1383085e-05 0.00023530259 -0.0009661137 -0.0005803942
0.00044715268 0.0005823231 0.0024655925 -0.00019554465 0.0011536786 -0.043490905 -0.008824988 -0.09712114
-0.114791386 -0.036814116 -0.055409234 -4.1764306e-05 -0.00022236875 0.00074644963 -4.8407503e-05 9.501091e-05
-0.001593014 0.00035200987 0.019461155 -0.0011242012 0.00032166322 -0.117903136 -0.08501132 -0.0005666075
0.0011013056 0.00065038225 -0.0014995987 0.0026213385 -0.00041494565 -0.0004911609 -0.00025577797 -0.0020116898
-0.03862092 0.0011480873 0.000118096024 -0.17103994 -0.12644625 -0.34341252 0.001409579 2.5212592e-05
0.00040909695 -7.88399e-05 0.0006200434 -0.0011398883 -0.0005973862 -0.0004585605 0.008961142 0.0010075931
0.00924146 0.04626315 0.0107351225 0.0035732277 0.07750768 0.0060320394 0.0019469582 -0.0018707471
0.23126006 0.0004350543 0.00037507212 0.0005528683 -0.08684327 -0.054598954 -0.0029136306 0.07286497
-0.06807126 0.02392386 0.065429315 -0.041615106 -0.009902629 -0.0010974482 -0.530427 0.0010268103
0.00029365165 -0.0008209695 0.0004002676 -0.00017237666 0.0017991512 0.12384339 0.10699254 0.105458446
0.10106842 0.0015083156 0.00092961075 0.001582359 0.1155979 0.09081839 0.09162365 -0.0015843477
0.04198737 0.004821881 0.0032745036 0.04755364 0.0188293 0.035604145 0.03696016 -0.074142195
-0.02509197 0.0017577362 -0.00032456164 0.0012135474 0.00084888405 -0.0021338735 -0.03009991 0.09262898
0.0005445263 -0.01188568 0.00040410974 0.0008508157 0.00051515177 -0.0016924649 -0.0007119426 0.0018168476
-0.00054010376 0.001461201 -0.0018942237 -0.000526119 0.11959009 -0.08709718 -0.0008334967 0.0010546952
0.001216265 2.1907887e-05 0.00035545038 0.0007880044 -0.0006756832 8.1695485e-05 0.0007721279 -0.000120487624
0.00038097444 -0.00013608403 0.0047797346 -0.015740292 0.0027839232 0.14508693 0.18329194 0.19990933
0.22585416 0.010980228 0.012532543 0.0003122648 -0.00012660203 0.00073870405 0.00044300003 -0.0010826449
-0.048707057 -0.00841131 0.05838688 0.0014058332 -1.03482525e-05 0.00040947105 -8.6995664e-05 0.00074219634
-0.0006443785 -0.00016470788 0.0031499313 -0.0015516432 -0.0007141277 -0.0001599408 -0.0032312842 0.0001490043
0.0947105 -0.00020352626 0.00090982206 0.0011145051 -0.00091020216 -0.00032190888 -0.0008128158 -0.0006903144
-0.0008907651 0.0005615636 -0.00136545 0.0003850561 0.0361006 -0.008664742 0.035304144 -0.0066066165
0.00040944642 -0.000806894 -0.00015808435 0.0004375139 9.522128e-05 3.309748e-05 -0.0005721171 0.0016780999
0.0008038884 0.0014071753 0.007179848 -0.0077670766 -0.04641681 0.0016979713 -0.001174816 -4.2232e-05
0.0002932273 -0.002535591 0.0012120585 9.7096236e-05 -0.00059247506 -0.000438611 -0.0007437581 -0.0003936779
-9.3151706e-05 0.042214524 -0.0016290264 0.14753212 0.54232806 0.0004964249 -0.00047133074 -0.0003288433
-0.0009237825 -0.0009618258 -0.00092022336 -0.0024356118 0.0014988681 0.0010106534 -0.09559387 -0.07385965
-0.0018254631 0.009173451 -0.011198796 -0.0014748944 -0.034667216 -0.0015691138 0.0006309039 -0.0003501315
0.0011765262 -0.001098606 -0.00019857229 0.00092865573 0.02376055 -0.0161305 -0.0039554792 0.2629341
00000000: bfcb e9bb 1422 ec3b c258 543d 7ef0 cbbc
00000010: b70c 8039 88c2 c1bc b048 ea3c ff87 6abb
00000020: 97c2 8a3c 92fd 33bd b66c 233f 5a3b 563f
00000030: 1c12 683a 8eae e639 48a0 a536 6b5d e5b9
00000040: 19d1 ddba df4d 6f3e 8bb6 83ba 0063 0f3b
00000050: cbba 8038 8fbb 7639 cb42 7dba 9825 18ba
00000060: d16f ea39 0ba7 183a c795 213b 1e0b 4db9
00000070: 0837 973a 8523 32bd af96 10bc 73e7 c6bd
00000080: bf17 ebbd 66ca 16bd cbf4 62bd 152c 2fb8
00000090: a82b 69b9 63ad 433a 2909 4bb8 9840 c738
000000a0: aecc d0ba f78d b839 006d 9f3c ef59 93ba
000000b0: e8a4 a839 3377 f1bd 6a1a aebd 6388 14ba
000000c0: af59 903a 6a7e 2a3a 2f8e c4ba c3ca 2b3b
000000d0: 108d d9b9 40c1 00ba f019 86b9 8ed6 03bb
000000e0: f830 1ebd 6b7b 963a 52aa f738 1825 2fbe
000000f0: 207b 01be c4d3 afbe 9fc1 b83a a17f d337
00000100: 107c d639 d956 a5b8 698a 223a 4e68 95ba
00000110: e999 1cba f36a f0b9 c1d1 123c 3711 843a
00000120: 7e69 173c 6e7e 3d3d 5ee2 2f3c d02c 6a3b
00000130: 59bc 9e3d 6aa8 c53b 1431 ff3a db33 f5ba
00000140: 70cf 6c3e 0018 e439 54a5 c439 5dee 103a
00000150: e2da b1bd 27a3 5fbd 9cf2 3ebb 3b3a 953d
00000160: f268 8bbd f9fb c33c ceff 853d 9a74 2abd
00000170: a33e 22bc 40d8 8fba 10ca 07bf 0996 863a
00000180: 42f5 9939 5536 57ba 02db d139 02c0 34b9
00000190: 7fd1 eb3a 9aa1 fd3d e81e db3d 99fa d73d
000001a0: f6fc ce3d acb2 c53a 1fb1 733a 2867 cf3a
000001b0: 97be ec3d fefe b93d 2ea5 bb3d e3a9 cfba
000001c0: f3fa 2b3d df00 9e3b 0e99 563b 9bc7 423d
000001d0: e73f 9a3c a7d5 113d 8963 173d ddd7 97bd
000001e0: ad8d cdbc d763 e63a ed29 aab9 e50f 9f3a
000001f0: a587 5e3a 75d8 0bbb 1694 f6bc 43b4 bd3d
00000200: 8bbe 0e3a 28bc 42bc b1de d339 4609 5f3a
00000210: 400b 073a b3d5 ddba a9a1 3aba 4a23 ee3a
00000220: c095 0dba c585 bf3a 9a47 f8ba 40eb 09ba
00000230: a6eb f43d 0260 b2bd 047f 5aba b33d 8a3a
00000240: 156b 9f3a d4c6 b737 be5b ba39 1592 4e3a
00000250: 5520 31ba ee53 ab38 a068 4a3a 4dae fcb8
00000260: 86bd c739 c7b1 0eb9 529f 9c3b c9f1 80bc
00000270: 7b72 363b ab91 143e e2b0 3b3e 08b5 4c3e
00000280: 5046 673e 6ae6 333c 4c55 4d3c 79b7 a339
00000290: 79c0 04b9 97a5 413a 7542 e839 89e7 8dba
000002a0: 0d81 47bd 97cf 09bc 1527 6f3d ef43 b83a
000002b0: 689d 2db7 46ae d639 7171 b6b8 f48f 423a
000002c0: 82eb 28ba 6fb5 2cb9 146f 4e3b 8260 cbba
000002d0: 4c34 3bba c8b5 27b9 f4c3 53bb 0a3e 1c39
000002e0: 94f7 c13d aa69 55b9 2081 6e3a 9614 923a
000002f0: a29a 6eba e1c5 a8b9 2513 55ba 37f6 34ba
00000300: 3c82 69ba e535 133a e6f8 b2ba 5be1 c939
00000310: 39de 133d 90f6 0dbc 149b 103d 517c d8bb
00000320: f8aa d639 bd85 53ba 72c3 25b9 1f62 e539
00000330: 89b1 c738 26d2 0a38 21fa 15ba b0f3 db3a
00000340: 0abc 523a f870 b83a ee44 eb3b f682 febb
00000350: 8e1f 3ebd 768e de3a 49fc 99ba 4422 31b8
00000360: 4dbc 9939 282c 26bb efdd 9e3a 25a0 cb38
00000370: 5450 1bba 5ff5 e5b9 c3f8 42ba 8e66 ceb9
00000380: 715a c3b8 23e9 2c3d 0e85 d5ba a912 173e
00000390: 03d6 0a3f 8322 023a f11c f7b9 9a68 acb9
000003a0: ff29 72ba 0923 7cba 253b 71ba c99e 1fbb
000003b0: ab75 c43a e777 843a b8c6 c3bd ba43 97bd
000003c0: 6144 efba 3e4c 163c 287b 37bc 3e51 c1ba
000003d0: 36ff 0dbd b9aa cdba 3e63 253a db91 b7b9
000003e0: ab35 9a3a 1aff 8fba d837 50b9 0871 733a
000003f0: 7ca5 c23c 1c24 84bc f79c 81bb 4c9f 863e

0.0.mdl.input_to_hidden.0.mask f4 [100, 14]
1.0 1.0 1.0 1.0 1.0 1.0 1.0 1.0
1.0 1.0 1.0 1.0 0.0 0.0 1.0 1.0
1.0 1.0 0.0 0.0 0.0 0.0 0.0 0.0
0.0 0.0 0.0 0.0 1.0 1.0 1.0 1.0
1.0 1.0 1.0 0.0 0.0 0.0 0.0 0.0
0.0 0.0 1.0 1.0 1.0 1.0 1.0 0.0
0.0 0.0 0.0 0.0 0.0 0.0 0.0 0.0
1.0 1.0 1.0 1.0 1.0 1.0 0.0 0.0
0.0 0.0 0.0 0.0 0.0 0.0 1.0 1.0
1.0 1.0 1.0 1.0 1.0 1.0 1.0 1.0
1.0 0.0 0.0 0.0 1.0 1.0 1.0 1.0
1.0 1.0 1.0 1.0 1.0 1.0 1.0 0.0
0.0 0.0 1.0 1.0 1.0 1.0 1.0 1.0
1.0 1.0 1.0 1.0 1.0 1.0 1.0 0.0
1.0 1.0 1.0 1.0 1.0 1.0 1.0 1.0
1.0 1.0 0.0 0.0 0.0 0.0 1.0 1.0
1.0 1.0 0.0 0.0 0.0 0.0 0.0 0.0
0.0 0.0 0.0 0.0 1.0 1.0 0.0 0.0
0.0 0.0 0.0 0.0 0.0 0.0 0.0 0.0
0.0 0.0 1.0 1.0 1.0 1.0 1.0 1.0
1.0 1.0 1.0 0.0 0.0 0.0 0.0 0.0
1.0 1.0 1.0 0.0 0.0 0.0 0.0 0.0
0.0 0.0 0.0 0.0 0.0 0.0 1.0 1.0
1.0 0.0 0.0 0.0 0.0 0.0 0.0 0.0
0.0 0.0 0.0 0.0 1.0 1.0 1.0 1.0
0.0 0.0 0.0 0.0 0.0 0.0 0.0 0.0
0.0 0.0 1.0 1.0 1.0 0.0 0.0 0.0
0.0 0.0 0.0 0.0 0.0 0.0 0.0 0.0
1.0 1.0 1.0 1.0 1.0 0.0 0.0 0.0
0.0 0.0 0.0 0.0 0.0 0.0 1.0 1.0
1.0 1.0 1.0 1.0 1.0 0.0 0.0 0.0
0.0 0.0 0.0 0.0 1.0 1.0 1.0 1.0
00000000: 0000 803f 0000 803f 0000 803f 0000 803f
00000010: 0000 803f 0000 803f 0000 803f 0000 803f
00000020: 0000 803f 0000 803f 0000 803f 0000 803f
00000030: 0000 0000 0000 0000 0000 803f 0000 803f
00000040: 0000 803f 0000 803f 0000 0000 0000 0000
00000050: 0000 0000 0000 0000 0000 0000 0000 0000
00000060: 0000 0000 0000 0000 0000 0000 0000 0000
00000070: 0000 803f 0000 803f 0000 803f 0000 803f
00000080: 0000 803f 0000 803f 0000 803f 0000 0000
00000090: 0000 0000 0000 0000 0000 0000 0000 0000
000000a0: 0000 0000 0000 0000 0000 803f 0000 803f
000000b0: 0000 803f 0000 803f 0000 803f 0000 0000
000000c0: 0000 0000 0000 0000 0000 0000 0000 0000
000000d0: 0000 0000 0000 0000 0000 0000 0000 0000
000000e0: 0000 803f 0000 803f 0000 803f 0000 803f
000000f0: 0000 803f 0000 803f 0000 0000 0000 0000
00000100: 0000 0000 0000 0000 0000 0000 0000 0000
00000110: 0000 0000 0000 0000 0000 803f 0000 803f
00000120: 0000 803f 0000 803f 0000 803f 0000 803f
00000130: 0000 803f 0000 803f 0000 803f 0000 803f
00000140: 0000 803f 0000 0000 0000 0000 0000 0000
00000150: 0000 803f 0000 803f 0000 803f 0000 803f
00000160: 0000 803f 0000 803f 0000 803f 0000 803f
00000170: 0000 803f 0000 803f 0000 803f 0000 0000
00000180: 0000 0000 0000 0000 0000 803f 0000 803f
00000190: 0000 803f 0000 803f 0000 803f 0000 803f
000001a0: 0000 803f 0000 803f 0000 803f 0000 803f
000001b0: 0000 803f 0000 803f 0000 803f 0000 0000
000001c0: 0000 803f 0000 803f 0000 803f 0000 803f
000001d0: 0000 803f 0000 803f 0000 803f 0000 803f
000001e0: 0000 803f 0000 803f 0000 0000 0000 0000
000001f0: 0000 0000 0000 0000 0000 803f 0000 803f
00000200: 0000 803f 0000 803f 0000 0000 0000 0000
00000210: 0000 0000 0000 0000 0000 0000 0000 0000
00000220: 0000 0000 0000 0000 0000 0000 0000 0000
00000230: 0000 803f 0000 803f 0000 0000 0000 0000
00000240: 0000 0000 0000 0000 0000 0000 0000 0000
00000250: 0000 0000 0000 0000 0000 0000 0000 0000
00000260: 0000 0000 0000 0000 0000 803f 0000 803f
00000270: 0000 803f 0000 803f 0000 803f 0000 803f
00000280: 0000 803f 0000 803f 0000 803f 0000 0000
00000290: 0000 0000 0000 0000 0000 0000 0000 0000
000002a0: 0000 803f 0000 803f 0000 803f 0000 0000
000002b0: 0000 0000 0000 0000 0000 0000 0000 0000
000002c0: 0000 0000 0000 0000 0000 0000 0000 0000
000002d0: 0000 0000 0000 0000 0000 803f 0000 803f
000002e0: 0000 803f 0000 0000 0000 0000 0000 0000
000002f0: 0000 0000 0000 0000 0000 0000 0000 0000
00000300: 0000 0000 0000 0000 0000 0000 0000 0000
00000310: 0000 803f 0000 803f 0000 803f 0000 803f
00000320: 0000 0000 0000 0000 0000 0000 0000 0000
00000330: 0000 0000 0000 0000 0000 0000 0000 0000
00000340: 0000 0000 0000 0000 0000 803f 0000 803f
00000350: 0000 803f 0000 0000 0000 0000 0000 0000
00000360: 0000 0000 0000 0000 0000 0000 0000 0000
00000370: 0000 0000 0000 0000 0000 0000 0000 0000
00000380: 0000 803f 0000 803f 0000 803f 0000 803f
00000390: 0000 803f 0000 0000 0000 0000 0000 0000
000003a0: 0000 0000 0000 0000 0000 0000 0000 0000
000003b0: 0000 0000 0000 0000 0000 803f 0000 803f
000003c0: 0000 803f 0000 803f 0000 803f 0000 803f
000003d0: 0000 803f 0000 0000 0000 0000 0000 0000
000003e0: 0000 0000 0000 0000 0000 0000 0000 0000
000003f0: 0000 803f 0000 803f 0000 803f 0000 803f

0.0.mdl.input_to_hidden.0.cscale.weight f4 [100, 1]
-0.00039748187 -0.00037642222 -0.0009669593 0.00010153812 0.00077888416 0.00017763086 -0.00062991155 -0.00023123609
0.0008713835 -0.0006146807 8.4227824e-05 -0.0005645529 -0.00070813025 0.0013919851 0.0015405916 6.5169183e-06
0.0005319462 0.0010744646 0.0017118161 -0.00017016739 0.0015494864 -0.0017513549 0.001332195 0.00017192043
0.00053308025 0.0010686145 -0.00040466414 0.00027221625 -0.0008555763 -0.0007436278 0.0010525446 0.0011608743
0.0016874044 9.7350196e-05 -0.0010569333 -0.0027693245 -0.00082189427 0.001673107 0.00031030504 -8.717511e-05
-4.4755758e-05 -0.0012187312 0.00067573076 -0.0003991764 0.001530199 -0.00030164578 -0.0009755269 -0.0010987221
0.0012234771 -0.0016478323 0.0012060242 0.0010889043 3.682084e-05 0.0003856964 -0.00019085874 -0.0009768857
-0.0008327875 0.00032627108 -0.0009730931 0.00046420787 -0.0005972885 0.0006474964 -0.00047775303 0.00036683044
-0.0012442039 0.00045895937 0.00043721352 0.00062505057 0.00032742237 -0.00032736897 0.00029138516 -0.00042428233
0.00080043054 -0.00016481857 -0.001099061 -0.00036968608 -0.0005097257 -0.00067816715 0.00035645056 -0.00016224397
-0.00025762804 0.00038148143 0.0011832017 -3.1056108e-05 -3.7769225e-06 0.00037998697 0.0024455157 -0.0009308606
-0.0021309294 0.00087794336 -5.274883e-05 -0.00016461054 -0.001174145 6.40375e-05 0.00048605105 -0.0012340037
-0.0011619694 0.0012509713 0.0013713565 -0.0006095275
00000000: 1d65 d0b9 895a c5b9 8a7b 7dba ddf0 d438
00000010: 082e 4c3a 6c42 3a39 a620 25ba f777 72b9
00000020: 8f6d 643a 8622 21ba 78a3 b038 81fe 13ba
00000030: d1a1 39ba 4573 b63a aded c93a e7ab da36
00000040: 4e72 0b3a 0dd5 8c3a 045f e03a f66e 32b9
00000050: 2318 cb3a b88d e5ba 0c9d ae3a 8a45 3439
00000060: 69be 0b3a c110 8c3a 1a29 d4b9 3fb8 8e39
00000070: c148 60ba 04f0 42ba 89f5 893a 7a28 983a
00000080: e52b dd3a 7d28 cc38 cc88 8aba 8e7d 35bb
00000090: 6474 57ba 284c db3a 70b0 a239 c8d1 b6b8
000000a0: 21b8 3bb8 d5bd 9fba 8623 313a 8d48 d1b9
000000b0: f590 c83a 3626 9eb9 81ba 7fba ff02 90ba
000000c0: 145d a03a 14fc d7ba 7513 9e3a 91b9 8e3a
000000d0: 1370 1a38 4b37 ca39 4121 48b9 d80a 80ba
000000e0: 6c4f 5aba 5d0f ab39 2c17 7fba ed60 f339
000000f0: 5a93 1cba bfbc 293a ed7a fab9 2653 c039
00000100: 8e14 a3ba 7ca0 f039 ce39 e539 6fda 233a
00000110: e3a9 ab39 b8a2 abb9 0ec5 9839 3672 deb9
00000120: fcd3 513a 26d3 2cb9 5e0e 90ba 6dd2 c1b9
00000130: 1d9f 05ba 07c7 31ba fce1 ba39 0920 2ab9
00000140: 4012 87b9 9201 c839 a915 9b3a 3e42 02b8
00000150: 0977 7db6 fd38 c739 f244 203b ff04 74ba
00000160: 10a7 0bbb c825 663a a03e 5db8 4e9b 2cb9
00000170: c5e5 99ba df4b 8638 abd4 fe39 4bbe a1ba
00000180: 394d 98ba a2f7 a33a 17bf b33a b3c8 1fba

0.0.mdl.input_to_hidden.0.cscale.bias f4 [100]
-0.99618876 0.27632475 0.6193004 -0.66888994 0.9354664 0.47305468 0.8667805 -1.1123722
-0.9798297 0.9442388 0.7141003 -0.64901876 0.08241053 1.0072433 -0.54264903 -0.1725492
-1.1956073 -0.92960614 -0.710441 -0.4493172 -1.3478998 0.5848505 -0.7109273 -0.45460272
-0.60016054 -0.5969246 0.398669 0.19783136 -0.8775106 -0.6411934 -0.24815857 -0.9814965
-0.22032093 0.8530285 0.4315761 -0.065270886 -0.8103461 0.81537336 -1.0746 -0.681905
-0.36249143 -1.0816004 -0.9579115 -0.3675691 -0.95449257 0.4588564 1.0882249 -0.41047522
-1.0516664 0.18660146 -0.39978424 0.5452183 -0.77911997 -0.62433845 -0.7487594 0.8406301
-0.58695805 0.7184416 1.0400689 -0.71705127 -0.069491476 -0.1439583 0.33801466 -1.0625787
-1.2349443 0.47852635 0.57171303 -0.9127367 0.99986774 0.9187476 0.7549349 0.9210891
1.069177 0.80189395 0.8541437 -0.9529457 -0.9226901 0.9922321 -1.023674 -0.5795171
-1.0557259 -1.0199639 0.73439765 1.0881821 -0.4348899 -0.691159 0.91781944 -0.030918548
0.60844404 0.30880618 0.4738092 -0.7407365 1.0411541 0.6343448 0.5010729 -0.5222502
0.8473901 0.8346013 0.71770865 -0.8508779
00000000: 3a06 7fbf 707a 8d3e 798a 1e3f 5f3c 2bbf
00000010: ba7a 6f3f 3934 f23e 54e5 5d3f 3662 8ebf
00000020: 1fd6 7abf a2b9 713f 47cf 363f 1826 26bf
00000030: dac6 a83d 59ed 803f 0ceb 0abf bdb0 30be
00000040: a909 99bf abfa 6dbf 76df 35bf e70c e6be
00000050: fb87 acbf c3b8 153f 55ff 35bf b0c1 e8be
00000060: 1fa4 19bf 0dd0 18bf 581e cc3e 4e94 4a3e
00000070: 89a4 60bf 4025 24bf 481d 7ebe 5b43 7bbf
00000080: cf9b 61be 1360 5a3f 8bf7 dc3e beac 85bd
00000090: d872 4fbf 4fbc 503f 7e8c 89bf 5391 2ebf
000000a0: 7a98 b9be e271 8abf b039 75bf 0432 bcbe
000000b0: a059 74bf 3aef ea3e f44a 8b3f cf29 d2be
000000c0: 019d 86bf 7414 3f3e 85b0 ccbe 6d93 0b3f
000000d0: 6874 47bf a5d4 1fbf b2ae 3fbf 8933 573f
000000e0: e242 16bf caeb 373f fa20 853f ac90 37bf
000000f0: 8c51 8ebd ce69 13be 4210 ad3e 9402 88bf
00000100: a812 9ebf 6801 f53e c95b 123f 1da9 69bf
00000110: 55f7 7f3f 0b33 6b3f 6a43 413f 7fcc 6b3f
00000120: cbda 883f ec48 4d3f 29a9 5a3f 40f4 73bf
00000130: 6b35 6cbf ec02 7e3f c007 83bf 3c5b 14bf
00000140: 0722 87bf 2d8e 82bf 7c01 3c3f 8d49 8b3f
00000150: e4a9 debe ccef 30bf 37f6 6a3f e548 fdbc
00000160: fdc2 1b3f d81b 9e3e 1f97 f23e e8a0 3dbf
00000170: 8a44 853f 6c64 223f 5046 003f 30b2 05bf
00000180: 8fee 583f 6ea8 553f c1bb 373f 22d3 59bf

0.0.mdl.input_to_hidden.0.cbias.weight f4 [100, 1]
-0.00052409794 -0.0007957574 -0.00035882424 -0.0015564294 -0.00041854088 0.00063363777 0.0020193832 -0.0006791511
0.0005530869 0.0005647982 -0.0012090738 0.0013396997 0.0019422405 0.0002432101 -0.003010716 0.00043054004
-0.0008289712 -0.00014634547 -0.00027139357 3.270699e-05 -0.00036563273 0.00036196876 -0.00013906223 -0.0005158576
0.00024611343 0.00077077997 -0.00055794657 0.00077043514 -0.00061629486 -0.0010998527 0.00052960543 0.0014728566
5.0127823e-05 0.00035971956 -4.6408386e-05 -0.00036051148 0.0006639006 -0.001469531 -0.00094132964 -0.00061059085
0.0003510631 0.00054511277 3.91198e-05 0.0017707746 0.0008317596 0.00076641905 0.0009753641 -0.00043253254
-0.0001524939 0.0009506588 -0.0006310885 0.0014625897 0.00061744894 -0.0006556156 -0.00023972672 -0.00043806748
-0.0012005704 -0.0005724705 -0.00078708207 0.0018871215 -0.000825486 0.00026954556 0.0005290098 0.00033155154
-3.6549303e-05 -0.00019190944 -0.0019631647 0.0010155017 -0.0011654404 0.00055945513 -0.0009295665 0.0005081878
-0.00040404784 -0.000458603 0.0012572102 0.0017398469 -0.00037882628 -4.670557e-05 -0.0008119707 -0.00051428244
0.0007999711 0.0012997151 -0.0009256428 -8.564696e-05 -0.00058801885 0.0018878253 -8.752023e-05 -0.0014417162
0.00029501403 -0.0008890812 0.0013166514 -5.8619255e-05 0.0007436301 -0.0013508315 -0.0010597359 -0.0013091788
0.0011205432 -0.00012869312 0.00069536606 -0.00080812466
00000000: 9e63 09ba 609a 50ba 9320 bcb9 1b01 ccba
00000010: 9b6f dbb9 b61a 263a a157 043b 0f09 32ba
00000020: 09fd 103a f70e 143a c979 9eba dd98 af3a
00000030: c792 fe3a 3706 7f39 6f4f 45bb 1bba e139
00000040: 514f 59ba 5074 19b9 d449 8eb9 dd2e 0938
00000050: 65b2 bfb9 a0c6 bd39 3cd1 11b9 9e3a 07ba
00000060: c908 8139 2b0e 4a3a 2943 12ba 07f7 493a
00000070: d98e 21ba ef28 90ba 38d5 0a3a de0c c13a
00000080: 5740 5238 be98 bc39 a0a6 42b8 0803 bdb9
00000090: 9d09 2e3a 479d c0ba 90c3 76ba 0f10 20ba
000000a0: e40e b839 e6e5 0e3a 9114 2438 5619 e83a
000000b0: 710a 5a3a 83e9 483a 94af 7f3a 89c5 e2b9
000000c0: c5e6 1fb9 a235 793a a26f 25ba 5eb4 bf3a
000000d0: 4cdc 213a 9edd 2bba 275f 7bb9 6cac e5b9
000000e0: 755c 9dba d811 16ba 2f54 4eba 4a59 f73a
000000f0: 6d65 58ba cb51 8d39 3fad 0a3a 18d4 ad39
00000100: 844c 19b8 4c3b 49b9 70a8 00bb 951a 853a
00000110: b1c1 98ba 66a8 123a 27ae 73ba e837 053a
00000120: 62d6 d3b9 a770 f0b9 f9c8 a43a 930b e43a
00000130: 349d c6b9 b9e5 43b8 6eda 54ba e9d0 06ba
00000140: 27b5 513a 345b aa3a d6a6 72ba 5d9d b3b8
00000150: 4725 1aba e870 f73a 118b b7b8 f8f7 bcba
00000160: 1dac 9a39 3b11 69ba 7d93 ac3a f2dd 75b8
00000170: 2cf0 423a 620e b1ba d6e6 8aba c098 abba
00000180: 31df 923a ccf1 06b9 3a49 363a 54d8 53ba

0.0.mdl.input_to_hidden.0.cbias.bias f4 [100]
0.12900886 0.9368789 -0.9104398 0.21025679 -0.5057881 0.4953596 0.7267586 0.09401101
0.66737944 0.17193088 0.58164924 -0.3599943 -1.3146988 -0.3101485 0.4270301 -1.1241609
-0.22686592 1.0536026 0.18485126 -0.7489637 -0.28244388 0.17838852 0.5010541 -1.4598635
-0.072681785 -0.2930618 1.07841 1.5675265 -0.38917273 0.1641389 -0.772275 -0.5672283
0.6345779 -0.69225055 0.785532 1.4987458 0.35451895 -0.60909927 -0.8109351 1.1598166
-1.3400223 0.39613733 0.2689546 1.0213963 0.51224196 -0.7915403 1.1332159 0.65369946
1.6255729 0.7812147 1.1574409 0.58015454 0.37344414 0.58803827 -0.5125054 1.2654375
-0.017704338 -0.5544708 1.1507505 0.914466 -1.1646007 0.65809906 1.1660295 -0.32712096
-0.0762509 0.17419992 0.9787564 -0.070858285 0.84806454 -0.47475815 0.6563427 1.0509713
0.21721405 0.09157005 -1.4718522 0.75294054 -0.2150662 0.74280006 0.28755128 0.24224585
1.1667641 1.0784804 1.2103395 0.14404093 0.3295012 0.60238934 0.6679075 1.7633168
0.2031053 1.318391 0.42283767 0.6100303 0.59461266 -1.3247297 1.1163698 -1.2377889
-0.75531197 1.34288 -0.41776314 0.084262535
00000000: e61a 043e 4cd7 6f3f 9512 69bf 8e4d 573e
00000010: 547b 01bf c69f fd3e da0c 3a3f d888 c03d
00000020: 61d9 2a3f a60e 303e f7e6 143f 2c51 b8be
00000030: 0d48 a8bf c9cb 9ebe b0a3 da3e 81e4 8fbf
00000040: 8a4f 68be 73dc 863f a649 3d3e 16bc 3fbf
00000050: 7c9c 90be 7bab 363e 1545 003f cfdc babf
00000060: 30da 94bd 320c 96be 5709 8a3f b5a4 c83f
00000070: a641 c7be 0714 283e d0b3 45bf e035 11bf
00000080: b273 223f 5537 31bf a018 493f e7d6 bf3f
00000090: 8283 b53e eeed 1bbf 7199 4fbf df74 943f
000000a0: da85 abbf 83d2 ca3e 6bb4 893e 1dbd 823f
000000b0: 4a22 033f 63a2 4abf 380d 913f d958 273f
000000c0: c612 d03f b0fd 473f 0627 943f 0285 143f
000000d0: 1234 bf3e ad89 163f 8e33 03bf dbf9 a13f
000000e0: b008 91bc ccf1 0dbf cb4b 933f 721a 6a3f
000000f0: a311 95bf 2e79 283f 7440 953f 667c a7be
00000100: 6f29 9cbd 7761 323e c88f 7a3f 261e 91bd
00000110: c21a 593f 8013 f3be 1306 283f 3a86 863f
00000120: 5c6d 5e3e 1489 bb3d a765 bcbf b6c0 403f
00000130: 503a 5cbe 2528 3e3f ec39 933e 4c0f 783e
00000140: 8758 953f a50b 8a3f 68ec 9a3f 777f 133e
00000150: 62b4 a83e 3036 1a3f fcfb 2a3f 5db4 e13f
00000160: d6fa 4f3e 09c1 a83f 2e7e d83e f22a 1c3f
00000170: 8938 183f be90 a9bf 35e5 8e3f de6f 9ebf
00000180: 205c 41bf 7ee3 ab3f 0de5 d5be d691 ac3d

0.0.mdl.hidden_to_output.direction f4 [28, 100]
-0.00037762936 0.00029498726 -0.0008453082 -0.0011769902 0.00038452315 0.00062888727 -0.00058302126 -0.00051678956
0.0014541121 -0.0003345055 0.0014950205 -0.00070723624 0.00043045238 -2.6754531e-05 3.7993377e-05 -0.00092125573
0.0011076961 0.0009171843 -0.00043767897 0.00025662794 -0.0008315287 -0.00069396273 0.00082711095 -0.00020207866
-0.00028769206 -6.505691e-05 0.00058919756 8.064945e-06 -0.001403478 -0.0004606078 -2.8804066e-05 -0.00061390566
-0.00072333246 0.0012689108 0.00072339486 0.00058878976 0.0004244641 0.00026359298 0.00025552104 0.00015078398
0.0018285393 -0.0008609525 6.516693e-05 -0.00090406655 -0.00021421882 0.001421583 0.0007990009 -0.0014588614
0.0013559634 -0.00064280734 1.1924967e-05 0.00042618456 0.00023865096 0.00042575868 -0.0005691359 -0.00022426725
0.0021374587 -0.00095666805 0.00076969835 -0.0010213172 -0.0006630052 0.00016841857 -0.00037431996 0.00024094274
4.5694615e-05 0.0009900013 -0.0006454705 0.0028432014 0.0009325671 -0.0003317004 0.00031467827 0.0008798886
0.000112791095 -8.5787506e-05 -0.00041598463 0.0013592652 0.00036156928 0.0010464736 0.0016950304 -0.001537366
0.0025457263 -0.002166398 0.00018993451 0.0012601762 -0.00063774164 8.657336e-05 0.00173096 0.00016741424
-0.0031079159 0.0015523607 -5.847331e-05 0.0010383246 0.0011676127 0.00060451153 -0.00124554 -0.00013131215
0.0005841636 -0.0009319586 0.0007837339 0.00016108112 0.00011692653 0.00073152967 -0.0013173438 -0.00085496396
-0.0005072065 -0.0016840163 -0.0005858634 0.0004656841 -0.0003076327 0.0010379029 0.00043278452 0.0006539354
-0.0021613254 -0.00030051958 0.0001608482 -0.0002441781 -0.0012400723 0.0010402997 0.00076518056 -0.0012468409
0.00041311892 -0.0011921066 -0.00096586405 0.00080391316 -0.0009153872 0.0015857264 -0.0005042447 0.0015430403
0.00028481233 -0.00030944854 7.9965364e-05 -0.0012604815 -0.00093773054 -0.00012977925 -0.000784374 -0.00037701594
-0.0005420862 -0.0014606265 0.0006498165 0.0001610766 -0.00049445825 4.5721506e-05 -0.0013370415 -5.1254425e-05
-0.000475234 -0.00096761377 -0.0010212831 -0.0003089741 -0.0010521591 0.0015632953 -0.001193572 9.476114e-06
-0.0008804321 0.00043931295 -0.00055215065 -0.00011144293 0.0013482673 0.00044358528 0.0016636284 -0.002798973
7.344191e-05 0.00020615707 0.00034995575 0.0010558497 -6.97481e-05 0.000294692 -0.0002071734 0.0007234056
-0.0019786914 0.0007855371 0.0011461374 0.00023896967 -0.00059559953 0.0009603598 -0.0005379788 -0.00018651312
-0.00084299495 -0.00028908547 -0.00052851584 0.0010567226 -0.0014773983 0.0014570118 -0.00011933558 -0.000260309
8.11467e-05 -0.00106834 0.001826783 -0.00012678014 -0.0014326473 -0.000602649 -0.0016570732 -0.00081173994
0.0008574026 0.0005641262 -0.00010676136 0.0005070833 7.1584276e-05 0.00047245208 -0.0006567453 -0.00016126943
9.306476e-05 -1.80954e-40 -5.1757078e-11 -6.0025e-41 2.4597e-41 1.78444e-40 -5.389843e-37 1.09982285e-16
-1.87998e-40 -3.7757353e-11 -1.4585e-41 -2.79503e-40 1.5213297e-08 3.021e-41 -4.4400934e-08 -5.1765e-41
7.0875e-41 -2.55715e-40 -3.64242e-40 0.0015760027 -2.43928e-40 -9.862e-41 1.7998e-40 0.00041783624
1.4167609e-09 2.25403e-40 -2.78798e-40 0.0010860853 -4.596659e-09 3.09128e-40 1.3812e-40 2.07046e-40
3.15191e-40 -2.126387e-25 1.93853e-40 0.0009939879 0.006572612 -1.2142e-40 1.0260616e-22 -7.0516e-41
-1.86248e-40 4.57105e-08 -1.4185821e-20 1.40124e-40 0.0007332067 3.18057e-40 -8.4243185e-10 -1.8688003e-12
0.0004700818 -3.253e-40 1.8749e-40 -5.7038e-41 2.19506e-40 -1.1256e-40 -1.794941e-37 7.0966016e-36
00000000: 8efc c5b9 85a8 9a39 ac97 5dba 3d45 9aba
00000010: d399 c939 e9db 243a e5d5 18ba 2979 07ba
00000020: e897 be3a 9160 afb9 90f4 c33a d265 39ba
00000030: 57ae e139 eb6e e0b7 145b 1f38 6d80 71ba
00000040: 1d30 913a 326f 703a 4778 e5b9 058c 8639
00000050: f2fa 59ba 0deb 35ba 7ad2 583a 14e5 53b9
00000060: 60d5 96b9 2a6f 88b8 6174 1a3a ad4e 0737
00000070: e8f4 b7ba bb7d f1b9 43a0 f1b7 83ee 20ba
00000080: 059e 3dba 9551 a63a 35a2 3d3a 0359 1a3a
00000090: 9b8a de39 da32 8a39 74f7 8539 c41b 1e39
000000a0: 99ab ef3a 8bb1 61ba 3baa 8838 e1fe 6cba
000000b0: ed9f 60b9 6954 ba3a 0b74 513a 4437 bfba
000000c0: 95ba b13a 1282 28ba 5811 4837 8671 df39
000000d0: 613e 7a39 5d38 df39 1032 15ba 4829 6bb9
000000e0: 9b14 0c3b e8c8 7aba 95c5 493a b8dd 85ba
000000f0: 87cd 2dba 8499 3039 6040 c4b9 93a5 7c39
00000100: 38a8 3f38 eec2 813a cb34 29ba 0155 3a3b
00000110: 8577 743a 13e8 adb9 67fb a439 53a8 663a
00000120: 428a ec38 d1e8 b3b8 8318 dab9 5f29 b23a
00000130: 0291 bd39 d429 893a c82b de3a 7181 c9ba
00000140: 33d6 263b 21fa 0dbb 2829 4739 7f2c a53a
00000150: 1e2e 27ba b88e b538 61e1 e23a eb8b 2f39
00000160: 2dae 4bbb 9578 cb3a 3d41 75b8 6418 883a
00000170: 950a 993a 1578 1e3a 6341 a3ba d6b0 09b9
00000180: 8e22 193a af4e 74ba 7e73 4d3a e2e7 2839
00000190: 7436 f538 20c4 3f3a b9aa acba a91f 60ba
000001a0: 0df6 04ba 36ba dcba a194 19ba 1027 f439
000001b0: c349 a1b9 3e0a 883a 5be7 e239 dd6c 2b3a
000001c0: 06a5 0dbb 0e8f 9db9 5ca9 2839 0805 80b9
000001d0: ec89 a2ba aa5a 883a 6696 483a 0a6d a3ba
000001e0: e297 d839 7640 9cba 0a32 7dba b3bd 523a
000001f0: 98f6 6fba 26d8 cf3a 4a2f 04ba d73f ca3a
00000200: dd52 9539 7b3d a2b9 14b3 a738 be36 a5ba
00000210: 08d2 75ba 5a15 08b9 739e 4dba 39aa c5b9
00000220: ca1a 0eba 7e72 bfba 7258 2a3a ace6 2839
00000230: 889e 01ba 18c5 3f38 ab3f afba 05fa 56b8
00000240: d428 f9b9 76a7 7dba 93dc 85ba cdfd a1b9
00000250: 9ae8 89ba 7ce7 cc3a a171 9cba 9afb 1e37
00000260: cccc 66ba 9653 e639 34be 10ba 78b6 e9b8
00000270: 58b8 b03a 0291 e839 1b0e da3a f96e 37bb
00000280: d304 9a38 de2b 5839 447a b739 7064 8a3a
00000290: ba45 92b8 e480 9a39 b03c 59b9 eea2 3d3a
000002a0: efac 01bb 81ec 4d3a fd39 963a ef93 7a39
000002b0: 0222 1cba a8c0 7b3a 2507 0dba bc92 43b9
000002c0: 6ffc 5cba 6590 97b9 198c 0aba ba81 8a3a
000002d0: 43a5 c1ba 34f9 be3a cd43 fab8 157a 88b9
000002e0: 4e2d aa38 8b07 8cba aa70 ef3a 49f0 04b9
000002f0: abc7 bbba 17fb 1dba 2632 d9ba f2ca 54ba
00000300: 51c3 603a dee1 133a 12e5 dfb8 c9ed 043a
00000310: 841f 9638 72b3 f739 6e29 2cba 6f1a 29b9
00000320: c32b c338 6df8 0180 4aa1 63ae 53a7 0080
00000330: 9144 0000 6ef1 0100 2868 3783 159a fd24
00000340: 100c 0280 000f 26ae a828 0080 240b 0380
00000350: 65ae 8232 3754 0000 58b3 3eb3 4d90 0080
00000360: 92c5 0000 d4c8 0280 5cf7 0380 e091 ce3a
00000370: f9a7 0280 ea12 0180 b6f5 0100 0811 db39
00000380: d8b7 c230 5574 0200 2d09 0380 fa5a 8e3a
00000390: a4f0 9db1 b95d 0300 0681 0100 2941 0200
000003a0: a06e 0300 f29d 8396 621c 0200 b348 823a
000003b0: 115f d73b 7852 0180 2316 f81a 92c4 0080
000003c0: 2f07 0280 3a53 4433 36fb 859e 9c86 0100
000003d0: ab34 403a 9d76 0300 df90 67b0 5081 03ac
000003e0: 5075 f639 ce8a 0380 a50a 0200 009f 0080
000003f0: e563 0200 c639 0180 9150 7482 93ed 1605

0.0.mdl.hidden_to_output.cscale.weight f4 [28, 1]
0.0002395967 0.00085169193 -0.00044051505 -0.00028015207 -0.0005040056 1.9092578e-05 -0.00025844527 -0.0005968561
-0.00044278626 5.5285753e-05 0.00097285036 0.00035046786 -0.0008330388 -0.000625593 -0.0005045915 0.0008866651
0.00063305476 0.00024793367 -0.000958378 -0.00042378437 -4.013395e-05 -0.0007541715 7.095386e-05 0.00060603954
0.0009134329 0.000929466 -0.000640337 -0.0007057284
00000000: 403c 7b39 1444 5f3a eef4 e6b9 60e1 92b9
00000010: 3e1f 04ba 0029 a037 f07f 87b9 5676 1cba
00000020: c425 e8b9 a0e2 6738 e206 7f3a 00bf b739
00000030: 4a60 5aba d6fe 23ba 9046 04ba 166f 683a
00000040: 96f3 253a 18fd 8139 a93b 7bba 602f deb9
00000050: 8055 28b8 98b3 45ba 10cd 9438 a0de 1e3a
00000060: 7273 6f3a 68a7 733a 4adc 27ba a200 39ba

0.0.mdl.hidden_to_output.cscale.bias f4 [28]
0.0 0.0 -0.31351006 0.057885222 -0.18335097 0.0691816 0.25928366 0.042423517
0.235415 0.05195782 0.13791369 -0.07081211 -0.14197598 0.069051154 -0.66845983 -0.04555254
-0.5992617 -0.04037172 -0.7536007 0.060132347 -0.16152938 -0.031644776 -0.13947797 0.038459677
-0.17233635 -0.028611075 0.23000564 0.027577009
00000000: 0000 0000 0000 0000 6484 a0be 0e19 6d3d
00000010: 5bc0 3bbe 15af 8d3d d4c0 843e 48c4 2d3d
00000020: a110 713e b9d1 543d 3f39 0d3e f105 91bd
00000030: 2762 11be b16a 8d3d 2f20 2bbf 4d95 3abd
00000040: 3769 19bf d15c 25bd faeb 40bf 564d 763d
00000050: f567 25be f49d 01bd 50d3 0ebe e587 1d3d
00000060: f178 30be c661 eabc 9986 6b3e 2ee9 e13c

0.0.mdl.hidden_to_output.cbias.weight f4 [28, 1]
0.00024458265 0.00013946381 0.000925462 -0.00010852708 1.9892468e-05 -0.00020328263 -0.00027584517 -0.00086275535
-0.00017288531 -0.00044723955 0.0008395895 -0.0006322713 -0.00015541568 -3.854523e-05 0.0009358353 -0.0009455312
-0.00092366687 -0.00070392387 0.0008079249 -0.0001289213 0.00040975062 -0.00058882893 -0.0009090455 -0.00022659043
-0.0005400507 -0.00014298572 6.1479164e-05 -0.0009776991
00000000: 543b 8039 083d 1239 b49a 723a 0899 e3b8
00000010: c0de a637 4428 55b9 509f 90b9 882a 62ba
00000020: 8c48 35b9 7a7b eab9 e617 5c3a 02bf 25ba
00000030: 14f7 22b9 a0ab 21b8 d852 753a 86dd 77ba
00000040: 3c22 72ba 8887 38ba ecca 533a 0c2f 07b9
00000050: ccd3 d639 a45b 1aba 034d 6eba e898 6db9
00000060: 3092 0dba 70ee 15b9 60ee 8038 2326 80ba

0.0.mdl.hidden_to_output.cbias.bias f4 [28]
0.08315788 1.9117165 -0.096104704 1.9312505 -0.079145074 1.8136317 0.33057857 2.1100059
0.28215018 1.9881005 0.11399064 1.9208225 0.07039073 1.9964 -0.24158607 1.5552158
-0.17066878 1.5767171 0.105459444 1.5589064 0.15490173 1.8132764 0.081403226 1.8528926
0.14852695 1.9040604 0.28871825 1.741266
00000000: ae4e aa3d 20b3 f43f 8bd2 c4bd 3733 f73f
00000010: d016 a2bd 1525 e83f 9841 a93e 560a 0740
00000020: fd75 903e 147a fe3f ed73 e93d 83dd f53f
00000030: 0429 903d 098a ff3f 5762 77be 5011 c73f
00000040: ccc3 2ebe ded1 c93f 1ffb d73d 3f8a c73f
00000050: 8f9e 1e3e 7119 e83f bcb6 a63d 962b ed3f
00000060: 7317 183e 40b8 f33f e1d2 933e cee1 de3f

1.0.mdl.input_to_hidden.0.direction f4 [100, 14]
0.23616894 0.064372495 0.032980945 0.08193324 -0.020747753 -0.0007318163 0.0008333416 0.0019530877
0.0011855677 0.00024565752 0.00024921354 -0.002168073 -8.269912e-05 0.0009454811 -0.14195544 -0.084452204
-0.029756056 -0.021766396 -0.018720588 -0.029959314 0.13524057 -0.053784512 -0.0014517234 0.0018053075
0.000530261 -0.0006885309 0.001006184 0.0007201465 -0.54209954 0.00021068551 0.000950043 -5.2824562e-05
0.00073002436 0.0019232669 0.000438012 0.00048647667 0.00030330225 -0.0019950247 7.509325e-05 0.0013097352
-0.0012782775 0.00028773482 0.26896718 0.20558003 0.15640572 0.086956404 -0.0040962496 -0.06459953
-0.008992189 0.12360457 0.0008565299 0.0007963858 -5.5972865e-05 -0.0014441074 -0.0005852554 -0.0003555556
-0.2360107 -0.072907515 -0.05143225 -0.09672263 -6.160997e-05 -0.002277182 -6.7291808e-06 0.0020902632
-0.00035316055 -0.00030005298 0.00031672258 -0.000663661 -0.0004442396 -0.0011041878 0.26194853 0.08862097
0.03404084 0.059722386 0.10465623 -0.0115436595 -0.013169392 0.113261685 0.15075524 -0.00019467612
0.0016590656 -0.0010413796 0.00066814193 -0.00026257997 0.19476356 0.13972737 0.086873196 0.0852563
0.023028258 -0.00025280562 -0.001407426 -0.00054651004 -0.00084577285 -0.00028811378 -0.0014425793 0.0011462047
-0.00027856007 -0.00017731155 0.03972164 -0.017156731 -0.032142833 -0.027933678 0.18035519 0.0023865774
0.00065516913 -0.0011347575 0.0015942383 -0.0011414129 -0.00048804318 0.00037917178 5.1625277e-05 6.489493e-05
-0.14070937 -0.07714624 -0.04741274 -0.034723904 0.049959753 0.013378853 0.07399798 0.017428761
-0.059644163 -0.00071864034 -0.00087263173 -2.9867162e-05 0.00053548964 -0.0017610572 -0.18796633 -0.120126344
-0.060909256 -0.015086057 -0.030666634 0.014373107 0.015688807 -0.13585867 0.000760372 -6.4346175e-05
0.0011967564 0.0004039415 -0.0012923492 0.00033857377 -0.15407088 -0.0947792 -0.08227654 -0.08108736
0.05222807 0.02078163 0.037302576 0.019324701 -0.037141856 0.00023314457 0.00036515135 -0.0019953046
-0.001395843 0.001201452 0.14991842 0.10360913 0.06581972 0.087085776 0.006831085 -0.03588973
-0.02900438 0.066234596 0.05042875 0.11527391 0.09954078 -0.0003008962 0.0005400899 -0.00061415747
0.22616123 0.19406366 0.18605338 0.16965233 0.07575548 -0.10852543 0.000866381 4.5760353e-05
0.0009802085 0.00043689233 2.2043105e-05 0.0006179989 0.0010447428 -0.0014007791 0.17715755 0.13066983
0.14913248 0.00035939543 0.00020054216 -8.6219494e-05 0.0007896178 -0.00018879779 -0.0013937935 0.00018382796
-0.0004324543 -0.0015629972 0.0015473273 0.0016861511 0.2089572 0.09531155 0.053853426 0.06748469
-0.08198671 -0.031491168 -0.024473889 -0.00048130954 0.0016362235 -0.0010254527 0.0010141844 -0.0012422408
0.00013865529 -0.0010197354 -0.05739316 -0.14562367 -0.13617705 -0.1128575 -0.006325063 0.17577007
-0.0057643782 -0.09463307 -0.049645692 -0.05407294 -0.015238414 0.0042881356 -0.071904905 -0.00083761854
-0.69688237 -0.0023595786 -0.0007987359 0.00028127362 -0.00063310424 -0.0006192436 -0.00045191855 0.0011501992
-0.0010608308 0.00021119814 -0.0007751917 -0.003159303 -0.00012446461 -0.000100161145 -0.30386588 -0.13563922
-0.093598485 -0.12423552 -0.033257134 0.04734365 0.06645941 -0.07747531 -0.16938607 -0.01079793
-0.095162265 -0.06619122 -0.0014101001 -8.3813546e-05 0.117176294 0.08471931 0.052958682 0.060285285
00000000: 45d6 713e bad5 833d 0717 073d 9dcc a73d
00000010: 31f7 a9bc 5cd7 3fba 9c74 5a3a c0fe ff3a
00000020: 0d65 9b3a 98cb 8039 e0a8 8239 3b16 0ebb
00000030: c16e adb8 2ada 773a c45c 11be 47f5 acbd
00000040: f9c2 f3bc 714f b2bc eb5b 99bc 3c6d f5bc
00000050: 817c 0a3e 264d 5cbd c147 beba 11a0 ec3a
00000060: 3701 0b3a 877e 34ba efe1 833a 37c8 3c3a
00000070: 09c7 0abf 76eb 5c39 4e0c 793a f18f 5db8
00000080: 1b5f 3f3a 2116 fc3a faa4 e539 cb0d ff39
00000090: 8a04 9f39 f6be 02bb 627b 9d38 6cab ab3a
000000a0: e08b a7ba 1ddb 9639 11b6 893e 9283 523e
000000b0: d228 203e 3316 b23d d539 86bb c24c 84bd
000000c0: f953 13bc 6524 fd3d c088 603a 8cc4 503a
000000d0: 68c4 6ab8 3448 bdba d36b 19ba dd69 bab9
000000e0: caac 71be 8950 95bd 9faa 52bd 8416 c6bd
000000f0: 9a34 81b8 c63c 15bb 39cb e1b6 ccfc 083b
00000100: 6828 b9b9 6e50 9db9 c90d a639 89f9 2dba
00000110: d4e8 e8b9 65ba 90ba 1e1e 863e e97e b53d
00000120: 686e 0b3d 769f 743d 0156 d63d 9e21 3dbc
00000130: 6fc4 57bc bef5 e73d 955f 1a3e f921 4cb9
00000140: 0175 d93a e77e 88ba 3f26 2f3a e3aa 89b9
00000150: 1970 473e b114 0f3e 93ea b13d db9a ae3d
00000160: c2a5 bc3c ff8a 84b9 6179 b8ba ab43 0fba
00000170: dbb6 5dba fa0d 97b9 ee14 bdba 3f3c 963a
00000180: b30b 92b9 b5ec 39b9 29b3 223d 468c 8cbc
00000190: 34a8 03bd 2bd5 e4bc 08af 383e 2068 1c3b
000001a0: a8bf 2b3a 25bc 94ba c3f5 d03a 769b 95ba
000001b0: 0ce0 ffb9 93cb c639 3888 5838 3318 8838
000001c0: 1e16 10be d9fe 9dbd dc33 42bd a73a 0ebd
000001d0: 99a2 4c3d fa32 5b3c 418c 973d c3c6 8e3c
000001e0: 704d 74bd 2363 3cba 53c1 64ba 3e8b fab7
000001f0: 1a60 0c3a 46d3 e6ba 3f7a 40be cd04 f6bd
00000200: fc7b 79bd 822b 77bc 9838 fbbc 2e7d 6b3c
00000210: d085 803c 891e 0bbe b353 473a 97f1 86b8
00000220: 7bdc 9c3a 1cc8 d339 0b64 a9ba 9a82 b139
00000230: c2c4 1dbe 991b c2bd 9a80 a8bd 2111 a6bd
00000240: 1aed 553d 3d3e aa3c 96ca 183d d64e 9e3c
00000250: 0f22 18bd 4578 7439 c971 bf39 a8c3 02bb
00000260: b8f4 b6ba 0a7a 9d3a 3784 193e 0631 d43d
00000270: 7dcc 863d 075a b23d 4bd7 df3b 1c01 13bd
00000280: 989a edbc 01a6 873d 618e 4e3d ba14 ec3d
00000290: 09dc cb3d 9bc1 9db9 d294 0d3a 69ff 20ba
000002a0: cf96 673e a0b8 463e c784 3e3e 57b9 2d3e
000002b0: b025 9b3d 9542 debd d81d 633a ceee 3f38
000002c0: 577a 803a b20e e539 35e9 b837 3401 223a
000002d0: c0ef 883a 599a b7ba ca68 353e 50ce 053e
000002e0: 2fb6 183e 3d6d bc39 a048 5239 bdd0 b4b8
000002f0: 5bfe 4e3a 05f8 45b9 f3af b6ba f1c1 4039
00000300: 09bb e2b9 7cdd ccba b0cf ca3a d801 dd3a
00000310: e0f8 553e b432 c33d 6995 5c3d 6a35 8a3d
00000320: a6e8 a7bd e2fc 00bd 777d c8bc 4658 fcb9
00000330: 8d76 d63a 7c68 86ba 62ee 843a afd2 a2ba
00000340: ff63 1139 a4a8 85ba 1715 6bbd 5f1e 15be
00000350: ff71 0bbe d521 e7bd 7942 cfbb 12fd 333e
00000360: 1ce3 bcbb fcce c1bd 4859 4bbd 967b 5dbd
00000370: 8aaa 79bc 7d83 8c3b e142 93bd a193 5bba
00000380: e266 32bf 29a3 1abb 4262 51ba e877 9339
00000390: e8f6 25ba bc54 22ba 7bef ecb9 48c2 963a
000003a0: 930b 8bba 1275 5d39 3c36 4bba 4f0c 4fbb
000003b0: b782 02b9 9b0d d2b8 4f94 9bbe 02e5 0abe
000003c0: 90b0 bfbd 316f febd a238 08bd 6aeb 413d
000003d0: df1b 883d 60ab 9ebd 8b73 2dbe cde9 30bc
000003e0: 6fe4 c2bd 438f 87bd 1cd3 b8ba 0ec5 afb8
000003f0: 20fa ef3d 5181 ad3d 34eb 583d b4ed 763d

1.0.mdl.input_to_hidden.0.mask f4 [100, 14]
1.0 1.0 1.0 1.0 1.0 0.0 0.0 0.0
0.0 0.0 0.0 0.0 0.0 0.0 1.0 1.0
1.0 1.0 1.0 1.0 1.0 1.0 0.0 0.0
0.0 0.0 0.0 0.0 1.0 0.0 0.0 0.0
0.0 0.0 0.0 0.0 0.0 0.0 0.0 0.0
0.0 0.0 1.0 1.0 1.0 1.0 1.0 1.0
1.0 1.0 0.0 0.0 0.0 0.0 0.0 0.0
1.0 1.0 1.0 1.0 0.0 0.0 0.0 0.0
0.0 0.0 0.0 0.0 0.0 0.0 1.0 1.0
1.0 1.0 1.0 1.0 1.0 1.0 1.0 0.0
0.0 0.0 0.0 0.0 1.0 1.0 1.0 1.0
1.0 0.0 0.0 0.0 0.0 0.0 0.0 0.0
0.0 0.0 1.0 1.0 1.0 1.0 1.0 1.0
1.0 0.0 0.0 0.0 0.0 0.0 0.0 0.0
1.0 1.0 1.0 1.0 1.0 1.0 1.0 1.0
1.0 0.0 0.0 0.0 0.0 0.0 1.0 1.0
1.0 1.0 1.0 1.0 1.0 1.0 0.0 0.0
0.0 0.0 0.0 0.0 1.0 1.0 1.0 1.0
1.0 1.0 1.0 1.0 1.0 0.0 0.0 0.0
0.0 0.0 1.0 1.0 1.0 1.0 1.0 1.0
1.0 1.0 1.0 1.0 1.0 0.0 0.0 0.0
1.0 1.0 1.0 1.0 1.0 1.0 0.0 0.0
0.0 0.0 0.0 0.0 0.0 0.0 1.0 1.0
1.0 0.0 0.0 0.0 0.0 0.0 0.0 0.0
0.0 0.0 0.0 0.0 1.0 1.0 1.0 1.0
1.0 1.0 1.0 0.0 0.0 0.0 0.0 0.0
0.0 0.0 1.0 1.0 1.0 1.0 1.0 1.0
1.0 1.0 1.0 1.0 1.0 1.0 1.0 0.0
1.0 0.0 0.0 0.0 0.0 0.0 0.0 0.0
0.0 0.0 0.0 0.0 0.0 0.0 1.0 1.0
1.0 1.0 1.0 1.0 1.0 1.0 1.0 1.0
1.0 1.0 0.0 0.0 1.0 1.0 1.0 1.0
00000000: 0000 803f 0000 803f 0000 803f 0000 803f
00000010: 0000 803f 0000 0000 0000 0000 0000 0000
00000020: 0000 0000 0000 0000 0000 0000 0000 0000
00000030: 0000 0000 0000 0000 0000 803f 0000 803f
00000040: 0000 803f 0000 803f 0000 803f 0000 803f
00000050: 0000 803f 0000 803f 0000 0000 0000 0000
00000060: 0000 0000 0000 0000 0000 0000 0000 0000
00000070: 0000 803f 0000 0000 0000 0000 0000 0000
00000080: 0000 0000 0000 0000 0000 0000 0000 0000
00000090: 0000 0000 0000 0000 0000 0000 0000 0000
000000a0: 0000 0000 0000 0000 0000 803f 0000 803f
000000b0: 0000 803f 0000 803f 0000 803f 0000 803f
000000c0: 0000 803f 0000 803f 0000 0000 0000 0000
000000d0: 0000 0000 0000 0000 0000 0000 0000 0000
000000e0: 0000 803f 0000 803f 0000 803f 0000 803f
000000f0: 0000 0000 0000 0000 0000 0000 0000 0000
00000100: 0000 0000 0000 0000 0000 0000 0000 0000
00000110: 0000 0000 0000 0000 0000 803f 0000 803f
00000120: 0000 803f 0000 803f 0000 803f 0000 803f
00000130: 0000 803f 0000 803f 0000 803f 0000 0000
00000140: 0000 0000 0000 0000 0000 0000 0000 0000
00000150: 0000 803f 0000 803f 0000 803f 0000 803f
00000160: 0000 803f 0000 0000 0000 0000 0000 0000
00000170: 0000 0000 0000 0000 0000 0000 0000 0000
00000180: 0000 0000 0000 0000 0000 803f 0000 803f
00000190: 0000 803f 0000 803f 0000 803f 0000 803f
000001a0: 0000 803f 0000 0000 0000 0000 0000 0000
000001b0: 0000 0000 0000 0000 0000 0000 0000 0000
000001c0: 0000 803f 0000 803f 0000 803f 0000 803f
000001d0: 0000 803f 0000 803f 0000 803f 0000 803f
000001e0: 0000 803f 0000 0000 0000 0000 0000 0000
000001f0: 0000 0000 0000 0000 0000 803f 0000 803f
00000200: 0000 803f 0000 803f 0000 803f 0000 803f
00000210: 0000 803f 0000 803f 0000 0000 0000 0000
00000220: 0000 0000 0000 0000 0000 0000 0000 0000
00000230: 0000 803f 0000 803f 0000 803f 0000 803f
00000240: 0000 803f 0000 803f 0000 803f 0000 803f
00000250: 0000 803f 0000 0000 0000 0000 0000 0000
00000260: 0000 0000 0000 0000 0000 803f 0000 803f
00000270: 0000 803f 0000 803f 0000 803f 0000 803f
00000280: 0000 803f 0000 803f 0000 803f 0000 803f
00000290: 0000 803f 0000 0000 0000 0000 0000 0000
000002a0: 0000 803f 0000 803f 0000 803f 0000 803f
000002b0: 0000 803f 0000 803f 0000 0000 0000 0000
000002c0: 0000 0000 0000 0000 0000 0000 0000 0000
000002d0: 0000 0000 0000 0000 0000 803f 0000 803f
000002e0: 0000 803f 0000 0000 0000 0000 0000 0000
000002f0: 0000 0000 0000 0000 0000 0000 0000 0000
00000300: 0000 0000 0000 0000 0000 0000 0000 0000
00000310: 0000 803f 0000 803f 0000 803f 0000 803f
00000320: 0000 803f 0000 803f 0000 803f 0000 0000
00000330: 0000 0000 0000 0000 0000 0000 0000 0000
00000340: 0000 0000 0000 0000 0000 803f 0000 803f
00000350: 0000 803f 0000 803f 0000 803f 0000 803f
00000360: 0000 803f 0000 803f 0000 803f 0000 803f
00000370: 0000 803f 0000 803f 0000 803f 0000 0000
00000380: 0000 803f 0000 0000 0000 0000 0000 0000
00000390: 0000 0000 0000 0000 0000 0000 0000 0000
000003a0: 0000 0000 0000 0000 0000 0000 0000 0000
000003b0: 0000 0000 0000 0000 0000 803f 0000 803f
000003c0: 0000 803f 0000 803f 0000 803f 0000 803f
000003d0: 0000 803f 0000 803f 0000 803f 0000 803f
000003e0: 0000 803f 0000 803f 0000 0000 0000 0000
000003f0: 0000 803f 0000 803f 0000 803f 0000 803f

1.0.mdl.input_to_hidden.0.cscale.weight f4 [100, 1]
-0.0017185583 0.0008632797 0.00041633635 0.0010499788 -0.0007654029 0.001191892 -0.001080313 -0.0009870912
0.00015153218 -9.540602e-05 -0.00067547476 -0.0020611845 4.0434836e-05 0.0021435574 -0.00040138085 0.0016176257
-0.0003278508 -0.0011173175 -0.00042693267 -0.00028877327 -0.0013057102 -0.0013307652 -0.0006787083 0.0023294573
-0.00044787597 0.00027956392 0.0010688406 -0.00035218685 -0.00027619617 0.0013599521 0.0005310308 -0.00015910112
0.00030548227 0.00021850766 -0.00015001175 -0.0025118394 -0.00020452042 0.0020693862 0.00033373947 -0.001284575
0.00037245077 0.00075804384 0.00035326194 0.00046289444 0.0018995156 0.0013821078 -0.0014214057 0.00073686626
0.0010698878 0.0001971442 0.00071482814 -0.0025315972 8.597918e-05 0.00013772097 0.00026218896 0.00086753804
-0.0005722032 -0.0020235707 -0.0013866577 0.0018675345 -0.00034162527 1.4188921e-05 0.00020577549 -0.0015957876
0.0016909679 -0.00020066526 0.00069903705 0.00029979646 0.00048789682 -0.0006388871 -0.00043414338 0.0006392814
-0.00090966077 0.0013733853 -0.00025378767 0.00080499693 0.0007659236 0.0007570691 -0.00038992494 0.00041659464
0.00011162933 1.9488225e-05 -0.00010876714 -0.0002959722 0.001565306 0.00086694426 -0.00072015927 -0.0021680926
-0.0004118095 -0.0015625276 0.00045394013 -0.00013014158 -0.0014579264 0.0004838851 -0.00025766809 0.0021730834
-0.0016810184 0.00032618587 -0.00056476606 -0.0002818017
00000000: 3f41 e1ba b84d 623a b847 da39 719f 893a
00000010: 52a5 48ba 4239 9c3a 4a99 8dba 4961 81ba
00000020: 9ce4 1e39 b814 c8b8 5812 31ba f014 07bb
00000030: 9398 2938 ed7a 0c3b 6d70 d2b9 8306 d43a
00000040: 64e3 abb9 f472 92ba efd5 dfb9 7e66 97b9
00000050: 5d24 abba 126d aeba 58eb 31ba cfa9 183b
00000060: e5d0 eab9 6f92 9239 5718 8c3a b8a5 b8b9
00000070: 6cce 90b9 6c40 b23a e034 0b3a 62d4 26b9
00000080: 2329 a039 341f 6539 794c 1db9 ac9d 24bb
00000090: 8874 56b9 8a9e 073b c1f9 ae39 2f5f a8ba
000000a0: 7f45 c339 76b7 463a 0436 b939 a4b0 f239
000000b0: 2bf9 f83a d827 b53a 764e baba 422a 413a
000000c0: 7a3b 8c3a 7eb8 4e39 4e63 3b3a 27e9 25bb
000000d0: b94f b438 3169 1039 6876 8939 7e6b 633a
000000e0: e8ff 15ba e29d 04bb 83c0 b5ba 0fc8 f43a
000000f0: 2b1c b3b9 f40c 6e37 70c5 5739 bf29 d1ba
00000100: 78a3 dd3a ac69 52b9 953f 373a 002e 9d39
00000110: 67cc ff39 fd7a 27ba bd9d e3b9 7395 273a
00000120: 4d76 6eba 2a03 b43a ce0e 85b9 6e06 533a
00000130: 43c8 483a 0c76 463a d76e ccb9 636a da39
00000140: 8a1a ea38 a57a a337 ea19 e4b8 b72c 9bb9
00000150: f42a cd3a a543 633a 12c9 3cba 8f16 0ebb
00000160: 23e8 d7b9 bacd ccba d0fe ed39 9d76 08b9
00000170: e417 bfba f5b1 fd39 a017 87b9 4a6a 0e3b
00000180: 9e55 dcba ed03 ab39 cf0c 14ba c9be 93b9

1.0.mdl.input_to_hidden.0.cscale.bias f4 [100]
0.845424 0.39891556 1.3053559 -0.5520984 -1.0636547 0.26011118 -0.6321227 -0.55063754
0.54080504 0.5517271 0.6781698 0.56839716 -0.25217658 0.46816903 0.7802765 -1.0875796
0.80088806 -0.13114949 0.9408566 0.50009 -0.9919316 -1.1656206 -0.29066062 0.7727
0.67670417 -0.33869886 -1.0738308 1.0052899 -0.91414326 1.0871987 1.1437327 0.4533841
0.70941544 -0.9800412 -0.87427855 -0.6907248 0.8108669 -0.37538588 0.65590036 0.602719
0.6017009 -0.32279426 -0.6900116 0.53369117 0.64789563 -0.9426444 -1.0997518 1.1150748
-1.357123 -0.62776655 1.0808116 0.2945144 0.29603678 -1.173346 -0.78103024 -1.2051597
-0.6368218 0.5518897 -1.2131599 -0.4862934 -0.8592632 -0.9038519 0.5854103 0.29253784
1.5868325 1.0471425 1.0986143 -1.3101615 -0.39237925 -0.5579607 -1.0308253 0.5529458
-0.9106438 -0.337574 -0.85569763 1.0472703 -0.33297905 0.41646796 0.6500882 0.2812772
-0.7500795 0.41289604 1.0710689 0.82352823 0.69129187 0.8896462 -0.9016584 0.8608323
0.6875398 1.1268083 -0.6014246 -0.98244697 -0.7950287 0.54800016 0.84116036 0.69950163
-0.5905127 0.45541993 -0.80180275 1.1426976
00000000: b56d 583f a93e cc3e e715 a73f 5256 0dbf
00000010: d625 88bf 4b2d 853e cbd2 21bf 95f6 0cbf
00000020: 3372 0a3f fd3d 0d3f 899c 2d3f 7a82 113f
00000030: 4a1d 81be dab3 ef3e 33c0 473f cf35 8bbf
00000040: 0007 4d3f 0d4c 06be fadb 703f e605 003f
00000050: 3bef 7dbf 0e33 95bf 78d1 94be abcf 453f
00000060: 7c3c 2d3f f069 adbe 4a73 89bf 57ad 803f
00000070: 4b05 6abf 5429 8b3f d565 923f f621 e83e
00000080: 409c 353f fbe3 7abf b8d0 5fbf 57d3 30bf
00000090: f994 4f3f 9432 c0be 16e9 273f cb4b 1a3f
000000a0: 1209 1a3f 4a45 a5be 9aa4 30bf fc9f 083f
000000b0: 7ddc 253f 2551 71bf abc4 8cbf c5ba 8e3f
000000c0: 35b6 adbf 4fb5 20bf 0958 8a3f 97ca 963e
000000d0: 2292 973e 3430 96bf 99f1 47bf ac42 9abf
000000e0: c106 23bf a548 0d3f d348 9bbf 73fb f8be
000000f0: acf8 5bbf d762 67bf 73dd 153f 85c7 953e
00000100: 541d cb3f c408 863f 659f 8c3f 5fb3 a7bf
00000110: efe5 c8be 83d6 0ebf 15f2 83bf db8d 0d3f
00000120: f41f 69bf 80d6 acbe 000f 5bbf f40c 863f
00000130: 3b7c aabe 4a3b d53e 2e6c 263f 9103 903e
00000140: 3605 40bf 1c67 d33e c918 893f bfd2 523f
00000150: 81f8 303f dabf 633f 16d3 66bf 815f 5c3f
00000160: 9c02 303f 413b 903f f6f6 19bf a581 7bbf
00000170: 0087 4bbf bd49 0c3f 4956 573f 8a12 333f
00000180: d72b 17bf cd2c e93e f242 4dbf ea43 923f

1.0.mdl.input_to_hidden.0.cbias.weight f4 [100, 1]
0.00091092486 0.00040647978 -0.0005279747 0.0004247712 0.00034810463 -0.00018403478 -0.00015929395 -0.00035274785
0.00096695864 0.00071447814 0.00054672454 0.00043481783 -0.00013714051 0.0017507784 -0.00041850845 0.00011348023
0.00022248943 0.0009662186 0.00052201975 -0.00045899948 0.00043676604 0.0015487269 -0.001325718 -0.0007150608
0.002138354 0.0034841138 -0.00052864925 0.00051038235 0.000349465 -0.0009222914 0.00027894782 -0.0025152655
-0.00014218873 0.000336354 -0.0010919839 -0.0005242196 -0.0019061792 0.0006968253 -0.00034763626 -0.0004100389
0.00018956714 0.0010898521 -0.0016488234 -0.000700159 5.3247055e-07 2.0838337e-05 -0.00022986562 0.0006717
0.00061925786 0.0005343846 0.0013111434 -0.002063522 -0.00028178212 0.0008340092 -0.0005995089 -0.0005582414
0.0011103285 0.0011771459 -0.00074423966 -7.5101896e-05 0.00016715274 -0.0005559474 0.00087400957 0.00064993394
0.0013286514 0.0015440569 0.00034038993 -0.0015412623 0.0013467722 -0.0013556296 0.0014131953 0.0010008954
-0.0019445512 0.00039799782 0.0015933776 0.0016963746 0.0015693998 -4.191244e-05 0.00029312485 -0.0014184585
-0.0012417885 0.00045159098 0.00049694057 -0.0012006989 -0.0010345654 -0.00019213824 -0.0013239981 0.00018040132
-0.0009334376 -0.00057357724 0.0007028635 0.001567772 -0.0017567925 0.0018698619 0.002100351 0.0010181334
0.00029943752 0.0014349519 -0.0008260925 0.00051666994
00000000: 22cb 6e3a cb1c d539 c867 0aba d3b3 de39
00000010: d081 b639 76f9 40b9 2508 27b9 04f1 b8b9
00000020: 7f7b 7d3a d14b 3b3a 1052 0f3a 43f8 e339
00000030: 60cd 0fb9 607a e53a 416b dbb9 3cfc ed38
00000040: 0d4c 6939 d549 7d3a 27d8 083a dea5 f0b9
00000050: bffd e439 a7fe ca3a b7c3 adba eb72 3bba
00000060: a023 0c3b bb55 643b 0d95 0aba 2ecb 053a
00000070: 6638 b739 eec5 71ba be3f 9239 27d7 24bb
00000080: 7f18 15b9 ab58 b039 e620 8fba c86b 09ba
00000090: c3d8 f9ba 27ab 363a f342 b6b9 7dfa d6b9
000000a0: 8bc6 4639 5ed9 8e3a 551d d8ba e08a 37ba
000000b0: 19ef 0e35 fdcd ae37 1508 71b9 0615 303a
000000c0: b155 223a f215 0c3a acda ab3a 283c 07bb
000000d0: 28bc 93b9 69a1 5a3a 5c28 1dba f256 12ba
000000e0: 7188 913a 764a 9a3a 1419 43ba 0680 9db8
000000f0: b945 2f39 00bd 11ba ca1d 653a 5460 2a3a
00000100: 2526 ae3a f461 ca3a 5d76 b239 2e04 caba
00000110: 2d86 b03a 62af b1ba f73a b93a 7a30 833a
00000120: 50e0 feba 5daa d039 e1d8 d03a e358 de3a
00000130: 52b4 cd3a 24cb 2fb8 8dae 9939 92eb b9ba
00000140: 82c3 a2ba 84c3 ec39 1e45 023a c560 9dba
00000150: 419a 87ba b778 49b9 018a adba 1c2a 3d39
00000160: f0b1 74ba 1e5c 16ba 5f40 383a b37d cd3a
00000170: 2d44 e6ba 2716 f53a 0ba6 093b e372 853a
00000180: d3fd 9c39 ff14 bc3a 218e 58ba 2271 073a
