models/lhc_binned_en5of5_sp0_e400_s1993_p0.0_h100_faffine_fl5_l1_dsdim16_dsl1_cudaFalse_last_model.pt (torch_old, 195019 bytes, 73 tensors)

0.0.mdl.input_to_hidden.0.direction f4 [100, 14]
00000000: f2e2 5cbc aafc 733c e38f 8eb9 3327 e43a
00000010: 449e 0ab7 5efd 9239 94dc c83a 7e9d 0f3a
00000020: dff6 ddb9 60e2 9c3a 8fe4 91ba ba9a 063b
00000030: 1c12 683a 8eae e639 4d25 203b 7e24 1fbb
00000040: dbc4 90ba b53d 123d 914c 4ebe e947 2e3f
00000050: cbba 8038 8fbb 7639 cb42 7dba 9825 18ba
00000060: d16f ea39 0ba7 183a c795 213b 1e0b 4db9
00000070: 3883 1dbb 62c7 11bd ac07 f5b9 b640 a2be
00000080: 7875 6c3a 4783 dfb9 3340 8038 152c 2fb8
00000090: a82b 69b9 63ad 433a 2909 4bb8 9840 c738
000000a0: aecc d0ba f78d b839 59e8 963c f6f0 3dbd
000000b0: 8885 f2bc ee22 103c d0ef cb3b 9543 853d
000000c0: 1884 b9bd 4558 f23c af96 b5bd 202a 173d
000000d0: d823 313c 40c1 00ba f019 86b9 8ed6 03bb
000000e0: d5d6 17b9 cd8e 4f3c 0289 baba 7efc 1a39
000000f0: 3e12 ff39 fc81 acba 9fc1 b83a a17f d337
00000100: 107c d639 d956 a5b8 698a 223a 4e68 95ba
00000110: e999 1cba f36a f0b9 06e4 85b8 65cb ee39
00000120: bd3b 80b9 70cc 05be bf6b 65be 477b 323f
00000130: ec9b f6b8 fef6 dc39 fda5 5839 e206 3db8
00000140: 9ae6 9a39 0018 e439 54a5 c439 5dee 103a
00000150: fb39 593c b514 84bd ee84 10ba ea9b e2ba
00000160: 35f4 2db9 e152 a1ba 1bd7 c4b9 7882 07ba
00000170: d78f 2c38 05e5 32ba 2c2c 92ba 0996 863a
00000180: 42f5 9939 5536 57ba ba11 c3bc 9efb 9d3c
00000190: e129 5b39 9464 ecbc 84a6 603d c8da 01bd
000001a0: 40e2 cc3c 7ded 443b 4981 f3ba 0081 3d3a
000001b0: c0d3 983e 115a a3ba ebb4 3bba e3a9 cfba
000001c0: 9441 353c a8fb aebb fea6 84bc 53f4 4ebd
000001d0: 7a25 863d 3694 a2bc 6e1b 00be 84e6 023c
000001e0: 1016 c5ba 2363 a23c 4e3f db3e e50f 9f3a
000001f0: a587 5e3a 75d8 0bbb 2ad3 e5b2 a797 793a
00000200: 8c21 4d3a 671a e1b9 b1de d339 4609 5f3a
00000210: 400b 073a b3d5 ddba a9a1 3aba 4a23 ee3a
00000220: c095 0dba c585 bf3a 9a47 f8ba 40eb 09ba
00000230: a9e8 f13c d0be 2dbd c948 26ba c79a 89bb
00000240: 156b 9f3a d4c6 b737 be5b ba39 1592 4e3a
00000250: 5520 31ba ee53 ab38 a068 4a3a 4dae fcb8
00000260: 86bd c739 c7b1 0eb9 6931 f5bb 6973 72ba
00000270: 72db 79b8 7e42 6fbd 749e 323b d101 a13d
00000280: 49eb f23d df59 60bc cba2 9fbb 0694 4fbb
00000290: 930f f7be 0df0 723e 7542 e839 89e7 8dba
000002a0: c196 66bc 0b56 6e3c 4e4d 863d 5277 03be
000002b0: 6df7 103e 836a 0cbe 012c 4cbe 477e 253c
000002c0: 59d6 193c 57dd 99bd 146f 4e3b 8260 cbba
000002d0: 4c34 3bba c8b5 27b9 8394 c93d 6eba 1a3e
000002e0: 878f 89b7 c1ca eabb be06 2b3c fdf0 84bc
000002f0: 1d98 863c 4723 ce3d 2ea5 1e3e 37f6 34ba
00000300: 3c82 69ba e535 133a e6f8 b2ba 5be1 c939
00000310: 5549 35bb da1f 23bb 2f83 b639 0677 99bc
00000320: 9bb4 35bc 1187 123d 2456 b5bc a47b cdbc
00000330: 41c9 a73c 0e90 b23a ef79 263e 2391 07be
00000340: b046 a63f f870 b83a bdf4 f4bc c7d7 9e3c
00000350: d10b e13a 31c5 183e b011 133f 4422 31b8
00000360: 4dbc 9939 282c 26bb efdd 9e3a 25a0 cb38
00000370: 5450 1bba 5ff5 e5b9 c3f8 42ba 8e66 ceb9
00000380: 342b 473c 23f7 8bb6 fe09 1e3a b3c7 653a
00000390: d883 1a39 8322 023a f11c f7b9 9a68 acb9
000003a0: ff29 72ba 0923 7cba 253b 71ba c99e 1fbb
000003b0: ab75 c43a e777 843a 25b2 2939 3ab3 22ba
000003c0: 776c 7239 dc1d 8c3e d5a3 80be 705e c0ba
000003d0: 2a02 3238 b9aa cdba 3e63 253a db91 b7b9
000003e0: ab35 9a3a 1aff 8fba d837 50b9 0871 733a
000003f0: 3b7b 4fbd 73a4 5f3c a29b 0d3d 9d33 8f3d
-0.013481842 0.014891783 -0.00027191555 0.0017406702 -8.26229e-06 0.00028036063 0.0015324526 0.0005478485
-0.00042336338 0.001196932 -0.0011130738 0.0020539002 0.0008852796 0.00043999072 0.0024436295 -0.0024283226
-0.0011044996 0.03570338 -0.20146395 0.68078476 6.1383085e-05 0.00023530259 -0.0009661137 -0.0005803942
0.00044715268 0.0005823231 0.0024655925 -0.00019554465 -0.0024034511 -0.035590537 -0.00046735757 -0.31689996
0.000902019 -0.00042631684 6.115474e-05 -4.1764306e-05 -0.00022236875 0.00074644963 -4.8407503e-05 9.501091e-05
-0.001593014 0.00035200987 0.018421339 -0.046372376 -0.029604688 0.00879739 0.0062236562 0.06507031
-0.09058398 0.029583106 -0.08866631 0.036905408 0.0108117685 -0.0004911609 -0.00025577797 -0.0020116898
-0.00014480513 0.012668324 -0.0014231505 0.00014780645 0.00048650982 -0.0013161297 0.001409579 2.5212592e-05
0.00040909695 -7.88399e-05 0.0006200434 -0.0011398883 -0.0005973862 -0.0004585605 -6.384407e-05 0.00045546438
-0.0002445857 -0.13066268 -0.22404383 0.69719356 -0.00011759237 0.00042145693 0.000206612 -4.506752e-05
0.0002954498 0.0004350543 0.00037507212 0.0005528683 0.0132584525 -0.06449262 -0.0005512972 -0.0017288898
-0.0001658954 -0.0012308025 -0.000375443 -0.00051692827 4.1141957e-05 -0.00068242877 -0.001115208 0.0010268103
0.00029365165 -0.0008209695 -0.023812164 0.01928502 0.00020901069 -0.028856553 0.0548463 -0.031702787
0.025010228 0.003004878 -0.0018577959 0.00072290003 0.29849052 -0.0012462755 -0.0007160443 -0.0015843477
0.011062998 -0.0053400584 -0.01619291 -0.050525974 0.06550117 -0.019846063 -0.12510464 0.0079895295
-0.0015036482 0.019822663 0.42821735 0.0012135474 0.00084888405 -0.0021338735 -2.6755135e-08 0.0009521194
0.0007825128 -0.00042935016 0.00040410974 0.0008508157 0.00051515177 -0.0016924649 -0.0007119426 0.0018168476
-0.00054010376 0.001461201 -0.0018942237 -0.000526119 0.029529886 -0.0424183 -0.00063432433 -0.004199359
0.001216265 2.1907887e-05 0.00035545038 0.0007880044 -0.0006756832 8.1695485e-05 0.0007721279 -0.000120487624
0.00038097444 -0.00013608403 -0.007482697 -0.0009248765 -5.95706e-05 -0.05841302 0.002725509 0.078616746
0.11861283 -0.013693302 -0.0048717014 -0.0031673922 -0.4825407 0.23724385 0.00044300003 -0.0010826449
-0.0140740285 0.014546881 0.065577134 -0.12838486 0.14156885 -0.13712506 -0.19938661 0.010100908
0.009389483 -0.0751292 0.0031499313 -0.0015516432 -0.0007141277 -0.0001599408 0.098427795 0.1511018
-1.6398508e-05 -0.0071652834 0.010438619 -0.016228193 0.016429955 0.10065322 0.15492699 -0.0006903144
-0.0008907651 0.0005615636 -0.00136545 0.0003850561 -0.0027662117 -0.0024890811 0.00034811485 -0.018733513
-0.011090423 0.03577334 -0.022135802 -0.02508337 0.020481708 0.0013623254 0.16257451 -0.13238959
1.2990322 0.0014071753 -0.029901857 0.01939 0.0017169659 0.14918973 0.57448864 -4.2232e-05
0.0002932273 -0.002535591 0.0012120585 9.7096236e-05 -0.00059247506 -0.000438611 -0.0007437581 -0.0003936779
0.0121562965 -4.1712933e-06 0.00060287106 0.0008765414 0.000147357 0.0004964249 -0.00047133074 -0.0003288433
-0.0009237825 -0.0009618258 -0.00092022336 -0.0024356118 0.0014988681 0.0010106534 0.0001618346 -0.00062065164
0.00023119325 0.2736653 -0.25124994 -0.0014676582 4.2440523e-05 -0.0015691138 0.0006309039 -0.0003501315
0.0011765262 -0.001098606 -0.00019857229 0.00092865573 -0.05065463 0.013650048 0.03457225 0.06992266

0.0.mdl.input_to_hidden.0.mask f4 [100, 14]
00000000: 0000 803f 0000 803f 0000 0000 0000 0000
00000010: 0000 0000 0000 0000 0000 0000 0000 0000
00000020: 0000 0000 0000 0000 0000 0000 0000 0000
00000030: 0000 0000 0000 0000 0000 803f 0000 803f
00000040: 0000 803f 0000 803f 0000 803f 0000 803f
00000050: 0000 0000 0000 0000 0000 0000 0000 0000
00000060: 0000 0000 0000 0000 0000 0000 0000 0000
00000070: 0000 803f 0000 803f 0000 803f 0000 803f
00000080: 0000 0000 0000 0000 0000 0000 0000 0000
00000090: 0000 0000 0000 0000 0000 0000 0000 0000
000000a0: 0000 0000 0000 0000 0000 803f 0000 803f
000000b0: 0000 803f 0000 803f 0000 803f 0000 803f
000000c0: 0000 803f 0000 803f 0000 803f 0000 803f
000000d0: 0000 803f 0000 0000 0000 0000 0000 0000
000000e0: 0000 803f 0000 803f 0000 0000 0000 0000
000000f0: 0000 0000 0000 0000 0000 0000 0000 0000
00000100: 0000 0000 0000 0000 0000 0000 0000 0000
00000110: 0000 0000 0000 0000 0000 803f 0000 803f
00000120: 0000 803f 0000 803f 0000 803f 0000 803f
00000130: 0000 0000 0000 0000 0000 0000 0000 0000
00000140: 0000 0000 0000 0000 0000 0000 0000 0000
00000150: 0000 803f 0000 803f 0000 803f 0000 0000
00000160: 0000 0000 0000 0000 0000 0000 0000 0000
00000170: 0000 0000 0000 0000 0000 0000 0000 0000
00000180: 0000 0000 0000 0000 0000 803f 0000 803f
00000190: 0000 803f 0000 803f 0000 803f 0000 803f
000001a0: 0000 803f 0000 803f 0000 803f 0000 803f
000001b0: 0000 803f 0000 0000 0000 0000 0000 0000
000001c0: 0000 803f 0000 803f 0000 803f 0000 803f
000001d0: 0000 803f 0000 803f 0000 803f 0000 803f
000001e0: 0000 803f 0000 803f 0000 803f 0000 0000
000001f0: 0000 0000 0000 0000 0000 803f 0000 0000
00000200: 0000 0000 0000 0000 0000 0000 0000 0000
00000210: 0000 0000 0000 0000 0000 0000 0000 0000
00000220: 0000 0000 0000 0000 0000 0000 0000 0000
00000230: 0000 803f 0000 803f 0000 803f 0000 803f
00000240: 0000 0000 0000 0000 0000 0000 0000 0000
00000250: 0000 0000 0000 0000 0000 0000 0000 0000
00000260: 0000 0000 0000 0000 0000 803f 0000 803f
00000270: 0000 803f 0000 803f 0000 803f 0000 803f
00000280: 0000 803f 0000 803f 0000 803f 0000 803f
00000290: 0000 803f 0000 803f 0000 0000 0000 0000
000002a0: 0000 803f 0000 803f 0000 803f 0000 803f
000002b0: 0000 803f 0000 803f 0000 803f 0000 803f
000002c0: 0000 803f 0000 803f 0000 0000 0000 0000
000002d0: 0000 0000 0000 0000 0000 803f 0000 803f
000002e0: 0000 803f 0000 803f 0000 803f 0000 803f
000002f0: 0000 803f 0000 803f 0000 803f 0000 0000
00000300: 0000 0000 0000 0000 0000 0000 0000 0000
00000310: 0000 803f 0000 803f 0000 803f 0000 803f
00000320: 0000 803f 0000 803f 0000 803f 0000 803f
00000330: 0000 803f 0000 803f 0000 803f 0000 803f
00000340: 0000 803f 0000 0000 0000 803f 0000 803f
00000350: 0000 803f 0000 803f 0000 803f 0000 0000
00000360: 0000 0000 0000 0000 0000 0000 0000 0000
00000370: 0000 0000 0000 0000 0000 0000 0000 0000
00000380: 0000 803f 0000 0000 0000 0000 0000 0000
00000390: 0000 0000 0000 0000 0000 0000 0000 0000
000003a0: 0000 0000 0000 0000 0000 0000 0000 0000
000003b0: 0000 0000 0000 0000 0000 803f 0000 803f
000003c0: 0000 803f 0000 803f 0000 803f 0000 0000
000003d0: 0000 0000 0000 0000 0000 0000 0000 0000
000003e0: 0000 0000 0000 0000 0000 0000 0000 0000
000003f0: 0000 803f 0000 803f 0000 803f 0000 803f
1.0 1.0 0.0 0.0 0.0 0.0 0.0 0.0
0.0 0.0 0.0 0.0 0.0 0.0 1.0 1.0
1.0 1.0 1.0 1.0 0.0 0.0 0.0 0.0
0.0 0.0 0.0 0.0 1.0 1.0 1.0 1.0
0.0 0.0 0.0 0.0 0.0 0.0 0.0 0.0
0.0 0.0 1.0 1.0 1.0 1.0 1.0 1.0
1.0 1.0 1.0 1.0 1.0 0.0 0.0 0.0
1.0 1.0 0.0 0.0 0.0 0.0 0.0 0.0
0.0 0.0 0.0 0.0 0.0 0.0 1.0 1.0
1.0 1.0 1.0 1.0 0.0 0.0 0.0 0.0
0.0 0.0 0.0 0.0 1.0 1.0 1.0 0.0
0.0 0.0 0.0 0.0 0.0 0.0 0.0 0.0
0.0 0.0 1.0 1.0 1.0 1.0 1.0 1.0
1.0 1.0 1.0 1.0 1.0 0.0 0.0 0.0
1.0 1.0 1.0 1.0 1.0 1.0 1.0 1.0
1.0 1.0 1.0 0.0 0.0 0.0 1.0 0.0
0.0 0.0 0.0 0.0 0.0 0.0 0.0 0.0
0.0 0.0 0.0 0.0 1.0 1.0 1.0 1.0
0.0 0.0 0.0 0.0 0.0 0.0 0.0 0.0
0.0 0.0 1.0 1.0 1.0 1.0 1.0 1.0
1.0 1.0 1.0 1.0 1.0 1.0 0.0 0.0
1.0 1.0 1.0 1.0 1.0 1.0 1.0 1.0
1.0 1.0 0.0 0.0 0.0 0.0 1.0 1.0
1.0 1.0 1.0 1.0 1.0 1.0 1.0 0.0
0.0 0.0 0.0 0.0 1.0 1.0 1.0 1.0
1.0 1.0 1.0 1.0 1.0 1.0 1.0 1.0
1.0 0.0 1.0 1.0 1.0 1.0 1.0 0.0
0.0 0.0 0.0 0.0 0.0 0.0 0.0 0.0
1.0 0.0 0.0 0.0 0.0 0.0 0.0 0.0
0.0 0.0 0.0 0.0 0.0 0.0 1.0 1.0
1.0 1.0 1.0 0.0 0.0 0.0 0.0 0.0
0.0 0.0 0.0 0.0 1.0 1.0 1.0 1.0

0.0.mdl.input_to_hidden.0.cscale.weight f4 [100, 1]
00000000: 1d65 d0b9 895a c5b9 8a7b 7dba ddf0 d438
00000010: 082e 4c3a 6c42 3a39 a620 25ba f777 72b9
00000020: 8f6d 643a 8622 21ba 78a3 b038 81fe 13ba
00000030: d1a1 39ba 4573 b63a aded c93a e7ab da36
00000040: 4e72 0b3a 0dd5 8c3a 045f e03a f66e 32b9
00000050: 2318 cb3a b88d e5ba 0c9d ae3a 8a45 3439
00000060: 69be 0b3a c110 8c3a 1a29 d4b9 3fb8 8e39
00000070: c148 60ba 04f0 42ba 89f5 893a 7a28 983a
00000080: e52b dd3a 7d28 cc38 cc88 8aba 8e7d 35bb
00000090: 6474 57ba 284c db3a 70b0 a239 c8d1 b6b8
000000a0: 21b8 3bb8 d5bd 9fba 8623 313a 8d48 d1b9
000000b0: f590 c83a 3626 9eb9 81ba 7fba ff02 90ba
000000c0: 145d a03a 14fc d7ba 7513 9e3a 91b9 8e3a
000000d0: 1370 1a38 4b37 ca39 4121 48b9 d80a 80ba
000000e0: 6c4f 5aba 5d0f ab39 2c17 7fba ed60 f339
000000f0: 5a93 1cba bfbc 293a ed7a fab9 2653 c039
00000100: 8e14 a3ba 7ca0 f039 ce39 e539 6fda 233a
00000110: e3a9 ab39 b8a2 abb9 0ec5 9839 3672 deb9
00000120: fcd3 513a 26d3 2cb9 5e0e 90ba 6dd2 c1b9
00000130: 1d9f 05ba 07c7 31ba fce1 ba39 0920 2ab9
00000140: 4012 87b9 9201 c839 a915 9b3a 3e42 02b8
00000150: 0977 7db6 fd38 c739 f244 203b ff04 74ba
00000160: 10a7 0bbb c825 663a a03e 5db8 4e9b 2cb9
00000170: c5e5 99ba df4b 8638 abd4 fe39 4bbe a1ba
00000180: 394d 98ba a2f7 a33a 17bf b33a b3c8 1fba
-0.00039748187 -0.00037642222 -0.0009669593 0.00010153812 0.00077888416 0.00017763086 -0.00062991155 -0.00023123609
0.0008713835 -0.0006146807 8.4227824e-05 -0.0005645529 -0.00070813025 0.0013919851 0.0015405916 6.5169183e-06
0.0005319462 0.0010744646 0.0017118161 -0.00017016739 0.0015494864 -0.0017513549 0.001332195 0.00017192043
0.00053308025 0.0010686145 -0.00040466414 0.00027221625 -0.0008555763 -0.0007436278 0.0010525446 0.0011608743
0.0016874044 9.7350196e-05 -0.0010569333 -0.0027693245 -0.00082189427 0.001673107 0.00031030504 -8.717511e-05
-4.4755758e-05 -0.0012187312 0.00067573076 -0.0003991764 0.001530199 -0.00030164578 -0.0009755269 -0.0010987221
0.0012234771 -0.0016478323 0.0012060242 0.0010889043 3.682084e-05 0.0003856964 -0.00019085874 -0.0009768857
-0.0008327875 0.00032627108 -0.0009730931 0.00046420787 -0.0005972885 0.0006474964 -0.00047775303 0.00036683044
-0.0012442039 0.00045895937 0.00043721352 0.00062505057 0.00032742237 -0.00032736897 0.00029138516 -0.00042428233
0.00080043054 -0.00016481857 -0.001099061 -0.00036968608 -0.0005097257 -0.00067816715 0.00035645056 -0.00016224397
-0.00025762804 0.00038148143 0.0011832017 -3.1056108e-05 -3.7769225e-06 0.00037998697 0.0024455157 -0.0009308606
-0.0021309294 0.00087794336 -5.274883e-05 -0.00016461054 -0.001174145 6.40375e-05 0.00048605105 -0.0012340037
-0.0011619694 0.0012509713 0.0013713565 -0.0006095275

0.0.mdl.input_to_hidden.0.cscale.bias f4 [100]
00000000: 3804 b7be f06c 403e 29e9 b83e 7918 d3be
00000010: 345a 3a3e 9f3a 1d3f 8076 353d c267 61be
00000020: 0d12 0abf 6aa3 e432 7da3 ff3e 5300 1bbf
00000030: a250 443d d7f3 ab3f 48cc d4be e06f 7bbe
00000040: daf6 36be 2928 73be 83a7 92bc b543 bfbe
00000050: ba23 0fbf 6dd0 c13e 61e2 7ebe 50f7 87be
00000060: 1a4b fcbe 7c66 7fbe 280c 373e b34d 903a
00000070: ec64 34bf 8931 05bf 00d8 82bd 1a81 94be
00000080: a991 09be 1b59 c73e cc32 2b3e 773b 2abe
00000090: 393c fdbe b0ff 083e 7f91 10bf 3a09 53b6
000000a0: bc9a 6bbe 345b 92bf 8651 9abe 054a c7be
000000b0: f349 fbbe b9eb 323e 3097 653f 0de6 90be
000000c0: 9b46 f5be b6fd 1db7 a948 14be c043 dd3e
000000d0: 5188 acbe a2c8 a9be 8ba8 23bf be3c a03f
000000e0: 6cd6 90be cec3 093f 99a8 443f d626 1bbf
000000f0: 1006 09bd b982 14be 045e 953e e664 f9be
00000100: a27d 06bf f415 cf3d e934 ba3d 3a1d ccbd
00000110: e2b7 333f 99b0 2d3f 8c55 143e 47b1 ba3e
00000120: 022b 313f 2b4d a93e 29dd b03e 8784 5ebf
00000130: bc29 32bf 8a58 343f f2b5 91bf c5a6 15be
00000140: af02 3dbf 721e 92bf 4a6c 9a3f 1508 8d3f
00000150: 28bc c2be c8b4 c7be 98dc c017 6c91 2abe
00000160: dfa5 ba3e eb69 af3e 04bb a43d c50e 92be
00000170: 23ae 003f d2a5 923e f7e3 ca3e 6e20 01bf
00000180: 5f04 853e bbfd 1a3f 6b22 183f 2016 33be
-0.35745406 0.18791556 0.36115387 -0.4122961 0.18198472 0.61417574 0.044302464 -0.22012237
-0.53933793 2.6617005e-08 0.4992942 -0.6054737 0.04792846 1.3433789 -0.41562104 -0.24554396
-0.17867604 -0.23745789 -0.017902141 -0.37356344 -0.5591389 0.3785433 -0.24891044 -0.26555872
-0.49276048 -0.24941438 0.17875731 0.0011009484 -0.70466495 -0.5202871 -0.06388855 -0.29004747
-0.13434471 0.3893517 0.16718596 -0.16624247 -0.4946001 0.13378787 -0.5647201 -3.144682e-06
-0.23008245 -1.1434083 -0.30140322 -0.3892366 -0.49079856 0.17472734 0.8968382 -0.28300515
-0.4790543 -9.417001e-06 -0.14480843 0.43215752 -0.3369775 -0.33160883 -0.6392905 1.2518537
-0.2828859 0.538144 0.7681976 -0.60606134 -0.033453047 -0.14502992 0.2917329 -0.48709792
-0.5253545 0.10111609 0.09092123 -0.09966512 0.7020246 0.6784759 0.14485759 0.36463377
0.6920625 0.33066687 0.34543732 -0.8692097 -0.6959493 0.704476 -1.138365 -0.14614399
-0.7383222 -1.1415541 1.2064297 1.1018091 -0.38034177 -0.39005113 1.2463395e-24 -0.16657037
0.36454675 0.34260496 0.08043483 -0.28526893 0.5026571 0.28642136 0.39627048 -0.5044011
0.25979897 0.6054341 0.5942752 -0.17488909

0.0.mdl.input_to_hidden.0.cbias.weight f4 [100, 1]
00000000: 9e63 09ba 609a 50ba 9320 bcb9 1b01 ccba
00000010: 9b6f dbb9 b61a 263a a157 043b 0f09 32ba
00000020: 09fd 103a f70e 143a c979 9eba dd98 af3a
00000030: c792 fe3a 3706 7f39 6f4f 45bb 1bba e139
00000040: 514f 59ba 5074 19b9 d449 8eb9 dd2e 0938
00000050: 65b2 bfb9 a0c6 bd39 3cd1 11b9 9e3a 07ba
00000060: c908 8139 2b0e 4a3a 2943 12ba 07f7 493a
00000070: d98e 21ba ef28 90ba 38d5 0a3a de0c c13a
00000080: 5740 5238 be98 bc39 a0a6 42b8 0803 bdb9
00000090: 9d09 2e3a 479d c0ba 90c3 76ba 0f10 20ba
000000a0: e40e b839 e6e5 0e3a 9114 2438 5619 e83a
000000b0: 710a 5a3a 83e9 483a 94af 7f3a 89c5 e2b9
000000c0: c5e6 1fb9 a235 793a a26f 25ba 5eb4 bf3a
000000d0: 4cdc 213a 9edd 2bba 275f 7bb9 6cac e5b9
000000e0: 755c 9dba d811 16ba 2f54 4eba 4a59 f73a
000000f0: 6d65 58ba cb51 8d39 3fad 0a3a 18d4 ad39
00000100: 844c 19b8 4c3b 49b9 70a8 00bb 951a 853a
00000110: b1c1 98ba 66a8 123a 27ae 73ba e837 053a
00000120: 62d6 d3b9 a770 f0b9 f9c8 a43a 930b e43a
00000130: 349d c6b9 b9e5 43b8 6eda 54ba e9d0 06ba
00000140: 27b5 513a 345b aa3a d6a6 72ba 5d9d b3b8
00000150: 4725 1aba e870 f73a 118b b7b8 f8f7 bcba
00000160: 1dac 9a39 3b11 69ba 7d93 ac3a f2dd 75b8
00000170: 2cf0 423a 620e b1ba d6e6 8aba c098 abba
00000180: 31df 923a ccf1 06b9 3a49 363a 54d8 53ba
-0.00052409794 -0.0007957574 -0.00035882424 -0.0015564294 -0.00041854088 0.00063363777 0.0020193832 -0.0006791511
0.0005530869 0.0005647982 -0.0012090738 0.0013396997 0.0019422405 0.0002432101 -0.003010716 0.00043054004
-0.0008289712 -0.00014634547 -0.00027139357 3.270699e-05 -0.00036563273 0.00036196876 -0.00013906223 -0.0005158576
0.00024611343 0.00077077997 -0.00055794657 0.00077043514 -0.00061629486 -0.0010998527 0.00052960543 0.0014728566
5.0127823e-05 0.00035971956 -4.6408386e-05 -0.00036051148 0.0006639006 -0.001469531 -0.00094132964 -0.00061059085
0.0003510631 0.00054511277 3.91198e-05 0.0017707746 0.0008317596 0.00076641905 0.0009753641 -0.00043253254
-0.0001524939 0.0009506588 -0.0006310885 0.0014625897 0.00061744894 -0.0006556156 -0.00023972672 -0.00043806748
-0.0012005704 -0.0005724705 -0.00078708207 0.0018871215 -0.000825486 0.00026954556 0.0005290098 0.00033155154
-3.6549303e-05 -0.00019190944 -0.0019631647 0.0010155017 -0.0011654404 0.00055945513 -0.0009295665 0.0005081878
-0.00040404784 -0.000458603 0.0012572102 0.0017398469 -0.00037882628 -4.670557e-05 -0.0008119707 -0.00051428244
0.0007999711 0.0012997151 -0.0009256428 -8.564696e-05 -0.00058801885 0.0018878253 -8.752023e-05 -0.0014417162
0.00029501403 -0.0008890812 0.0013166514 -5.8619255e-05 0.0007436301 -0.0013508315 -0.0010597359 -0.0013091788
0.0011205432 -0.00012869312 0.00069536606 -0.00080812466

0.0.mdl.input_to_hidden.0.cbias.bias f4 [100]
00000000: 37c1 5dc0 dd56 b040 b68a 4540 ee4e 5240
00000010: 753f 6cc0 97ee 6940 dbc5 3dc0 b63f 9040
00000020: 678e dc40 d4a5 0f40 b571 e23f 1cf7 6c3f
00000030: a522 59c0 a5e7 f9be 27df 8040 07ba 5240
00000040: fd62 4dc0 9a1e 8d40 d51a 8940 5675 1d3f
00000050: b1ec 64c0 54ae 06bf 74aa 6f40 8189 7140
00000060: 4d2b 5bc0 fa64 0c3f 25db 1040 3c51 9a40
00000070: 719f 8d3f c8a1 f9bd f143 2bc0 fa0a 9bbf
00000080: c801 1640 46a8 1f41 7919 cc40 966c 8d40
00000090: baa9 af40 26a7 63c0 cac5 d03f 2125 3740
000000a0: bc0d 8740 7c7b ef3f 8cdc c7bf e3b6 ef3f
000000b0: b460 2040 6626 d040 e1f8 b43f 83c5 2440
000000c0: 5663 0540 b53d cb3f 3931 8140 b462 f43f
000000d0: ba8b 663f 0e9b 1dc0 ae3d 9e3e 78bc ba3e
000000e0: d2f0 1240 7e3a fcbf 77f1 2140 0bc8 0440
000000f0: 414e 85c0 3f5e 773e 4043 ef3f 450c dfbf
00000100: 071d 643f 231a 1ec0 dd74 8f40 e255 90bf
00000110: 45a7 1a40 7ce2 d63e b2f9 f6be 8114 d640
00000120: 773b fd3f b538 45bf c727 57c0 e77f 0a40
00000130: 2ac7 eebe fb6a 3f40 5171 bf3f 1c20 dd3f
00000140: 0c19 bf3f 1497 f73f 935a 10bf 2f55 6b3f
00000150: 702d 0040 7689 7940 31f5 3240 0b0f 2540
00000160: baf6 963f 2fa9 5f40 ab48 9140 97c0 a840
00000170: 8c08 8440 369a 10c0 bdf5 8140 ecac 2a40
00000180: f83a 6fc0 d237 6c40 6a1a 1540 09ea c13f
-3.464918 5.5106034 3.0865912 3.2860675 -3.691373 3.6551874 -2.9652011 4.507777
6.892383 2.2444963 1.7690951 0.9256456 -3.3927395 -0.48809543 4.0272403 3.2926042
-3.2091668 4.4099855 4.2845254 0.61507165 -3.5769465 -0.52609754 3.7447786 3.7740176
-3.4245179 0.5484158 2.2633755 4.8224163 1.1064283 -0.121890604 -2.6760218 -1.2112725
2.3438587 9.978582 6.3781095 4.419505 5.4894686 -3.557077 1.631036 2.8616412
4.2204266 1.870956 -1.561418 1.8727688 2.5059023 6.5046873 1.4138452 2.5745552
2.084188 1.5878206 4.0372586 1.9092622 0.90056956 -2.4625888 0.30906433 0.36471915
2.2959485 -1.970535 2.5303628 2.0747097 -4.1658025 0.24157046 1.8692398 -1.7425619
0.8910679 -2.4703453 4.4830155 -1.1276209 2.4164593 0.4196967 -0.48237377 6.690003
1.9783772 -0.77039653 -3.3618028 2.1640565 -0.46636325 2.9909046 1.4956456 1.7275424
1.4929519 1.934298 -0.56388205 0.91926855 2.0027733 3.899015 2.7962153 2.5790431
1.1794045 3.4947011 4.5401206 5.2735095 4.1260433 -2.2594123 4.0612473 2.6668043
-3.7379742 3.690907 2.3297372 1.5149547

0.0.mdl.hidden_to_output.direction f4 [28, 100]
00000000: 8efc c5b9 85a8 9a39 ac97 5dba 3d45 9aba
00000010: d399 c939 e9db 243a e5d5 18ba 2979 07ba
00000020: e897 be3a 9160 afb9 90f4 c33a d265 39ba
00000030: 57ae e139 eb6e e0b7 145b 1f38 6d80 71ba
00000040: 1d30 913a 326f 703a 4778 e5b9 058c 8639
00000050: f2fa 59ba 0deb 35ba 7ad2 583a 14e5 53b9
00000060: 60d5 96b9 2a6f 88b8 6174 1a3a ad4e 0737
00000070: e8f4 b7ba bb7d f1b9 43a0 f1b7 83ee 20ba
00000080: 059e 3dba 9551 a63a 35a2 3d3a 0359 1a3a
00000090: 9b8a de39 da32 8a39 74f7 8539 c41b 1e39
000000a0: 99ab ef3a 8bb1 61ba 3baa 8838 e1fe 6cba
000000b0: ed9f 60b9 6954 ba3a 0b74 513a 4437 bfba
000000c0: 95ba b13a 1282 28ba 5811 4837 8671 df39
000000d0: 613e 7a39 5d38 df39 1032 15ba 4829 6bb9
000000e0: 9b14 0c3b e8c8 7aba 95c5 493a b8dd 85ba
000000f0: 87cd 2dba 8499 3039 6040 c4b9 93a5 7c39
00000100: 38a8 3f38 eec2 813a cb34 29ba 0155 3a3b
00000110: 8577 743a 13e8 adb9 67fb a439 53a8 663a
00000120: 428a ec38 d1e8 b3b8 8318 dab9 5f29 b23a
00000130: 0291 bd39 d429 893a c82b de3a 7181 c9ba
00000140: 33d6 263b 21fa 0dbb 2829 4739 7f2c a53a
00000150: 1e2e 27ba b88e b538 61e1 e23a eb8b 2f39
00000160: 2dae 4bbb 9578 cb3a 3d41 75b8 6418 883a
00000170: 950a 993a 1578 1e3a 6341 a3ba d6b0 09b9
00000180: 8e22 193a af4e 74ba 7e73 4d3a e2e7 2839
00000190: 7436 f538 20c4 3f3a b9aa acba a91f 60ba
000001a0: 0df6 04ba 36ba dcba a194 19ba 1027 f439
000001b0: c349 a1b9 3e0a 883a 5be7 e239 dd6c 2b3a
000001c0: 06a5 0dbb 0e8f 9db9 5ca9 2839 0805 80b9
000001d0: ec89 a2ba aa5a 883a 6696 483a 0a6d a3ba
000001e0: e297 d839 7640 9cba 0a32 7dba b3bd 523a
000001f0: 98f6 6fba 26d8 cf3a 4a2f 04ba d73f ca3a
00000200: dd52 9539 7b3d a2b9 14b3 a738 be36 a5ba
00000210: 08d2 75ba 5a15 08b9 739e 4dba 39aa c5b9
00000220: ca1a 0eba 7e72 bfba 7258 2a3a ace6 2839
00000230: 889e 01ba 18c5 3f38 ab3f afba 05fa 56b8
00000240: d428 f9b9 76a7 7dba 93dc 85ba cdfd a1b9
00000250: 9ae8 89ba 7ce7 cc3a a171 9cba 9afb 1e37
00000260: cccc 66ba 9653 e639 34be 10ba 78b6 e9b8
00000270: 58b8 b03a 0291 e839 1b0e da3a f96e 37bb
00000280: d304 9a38 de2b 5839 447a b739 7064 8a3a
00000290: ba45 92b8 e480 9a39 b03c 59b9 eea2 3d3a
000002a0: efac 01bb 81ec 4d3a fd39 963a ef93 7a39
000002b0: 0222 1cba a8c0 7b3a 2507 0dba bc92 43b9
000002c0: 6ffc 5cba 6590 97b9 198c 0aba ba81 8a3a
000002d0: 43a5 c1ba 34f9 be3a cd43 fab8 157a 88b9
000002e0: 4e2d aa38 8b07 8cba aa70 ef3a 49f0 04b9
000002f0: abc7 bbba 17fb 1dba 2632 d9ba f2ca 54ba
00000300: 51c3 603a dee1 133a 12e5 dfb8 c9ed 043a
00000310: 841f 9638 72b3 f739 6e29 2cba 6f1a 29b9
00000320: 18c1 0e00 e224 6b2c 2ed2 0880 0b1b 1300
00000330: 91e3 0e00 573c 0f00 9ee0 0600 3c0b 0700
00000340: 5807 7d00 eb3f 0e3b 3b63 0400 999b 1080
00000350: bd9a 1c18 d29a 0180 104e 0780 e69d b938
00000360: 598b 313d 8c0b 0780 5072 0380 cc0d 0f00
00000370: 9612 2c00 0a9c 23b4 35fc 1800 9515 cfb3
00000380: e981 0480 21eb 0d80 ee90 0980 92cd e519
00000390: e8f5 0080 737b 67b7 98d4 2caa f10a 0a00
000003a0: ffae 0080 ae82 1180 7ca1 0680 885e 1180
000003b0: 1e56 0880 6288 e1a1 02fd 0500 cd30 423b
000003c0: 0895 0bb5 7812 8232 786e f015 6ce4 0380
000003d0: a3ce 0180 7c58 0480 8433 efbe 3ebe 782b
000003e0: 88c6 e29a 7b7f 0480 bea2 0200 0269 0200
000003f0: dcd9 0100 c6ed 0100 01a6 2a00 0750 0480
-0.00037762936 0.00029498726 -0.0008453082 -0.0011769902 0.00038452315 0.00062888727 -0.00058302126 -0.00051678956
0.0014541121 -0.0003345055 0.0014950205 -0.00070723624 0.00043045238 -2.6754531e-05 3.7993377e-05 -0.00092125573
0.0011076961 0.0009171843 -0.00043767897 0.00025662794 -0.0008315287 -0.00069396273 0.00082711095 -0.00020207866
-0.00028769206 -6.505691e-05 0.00058919756 8.064945e-06 -0.001403478 -0.0004606078 -2.8804066e-05 -0.00061390566
-0.00072333246 0.0012689108 0.00072339486 0.00058878976 0.0004244641 0.00026359298 0.00025552104 0.00015078398
0.0018285393 -0.0008609525 6.516693e-05 -0.00090406655 -0.00021421882 0.001421583 0.0007990009 -0.0014588614
0.0013559634 -0.00064280734 1.1924967e-05 0.00042618456 0.00023865096 0.00042575868 -0.0005691359 -0.00022426725
0.0021374587 -0.00095666805 0.00076969835 -0.0010213172 -0.0006630052 0.00016841857 -0.00037431996 0.00024094274
4.5694615e-05 0.0009900013 -0.0006454705 0.0028432014 0.0009325671 -0.0003317004 0.00031467827 0.0008798886
0.000112791095 -8.5787506e-05 -0.00041598463 0.0013592652 0.00036156928 0.0010464736 0.0016950304 -0.001537366
0.0025457263 -0.002166398 0.00018993451 0.0012601762 -0.00063774164 8.657336e-05 0.00173096 0.00016741424
-0.0031079159 0.0015523607 -5.847331e-05 0.0010383246 0.0011676127 0.00060451153 -0.00124554 -0.00013131215
0.0005841636 -0.0009319586 0.0007837339 0.00016108112 0.00011692653 0.00073152967 -0.0013173438 -0.00085496396
-0.0005072065 -0.0016840163 -0.0005858634 0.0004656841 -0.0003076327 0.0010379029 0.00043278452 0.0006539354
-0.0021613254 -0.00030051958 0.0001608482 -0.0002441781 -0.0012400723 0.0010402997 0.00076518056 -0.0012468409
0.00041311892 -0.0011921066 -0.00096586405 0.00080391316 -0.0009153872 0.0015857264 -0.0005042447 0.0015430403
0.00028481233 -0.00030944854 7.9965364e-05 -0.0012604815 -0.00093773054 -0.00012977925 -0.000784374 -0.00037701594
-0.0005420862 -0.0014606265 0.0006498165 0.0001610766 -0.00049445825 4.5721506e-05 -0.0013370415 -5.1254425e-05
-0.000475234 -0.00096761377 -0.0010212831 -0.0003089741 -0.0010521591 0.0015632953 -0.001193572 9.476114e-06
-0.0008804321 0.00043931295 -0.00055215065 -0.00011144293 0.0013482673 0.00044358528 0.0016636284 -0.002798973
7.344191e-05 0.00020615707 0.00034995575 0.0010558497 -6.97481e-05 0.000294692 -0.0002071734 0.0007234056
-0.0019786914 0.0007855371 0.0011461374 0.00023896967 -0.00059559953 0.0009603598 -0.0005379788 -0.00018651312
-0.00084299495 -0.00028908547 -0.00052851584 0.0010567226 -0.0014773983 0.0014570118 -0.00011933558 -0.000260309
8.11467e-05 -0.00106834 0.001826783 -0.00012678014 -0.0014326473 -0.000602649 -0.0016570732 -0.00081173994
0.0008574026 0.0005641262 -0.00010676136 0.0005070833 7.1584276e-05 0.00047245208 -0.0006567453 -0.00016126943
1.354966e-39 3.3415983e-12 -8.10082e-40 1.754576e-39 1.367332e-39 1.399178e-39 6.3159e-40 6.46879e-40
1.1482071e-38 0.0021705579 4.02939e-40 -1.525186e-39 2.024065e-24 -1.47375e-40 -6.70852e-40 8.850898e-05
0.043345783 -6.46991e-40 -3.16514e-40 1.382482e-39 4.047429e-39 -1.5237325e-07 2.294527e-39 -9.6431144e-08
-4.13945e-40 -1.27821e-39 -8.7851e-40 2.3761074e-23 -8.8215e-41 -1.3797416e-05 -1.5350427e-13 9.2228e-40
-6.2777e-41 -1.608082e-39 -6.08943e-40 -1.595115e-39 -7.65577e-40 -1.5282693e-18 5.4994e-40 0.0029631138
-5.1998404e-07 1.514239e-08 9.710952e-26 -3.57449e-40 -1.65963e-40 -3.99084e-40 -0.4671899 8.8371313e-13
-9.3792154e-23 -4.13073e-40 2.42052e-40 2.2134e-40 1.69989e-40 1.77133e-40 3.916642e-39 -3.9605e-40

0.0.mdl.hidden_to_output.cscale.weight f4 [28, 1]
00000000: 403c 7b39 1444 5f3a eef4 e6b9 60e1 92b9
00000010: 3e1f 04ba 0029 a037 f07f 87b9 5676 1cba
00000020: c425 e8b9 a0e2 6738 e206 7f3a 00bf b739
00000030: 4a60 5aba d6fe 23ba 9046 04ba 166f 683a
00000040: 96f3 253a 18fd 8139 a93b 7bba 602f deb9
00000050: 8055 28b8 98b3 45ba 10cd 9438 a0de 1e3a
00000060: 7273 6f3a 68a7 733a 4adc 27ba a200 39ba
0.0002395967 0.00085169193 -0.00044051505 -0.00028015207 -0.0005040056 1.9092578e-05 -0.00025844527 -0.0005968561
-0.00044278626 5.5285753e-05 0.00097285036 0.00035046786 -0.0008330388 -0.000625593 -0.0005045915 0.0008866651
0.00063305476 0.00024793367 -0.000958378 -0.00042378437 -4.013395e-05 -0.0007541715 7.095386e-05 0.00060603954
0.0009134329 0.000929466 -0.000640337 -0.0007057284

0.0.mdl.hidden_to_output.cscale.bias f4 [28]
00000000: 0000 0000 0000 0000 740b 6fbe db8d afb8
00000010: 08b9 a7be c6ea c33d d68c 9d3e 86db 73bd
00000020: fa18 bd3f 6364 aabd 25a0 3f3f 820b 2abe
00000030: e488 35bf bc26 5cbe e563 09c0 329b febc
00000040: 2448 02c0 9d9b 35bd 8bb5 0340 3e91 f5bd
00000050: 158c bdbf 653c 61bd a873 25bf 2305 e53d
00000060: 1b13 42be 7808 7dbe d36f 1a3e 3c35 5f3e
0.0 0.0 -0.23344213 -8.371073e-05 -0.32758355 0.09566264 0.30771512 -0.059535526
1.4773247 -0.083199285 0.74853736 -0.16605952 -0.70912004 -0.21499151 -2.146722 -0.031079862
-2.035653 -0.044337858 2.0579555 -0.119905934 -1.4808375 -0.054989237 -0.646296 0.111826204
-0.189526 -0.24710262 0.1508172 0.21797651

0.0.mdl.hidden_to_output.cbias.weight f4 [28, 1]
00000000: 543b 8039 083d 1239 b49a 723a 0899 e3b8
00000010: c0de a637 4428 55b9 509f 90b9 882a 62ba
00000020: 8c48 35b9 7a7b eab9 e617 5c3a 02bf 25ba
00000030: 14f7 22b9 a0ab 21b8 d852 753a 86dd 77ba
00000040: 3c22 72ba 8887 38ba ecca 533a 0c2f 07b9
00000050: ccd3 d639 a45b 1aba 034d 6eba e898 6db9
00000060: 3092 0dba 70ee 15b9 60ee 8038 2326 80ba
0.00024458265 0.00013946381 0.000925462 -0.00010852708 1.9892468e-05 -0.00020328263 -0.00027584517 -0.00086275535
-0.00017288531 -0.00044723955 0.0008395895 -0.0006322713 -0.00015541568 -3.854523e-05 0.0009358353 -0.0009455312
-0.00092366687 -0.00070392387 0.0008079249 -0.0001289213 0.00040975062 -0.00058882893 -0.0009090455 -0.00022659043
-0.0005400507 -0.00014298572 6.1479164e-05 -0.0009776991

0.0.mdl.hidden_to_output.cbias.bias f4 [28]
00000000: 0fb5 5fbe 586e e53f f3c2 163e 8665 db3f
00000010: 486b 04bf ddd4 c53f ae5c 603f dc39 f43f
00000020: a9d3 3ebf f02c cd3f 850f 48be 6abc c13f
00000030: 87cb ab3e f238 7d3f 13b5 2bbc 0f40 4b3f
00000040: 9a84 b33d ded1 463f 9e21 1a3e bde0 5e3f
00000050: 2396 5c3f a788 bc3f 0fb6 503f 801c 91be
00000060: 0485 c93e c314 463e e368 503f 5723 fb3e
-0.21846412 1.7924299 0.14722805 1.7140357 -0.517262 1.5455586 0.8764142 1.9080157
-0.7454172 1.6029339 -0.1953717 1.5135624 0.33553717 0.98915017 -0.010480183 0.7939462
0.08765526 0.7766398 0.15051886 0.87061673 0.8616659 1.4729203 0.815278 -0.28342056
0.39359295 0.19343857 0.81410044 0.490504

1.0.mdl.input_to_hidden.0.direction f4 [100, 14]
00000000: a93d 3abd a691 a83d df72 a9bc cbcb 0abd
00000010: 7d2d dbbd 2683 823a 00df 943b de59 03bd
00000020: b8d1 623d 64d0 3a3c ec04 0ebd 4e30 00bd
00000030: c16e adb8 2ada 773a 00fe bdbe f4c6 0abf
00000040: 6bd3 f7be 0a01 e7bd 25e9 fcba 51a4 01bb
00000050: bfa8 30b9 f186 2039 c147 beba 11a0 ec3a
00000060: 3701 0b3a 877e 34ba efe1 833a 37c8 3c3a
00000070: 2383 b93e 7e9e 37bd 1391 523e b08f 48be
00000080: 1b5f 3f3a 2116 fc3a faa4 e539 cb0d ff39
00000090: 8a04 9f39 f6be 02bb 627b 9d38 6cab ab3a
000000a0: e08b a7ba 1ddb 9639 8e46 2fbe 9ba5 893d
000000b0: 6034 333e 5ff9 aaba b82c 18bb 8ec7 033a
000000c0: bb12 5d3a baf0 8c3a c088 603a 8cc4 503a
000000d0: 68c4 6ab8 3448 bdba d36b 19ba dd69 bab9
000000e0: 5dbf e2be 0420 31ba b926 abb9 7aeb 713a
000000f0: 9a34 81b8 c63c 15bb 39cb e1b6 ccfc 083b
00000100: 6828 b9b9 6e50 9db9 c90d a639 89f9 2dba
00000110: d4e8 e8b9 65ba 90ba 55bf 103e 2bc0 d7bd
00000120: 8bc4 bb3d 930b 1ebd 7845 6a3c 00dc ec3d
00000130: 868d 23be 8b3d 74be 4fd6 003b f921 4cb9
00000140: 0175 d93a e77e 88ba 3f26 2f3a e3aa 89b9
00000150: d18a 09bf f498 da3e 6590 28bb 3bd2 1e3a
00000160: e056 3b39 ff8a 84b9 6179 b8ba ab43 0fba
00000170: dbb6 5dba fa0d 97b9 ee14 bdba 3f3c 963a
00000180: b30b 92b9 b5ec 39b9 bfcd e73e a631 693e
00000190: c6e5 343e b574 3fbd d0f6 cb39 d455 9ebd
000001a0: a27d 91bb 24ac 5f3e 47ba adbc 2e74 033d
000001b0: 05f9 8ebb 93cb c639 3888 5838 3318 8838
000001c0: 0159 bb3e 72e5 3f3c 528a b5be 47c1 d93c
000001d0: a0aa 073d 096b cbba 93b1 3cba 7514 013e
000001e0: 83b2 9a3d 633b f8bb 19ef e0bc 3e8b fab7
000001f0: 1a60 0c3a 46d3 e6ba 9c1b f63d 3adf 353d
00000200: 4cd6 0f3b 888a 533d 7941 f63b c074 22bd
00000210: 0021 9c3d fe34 7039 b353 473a 97f1 86b8
00000220: 7bdc 9c3a 1cc8 d339 0b64 a9ba 9a82 b139
00000230: eeca 173c 2157 c2bc 9835 8dbb 76e8 163c
00000240: 0640 bd3a dc25 3d3d f8d0 c93d 0c4e fa3d
00000250: 0311 d8b9 4578 7439 c971 bf39 a8c3 02bb
00000260: b8f4 b6ba 0a7a 9d3a 88bc b43e e638 123e
00000270: 1921 1e3d cae1 69bd 64ab be3d 78f8 6e3c
00000280: 268a e93a 3dff ec3d f0e0 ea3d 2386 95bb
00000290: 495f 2fbc b181 c1bc d294 0d3a 69ff 20ba
000002a0: 0893 ba3d 5660 683e ec03 d73e c0a5 bb3e
000002b0: a653 1abb 5e73 903d d81d 633a ceee 3f38
000002c0: 577a 803a b20e e539 35e9 b837 3401 223a
000002d0: c0ef 883a 599a b7ba 07bb 41bb 388f ed3d
000002e0: 3d26 263d 9f50 80bd 0fcb d13a 68e8 1cbe
000002f0: 3d3c cd3c 8ac2 02bd 0d7e e4bd 3256 c1bc
00000300: 450a fe3b cdbe 5a3a c840 90bd d801 dd3a
00000310: f31f b8be 34b9 6bbe 9fc9 03be 9e0d 7cbd
00000320: 3df1 813a 5b06 c13c 498b 383d 4658 fcb9
00000330: 8d76 d63a 7c68 86ba 62ee 843a afd2 a2ba
00000340: ff63 1139 a4a8 85ba 1243 93bd 7864 95be
00000350: a3a4 fe3d 95cb 2a3a d2b9 53bd 4a43 5d3a
00000360: 224e 963b 6f12 03be 9e30 dbbd 9eb5 21bd
00000370: 77a8 863d 7f7d eabc b8a3 09b9 a193 5bba
00000380: ec9a 87bc a89a c8bd 732f 24be 8c5d e6bd
00000390: 85cd 11bb 1a95 00be 08d4 5b3c 48c2 963a
000003a0: 930b 8bba 1275 5d39 3c36 4bba 4f0c 4fbb
000003b0: b782 02b9 9b0d d2b8 e7b1 58be ff76 c0bd
000003c0: 013d 1e3e 4fdb 27bd bbeb 0d3e 7824 c0b8
000003d0: 076a c639 dea7 62bd 05ad 303d 9ecb edba
000003e0: 9ac1 d83a 9bac f23a 1cd3 b8ba 0ec5 afb8
000003f0: 0a8d 1fbe e2dd 8839 e470 f2bc 235d 953d
-0.04546896 0.08230905 -0.020684658 -0.03388576 -0.107020356 0.0009957298 0.0045431852 -0.032068126
0.055375785 0.011402223 -0.034672663 -0.031296067 -8.269912e-05 0.0009454811 -0.3710785 -0.5420983
-0.48403487 -0.11279495 -0.0019295557 -0.0019781778 -0.00016847531 0.00015309059 -0.0014517234 0.0018053075
0.000530261 -0.0006885309 0.001006184 0.0007201465 0.36232862 -0.044828884 0.20563154 -0.19586062
0.00073002436 0.0019232669 0.000438012 0.00048647667 0.00030330225 -0.0019950247 7.509325e-05 0.0013097352
-0.0012782775 0.00028773482 -0.17116758 0.0672104 0.17500448 -0.0013044289 -0.0023220014 0.00050269894
0.0008433272 0.0010752894 0.0008565299 0.0007963858 -5.5972865e-05 -0.0014441074 -0.0005852554 -0.0003555556
-0.44286624 -0.0006756785 -0.00032644512 0.0009228509 -6.160997e-05 -0.002277182 -6.7291808e-06 0.0020902632
-0.00035316055 -0.00030005298 0.00031672258 -0.000663661 -0.0004442396 -0.0011041878 0.14135487 -0.105347
0.09168347 -0.038585257 0.014298789 0.11565399 -0.15971956 -0.23851602 0.0019658988 -0.00019467612
0.0016590656 -0.0010413796 0.00066814193 -0.00026257997 -0.5372744 0.4269482 -0.0025720831 0.00060585485
0.00017866073 -0.00025280562 -0.001407426 -0.00054651004 -0.00084577285 -0.00028811378 -0.0014425793 0.0011462047
-0.00027856007 -0.00017731155 0.4527416 0.22772846 0.17665777 -0.04674216 0.00038903067 -0.07731214
-0.0044400254 0.2184301 -0.021206988 0.03209322 -0.0043631815 0.00037917178 5.1625277e-05 6.489493e-05
0.36591342 0.011712419 -0.35457093 0.02658142 0.033121705 -0.001551957 -0.00071980915 0.1260546
0.0755358 -0.007575439 -0.02745776 -2.9867162e-05 0.00053548964 -0.0017610572 0.12016985 0.04440234
0.00219478 0.051645786 0.007515129 -0.039662123 0.07623482 0.00022907925 0.000760372 -6.4346175e-05
0.0011967564 0.0004039415 -0.0012923492 0.00033857377 0.009264691 -0.023723187 -0.0043093674 0.009210696
0.0014438636 0.046178684 0.09854311 0.122219175 -0.00041211405 0.00023314457 0.00036515135 -0.0019953046
-0.001395843 0.001201452 0.35300088 0.14279518 0.038605783 -0.057100095 0.09310034 0.014585607
0.0017817661 0.1157212 0.11468685 -0.0045631095 -0.01070387 -0.023621412 0.0005400899 -0.00061415747
0.09110075 0.22692999 0.4199518 0.36649895 -0.0023548394 0.070532545 0.000866381 4.5760353e-05
0.0009802085 0.00043689233 2.2043105e-05 0.0006179989 0.0010447428 -0.0014007791 -0.002956094 0.115995824
0.04056381 -0.06265377 0.0016005951 -0.15323031 0.025053138 -0.03192381 -0.11156855 -0.023600671
0.007752689 0.00083444716 -0.07043606 0.0016861511 -0.35961875 -0.23019868 -0.12869881 -0.061536424
0.0009913814 0.0235626 0.045054708 -0.00048130954 0.0016362235 -0.0010254527 0.0010141844 -0.0012422408
0.00013865529 -0.0010197354 -0.07190527 -0.29178214 0.12433746 0.00065153214 -0.051690884 0.0008440508
0.004586951 -0.128 -0.10702632 -0.039479844 0.06575101 -0.028624294 -0.00013126328 -0.00083761854
-0.016553365 -0.09795123 -0.16033725 -0.112483114 -0.0022247743 -0.12556878 0.013417251 0.0011501992
-0.0010608308 0.00021119814 -0.0007751917 -0.003159303 -0.00012446461 -0.000100161145 -0.21161614 -0.09397697
0.15452959 -0.040980633 0.13859455 -9.162066e-05 0.000378445 -0.055335872 0.043133754 -0.0018142348
0.001653719 0.0018514575 -0.0014101001 -8.3813546e-05 -0.15581146 0.00026105257 -0.029594846 0.07293155

1.0.mdl.input_to_hidden.0.mask f4 [100, 14]
00000000: 0000 803f 0000 803f 0000 803f 0000 803f
00000010: 0000 803f 0000 803f 0000 803f 0000 803f
00000020: 0000 803f 0000 803f 0000 803f 0000 803f
00000030: 0000 0000 0000 0000 0000 803f 0000 803f
00000040: 0000 803f 0000 803f 0000 0000 0000 0000
00000050: 0000 0000 0000 0000 0000 0000 0000 0000
00000060: 0000 0000 0000 0000 0000 0000 0000 0000
00000070: 0000 803f 0000 803f 0000 803f 0000 803f
00000080: 0000 0000 0000 0000 0000 0000 0000 0000
00000090: 0000 0000 0000 0000 0000 0000 0000 0000
000000a0: 0000 0000 0000 0000 0000 803f 0000 803f
000000b0: 0000 803f 0000 0000 0000 0000 0000 0000
000000c0: 0000 0000 0000 0000 0000 0000 0000 0000
000000d0: 0000 0000 0000 0000 0000 0000 0000 0000
000000e0: 0000 803f 0000 0000 0000 0000 0000 0000
000000f0: 0000 0000 0000 0000 0000 0000 0000 0000
00000100: 0000 0000 0000 0000 0000 0000 0000 0000
00000110: 0000 0000 0000 0000 0000 803f 0000 803f
00000120: 0000 803f 0000 803f 0000 803f 0000 803f
00000130: 0000 803f 0000 803f 0000 0000 0000 0000
00000140: 0000 0000 0000 0000 0000 0000 0000 0000
00000150: 0000 803f 0000 803f 0000 0000 0000 0000
00000160: 0000 0000 0000 0000 0000 0000 0000 0000
00000170: 0000 0000 0000 0000 0000 0000 0000 0000
00000180: 0000 0000 0000 0000 0000 803f 0000 803f
00000190: 0000 803f 0000 803f 0000 803f 0000 803f
000001a0: 0000 803f 0000 803f 0000 803f 0000 803f
000001b0: 0000 803f 0000 0000 0000 0000 0000 0000
000001c0: 0000 803f 0000 803f 0000 803f 0000 803f
000001d0: 0000 803f 0000 803f 0000 803f 0000 803f
000001e0: 0000 803f 0000 803f 0000 803f 0000 0000
000001f0: 0000 0000 0000 0000 0000 803f 0000 803f
00000200: 0000 803f 0000 803f 0000 803f 0000 803f
00000210: 0000 803f 0000 0000 0000 0000 0000 0000
00000220: 0000 0000 0000 0000 0000 0000 0000 0000
00000230: 0000 803f 0000 803f 0000 803f 0000 803f
00000240: 0000 803f 0000 803f 0000 803f 0000 803f
00000250: 0000 0000 0000 0000 0000 0000 0000 0000
00000260: 0000 0000 0000 0000 0000 803f 0000 803f
00000270: 0000 803f 0000 803f 0000 803f 0000 803f
00000280: 0000 803f 0000 803f 0000 803f 0000 803f
00000290: 0000 803f 0000 803f 0000 0000 0000 0000
000002a0: 0000 803f 0000 803f 0000 803f 0000 803f
000002b0: 0000 803f 0000 803f 0000 0000 0000 0000
000002c0: 0000 0000 0000 0000 0000 0000 0000 0000
000002d0: 0000 0000 0000 0000 0000 803f 0000 803f
000002e0: 0000 803f 0000 803f 0000 803f 0000 803f
000002f0: 0000 803f 0000 803f 0000 803f 0000 803f
00000300: 0000 803f 0000 803f 0000 803f 0000 0000
00000310: 0000 803f 0000 803f 0000 803f 0000 803f
00000320: 0000 803f 0000 803f 0000 803f 0000 0000
00000330: 0000 0000 0000 0000 0000 0000 0000 0000
00000340: 0000 0000 0000 0000 0000 803f 0000 803f
00000350: 0000 803f 0000 803f 0000 803f 0000 803f
00000360: 0000 803f 0000 803f 0000 803f 0000 803f
00000370: 0000 803f 0000 803f 0000 0000 0000 0000
00000380: 0000 803f 0000 803f 0000 803f 0000 803f
00000390: 0000 803f 0000 803f 0000 803f 0000 0000
000003a0: 0000 0000 0000 0000 0000 0000 0000 0000
000003b0: 0000 0000 0000 0000 0000 803f 0000 803f
000003c0: 0000 803f 0000 803f 0000 803f 0000 803f
000003d0: 0000 803f 0000 803f 0000 803f 0000 0000
000003e0: 0000 0000 0000 0000 0000 0000 0000 0000
000003f0: 0000 803f 0000 803f 0000 803f 0000 803f
1.0 1.0 1.0 1.0 1.0 1.0 1.0 1.0
1.0 1.0 1.0 1.0 0.0 0.0 1.0 1.0
1.0 1.0 0.0 0.0 0.0 0.0 0.0 0.0
0.0 0.0 0.0 0.0 1.0 1.0 1.0 1.0
0.0 0.0 0.0 0.0 0.0 0.0 0.0 0.0
0.0 0.0 1.0 1.0 1.0 0.0 0.0 0.0
0.0 0.0 0.0 0.0 0.0 0.0 0.0 0.0
1.0 0.0 0.0 0.0 0.0 0.0 0.0 0.0
0.0 0.0 0.0 0.0 0.0 0.0 1.0 1.0
1.0 1.0 1.0 1.0 1.0 1.0 0.0 0.0
0.0 0.0 0.0 0.0 1.0 1.0 0.0 0.0
0.0 0.0 0.0 0.0 0.0 0.0 0.0 0.0
0.0 0.0 1.0 1.0 1.0 1.0 1.0 1.0
1.0 1.0 1.0 1.0 1.0 0.0 0.0 0.0
1.0 1.0 1.0 1.0 1.0 1.0 1.0 1.0
1.0 1.0 1.0 0.0 0.0 0.0 1.0 1.0
1.0 1.0 1.0 1.0 1.0 0.0 0.0 0.0
0.0 0.0 0.0 0.0 1.0 1.0 1.0 1.0
1.0 1.0 1.0 1.0 0.0 0.0 0.0 0.0
0.0 0.0 1.0 1.0 1.0 1.0 1.0 1.0
1.0 1.0 1.0 1.0 1.0 1.0 0.0 0.0
1.0 1.0 1.0 1.0 1.0 1.0 0.0 0.0
0.0 0.0 0.0 0.0 0.0 0.0 1.0 1.0
1.0 1.0 1.0 1.0 1.0 1.0 1.0 1.0
1.0 1.0 1.0 0.0 1.0 1.0 1.0 1.0
1.0 1.0 1.0 0.0 0.0 0.0 0.0 0.0
0.0 0.0 1.0 1.0 1.0 1.0 1.0 1.0
1.0 1.0 1.0 1.0 1.0 1.0 0.0 0.0
1.0 1.0 1.0 1.0 1.0 1.0 1.0 0.0
0.0 0.0 0.0 0.0 0.0 0.0 1.0 1.0
1.0 1.0 1.0 1.0 1.0 1.0 1.0 0.0
0.0 0.0 0.0 0.0 1.0 1.0 1.0 1.0

1.0.mdl.input_to_hidden.0.cscale.weight f4 [100, 1]
00000000: 3f41 e1ba b84d 623a b847 da39 719f 893a
00000010: 52a5 48ba 4239 9c3a 4a99 8dba 4961 81ba
00000020: 9ce4 1e39 b814 c8b8 5812 31ba f014 07bb
00000030: 9398 2938 ed7a 0c3b 6d70 d2b9 8306 d43a
00000040: 64e3 abb9 f472 92ba efd5 dfb9 7e66 97b9
00000050: 5d24 abba 126d aeba 58eb 31ba cfa9 183b
00000060: e5d0 eab9 6f92 9239 5718 8c3a b8a5 b8b9
00000070: 6cce 90b9 6c40 b23a e034 0b3a 62d4 26b9
00000080: 2329 a039 341f 6539 794c 1db9 ac9d 24bb
00000090: 8874 56b9 8a9e 073b c1f9 ae39 2f5f a8ba
000000a0: 7f45 c339 76b7 463a 0436 b939 a4b0 f239
000000b0: 2bf9 f83a d827 b53a 764e baba 422a 413a
000000c0: 7a3b 8c3a 7eb8 4e39 4e63 3b3a 27e9 25bb
000000d0: b94f b438 3169 1039 6876 8939 7e6b 633a
000000e0: e8ff 15ba e29d 04bb 83c0 b5ba 0fc8 f43a
000000f0: 2b1c b3b9 f40c 6e37 70c5 5739 bf29 d1ba
00000100: 78a3 dd3a ac69 52b9 953f 373a 002e 9d39
00000110: 67cc ff39 fd7a 27ba bd9d e3b9 7395 273a
00000120: 4d76 6eba 2a03 b43a ce0e 85b9 6e06 533a
00000130: 43c8 483a 0c76 463a d76e ccb9 636a da39
00000140: 8a1a ea38 a57a a337 ea19 e4b8 b72c 9bb9
00000150: f42a cd3a a543 633a 12c9 3cba 8f16 0ebb
00000160: 23e8 d7b9 bacd ccba d0fe ed39 9d76 08b9
00000170: e417 bfba f5b1 fd39 a017 87b9 4a6a 0e3b
00000180: 9e55 dcba ed03 ab39 cf0c 14ba c9be 93b9
-0.0017185583 0.0008632797 0.00041633635 0.0010499788 -0.0007654029 0.001191892 -0.001080313 -0.0009870912
0.00015153218 -9.540602e-05 -0.00067547476 -0.0020611845 4.0434836e-05 0.0021435574 -0.00040138085 0.0016176257
-0.0003278508 -0.0011173175 -0.00042693267 -0.00028877327 -0.0013057102 -0.0013307652 -0.0006787083 0.0023294573
-0.00044787597 0.00027956392 0.0010688406 -0.00035218685 -0.00027619617 0.0013599521 0.0005310308 -0.00015910112
0.00030548227 0.00021850766 -0.00015001175 -0.0025118394 -0.00020452042 0.0020693862 0.00033373947 -0.001284575
0.00037245077 0.00075804384 0.00035326194 0.00046289444 0.0018995156 0.0013821078 -0.0014214057 0.00073686626
0.0010698878 0.0001971442 0.00071482814 -0.0025315972 8.597918e-05 0.00013772097 0.00026218896 0.00086753804
-0.0005722032 -0.0020235707 -0.0013866577 0.0018675345 -0.00034162527 1.4188921e-05 0.00020577549 -0.0015957876
0.0016909679 -0.00020066526 0.00069903705 0.00029979646 0.00048789682 -0.0006388871 -0.00043414338 0.0006392814
-0.00090966077 0.0013733853 -0.00025378767 0.00080499693 0.0007659236 0.0007570691 -0.00038992494 0.00041659464
0.00011162933 1.9488225e-05 -0.00010876714 -0.0002959722 0.001565306 0.00086694426 -0.00072015927 -0.0021680926
-0.0004118095 -0.0015625276 0.00045394013 -0.00013014158 -0.0014579264 0.0004838851 -0.00025766809 0.0021730834
-0.0016810184 0.00032618587 -0.00056476606 -0.0002818017

1.0.mdl.input_to_hidden.0.cscale.bias f4 [100]
00000000: 6ffa 0c3f 728b ac3f 97c6 a13f 7a9a c7be
00000010: 739b adbf cd2d 5e3e 577e 28c0 e7fc 82be
00000020: f23a cc3e 50ce ca3e 32ed f13e 2baf df3e
00000030: 5bd9 24be 5823 543e 59f7 fd3e 3017 4bbf
00000040: 0d36 173e d881 bfbd f1da 553f e455 ce3d
00000050: 7deb 9bbf b74b 7cbf 78b5 38bf 075f 0d3f
00000060: 2535 193f 100a 3abe 6939 41bf c8de 493f
00000070: e43e 07bf b303 7c3f dcbf a43f a1a4 b73e
00000080: 611e 303f dd17 9bbf 7718 6dbf 3dcc 7abf
00000090: 8a01 043f ef7d 9fbe c84a 333f 5056 943e
000000a0: 9a15 e83e d466 c6be d781 c3be a6de ba3e
000000b0: ba0a c13f 4264 24bf bd60 66bf 3041 3e3f
000000c0: 1474 48bf f73d 92be aad8 a43f f0a0 493f
000000d0: 3dc7 af3e 114e b8bf 0a4d 80be 621d 72bf
000000e0: 2b44 c7be b6f5 d23e 5331 47bf 913a 5dbe
000000f0: 1f5d 2fbf cb34 22bf fab5 d73e d4e3 3d3e
00000100: 59da 633f 08e9 213f e84a a93f 7a5f 04bf
00000110: 1592 07bf aee9 2ebf 0129 d3c0 03f9 ab3e
00000120: 7f28 07bf 8bfa 23be 5801 6ebf 1ce6 b13f
00000130: aaa8 32be cb9d a53e 0a6c c83e 35d2 1d3e
00000140: a078 60bf b2ad a13e 5aba 343f c47b 363f
00000150: 576b dc3e e912 e53e d3e7 18bf 98dd 0c3f
00000160: 6db3 983f a78e 193f 4f82 15bf e4a3 30bf
00000170: f482 22bf 4a0d 763e 66b5 0b3f d60e 333f
00000180: a59e 29bf 3e09 233f 59f5 bcbe c8b6 523f
0.5506963 1.3480055 1.263873 -0.38985044 -1.3563064 0.21697159 -2.6327112 -0.25583574
0.39888722 0.3961053 0.47251278 0.4368833 -0.1609854 0.20716608 0.49602774 -0.79332256
0.14766712 -0.093509376 0.83537203 0.10074976 -1.218124 -0.9855303 -0.721519 0.55223125
0.5984672 -0.18167901 -0.75478226 0.7885556 -0.5283034 0.98443145 1.2871051 0.3586779
0.68796355 -1.2116657 -0.92615455 -0.9796789 0.5156485 -0.31150767 0.7003598 0.289721
0.4532898 -0.38750327 -0.38184997 0.36497992 1.5081398 -0.6421548 -0.8999136 0.7431822
-0.7830212 -0.285629 1.2878621 0.78761196 0.34331694 -1.4398824 -0.25058776 -0.94576085
-0.38919196 0.41203088 -0.7780964 -0.21604373 -0.68501467 -0.63361806 0.42131025 0.18543941
0.8900505 0.632462 1.3225985 -0.51708186 -0.5295728 -0.68325317 -6.5987554 0.33588418
-0.5279617 -0.16013543 -0.929708 1.3898349 -0.17447153 0.3234695 0.39144927 0.15412219
-0.8768406 0.31577832 0.7059685 0.712826 0.43050644 0.4474099 -0.59728736 0.55025625
1.1929756 0.59983295 -0.5840196 -0.6900008 -0.6348107 0.24028507 0.5457367 0.6994451
-0.662577 0.6368598 -0.36905935 0.8231015

1.0.mdl.input_to_hidden.0.cbias.weight f4 [100, 1]
00000000: 22cb 6e3a cb1c d539 c867 0aba d3b3 de39
00000010: d081 b639 76f9 40b9 2508 27b9 04f1 b8b9
00000020: 7f7b 7d3a d14b 3b3a 1052 0f3a 43f8 e339
00000030: 60cd 0fb9 607a e53a 416b dbb9 3cfc ed38
00000040: 0d4c 6939 d549 7d3a 27d8 083a dea5 f0b9
00000050: bffd e439 a7fe ca3a b7c3 adba eb72 3bba
00000060: a023 0c3b bb55 643b 0d95 0aba 2ecb 053a
00000070: 6638 b739 eec5 71ba be3f 9239 27d7 24bb
00000080: 7f18 15b9 ab58 b039 e620 8fba c86b 09ba
00000090: c3d8 f9ba 27ab 363a f342 b6b9 7dfa d6b9
000000a0: 8bc6 4639 5ed9 8e3a 551d d8ba e08a 37ba
000000b0: 19ef 0e35 fdcd ae37 1508 71b9 0615 303a
000000c0: b155 223a f215 0c3a acda ab3a 283c 07bb
000000d0: 28bc 93b9 69a1 5a3a 5c28 1dba f256 12ba
000000e0: 7188 913a 764a 9a3a 1419 43ba 0680 9db8
000000f0: b945 2f39 00bd 11ba ca1d 653a 5460 2a3a
00000100: 2526 ae3a f461 ca3a 5d76 b239 2e04 caba
00000110: 2d86 b03a 62af b1ba f73a b93a 7a30 833a
00000120: 50e0 feba 5daa d039 e1d8 d03a e358 de3a
00000130: 52b4 cd3a 24cb 2fb8 8dae 9939 92eb b9ba
00000140: 82c3 a2ba 84c3 ec39 1e45 023a c560 9dba
00000150: 419a 87ba b778 49b9 018a adba 1c2a 3d39
00000160: f0b1 74ba 1e5c 16ba 5f40 383a b37d cd3a
00000170: 2d44 e6ba 2716 f53a 0ba6 093b e372 853a
00000180: d3fd 9c39 ff14 bc3a 218e 58ba 2271 073a
0.00091092486 0.00040647978 -0.0005279747 0.0004247712 0.00034810463 -0.00018403478 -0.00015929395 -0.00035274785
0.00096695864 0.00071447814 0.00054672454 0.00043481783 -0.00013714051 0.0017507784 -0.00041850845 0.00011348023
0.00022248943 0.0009662186 0.00052201975 -0.00045899948 0.00043676604 0.0015487269 -0.001325718 -0.0007150608
0.002138354 0.0034841138 -0.00052864925 0.00051038235 0.000349465 -0.0009222914 0.00027894782 -0.0025152655
-0.00014218873 0.000336354 -0.0010919839 -0.0005242196 -0.0019061792 0.0006968253 -0.00034763626 -0.0004100389
0.00018956714 0.0010898521 -0.0016488234 -0.000700159 5.3247055e-07 2.0838337e-05 -0.00022986562 0.0006717
0.00061925786 0.0005343846 0.0013111434 -0.002063522 -0.00028178212 0.0008340092 -0.0005995089 -0.0005582414
0.0011103285 0.0011771459 -0.00074423966 -7.5101896e-05 0.00016715274 -0.0005559474 0.00087400957 0.00064993394
0.0013286514 0.0015440569 0.00034038993 -0.0015412623 0.0013467722 -0.0013556296 0.0014131953 0.0010008954
-0.0019445512 0.00039799782 0.0015933776 0.0016963746 0.0015693998 -4.191244e-05 0.00029312485 -0.0014184585
-0.0012417885 0.00045159098 0.00049694057 -0.0012006989 -0.0010345654 -0.00019213824 -0.0013239981 0.00018040132
-0.0009334376 -0.00057357724 0.0007028635 0.001567772 -0.0017567925 0.0018698619 0.002100351 0.0010181334
0.00029943752 0.0014349519 -0.0008260925 0.00051666994
