models/lhc_binned_en3of5_sp0_e400_s1993_p0.0_h100_faffine_fl5_l1_dsdim16_dsl1_cudaFalse_last_model.pt (torch_old, 195175 bytes, 73 tensors)

0.0.mdl.input_to_hidden.0.direction f4 [100, 14]
000000 a2 07 c9 3c 2e d1 47 3a e3 8f 8e b9 33 27 e4 3a
       0.024539772 0.0007622418 -0.00027191555 0.0017406702
000010 43 9e 0a b7 5f fd 92 39 91 dc c8 3a 7e 9d 0f 3a
       -8.262289e-06 0.00028036066 0.0015324523 0.0005478485
000020 df f6 dd b9 60 e2 9c 3a 8f e4 91 ba ba 9a 06 3b
       -0.00042336338 0.001196932 -0.0011130738 0.0020539002
000030 1c 12 68 3a 8c ae e6 39 67 08 39 bb f4 4d 50 ba
       0.0008852796 0.00043999066 -0.0028233768 -0.0007946186
000040 84 84 83 bc 60 bd 8b 3d ee c3 bc bb 13 5a 64 3e
       -0.0160544 0.0682323 -0.0057606613 0.22299986
000050 e7 ba 80 38 8e bb 76 39 c6 42 7d ba a2 25 18 ba
       6.138329e-05 0.00023530258 -0.0009661134 -0.00058039476
000060 d1 6f ea 39 0b a7 18 3a c7 95 21 3b 65 0b 4d b9
       0.00044715268 0.0005823231 0.0024655925 -0.00019554568
000070 ee fa fe bc 26 5a 8d 3d 35 5a 0c bb 5f f2 08 bf
       -0.031125512 0.0690196 -0.0021416072 -0.5349483
000080 78 75 6c 3a 47 83 df b9 33 40 80 38 1e 2c 2f b8
       0.000902019 -0.00042631684 6.115474e-05 -4.176434e-05
000090 9e 2b 69 b9 63 ad 43 3a 29 09 4b b8 98 40 c7 38
       -0.0002223686 0.00074644963 -4.8407503e-05 9.501091e-05
0000a0 ac cc d0 ba f6 8d b8 39 e9 3f 3b bb f9 cf 5e 3d
       -0.0015930138 0.00035200984 -0.002857203 0.054397557
0000b0 56 d9 eb 39 56 9e cb 3d 54 63 bb bd c6 59 c4 3c
       0.0004498462 0.099423096 -0.09149805 0.023968589
0000c0 ae 2d 84 3d 16 15 84 3a a3 11 0d bb da c1 de b7
       0.06454025 0.0010077085 -0.0021525405 -2.6554731e-05
0000d0 3a 17 bb be 3f c1 00 ba f0 19 86 b9 8e d6 03 bb
       -0.36541158 -0.00049116084 -0.00025577797 -0.0020116898
0000e0 41 e0 ff 3b 96 71 c3 bc 02 89 ba ba 7e fc 1a 39
       0.0078087156 -0.023857873 -0.0014231505 0.00014780645
0000f0 3e 12 ff 39 fc 81 ac ba 9f c1 b8 3a a1 7f d3 37
       0.00048650982 -0.0013161297 0.001409579 2.5212592e-05
000100 12 7c d6 39 cf 56 a5 b8 69 8a 22 3a 4e 68 95 ba
       0.000409097 -7.8839825e-05 0.0006200434 -0.0011398883
000110 e9 99 1c ba f4 6a f0 b9 98 25 d6 3d 51 e7 83 3d
       -0.0005973862 -0.00045856053 0.10456389 0.064406045
000120 e3 c6 ea b6 26 78 99 bb 12 f8 e6 3b ed 7e 59 bc
       -6.996897e-06 -0.0046835123 0.0070486153 -0.01327489
000130 ec 9b f6 b8 fe f6 dc 39 fc a5 58 39 e2 06 3d b8
       -0.00011759237 0.00042145693 0.00020661199 -4.506752e-05
000140 9a e6 9a 39 00 18 e4 39 55 a5 c4 39 5e ee 10 3a
       0.0002954498 0.0004350543 0.00037507215 0.00055286835
000150 55 8b e2 bb 9f a0 37 3d 8f 79 85 3d e8 9b e2 ba
       -0.0069135823 0.044830915 0.06517326 -0.0017288895
000160 36 f4 2d b9 e1 52 a1 ba 1b d7 c4 b9 78 82 07 ba
       -0.00016589541 -0.0012308025 -0.000375443 -0.00051692827
000170 d7 8f 2c 38 0f e5 32 ba 2c 2c 92 ba 0c 96 86 3a
       4.1141957e-05 -0.00068242935 -0.001115208 0.0010268106
000180 43 f5 99 39 55 36 57 ba 2b bd 17 3d a2 02 10 3d
       0.00029365168 -0.0008209695 0.03704564 0.03515876
000190 fd 75 a6 ba c0 52 84 bc 54 e1 bc 3c 2a 33 6c ba
       -0.0012699958 -0.01615274 0.023056664 -0.00090103096
0001a0 89 15 2b bd 23 75 a3 bb fa 9d 37 bb 38 1b 5e b8
       -0.041768584 -0.004988329 -0.0028017745 -5.2954274e-05
0001b0 1d ae 00 3f 10 5a a3 ba eb b4 3b ba e3 a9 cf ba
       0.50265676 -0.0012462754 -0.0007160443 -0.0015843477
0001c0 ba fb 37 3d 08 57 4e bc f1 f3 86 3a dd d9 21 3d
       0.0449178 -0.012593992 0.0010296089 0.03951441
0001d0 9c 9e 4d bd d8 b6 0f 3c 09 fe 3c 3d fe ec e9 bb
       -0.05020009 0.008771621 0.046140704 -0.0071388474
0001e0 ca 24 0d 3c 9f 9e 5e 39 e7 fe ce be e5 0f 9f 3a
       0.008614728 0.00021230661 -0.4042885 0.0012135474
0001f0 a5 87 5e 3a 76 d8 0b bb 2b 50 0a bc a6 97 79 3a
       0.00084888405 -0.0021338738 -0.008441965 0.00095211936
000200 87 21 4d 3a 63 1a e1 b9 b1 de d3 39 46 09 5f 3a
       0.00078251254 -0.00042935004 0.00040410974 0.0008508157
000210 43 0b 07 3a b1 d5 dd ba a9 a1 3a ba 4b 23 ee 3a
       0.00051515194 -0.0016924647 -0.0007119426 0.0018168477
000220 c7 95 0d ba c5 85 bf 3a 9a 47 f8 ba 40 eb 09 ba
       -0.00054010417 0.001461201 -0.0018942237 -0.000526119
000230 52 e6 8d 3c 9a 71 0e bd 14 3f 9a 3a 7b a4 7e 3e
       0.01732174 -0.034776308 0.0011768066 0.24867432
000240 15 6b 9f 3a d2 c6 b7 37 be 5b ba 39 15 92 4e 3a
       0.001216265 2.1907883e-05 0.00035545038 0.0007880044
000250 55 20 31 ba ee 53 ab 38 9f 68 4a 3a 4d ae fc b8
       -0.0006756832 8.1695485e-05 0.0007721278 -0.000120487624
000260 84 bd c7 39 c6 b1 0e b9 0e dd 93 3c e8 5f d5 bb
       0.00038097438 -0.00013608401 0.018049743 -0.006511677
000270 91 7e 49 3b ee db 0e be 6e 29 a9 3d fc e5 58 3d
       0.0030745605 -0.13951084 0.08259855 0.052953705
000280 f8 e6 37 be 2f b6 84 3c 50 64 08 bc 4a 5b a1 bb
       -0.17959201 0.016200153 -0.008324698 -0.0049242126
000290 d5 f8 39 3f 03 cc 0e 3f 75 42 e8 39 88 e7 8d ba
       0.7264531 0.5578005 0.00044300003 -0.0010826448
0002a0 8f 8b 0b 3c d9 c2 30 bc 42 dc 06 be 2e 9b 6a bd
       0.00851716 -0.010788643 -0.13169959 -0.057276897
0002b0 16 da e3 bc b1 4f 75 3e 90 27 0e bd f5 4f aa 3b
       -0.027813952 0.23956181 -0.0347057 0.00519752
0002c0 10 2f 93 bc 07 ca 66 be 14 6f 4e 3b 83 60 cb ba
       -0.017966777 -0.22538005 0.0031499313 -0.0015516434
0002d0 54 34 3b ba c8 b5 27 b9 ea a8 72 3c fa 68 9b bc
       -0.00071412814 -0.0001599408 0.01481078 -0.018970955
0002e0 fd 4b bc 3d d6 a8 20 3d e6 ae d6 bc 3e cc 68 bd
       0.09194181 0.039223514 -0.026206445 -0.056835406
0002f0 18 a0 81 bc 11 ee 20 3c 6e 2a 20 bc 36 f6 34 ba
       -0.015823409 0.009822384 -0.009775741 -0.00069031434
000300 3c 82 69 ba e5 35 13 3a e6 f8 b2 ba 5c e1 c9 39
       -0.0008907651 0.0005615636 -0.00136545 0.00038505613
000310 6d e1 85 b8 50 da 92 b8 62 b7 df 38 ce 41 68 bc
       -6.383923e-05 -7.0024864e-05 0.00010667626 -0.014175845
000320 69 08 d0 3b 87 05 43 3b 7d e1 26 bc 2f 1b b5 39
       0.006348659 0.0029757933 -0.0101855965 0.00034543264
000330 95 72 6a 3a e4 7a 48 3a 05 52 5b be ba f0 8c 3d
       0.00089434657 0.00076477067 -0.21418007 0.068818524
000340 fd 5d 55 3f f8 70 b8 3a c9 c7 89 bc 41 9f 71 3d
       0.8334654 0.0014071753 -0.016818898 0.058989767
000350 c7 be 03 39 3d 93 02 3f ca a4 97 be 77 22 31 b8
       0.00012564204 0.5100592 -0.29617912 -4.2232186e-05
000360 4d bc 99 39 28 2c 26 bb ef dd 9e 3a 25 a0 cb 38
       0.0002932273 -0.002535591 0.0012120585 9.7096236e-05
000370 54 50 1b ba 5f f5 e5 b9 c3 f8 42 ba 8d 66 ce b9
       -0.00059247506 -0.000438611 -0.0007437581 -0.00039367788
000380 91 ff 18 3c 14 fb 8b b6 fe 09 1e 3a 9f c7 65 3a
       0.0093382755 -4.171752e-06 0.00060287106 0.00087654026
000390 d8 83 1a 39 85 22 02 3a ec 1c f7 b9 a9 68 ac b9
       0.000147357 0.000496425 -0.0004713306 -0.00032884374
0003a0 ff 29 72 ba 09 23 7c ba 25 3b 71 ba cb 9e 1f bb
       -0.0009237825 -0.0009618258 -0.00092022336 -0.0024356123
0003b0 ab 75 c4 3a e6 77 84 3a d1 17 e0 bd 44 3a 41 3d
       0.0014988681 0.0010106533 -0.109420426 0.047174707
0003c0 01 b5 cb 39 73 2e 4b 3c 83 89 ff bb 6e 5e c0 ba
       0.00038854036 0.012401211 -0.007798375 -0.001467658
0003d0 2a 02 32 38 b5 aa cd ba 3e 63 25 3a db 91 b7 b9
       4.2440523e-05 -0.0015691133 0.0006309039 -0.0003501315
0003e0 ab 35 9a 3a 1a ff 8f ba d8 37 50 b9 0d 71 73 3a
       0.0011765262 -0.001098606 -0.00019857229 0.000928656
0003f0 14 ae 6c 3d 44 ae 84 bc ce b9 d0 3a f4 43 7d 3b
       0.0577832 -0.016196378 0.0015924515 0.003864524

0.0.mdl.input_to_hidden.0.mask f4 [100, 14]
000000 00 00 80 3f 00 00 80 3f 00 00 00 00 00 00 00 00
       1.0 1.0 0.0 0.0
000010 00 00 00 00 00 00 00 00 00 00 00 00 00 00 00 00
       0.0 0.0 0.0 0.0
000020 00 00 00 00 00 00 00 00 00 00 00 00 00 00 00 00
       0.0 0.0 0.0 0.0
000030 00 00 00 00 00 00 00 00 00 00 80 3f 00 00 80 3f
       0.0 0.0 1.0 1.0
000040 00 00 80 3f 00 00 80 3f 00 00 80 3f 00 00 80 3f
       1.0 1.0 1.0 1.0
000050 00 00 00 00 00 00 00 00 00 00 00 00 00 00 00 00
       0.0 0.0 0.0 0.0
000060 00 00 00 00 00 00 00 00 00 00 00 00 00 00 00 00
       0.0 0.0 0.0 0.0
000070 00 00 80 3f 00 00 80 3f 00 00 80 3f 00 00 80 3f
       1.0 1.0 1.0 1.0
000080 00 00 00 00 00 00 00 00 00 00 00 00 00 00 00 00
       0.0 0.0 0.0 0.0
000090 00 00 00 00 00 00 00 00 00 00 00 00 00 00 00 00
       0.0 0.0 0.0 0.0
0000a0 00 00 00 00 00 00 00 00 00 00 80 3f 00 00 80 3f
       0.0 0.0 1.0 1.0
0000b0 00 00 80 3f 00 00 80 3f 00 00 80 3f 00 00 80 3f
       1.0 1.0 1.0 1.0
0000c0 00 00 80 3f 00 00 80 3f 00 00 80 3f 00 00 80 3f
       1.0 1.0 1.0 1.0
0000d0 00 00 80 3f 00 00 00 00 00 00 00 00 00 00 00 00
       1.0 0.0 0.0 0.0
0000e0 00 00 80 3f 00 00 80 3f 00 00 00 00 00 00 00 00
       1.0 1.0 0.0 0.0
0000f0 00 00 00 00 00 00 00 00 00 00 00 00 00 00 00 00
       0.0 0.0 0.0 0.0
000100 00 00 00 00 00 00 00 00 00 00 00 00 00 00 00 00
       0.0 0.0 0.0 0.0
000110 00 00 00 00 00 00 00 00 00 00 80 3f 00 00 80 3f
       0.0 0.0 1.0 1.0
000120 00 00 80 3f 00 00 80 3f 00 00 80 3f 00 00 80 3f
       1.0 1.0 1.0 1.0
000130 00 00 00 00 00 00 00 00 00 00 00 00 00 00 00 00
       0.0 0.0 0.0 0.0
000140 00 00 00 00 00 00 00 00 00 00 00 00 00 00 00 00
       0.0 0.0 0.0 0.0
000150 00 00 80 3f 00 00 80 3f 00 00 80 3f 00 00 00 00
       1.0 1.0 1.0 0.0
000160 00 00 00 00 00 00 00 00 00 00 00 00 00 00 00 00
       0.0 0.0 0.0 0.0
000170 00 00 00 00 00 00 00 00 00 00 00 00 00 00 00 00
       0.0 0.0 0.0 0.0
000180 00 00 00 00 00 00 00 00 00 00 80 3f 00 00 80 3f
       0.0 0.0 1.0 1.0
000190 00 00 80 3f 00 00 80 3f 00 00 80 3f 00 00 80 3f
       1.0 1.0 1.0 1.0
0001a0 00 00 80 3f 00 00 80 3f 00 00 80 3f 00 00 80 3f
       1.0 1.0 1.0 1.0
0001b0 00 00 80 3f 00 00 00 00 00 00 00 00 00 00 00 00
       1.0 0.0 0.0 0.0
0001c0 00 00 80 3f 00 00 80 3f 00 00 80 3f 00 00 80 3f
       1.0 1.0 1.0 1.0
0001d0 00 00 80 3f 00 00 80 3f 00 00 80 3f 00 00 80 3f
       1.0 1.0 1.0 1.0
0001e0 00 00 80 3f 00 00 80 3f 00 00 80 3f 00 00 00 00
       1.0 1.0 1.0 0.0
0001f0 00 00 00 00 00 00 00 00 00 00 80 3f 00 00 00 00
       0.0 0.0 1.0 0.0
000200 00 00 00 00 00 00 00 00 00 00 00 00 00 00 00 00
       0.0 0.0 0.0 0.0
000210 00 00 00 00 00 00 00 00 00 00 00 00 00 00 00 00
       0.0 0.0 0.0 0.0
000220 00 00 00 00 00 00 00 00 00 00 00 00 00 00 00 00
       0.0 0.0 0.0 0.0
000230 00 00 80 3f 00 00 80 3f 00 00 80 3f 00 00 80 3f
       1.0 1.0 1.0 1.0
000240 00 00 00 00 00 00 00 00 00 00 00 00 00 00 00 00
       0.0 0.0 0.0 0.0
000250 00 00 00 00 00 00 00 00 00 00 00 00 00 00 00 00
       0.0 0.0 0.0 0.0
000260 00 00 00 00 00 00 00 00 00 00 80 3f 00 00 80 3f
       0.0 0.0 1.0 1.0
000270 00 00 80 3f 00 00 80 3f 00 00 80 3f 00 00 80 3f
       1.0 1.0 1.0 1.0
000280 00 00 80 3f 00 00 80 3f 00 00 80 3f 00 00 80 3f
       1.0 1.0 1.0 1.0
000290 00 00 80 3f 00 00 80 3f 00 00 00 00 00 00 00 00
       1.0 1.0 0.0 0.0
0002a0 00 00 80 3f 00 00 80 3f 00 00 80 3f 00 00 80 3f
       1.0 1.0 1.0 1.0
0002b0 00 00 80 3f 00 00 80 3f 00 00 80 3f 00 00 80 3f
       1.0 1.0 1.0 1.0
0002c0 00 00 80 3f 00 00 80 3f 00 00 00 00 00 00 00 00
       1.0 1.0 0.0 0.0
0002d0 00 00 00 00 00 00 00 00 00 00 80 3f 00 00 80 3f
       0.0 0.0 1.0 1.0
0002e0 00 00 80 3f 00 00 80 3f 00 00 80 3f 00 00 80 3f
       1.0 1.0 1.0 1.0
0002f0 00 00 80 3f 00 00 80 3f 00 00 80 3f 00 00 00 00
       1.0 1.0 1.0 0.0
000300 00 00 00 00 00 00 00 00 00 00 00 00 00 00 00 00
       0.0 0.0 0.0 0.0
000310 00 00 80 3f 00 00 80 3f 00 00 80 3f 00 00 80 3f
       1.0 1.0 1.0 1.0
000320 00 00 80 3f 00 00 80 3f 00 00 80 3f 00 00 80 3f
       1.0 1.0 1.0 1.0
000330 00 00 80 3f 00 00 80 3f 00 00 80 3f 00 00 80 3f
       1.0 1.0 1.0 1.0
000340 00 00 80 3f 00 00 00 00 00 00 80 3f 00 00 80 3f
       1.0 0.0 1.0 1.0
000350 00 00 80 3f 00 00 80 3f 00 00 80 3f 00 00 00 00
       1.0 1.0 1.0 0.0
000360 00 00 00 00 00 00 00 00 00 00 00 00 00 00 00 00
       0.0 0.0 0.0 0.0
000370 00 00 00 00 00 00 00 00 00 00 00 00 00 00 00 00
       0.0 0.0 0.0 0.0
000380 00 00 80 3f 00 00 00 00 00 00 00 00 00 00 00 00
       1.0 0.0 0.0 0.0
000390 00 00 00 00 00 00 00 00 00 00 00 00 00 00 00 00
       0.0 0.0 0.0 0.0
0003a0 00 00 00 00 00 00 00 00 00 00 00 00 00 00 00 00
       0.0 0.0 0.0 0.0
0003b0 00 00 00 00 00 00 00 00 00 00 80 3f 00 00 80 3f
       0.0 0.0 1.0 1.0
0003c0 00 00 80 3f 00 00 80 3f 00 00 80 3f 00 00 00 00
       1.0 1.0 1.0 0.0
0003d0 00 00 00 00 00 00 00 00 00 00 00 00 00 00 00 00
       0.0 0.0 0.0 0.0
0003e0 00 00 00 00 00 00 00 00 00 00 00 00 00 00 00 00
       0.0 0.0 0.0 0.0
0003f0 00 00 80 3f 00 00 80 3f 00 00 80 3f 00 00 80 3f
       1.0 1.0 1.0 1.0

0.0.mdl.input_to_hidden.0.cscale.weight f4 [100, 1]
000000 1a 65 d0 b9 94 5a c5 b9 8a 7b 7d ba b7 f0 d4 38
       -0.00039748178 -0.00037642254 -0.0009669593 0.000101537844
000010 08 2e 4c 3a 6c 42 3a 39 a6 20 25 ba f7 77 72 b9
       0.00077888416 0.00017763086 -0.00062991155 -0.00023123609
000020 90 6d 64 3a 83 22 21 ba 98 a3 b0 38 83 fe 13 ba
       0.0008713836 -0.0006146805 8.422806e-05 -0.000564553
000030 d1 a1 39 ba 45 73 b6 3a ad ed c9 3a 60 ac da 36
       -0.00070813025 0.0013919851 0.0015405916 6.5169734e-06
000040 4f 72 0b 3a 0e d5 8c 3a 04 5f e0 3a f1 6e 32 b9
       0.00053194625 0.0010744648 0.0017118161 -0.00017016732
000050 20 18 cb 3a b8 8d e5 ba 0b 9d ae 3a 8a 45 34 39
       0.0015494861 -0.0017513549 0.0013321949 0.00017192043
000060 69 be 0b 3a c1 10 8c 3a 1a 29 d4 b9 40 b8 8e 39
       0.00053308025 0.0010686145 -0.00040466414 0.00027221628
000070 cf 48 60 ba 04 f0 42 ba 89 f5 89 3a 7a 28 98 3a
       -0.0008555771 -0.0007436278 0.0010525446 0.0011608743
000080 e5 2b dd 3a 7c 28 cc 38 cc 88 8a ba 8e 7d 35 bb
       0.0016874044 9.735019e-05 -0.0010569333 -0.0027693245
000090 65 74 57 ba 28 4c db 3a 70 b0 a2 39 c9 d1 b6 b8
       -0.0008218943 0.001673107 0.00031030504 -8.717512e-05
0000a0 21 b8 3b b8 d5 bd 9f ba 86 23 31 3a 8d 48 d1 b9
       -4.4755758e-05 -0.0012187312 0.00067573076 -0.0003991764
0000b0 f4 90 c8 3a 37 26 9e b9 81 ba 7f ba ff 02 90 ba
       0.0015301988 -0.0003016458 -0.0009755269 -0.0010987221
0000c0 10 5d a0 3a 13 fc d7 ba 75 13 9e 3a 91 b9 8e 3a
       0.0012234766 -0.0016478322 0.0012060242 0.0010889043
0000d0 14 70 1a 38 4e 37 ca 39 40 21 48 b9 d8 0a 80 ba
       3.6820842e-05 0.00038569648 -0.00019085873 -0.0009768857
0000e0 74 4f 5a ba 6b 0f ab 39 2c 17 7f ba ed 60 f3 39
       -0.00083278795 0.0003262715 -0.0009730931 0.00046420787
0000f0 5a 93 1c ba bf bc 29 3a ed 7a fa b9 26 53 c0 39
       -0.0005972885 0.0006474964 -0.00047775303 0.00036683044
000100 8d 14 a3 ba 7c a0 f0 39 cf 39 e5 39 6c da 23 3a
       -0.0012442038 0.00045895937 0.00043721354 0.0006250504
000110 e3 a9 ab 39 c4 a2 ab b9 0f c5 98 39 37 72 de b9
       0.00032742237 -0.00032736931 0.0002913852 -0.00042428236
000120 02 d4 51 3a 27 d3 2c b9 5e 0e 90 ba 77 d2 c1 b9
       0.0008004309 -0.00016481859 -0.001099061 -0.00036968637
000130 1d 9f 05 ba 04 c7 31 ba fb e1 ba 39 02 20 2a b9
       -0.0005097257 -0.000678167 0.00035645053 -0.00016224387
000140 40 12 87 b9 92 01 c8 39 a9 15 9b 3a 3e 42 02 b8
       -0.00025762804 0.00038148143 0.0011832017 -3.1056108e-05
000150 09 77 7d b6 fd 38 c7 39 f2 44 20 3b 08 05 74 ba
       -3.7769225e-06 0.00037998697 0.0024455157 -0.0009308611
000160 11 a7 0b bb c9 25 66 3a a0 3e 5d b8 4e 9b 2c b9
       -0.0021309296 0.0008779434 -5.274883e-05 -0.00016461054
000170 c5 e5 99 ba df 4b 86 38 ab d4 fe 39 47 be a1 ba
       -0.001174145 6.40375e-05 0.00048605105 -0.0012340032
000180 35 4d 98 ba a2 f7 a3 3a 17 bf b3 3a b3 c8 1f ba
       -0.0011619689 0.0012509713 0.0013713565 -0.0006095275

0.0.mdl.input_to_hidden.0.cscale.bias f4 [100]
000000 33 f9 cb bd 2e 19 02 3d b7 ba 8e 3f fc dd 3a bf
       -0.0995964 0.031762294 1.1150731 -0.7299497
000010 3c f1 6a 3e 98 eb c5 3e b0 b1 12 3e 1a 8e 7d bf
       0.22943586 0.38656306 0.14325595 -0.99044955
000020 ef a5 88 bf 6e f6 4b 3f a7 3d 30 3f f3 2b 88 be
       -1.0675639 0.79672897 0.68844074 -0.2659603
000030 a8 22 64 3e 46 3b 6b 3f 89 0d 35 bf 19 99 45 bf
       0.22278845 0.9188732 -0.7072378 -0.77186733
000040 60 45 86 be c6 2b 63 bf 93 16 31 bf 66 32 8f be
       -0.26224804 -0.8873867 -0.6917507 -0.27968138
000050 e6 7f 9b bf 3c ed be 3f 49 14 a6 be e4 6a 99 bf
       -1.2148407 1.4916148 -0.3243735 -1.1985745
000060 b9 13 47 bf d1 5b d4 be c4 58 08 3e 1e 93 37 3e
       -0.7776447 -0.414763 0.13315111 0.17927215
000070 63 c2 16 bf 27 25 0a bf 5d 2d 8b be a1 65 2e bf
       -0.5889036 -0.5396294 -0.27183047 -0.68123823
000080 fd 8a 7c be a0 70 bf 3e 4d 00 48 3f e0 32 77 be
       -0.24662395 0.37390614 0.7812546 -0.24140501
000090 62 6d 69 bf 2e cd b5 3e 31 7b aa be af c6 0f bf
       -0.9118253 0.35508102 -0.33297113 -0.5616254
0000a0 1b a0 63 bf 2b 6a 60 bf 38 0b 09 bf a8 21 98 be
       -0.88916177 -0.87662 -0.53532743 -0.29713178
0000b0 f8 21 5c bf a1 e2 8e 3f 1f 18 76 3f 7a 21 60 be
       -0.8598933 1.1162912 0.96130556 -0.2188777
0000c0 4a 8f 00 bf c8 87 14 3e 8e af fa be 0c ee 2b 3f
       -0.5021864 0.14504921 -0.48962063 0.67160106
0000d0 f7 9a 19 bf b3 0d c8 be 9e 46 41 bf fa 1f 29 3f
       -0.6000208 -0.39072952 -0.7549838 0.6606442
0000e0 16 01 96 bf c1 04 a3 3e f7 2c d0 3f 5f 17 2c bf
       -1.1719081 0.31839564 1.6263722 -0.6722316
0000f0 91 ef 96 bd c3 57 d2 be 40 9f a5 3e 07 1d ae be
       -0.073699124 -0.41082582 0.3234806 -0.3400652
000100 a0 10 61 bf 5e c1 e8 3d af cb fd 3e 43 e2 89 bf
       -0.8791599 0.11365007 0.4956946 -1.0772175
000110 39 1d 94 3f 70 3c 40 3f 1e ec ec 3c 50 cf 55 3f
       1.1571418 0.7509222 0.028921183 0.8351946
000120 c4 cf c6 3f 93 ec 14 3f 6a d0 f7 3e 2a e4 05 be
       1.5532155 0.58173484 0.48401195 -0.13075319
000130 42 c7 5f bf 1e 74 7e 3f eb 16 83 bf 50 33 04 bf
       -0.8741342 0.9939593 -1.0241369 -0.51640797
000140 8d a8 57 bf 39 af 7d bf f1 21 1a 3f 38 85 6e 3f
       -0.84241563 -0.99095494 0.6020804 0.93172026
000150 02 5f 92 be 07 00 08 bf 2e f3 53 3f cf 52 d1 be
       -0.2858811 -0.5312504 0.8279294 -0.4088349
000160 78 8c 17 3f c0 2e 1d 3f eb d4 cf 3e dc f6 9d bf
       0.59198713 0.6139946 0.4059213 -1.234096
000170 16 06 5a 3f 17 55 4e 3e ec 98 72 3f 7b 56 ef be
       0.85165536 0.20149647 0.9476459 -0.46745667
000180 2e 90 74 3d 5e a5 47 3f 00 69 1b 3f d3 6e 69 bf
       0.059707813 0.77986705 0.6070709 -0.9118473

0.0.mdl.input_to_hidden.0.cbias.weight f4 [100, 1]
000000 9e 63 09 ba 61 9a 50 ba 93 20 bc b9 1b 01 cc ba
       -0.00052409794 -0.00079575746 -0.00035882424 -0.0015564294
000010 9b 6f db b9 b7 1a 26 3a 9c 57 04 3b 10 09 32 ba
       -0.00041854088 0.0006336378 0.002019382 -0.00067915116
000020 09 fd 10 3a f7 0e 14 3a c9 79 9e ba dc 98 af 3a
       0.0005530869 0.0005647982 -0.0012090738 0.0013396996
000030 c7 92 fe 3a 36 06 7f 39 73 4f 45 bb 1a ba e1 39
       0.0019422405 0.00024321009 -0.003010717 0.00043054
000040 50 4f 59 ba 50 74 19 b9 d3 49 8e b9 dd 2e 09 38
       -0.00082897115 -0.00014634547 -0.00027139354 3.270699e-05
000050 6f b2 bf b9 a0 c6 bd 39 38 d1 11 b9 9e 3a 07 ba
       -0.00036563302 0.00036196876 -0.00013906218 -0.0005158576
000060 cf 08 81 39 2b 0e 4a 3a 29 43 12 ba 07 f7 49 3a
       0.0002461136 0.00077077997 -0.00055794657 0.00077043514
000070 d5 8e 21 ba ef 28 90 ba 38 d5 0a 3a de 0c c1 3a
       -0.0006162946 -0.0010998527 0.00052960543 0.0014728566
000080 57 40 52 38 be 98 bc 39 a0 a6 42 b8 01 03 bd b9
       5.0127823e-05 0.00035971956 -4.6408386e-05 -0.00036051127
000090 9d 09 2e 3a 47 9d c0 ba 90 c3 76 ba 10 10 20 ba
       0.0006639006 -0.001469531 -0.00094132964 -0.0006105909
0000a0 e4 0e b8 39 e6 e5 0e 3a 91 14 24 38 56 19 e8 3a
       0.0003510631 0.00054511277 3.91198e-05 0.0017707746
0000b0 71 0a 5a 3a 83 e9 48 3a 94 af 7f 3a 86 c5 e2 b9
       0.0008317596 0.00076641905 0.0009753641 -0.00043253246
0000c0 c5 e6 1f b9 9d 35 79 3a a1 6f 25 ba 5f b4 bf 3a
       -0.0001524939 0.0009506585 -0.00063108845 0.0014625898
0000d0 4c dc 21 3a 9e dd 2b ba 27 5f 7b b9 6d ac e5 b9
       0.00061744894 -0.0006556156 -0.00023972672 -0.0004380675
0000e0 75 5c 9d ba e0 11 16 ba 2e 54 4e ba 48 59 f7 3a
       -0.0012005704 -0.00057247095 -0.000787082 0.0018871212
0000f0 6e 65 58 ba d0 51 8d 39 3f ad 0a 3a 18 d4 ad 39
       -0.00082548603 0.0002695457 0.0005290098 0.00033155154
000100 84 4c 19 b8 4b 3b 49 b9 71 a8 00 bb 96 1a 85 3a
       -3.6549303e-05 -0.00019190942 -0.001963165 0.0010155018
000110 b1 c1 98 ba 66 a8 12 3a 25 ae 73 ba e8 37 05 3a
       -0.0011654404 0.00055945513 -0.0009295664 0.0005081878
000120 62 d6 d3 b9 a7 70 f0 b9 f9 c8 a4 3a 93 0b e4 3a
       -0.00040404784 -0.000458603 0.0012572102 0.0017398469
000130 33 9d c6 b9 b7 e5 43 b8 6f da 54 ba e9 d0 06 ba
       -0.00037882625 -4.670556e-05 -0.00081197073 -0.00051428244
000140 27 b5 51 3a 32 5b aa 3a d6 a6 72 ba 5c 9d b3 b8
       0.0007999711 0.0012997149 -0.0009256428 -8.5646956e-05
000150 44 25 1a ba e8 70 f7 3a 10 8b b7 b8 f8 f7 bc ba
       -0.0005880187 0.0018878253 -8.7520224e-05 -0.0014417162
000160 1d ac 9a 39 3b 11 69 ba 7d 93 ac 3a f3 dd 75 b8
       0.00029501403 -0.0008890812 0.0013166514 -5.861926e-05
000170 2e f0 42 3a 62 0e b1 ba d5 e6 8a ba c1 98 ab ba
       0.0007436302 -0.0013508315 -0.0010597358 -0.0013091789
000180 31 df 92 3a cc f1 06 b9 39 49 36 3a 54 d8 53 ba
       0.0011205432 -0.00012869312 0.000695366 -0.00080812466

0.0.mdl.input_to_hidden.0.cbias.bias f4 [100]
000000 66 8c 22 c0 0b 65 1a 40 ba 7f 47 40 e3 11 85 c0
       -2.5398192 2.4124172 3.1171708 -4.1584334
000010 0c 6d 31 c0 52 de e8 3f 35 a8 74 bf aa 38 aa 40
       -2.7722807 1.8192847 -0.95569164 5.319417
000020 4a 42 1a c0 93 68 89 3f a6 89 8a 3f b4 8c d9 40
       -2.410296 1.0735039 1.0823257 6.7984257
000030 e7 54 96 c0 d2 a2 02 c0 28 7b 73 40 7f d4 3c 40
       -4.697864 -2.0411878 3.8043919 2.9504697
000040 d5 6d 12 c0 07 bd 07 40 78 6d 53 40 3b 49 ec 3f
       -2.2879536 2.1209123 3.3035564 1.8459848
000050 61 8d 73 bf f8 9f 81 bf 49 7a c2 3f 1a 16 5b 40
       -0.951376 -1.0126944 1.5193568 3.423224
000060 40 2a 1e 40 ab f0 23 40 bc 9c 1e 40 72 84 0e 40
       2.4713287 2.5615642 2.4783163 2.2268338
000070 c3 90 0a bf 80 1f 96 3f a8 3d ef bf 86 16 04 40
       -0.5412714 1.1728363 -1.8690691 2.0638747
000080 79 10 db 3f 30 79 c8 3f e0 77 3b 40 72 65 04 40
       1.7114402 1.5661983 2.9291916 2.0686917
000090 0b dc 69 3e 58 92 cf bf e5 58 a7 40 04 5c 01 40
       0.22837846 -1.6216536 5.2296014 2.0212412
0000a0 de 3b 0c c0 55 3b 0d 40 ce 10 0a 40 c0 b4 f2 3f
       -2.191154 2.2067463 2.1572757 1.896141
0000b0 ce b1 97 3f 44 61 8d 40 4d 7b 8c 3f 75 28 48 40
       1.1851137 4.4181232 1.0975128 3.1274693
0000c0 38 a4 1a 40 29 a7 b1 3f 07 a6 05 40 35 09 50 40
       2.416273 1.3879138 2.0882585 3.250562
0000d0 99 2a 1a 40 ea 4b f2 bf a6 af 30 3f 63 89 e5 3f
       2.40885 -1.8929417 0.6901802 1.7932552
0000e0 da 2c e2 be 6c 73 2a c0 91 92 19 40 dc d3 d4 3f
       -0.44174844 -2.6632948 2.3995707 1.6627154
0000f0 3a b5 18 c0 3f 64 63 bf 3e af ff 3f 15 bb 23 c0
       -2.3860612 -0.8882484 1.9975355 -2.5582936
000100 95 cc b0 bf 39 0a e0 bf c7 4a 38 40 8e 6d 30 40
       -1.3812433 -1.750312 2.879564 2.7566867
000110 1c 45 9b 3e 22 73 99 3f 86 0a 3b 40 6b 39 33 c0
       0.30326164 1.1988261 2.9225173 -2.8003795
000120 f8 8b 57 3e bc b8 af bf fb f2 27 c0 e6 ac ed 3f
       0.21049488 -1.3728251 -2.6242054 1.856839
000130 04 28 49 3f 2d 3e ea 40 11 7f 28 3f 85 5a 1c c0
       0.78576684 7.32009 0.6581889 -2.4430249
000140 ca 07 73 3f e5 78 d4 3f a4 ab 1a 40 91 b3 fa 3e
       0.9493376 1.6599394 2.416726 0.48965123
000150 12 2e d7 3e 03 0e 1b 40 cf 02 b8 3f 2d e8 b6 3e
       0.42027336 2.4227302 1.4375857 0.3572401
000160 3a 32 0c be 0e da 74 40 58 36 05 c0 45 dd 57 40
       -0.13691035 3.825809 -2.0814419 3.3728802
000170 7e 4a b0 be 83 f0 45 c0 f8 9f b3 40 60 ed 9c bf
       -0.34431833 -3.0928047 5.6132774 -1.2259941
000180 6f 98 34 c0 55 53 d2 3f 53 50 f5 3f db dd b6 3f
       -2.8218038 1.6431681 1.9165138 1.4286455

0.0.mdl.hidden_to_output.direction f4 [28, 100]
000000 88 fc c5 b9 85 a8 9a 39 a6 97 5d ba 3e 45 9a ba
       -0.00037762919 0.00029498726 -0.00084530783 -0.0011769903
000010 d3 99 c9 39 e9 db 24 3a e5 d5 18 ba 29 79 07 ba
       0.00038452315 0.00062888727 -0.00058302126 -0.00051678956
000020 e8 97 be 3a 91 60 af b9 92 f4 c3 3a cd 65 39 ba
       0.0014541121 -0.0003345055 0.0014950207 -0.00070723594
000030 57 ae e1 39 90 6f e0 b7 14 5b 1f 38 6d 80 71 ba
       0.00043045238 -2.6754831e-05 3.7993377e-05 -0.00092125573
000040 1c 30 91 3a 31 6f 70 3a 47 78 e5 b9 05 8c 86 39
       0.001107696 0.0009171842 -0.00043767897 0.00025662794
000050 f2 fa 59 ba 0e eb 35 ba 7a d2 58 3a 14 e5 53 b9
       -0.0008315287 -0.0006939628 0.00082711095 -0.00020207866
000060 73 d5 96 b9 66 6f 88 b8 61 74 1a 3a ad 4e 07 37
       -0.00028769262 -6.505735e-05 0.00058919756 8.064945e-06
000070 e8 f4 b7 ba b7 7d f1 b9 43 a0 f1 b7 83 ee 20 ba
       -0.001403478 -0.00046060767 -2.8804066e-05 -0.00061390566
000080 02 9e 3d ba 96 51 a6 3a 35 a2 3d 3a 03 59 1a 3a
       -0.0007233323 0.001268911 0.00072339486 0.00058878976
000090 9b 8a de 39 da 32 8a 39 76 f7 85 39 94 1b 1e 39
       0.0004244641 0.00026359298 0.0002555211 0.00015078328
0000a0 99 ab ef 3a 8b b1 61 ba 3b aa 88 38 e0 fe 6c ba
       0.0018285393 -0.0008609525 6.516693e-05 -0.0009040665
0000b0 ed 9f 60 b9 69 54 ba 3a 0a 74 51 3a 44 37 bf ba
       -0.00021421882 0.001421583 0.00079900085 -0.0014588614
0000c0 95 ba b1 3a 19 82 28 ba 58 11 48 37 86 71 df 39
       0.0013559634 -0.00064280775 1.1924967e-05 0.00042618456
0000d0 61 3e 7a 39 5d 38 df 39 11 32 15 ba 48 29 6b b9
       0.00023865096 0.00042575868 -0.00056913594 -0.00022426725
0000e0 9b 14 0c 3b e2 c8 7a ba 95 c5 49 3a b8 dd 85 ba
       0.0021374587 -0.0009566677 0.00076969835 -0.0010213172
0000f0 87 cd 2d ba 84 99 30 39 5d 40 c4 b9 95 a5 7c 39
       -0.0006630052 0.00016841857 -0.00037431988 0.00024094277
000100 37 a8 3f 38 ee c2 81 3a cb 34 29 ba 01 55 3a 3b
       4.569461e-05 0.0009900013 -0.0006454705 0.0028432014
000110 85 77 74 3a 0f e8 ad b9 67 fb a4 39 53 a8 66 3a
       0.0009325671 -0.00033170028 0.00031467827 0.0008798886
000120 42 8a ec 38 d0 e8 b3 b8 85 18 da b9 5f 29 b2 3a
       0.000112791095 -8.57875e-05 -0.0004159847 0.0013592652
000130 01 91 bd 39 d4 29 89 3a c8 2b de 3a 71 81 c9 ba
       0.00036156925 0.0010464736 0.0016950304 -0.001537366
000140 2d d6 26 3b 21 fa 0d bb 28 29 47 39 7e 2c a5 3a
       0.0025457249 -0.002166398 0.00018993451 0.0012601761
000150 1e 2e 27 ba b8 8e b5 38 61 e1 e2 3a eb 8b 2f 39
       -0.00063774164 8.657336e-05 0.00173096 0.00016741424
000160 32 ae 4b bb 94 78 cb 3a 3d 41 75 b8 64 18 88 3a
       -0.003107917 0.0015523606 -5.847331e-05 0.0010383246
000170 95 0a 99 3a 15 78 1e 3a 63 41 a3 ba d6 b0 09 b9
       0.0011676127 0.00060451153 -0.00124554 -0.00013131215
000180 8d 22 19 3a af 4e 74 ba 78 73 4d 3a e5 e7 28 39
       0.0005841635 -0.0009319586 0.00078373356 0.00016108116
000190 61 36 f5 38 21 c4 3f 3a b9 aa ac ba a7 1f 60 ba
       0.00011692639 0.0007315297 -0.0013173438 -0.00085496384
0001a0 0d f6 04 ba 36 ba dc ba a8 94 19 ba 0f 27 f4 39
       -0.0005072065 -0.0016840163 -0.00058586383 0.00046568408
0001b0 c5 49 a1 b9 3e 0a 88 3a 5b e7 e2 39 e0 6c 2b 3a
       -0.00030763276 0.0010379029 0.00043278452 0.0006539356
0001c0 06 a5 0d bb 0e 8f 9d b9 5c a9 28 39 08 05 80 b9
       -0.0021613254 -0.00030051958 0.0001608482 -0.0002441781
0001d0 ee 89 a2 ba aa 5a 88 3a 65 96 48 3a 07 6d a3 ba
       -0.0012400725 0.0010402997 0.0007651805 -0.0012468406
0001e0 e2 97 d8 39 76 40 9c ba 0a 32 7d ba b4 bd 52 3a
       0.00041311892 -0.0011921066 -0.00096586405 0.0008039132
0001f0 95 f6 6f ba 26 d8 cf 3a 4a 2f 04 ba da 3f ca 3a
       -0.000915387 0.0015857264 -0.0005042447 0.0015430406
000200 d4 52 95 39 7b 3d a2 b9 14 b3 a7 38 be 36 a5 ba
       0.00028481206 -0.00030944854 7.9965364e-05 -0.0012604815
000210 06 d2 75 ba 5a 15 08 b9 73 9e 4d ba 3a aa c5 b9
       -0.0009377304 -0.00012977925 -0.000784374 -0.00037701597
000220 cc 1a 0e ba 7c 72 bf ba 72 58 2a 3a ac e6 28 39
       -0.0005420863 -0.0014606263 0.0006498165 0.0001610766
000230 87 9e 01 ba 18 c5 3f 38 ab 3f af ba ec f9 56 b8
       -0.0004944582 4.5721506e-05 -0.0013370415 -5.1254334e-05
000240 d3 28 f9 b9 75 a7 7d ba 94 dc 85 ba cd fd a1 b9
       -0.00047523397 -0.0009676137 -0.0010212832 -0.0003089741
000250 99 e8 89 ba 7c e7 cc 3a a0 71 9c ba 9a fb 1e 37
       -0.001052159 0.0015632953 -0.0011935718 9.476114e-06
000260 ce cc 66 ba 96 53 e6 39 30 be 10 ba 78 b6 e9 b8
       -0.0008804322 0.00043931295 -0.0005521504 -0.00011144293
000270 58 b8 b0 3a 02 91 e8 39 1b 0e da 3a f9 6e 37 bb
       0.0013482673 0.00044358528 0.0016636284 -0.002798973
000280 d3 04 9a 38 de 2b 58 39 44 7a b7 39 70 64 8a 3a
       7.344191e-05 0.00020615707 0.00034995575 0.0010558497
000290 ba 45 92 b8 e3 80 9a 39 af 3c 59 b9 ee a2 3d 3a
       -6.97481e-05 0.00029469197 -0.00020717339 0.0007234056
0002a0 ef ac 01 bb 81 ec 4d 3a fd 39 96 3a ef 93 7a 39
       -0.0019786914 0.0007855371 0.0011461374 0.00023896967
0002b0 02 22 1c ba a8 c0 7b 3a 25 07 0d ba bc 92 43 b9
       -0.00059559953 0.0009603598 -0.0005379788 -0.00018651312
0002c0 6f fc 5c ba 76 90 97 b9 1a 8c 0a ba ba 81 8a 3a
       -0.00084299495 -0.00028908596 -0.0005285159 0.0010567226
0002d0 43 a5 c1 ba 34 f9 be 3a ce 43 fa b8 15 7a 88 b9
       -0.0014773983 0.0014570118 -0.000119335586 -0.000260309
0002e0 4e 2d aa 38 8a 07 8c ba aa 70 ef 3a 49 f0 04 b9
       8.11467e-05 -0.0010683399 0.001826783 -0.00012678014
0002f0 ac c7 bb ba 17 fb 1d ba 26 32 d9 ba f2 ca 54 ba
       -0.0014326475 -0.000602649 -0.0016570732 -0.00081173994
000300 51 c3 60 3a dc e1 13 3a 13 e5 df b8 ca ed 04 3a
       0.0008574026 0.00056412607 -0.00010676137 0.0005070834
000310 84 1f 96 38 72 b3 f7 39 6d 29 2c ba 6f 1a 29 b9
       7.1584276e-05 0.00047245208 -0.0006567452 -0.00016126943
000320 7c 02 01 80 13 1f 01 00 4e 20 01 00 c6 b1 24 35
       -9.2727e-41 1.02983e-40 1.03424e-40 6.1353455e-07
000330 5a 9e 01 00 5b 27 01 80 09 8c 44 37 ae ee 01 80
       1.48641e-40 -1.05954e-40 1.1715115e-05 -1.77458e-40
000340 b4 ce 9b b8 56 cb 7e bd 32 5c 21 33 3e 7d 01 80
       -7.4294774e-05 -0.062205635 3.7569585e-08 -1.36764e-40
000350 81 35 83 34 8a 62 00 80 61 42 00 80 4c 13 01 80
       2.443958e-07 -3.5349e-41 -2.3812e-41 -9.8758e-41
000360 09 6d 4c bb b0 13 00 00 d6 33 02 00 7d 49 1e 22
       -0.003119292 7.063e-42 2.02266e-40 2.1451897e-18
000370 a9 6d 00 00 cb e0 00 00 fe fe 00 00 1c 31 01 00
       3.9339e-41 8.064e-41 9.1474e-41 1.09453e-40
000380 9b 93 00 80 1c a0 01 00 be b1 01 00 c1 0a 01 00
       -5.2951e-41 1.49272e-40 1.55597e-40 9.5693e-41
000390 63 57 01 00 dc c3 01 00 6c c2 01 80 89 34 01 80
       1.23184e-40 1.62097e-40 -1.61581e-40 -1.10682e-40
0003a0 3e 75 00 80 ba 04 02 00 85 b1 01 00 ec ad 02 80
       -4.2059e-41 1.85367e-40 1.55518e-40 -2.46062e-40
0003b0 dc 3a c6 a5 27 e2 01 00 e8 47 00 00 b1 e0 c5 3c
       -3.438741e-16 1.72964e-40 2.5795e-41 0.024154993
0003c0 8b 5b 02 00 62 c7 01 00 90 cb 01 00 58 b1 00 00
       2.1651e-40 1.6336e-40 1.6486e-40 6.3619e-41
0003d0 52 6e 01 80 3f 65 01 00 86 c4 04 3e f8 0e 01 80
       -1.31411e-40 1.28156e-40 0.12965593 -9.7205e-41
0003e0 9f a6 00 80 9a 0a 00 80 ea 75 02 80 ba 51 01 80
       -5.9772e-41 -3.803e-42 -2.2597e-40 -1.21153e-40
0003f0 2c 7a 00 80 5c 1b 01 80 11 85 00 00 15 b3 00 00
       -4.3827e-41 -1.0165e-40 4.7735e-41 6.4243e-41

0.0.mdl.hidden_to_output.cscale.weight f4 [28, 1]
000000 40 3c 7b 39 14 44 5f 3a ee f4 e6 b9 60 e1 92 b9
       0.0002395967 0.00085169193 -0.00044051505 -0.00028015207
000010 3e 1f 04 ba 00 29 a0 37 f0 7f 87 b9 56 76 1c ba
       -0.0005040056 1.9092578e-05 -0.00025844527 -0.0005968561
000020 c4 25 e8 b9 a0 e2 67 38 e2 06 7f 3a 00 bf b7 39
       -0.00044278626 5.5285753e-05 0.00097285036 0.00035046786
000030 4a 60 5a ba d6 fe 23 ba 90 46 04 ba 16 6f 68 3a
       -0.0008330388 -0.000625593 -0.0005045915 0.0008866651
000040 96 f3 25 3a 18 fd 81 39 a9 3b 7b ba 60 2f de b9
       0.00063305476 0.00024793367 -0.000958378 -0.00042378437
000050 80 55 28 b8 98 b3 45 ba 10 cd 94 38 a0 de 1e 3a
       -4.013395e-05 -0.0007541715 7.095386e-05 0.00060603954
000060 72 73 6f 3a 68 a7 73 3a 4a dc 27 ba a2 00 39 ba
       0.0009134329 0.000929466 -0.000640337 -0.0007057284

0.0.mdl.hidden_to_output.cscale.bias f4 [28]
000000 00 00 00 00 00 00 00 00 11 42 82 be 46 92 95 bd
       0.0 0.0 -0.2544103 -0.0730329
000010 8f 62 47 bf 80 f3 4e 3d ff 4b 39 3f d7 e1 48 bd
       -0.77884763 0.05052519 0.72381586 -0.049043503
000020 6e 23 4a 3f 7d 87 46 bd 96 a7 ce 3e 66 1b 66 bd
       0.7896031 -0.048469055 0.40362233 -0.056178473
000030 47 70 ab be 6c 3e 82 bd d2 db c8 bf 68 09 cd bc
       -0.33484098 -0.06359562 -1.5692084 -0.0250289
000040 9b 90 9e bf 22 4e 0d bd 27 38 68 3f a5 25 63 bd
       -1.238788 -0.03449834 0.9071068 -0.055455822
000050 08 ba 17 bf 90 83 6e bd 57 d1 de be a1 d6 5c 3d
       -0.59268236 -0.058230937 -0.4351909 0.053915624
000060 71 70 66 be 8d 05 74 bd a1 91 06 3e 44 9b 8e 3d
       -0.2250383 -0.059575606 0.1314149 0.06963208

0.0.mdl.hidden_to_output.cbias.weight f4 [28, 1]
000000 54 3b 80 39 08 3d 12 39 b4 9a 72 3a 08 99 e3 b8
       0.00024458265 0.00013946381 0.000925462 -0.00010852708
000010 c0 de a6 37 44 28 55 b9 50 9f 90 b9 88 2a 62 ba
       1.9892468e-05 -0.00020328263 -0.00027584517 -0.00086275535
000020 8c 48 35 b9 7a 7b ea b9 e6 17 5c 3a 02 bf 25 ba
       -0.00017288531 -0.00044723955 0.0008395895 -0.0006322713
000030 14 f7 22 b9 a0 ab 21 b8 d8 52 75 3a 86 dd 77 ba
       -0.00015541568 -3.854523e-05 0.0009358353 -0.0009455312
000040 3c 22 72 ba 88 87 38 ba ec ca 53 3a 0c 2f 07 b9
       -0.00092366687 -0.00070392387 0.0008079249 -0.0001289213
000050 cc d3 d6 39 a4 5b 1a ba 03 4d 6e ba e8 98 6d b9
       0.00040975062 -0.00058882893 -0.0009090455 -0.00022659043
000060 30 92 0d ba 70 ee 15 b9 60 ee 80 38 23 26 80 ba
       -0.0005400507 -0.00014298572 6.1479164e-05 -0.0009776991

0.0.mdl.hidden_to_output.cbias.bias f4 [28]
000000 47 29 d0 3c e2 21 d3 3f 11 fc aa bd b2 bd e4 3f
       0.025410308 1.6494715 -0.08348859 1.787039
000010 e9 da 7a bf 2e 1a 9f 3f 78 ba 41 3f 2b a7 15 40
       -0.9799028 1.2429864 0.75675154 2.3383281
000020 06 0b bb 3a 1c 16 cb 3f 39 62 fb 3d 4d 13 c5 3f
       0.0014270253 1.5866122 0.12274594 1.5396515
000030 28 62 b4 be 63 d9 b4 3f 2c e2 52 3e d4 ab 92 3f
       -0.35231137 1.4128841 0.2059409 1.1458688
000040 d8 10 2b be cc f0 8a 3f 1f 8e 22 bf 3f d7 87 3f
       -0.16705644 1.0854735 -0.6349811 1.0612563
000050 12 08 5e be 41 06 7c 3f 5f 2d 39 be e4 a9 93 3f
       -0.21682766 0.9844704 -0.18083714 1.1536222
000060 90 46 f5 3e 14 0b 71 3f 13 3f 37 3e e2 cb 62 3f
       0.47905397 0.9415753 0.17895155 0.8859235

1.0.mdl.input_to_hidden.0.direction f4 [100, 14]
000000 5d 6b 91 3e 0b 22 ec bc c5 31 3a ba 85 b6 8f 3c
       0.28402224 -0.028824827 -0.0007102753 0.017543087
000010 dc 18 c7 3d 99 19 13 3a 17 de b3 ba 51 51 dc 3c
       0.097215384 0.00056114193 -0.0013722804 0.026894243
000020 32 ca 10 bd 1a ca a9 3c f5 a7 5b bb 21 f1 7c bd
       -0.03534908 0.020726252 -0.0033516858 -0.061753396
000030 15 6f ad b8 2a da 77 3a a1 7d 51 bc dc 5b 16 be
       -8.2699735e-05 0.0009454811 -0.0127863 -0.14683479
000040 85 27 42 be 1a d3 83 bd 25 e9 fc ba 51 a4 01 bb
       -0.18960388 -0.06436749 -0.0019295557 -0.0019781778
000050 c0 a8 30 b9 f2 86 20 39 c1 47 be ba 11 a0 ec 3a
       -0.00016847532 0.0001530906 -0.0014517234 0.0018053075
000060 37 01 0b 3a 88 7e 34 ba ef e1 83 3a 37 c8 3c 3a
       0.000530261 -0.00068853097 0.001006184 0.0007201465
000070 a1 d1 c8 bb 9f b8 1d be e2 ac 8b bd 22 6c bc ba
       -0.0061285053 -0.15402459 -0.06820084 -0.0014375488
000080 1c 5f 3f 3a 22 16 fc 3a fc a4 e5 39 cb 0d ff 39
       0.0007300244 0.001923267 0.00043801207 0.00048647667
000090 8a 04 9f 39 f5 be 02 bb 64 7b 9d 38 6c ab ab 3a
       0.00030330225 -0.0019950245 7.509327e-05 0.0013097352
0000a0 df 8b a7 ba 1d db 96 39 f7 a2 25 be fe 07 cb be
       -0.0012782774 0.00028773482 -0.16175447 -0.39654535
0000b0 07 fa b1 3e 5f f9 aa ba b8 2c 18 bb 8e c7 03 3a
       0.34761068 -0.0013044289 -0.0023220014 0.00050269894
0000c0 bb 12 5d 3a ba f0 8c 3a bd 88 60 3a 8c c4 50 3a
       0.0008433272 0.0010752894 0.00085652975 0.0007963858
0000d0 6b c4 6a b8 34 48 bd ba d3 6b 19 ba d5 69 ba b9
       -5.5972876e-05 -0.0014441074 -0.0005852554 -0.00035555536
0000e0 ba 8b 8f be 05 20 31 ba c7 26 ab b9 7a eb 71 3a
       -0.2803629 -0.00067567854 -0.00032644553 0.0009228509
0000f0 98 34 81 b8 c6 3c 15 bb 39 cb e1 b6 cc fc 08 3b
       -6.160996e-05 -0.002277182 -6.7291808e-06 0.0020902632
000100 67 28 b9 b9 6e 50 9d b9 c9 0d a6 39 8a f9 2d ba
       -0.00035316052 -0.00030005298 0.00031672258 -0.00066366105
000110 d4 e8 e8 b9 65 ba 90 ba ce 55 05 bd dd 73 0f 3e
       -0.0004442396 -0.0011041878 -0.032552533 0.14009042
000120 5c d4 0b 3d da 5d 09 bd 5c 41 4f bb a1 4b 94 bc
       0.03413807 -0.03353677 -0.003162465 -0.018102469
000130 c5 f0 f0 ba 37 2c 9c 3e 4f d6 00 3b ed 21 4c b9
       -0.0018382302 0.30502483 0.0019658988 -0.00019467594
000140 01 75 d9 3a e8 7e 88 ba 3f 26 2f 3a e3 aa 89 b9
       0.0016590656 -0.0010413798 0.00066814193 -0.00026257997
000150 10 22 89 be 74 d3 e1 3e 66 90 28 bb 3d d2 1e 3a
       -0.267838 0.44106638 -0.0025720834 0.00060585496
000160 e0 56 3b 39 f7 8a 84 b9 61 79 b8 ba ab 43 0f ba
       0.00017866073 -0.0002528054 -0.001407426 -0.00054651004
000170 dc b6 5d ba fa 0d 97 b9 e9 14 bd ba 3e 3c 96 3a
       -0.0008457729 -0.00028811378 -0.0014425787 0.0011462045
000180 b3 0b 92 b9 b5 ec 39 b9 e2 d0 bb bd 5f 94 b1 bd
       -0.00027856007 -0.00017731155 -0.091707006 -0.08670878
000190 6a 0b 58 3e 10 4f 66 3e 1d 9c de bb ba a0 19 bd
       0.21098104 0.22491097 -0.0067935125 -0.037506796
0001a0 f5 38 ab 3c cb d2 45 3d 71 bd ef bd 52 ea f4 bd
       0.020901183 0.04829673 -0.11706055 -0.119587556
0001b0 c6 b9 85 3e 93 cb c6 39 38 88 58 38 32 18 88 38
       0.26118296 0.00037917178 5.1625277e-05 6.489492e-05
0001c0 c8 32 ac 3d 1a 9b d1 3d 18 06 4e be bc 72 96 be
       0.08408123 0.102346614 -0.20119512 -0.2938441
0001d0 ee 34 49 3b 84 5d fe bc 7b 2d b1 bc af ac 3d 3d
       0.0030701715 -0.031050451 -0.021628132 0.046307262
0001e0 d7 6c 09 3e 24 b3 88 3d 23 da 43 be 3e 8b fa b7
       0.13420425 0.06674793 -0.19126181 -2.9867162e-05
0001f0 1a 60 0c 3a 46 d3 e6 ba cf 94 21 bf 5a a5 14 bf
       0.00053548964 -0.0017610572 -0.6311769 -0.58064806
000200 97 92 77 bc 54 53 d7 ba 14 46 79 bd 3f 72 25 ba
       -0.015110633 -0.0016428032 -0.060857847 -0.00063112745
000210 96 6a 66 3a fe 34 70 39 b3 53 47 3a 97 f1 86 b8
       0.0008789686 0.00022907925 0.000760372 -6.4346175e-05
000220 7b dc 9c 3a 29 c8 d3 39 0b 64 a9 ba 9a 82 b1 39
       0.0011967564 0.00040394187 -0.0012923492 0.00033857377
000230 59 2f 98 be b6 85 89 bd c0 e1 18 be 69 ae 83 bb
       -0.29723623 -0.067149565 -0.14929867 -0.004018594
000240 c9 af 16 ba 7f bb 5c ba b6 44 b1 b9 27 1b 0d 3f
       -0.000574824 -0.0008420273 -0.00033811264 0.55119556
000250 03 11 d8 b9 46 78 74 39 c9 71 bf 39 a8 c3 02 bb
       -0.00041211405 0.00023314459 0.00036515135 -0.0019953046
000260 b8 f4 b6 ba 09 7a 9d 3a 5d 04 1a be b9 3d d8 3d
       -0.001395843 0.0012014519 -0.15040727 0.10558648
000270 fc 31 79 3d 35 fe 23 bc cf 1f 74 3d 64 a0 93 3a
       0.060838684 -0.010009338 0.059600648 0.001126301
000280 bc 68 41 3a 96 08 59 bd ca 3a a7 3c b9 fb 5d bc
       0.00073779724 -0.052986704 0.020413775 -0.013548785
000290 bc 82 40 3a 86 6c c9 3d d2 94 0d 3a 69 ff 20 ba
       0.00073436997 0.09835152 0.0005400899 -0.00061415747
0002a0 c6 3d 4e 3e 29 7a b1 3e c4 75 e7 3e 11 07 16 3e
       0.20140752 0.34663513 0.45207036 0.14651133
0002b0 b6 25 b7 3c 65 19 b4 bc d8 1d 63 3a f6 ee 3f 38
       0.02235685 -0.021984765 0.000866381 4.57605e-05
0002c0 58 7a 80 3a b2 0e e5 39 42 e9 b8 37 34 01 22 3a
       0.0009802086 0.00043689233 2.2043128e-05 0.0006179989
0002d0 c0 ef 88 3a 59 9a b7 ba f7 a9 95 3c 32 57 98 3c
       0.0010447428 -0.0014007791 0.018269522 0.018596265
0002e0 31 51 9b be eb fb 15 be 08 22 80 bb c5 d7 75 bd
       -0.30335382 -0.1464688 -0.003910307 -0.060020227
0002f0 79 04 3f be 9a 9a f4 bd 65 3a 1d be 90 e4 29 3d
       -0.1865405 -0.119435504 -0.15354307 0.04147774
000300 9e af c0 bd f1 0f 75 bb 8e bc 95 bd d8 01 dd 3a
       -0.09408496 -0.0037393535 -0.073113546 0.0016861511
000310 7d e7 a0 3d 8e 64 2f 3e 84 07 17 be 88 de bd bc
       0.07856653 0.17128202 -0.1474896 -0.0231774
000320 03 7e c4 3a e0 57 99 bc a7 fb 5a bc 46 58 fc b9
       0.0014991168 -0.01871866 -0.013365663 -0.00048130954
000330 8d 76 d6 3a 7d 68 86 ba 62 ee 84 3a b3 d2 a2 ba
       0.0016362235 -0.0010254529 0.0010141844 -0.0012422412
000340 ff 63 11 39 a4 a8 85 ba 1f 80 05 3f 69 81 ef 3e
       0.00013865529 -0.0010197354 0.5214862 0.4677842
000350 74 b0 d3 3d b2 58 3d 3c 3b 54 65 3d d9 f8 97 ba
       0.1033639 0.011556791 0.05598853 -0.0011594548
000360 e3 9a 03 b9 c8 11 95 bd 69 5f 73 3d b4 4c 4e bc
       -0.00012550833 -0.07278782 0.059417162 -0.01259153
000370 3e 2f d4 3b 39 c8 5a bc d5 a3 09 b9 aa 93 5b ba
       0.0064753583 -0.013353401 -0.0001312637 -0.00083761907
000380 16 ac 7f be e7 e8 d3 be 1d 2e d5 be 17 07 f3 bc
       -0.2496799 -0.41388628 -0.41636744 -0.029666467
000390 9d fd ca bc ef ab 81 bc 9a 32 64 bd 48 c2 96 3a
       -0.024779135 -0.015829055 -0.05571232 0.0011501992
0003a0 96 0b 8b ba 39 75 5d 39 3c 36 4b ba 4f 0c 4f bb
       -0.0010608311 0.00021119871 -0.0007751917 -0.003159303
0003b0 b6 82 02 b9 9b 0d d2 b8 d2 f7 33 bd 45 3a a7 be
       -0.0001244646 -0.000100161145 -0.04393751 -0.32661644
0003c0 38 7e 13 be 69 7d a0 bd 8d 29 30 3d 40 aa 10 3c
       -0.14403617 -0.0783642 0.043008376 0.008829653
0003d0 de 01 46 3d 06 83 43 bd 37 ea 1d be 9d cb ed ba
       0.048341624 -0.047732376 -0.15421377 -0.0018142347
0003e0 9c c1 d8 3a 9b ac f2 3a 1c d3 b8 ba 0e c5 af b8
       0.0016537192 0.0018514575 -0.0014101001 -8.3813546e-05
0003f0 86 de 96 3d b6 79 2a be 44 47 04 be d3 e6 8a 3a
       0.07366662 -0.16647992 -0.1291781 0.0010597355

1.0.mdl.input_to_hidden.0.mask f4 [100, 14]
000000 00 00 80 3f 00 00 80 3f 00 00 80 3f 00 00 80 3f
       1.0 1.0 1.0 1.0
000010 00 00 80 3f 00 00 80 3f 00 00 80 3f 00 00 80 3f
       1.0 1.0 1.0 1.0
000020 00 00 80 3f 00 00 80 3f 00 00 80 3f 00 00 80 3f
       1.0 1.0 1.0 1.0
000030 00 00 00 00 00 00 00 00 00 00 80 3f 00 00 80 3f
       0.0 0.0 1.0 1.0
000040 00 00 80 3f 00 00 80 3f 00 00 00 00 00 00 00 00
       1.0 1.0 0.0 0.0
000050 00 00 00 00 00 00 00 00 00 00 00 00 00 00 00 00
       0.0 0.0 0.0 0.0
000060 00 00 00 00 00 00 00 00 00 00 00 00 00 00 00 00
       0.0 0.0 0.0 0.0
000070 00 00 80 3f 00 00 80 3f 00 00 80 3f 00 00 80 3f
       1.0 1.0 1.0 1.0
000080 00 00 00 00 00 00 00 00 00 00 00 00 00 00 00 00
       0.0 0.0 0.0 0.0
000090 00 00 00 00 00 00 00 00 00 00 00 00 00 00 00 00
       0.0 0.0 0.0 0.0
0000a0 00 00 00 00 00 00 00 00 00 00 80 3f 00 00 80 3f
       0.0 0.0 1.0 1.0
0000b0 00 00 80 3f 00 00 00 00 00 00 00 00 00 00 00 00
       1.0 0.0 0.0 0.0
0000c0 00 00 00 00 00 00 00 00 00 00 00 00 00 00 00 00
       0.0 0.0 0.0 0.0
0000d0 00 00 00 00 00 00 00 00 00 00 00 00 00 00 00 00
       0.0 0.0 0.0 0.0
0000e0 00 00 80 3f 00 00 00 00 00 00 00 00 00 00 00 00
       1.0 0.0 0.0 0.0
0000f0 00 00 00 00 00 00 00 00 00 00 00 00 00 00 00 00
       0.0 0.0 0.0 0.0
000100 00 00 00 00 00 00 00 00 00 00 00 00 00 00 00 00
       0.0 0.0 0.0 0.0
000110 00 00 00 00 00 00 00 00 00 00 80 3f 00 00 80 3f
       0.0 0.0 1.0 1.0
000120 00 00 80 3f 00 00 80 3f 00 00 80 3f 00 00 80 3f
       1.0 1.0 1.0 1.0
000130 00 00 80 3f 00 00 80 3f 00 00 00 00 00 00 00 00
       1.0 1.0 0.0 0.0
000140 00 00 00 00 00 00 00 00 00 00 00 00 00 00 00 00
       0.0 0.0 0.0 0.0
000150 00 00 80 3f 00 00 80 3f 00 00 00 00 00 00 00 00
       1.0 1.0 0.0 0.0
000160 00 00 00 00 00 00 00 00 00 00 00 00 00 00 00 00
       0.0 0.0 0.0 0.0
000170 00 00 00 00 00 00 00 00 00 00 00 00 00 00 00 00
       0.0 0.0 0.0 0.0
000180 00 00 00 00 00 00 00 00 00 00 80 3f 00 00 80 3f
       0.0 0.0 1.0 1.0
000190 00 00 80 3f 00 00 80 3f 00 00 80 3f 00 00 80 3f
       1.0 1.0 1.0 1.0
0001a0 00 00 80 3f 00 00 80 3f 00 00 80 3f 00 00 80 3f
       1.0 1.0 1.0 1.0
0001b0 00 00 80 3f 00 00 00 00 00 00 00 00 00 00 00 00
       1.0 0.0 0.0 0.0
0001c0 00 00 80 3f 00 00 80 3f 00 00 80 3f 00 00 80 3f
       1.0 1.0 1.0 1.0
0001d0 00 00 80 3f 00 00 80 3f 00 00 80 3f 00 00 80 3f
       1.0 1.0 1.0 1.0
0001e0 00 00 80 3f 00 00 80 3f 00 00 80 3f 00 00 00 00
       1.0 1.0 1.0 0.0
0001f0 00 00 00 00 00 00 00 00 00 00 80 3f 00 00 80 3f
       0.0 0.0 1.0 1.0
000200 00 00 80 3f 00 00 80 3f 00 00 80 3f 00 00 80 3f
       1.0 1.0 1.0 1.0
000210 00 00 80 3f 00 00 00 00 00 00 00 00 00 00 00 00
       1.0 0.0 0.0 0.0
000220 00 00 00 00 00 00 00 00 00 00 00 00 00 00 00 00
       0.0 0.0 0.0 0.0
000230 00 00 80 3f 00 00 80 3f 00 00 80 3f 00 00 80 3f
       1.0 1.0 1.0 1.0
000240 00 00 80 3f 00 00 80 3f 00 00 80 3f 00 00 80 3f
       1.0 1.0 1.0 1.0
000250 00 00 00 00 00 00 00 00 00 00 00 00 00 00 00 00
       0.0 0.0 0.0 0.0
000260 00 00 00 00 00 00 00 00 00 00 80 3f 00 00 80 3f
       0.0 0.0 1.0 1.0
000270 00 00 80 3f 00 00 80 3f 00 00 80 3f 00 00 80 3f
       1.0 1.0 1.0 1.0
000280 00 00 80 3f 00 00 80 3f 00 00 80 3f 00 00 80 3f
       1.0 1.0 1.0 1.0
000290 00 00 80 3f 00 00 80 3f 00 00 00 00 00 00 00 00
       1.0 1.0 0.0 0.0
0002a0 00 00 80 3f 00 00 80 3f 00 00 80 3f 00 00 80 3f
       1.0 1.0 1.0 1.0
0002b0 00 00 80 3f 00 00 80 3f 00 00 00 00 00 00 00 00
       1.0 1.0 0.0 0.0
0002c0 00 00 00 00 00 00 00 00 00 00 00 00 00 00 00 00
       0.0 0.0 0.0 0.0
0002d0 00 00 00 00 00 00 00 00 00 00 80 3f 00 00 80 3f
       0.0 0.0 1.0 1.0
0002e0 00 00 80 3f 00 00 80 3f 00 00 80 3f 00 00 80 3f
       1.0 1.0 1.0 1.0
0002f0 00 00 80 3f 00 00 80 3f 00 00 80 3f 00 00 80 3f
       1.0 1.0 1.0 1.0
000300 00 00 80 3f 00 00 80 3f 00 00 80 3f 00 00 00 00
       1.0 1.0 1.0 0.0
000310 00 00 80 3f 00 00 80 3f 00 00 80 3f 00 00 80 3f
       1.0 1.0 1.0 1.0
000320 00 00 80 3f 00 00 80 3f 00 00 80 3f 00 00 00 00
       1.0 1.0 1.0 0.0
000330 00 00 00 00 00 00 00 00 00 00 00 00 00 00 00 00
       0.0 0.0 0.0 0.0
000340 00 00 00 00 00 00 00 00 00 00 80 3f 00 00 80 3f
       0.0 0.0 1.0 1.0
000350 00 00 80 3f 00 00 80 3f 00 00 80 3f 00 00 80 3f
       1.0 1.0 1.0 1.0
000360 00 00 80 3f 00 00 80 3f 00 00 80 3f 00 00 80 3f
       1.0 1.0 1.0 1.0
000370 00 00 80 3f 00 00 80 3f 00 00 00 00 00 00 00 00
       1.0 1.0 0.0 0.0
000380 00 00 80 3f 00 00 80 3f 00 00 80 3f 00 00 80 3f
       1.0 1.0 1.0 1.0
000390 00 00 80 3f 00 00 80 3f 00 00 80 3f 00 00 00 00
       1.0 1.0 1.0 0.0
0003a0 00 00 00 00 00 00 00 00 00 00 00 00 00 00 00 00
       0.0 0.0 0.0 0.0
0003b0 00 00 00 00 00 00 00 00 00 00 80 3f 00 00 80 3f
       0.0 0.0 1.0 1.0
0003c0 00 00 80 3f 00 00 80 3f 00 00 80 3f 00 00 80 3f
       1.0 1.0 1.0 1.0
0003d0 00 00 80 3f 00 00 80 3f 00 00 80 3f 00 00 00 00
       1.0 1.0 1.0 0.0
0003e0 00 00 00 00 00 00 00 00 00 00 00 00 00 00 00 00
       0.0 0.0 0.0 0.0
0003f0 00 00 80 3f 00 00 80 3f 00 00 80 3f 00 00 80 3f
       1.0 1.0 1.0 1.0

1.0.mdl.input_to_hidden.0.cscale.weight f4 [100, 1]
000000 3f 41 e1 ba b8 4d 62 3a ad 47 da 39 71 9f 89 3a
       -0.0017185583 0.0008632797 0.00041633603 0.0010499788
000010 52 a5 48 ba 42 39 9c 3a 4a 99 8d ba 49 61 81 ba
       -0.0007654029 0.001191892 -0.001080313 -0.0009870912
000020 9d e4 1e 39 b7 14 c8 b8 5c 12 31 ba f0 14 07 bb
       0.0001515322 -9.5406016e-05 -0.000675475 -0.0020611845
000030 c5 98 29 38 ed 7a 0c 3b 6d 70 d2 b9 83 06 d4 3a
       4.0435018e-05 0.0021435574 -0.00040138085 0.0016176257
000040 64 e3 ab b9 f4 72 92 ba ec d5 df b9 7e 66 97 b9
       -0.0003278508 -0.0011173175 -0.0004269326 -0.00028877327
000050 5d 24 ab ba 12 6d ae ba 59 eb 31 ba ce a9 18 3b
       -0.0013057102 -0.0013307652 -0.00067870837 0.002329457
000060 e5 d0 ea b9 6f 92 92 39 59 18 8c 3a b8 a5 b8 b9
       -0.00044787597 0.00027956392 0.0010688409 -0.00035218685
000070 6c ce 90 b9 6c 40 b2 3a e0 34 0b 3a ad d4 26 b9
       -0.00027619617 0.0013599521 0.0005310308 -0.00015910222
000080 23 29 a0 39 39 1f 65 39 79 4c 1d b9 ac 9d 24 bb
       0.00030548227 0.00021850773 -0.00015001175 -0.0025118394
000090 87 74 56 b9 8b 9e 07 3b aa f9 ae 39 2f 5f a8 ba
       -0.0002045204 0.0020693864 0.0003337388 -0.001284575
0000a0 7f 45 c3 39 76 b7 46 3a 04 36 b9 39 a5 b0 f2 39
       0.00037245077 0.00075804384 0.00035326194 0.00046289447
0000b0 2b f9 f8 3a d7 27 b5 3a 77 4e ba ba 42 2a 41 3a
       0.0018995156 0.0013821077 -0.0014214058 0.00073686626
0000c0 7a 3b 8c 3a 7e b8 4e 39 4e 63 3b 3a 27 e9 25 bb
       0.0010698878 0.0001971442 0.00071482814 -0.0025315972
0000d0 a3 4f b4 38 31 69 10 39 68 76 89 39 7e 6b 63 3a
       8.597902e-05 0.00013772097 0.00026218896 0.00086753804
0000e0 e8 ff 15 ba e2 9d 04 bb 83 c0 b5 ba 0f c8 f4 3a
       -0.0005722032 -0.0020235707 -0.0013866577 0.0018675345
0000f0 2c 1c b3 b9 f3 0c 6e 37 6f c5 57 39 bf 29 d1 ba
       -0.0003416253 1.418892e-05 0.00020577548 -0.0015957876
000100 74 a3 dd 3a a0 69 52 b9 95 3f 37 3a 00 2e 9d 39
       0.0016909675 -0.00020066509 0.00069903705 0.00029979646
000110 67 cc ff 39 fd 7a 27 ba bc 9d e3 b9 72 95 27 3a
       0.00048789682 -0.0006388871 -0.00043414335 0.00063928135
000120 5b 76 6e ba 2a 03 b4 3a cf 0e 85 b9 6e 06 53 3a
       -0.0009096616 0.0013733853 -0.0002537877 0.00080499693
000130 43 c8 48 3a 0c 76 46 3a d7 6e cc b9 62 6a da 39
       0.0007659236 0.0007570691 -0.00038992494 0.00041659462
000140 8c 1a ea 38 a5 7a a3 37 e9 19 e4 b8 b7 2c 9b b9
       0.00011162934 1.9488225e-05 -0.00010876713 -0.0002959722
000150 ee 2a cd 3a a5 43 63 3a 13 c9 3c ba 8f 16 0e bb
       0.0015653053 0.00086694426 -0.0007201593 -0.0021680926
000160 40 e8 d7 b9 b9 cd cc ba c5 fe ed 39 9d 76 08 b9
       -0.00041181035 -0.0015625275 0.0004539398 -0.00013014158
000170 eb 17 bf ba f5 b1 fd 39 9b 17 87 b9 4a 6a 0e 3b
       -0.0014579272 0.0004838851 -0.00025766794 0.0021730834
000180 9c 55 dc ba f9 03 ab 39 d2 0c 14 ba ca be 93 b9
       -0.0016810182 0.00032618621 -0.00056476623 -0.00028180174
