models/miniboone_e400_s1993_p0.0_h100_faffine_fl5_l1_dsdim16_dsl1_last_model.pt (torch_old, 562739 bytes, 73 tensors)

0.0.mdl.input_to_hidden.0.direction f4 [100, 43]
000000 1a d0 7b be 70 93 8e bd 1f ba 00 3e 60 64 65 bd
       -0.24591103 -0.06961715 0.12571 -0.05600393
000010 85 67 87 be 1c 56 b2 bd 51 6e b5 3e c2 fd 70 3d
       -0.26446167 -0.0870783 0.35435727 0.058835752
000020 13 aa f1 3d 72 9b 67 be a1 00 03 3e 11 b5 0d bc
       0.11800017 -0.22617891 0.12793209 -0.008649127
000030 b5 1b 37 bc 1d 4a 92 3c 0f 47 97 3d 2c 31 3f be
       -0.011176039 0.017857606 0.073866 -0.18671101
000040 3c fb 8c 39 8f 43 a6 3e a1 a7 65 3e 09 59 1b be
       0.00026890065 0.32473418 0.22427227 -0.15170683
000050 68 58 46 3c 34 19 05 3e 40 e1 a8 3d c8 6d bd 3d
       0.012106039 0.12997895 0.08246088 0.09249455
000060 80 5c 08 3e 32 ef 57 be 5f a4 48 be bc dd 29 be
       0.13316536 -0.2108734 -0.19593953 -0.16588491
000070 46 46 3c 3c d7 66 8b 3d ea 9f 9d 3d 97 22 c8 bd
       0.011491364 0.068067245 0.07696517 -0.097722225
000080 58 b5 9c bd 95 c6 0c 3d c6 e7 ce be 46 55 1a bf
       -0.07651776 0.03436907 -0.40411204 -0.60286367
000090 15 a5 56 3e ac 0a 94 3e 29 09 4b b8 98 40 c7 38
       0.20961411 0.28914392 -4.8407503e-05 9.501091e-05
0000a0 ae cc d0 ba f7 8d b8 39 4f 98 4a 3a 2b 73 db bd
       -0.001593014 0.00035200987 0.0007728384 -0.10715326
0000b0 d9 47 b6 3b b7 fd b4 3c 8f 25 38 bc b8 87 a4 3d
       0.005562764 0.022093637 -0.011239423 0.08033699
0000c0 53 0e 0a bd d6 49 a2 3d 10 3c 02 3e e3 74 f8 bd
       -0.033705067 0.07924239 0.12718225 -0.12131669
0000d0 be 00 af bc d5 5f ed 3d a2 9b 35 3d bd 28 1d bc
       -0.021362659 0.11590544 0.044337876 -0.009592232
0000e0 d0 fe b1 bd f5 99 41 be e6 74 b4 3d 6d 7e 1e 3d
       -0.0869118 -0.18906386 0.08811359 0.038694788
0000f0 1d 66 24 3e 11 c5 43 be 44 5f c2 3d fd 22 25 3d
       0.16054578 -0.19118144 0.09490827 0.04031657
000100 31 ce 15 3e 90 a9 b0 be 3c 8e 6c be d8 c2 30 be
       0.14629437 -0.34504366 -0.23101133 -0.17261827
000110 d3 ed 69 be d7 c5 34 bb 61 29 07 3d bc 39 6e 3a
       -0.22844629 -0.0027583742 0.032998446 0.00090875826
000120 cb 57 0c 3e 7a 18 96 3e b7 d9 51 39 f9 61 b7 38
       0.13705365 0.2931555 0.00020012898 8.744369e-05
000130 ec 9b f6 b8 fe f6 dc 39 fd a5 58 39 e2 06 3d b8
       -0.00011759237 0.00042145693 0.000206612 -4.506752e-05
000140 9a e6 9a 39 00 18 e4 39 54 a5 c4 39 5d ee 10 3a
       0.0002954498 0.0004350543 0.00037507212 0.0005528683
000150 99 2d 0f 39 77 22 a8 3a 5b d6 ac 3d 73 11 c7 bc
       0.00013654529 0.0012827654 0.084393226 -0.024300313
000160 42 7b 80 bd e4 4d ab bd 20 24 3c bd 40 c1 16 bd
       -0.062735096 -0.08364466 -0.04593289 -0.03680539
000170 6b cf 9d 3d ae 09 0f be 80 cc b5 38 27 ed 08 3e
       0.077055775 -0.13968536 8.668844e-05 0.13371716
000180 2d 87 8e bd bc b3 8a bd 7b 49 c4 3d f7 d0 bc 3d
       -0.069593765 -0.06772563 0.09584328 0.092195444
000190 34 fe 6b bd 57 88 07 be 13 8d 11 bd 28 a9 19 bd
       -0.057615474 -0.13235603 -0.03553493 -0.037514836
0001a0 21 5d 25 3d 30 24 ee 3c 40 cd 5f be ac d6 55 bd
       0.040372018 0.02906999 -0.2185564 -0.05220668
0001b0 1a 53 01 3f 43 e5 82 3e 39 d2 93 3d ff e2 70 bd
       0.5051743 0.25565538 0.07217831 -0.05881023
0001c0 f2 0e 71 3e a8 e5 b9 be 78 c6 42 3d 73 1f 61 3e
       0.23540857 -0.36308026 0.047552556 0.21984653
0001d0 87 33 34 be 7e 8b 41 be a4 97 40 3d 45 26 6b 3e
       -0.17597781 -0.18900868 0.047019616 0.22963817
0001e0 f7 09 d0 be 03 06 b5 bd e7 f1 3f bd e5 0f 9f 3a
       -0.40632603 -0.08839037 -0.046861555 0.0012135474
0001f0 a5 87 5e 3a 75 d8 0b bb b3 1d 40 ba a7 97 79 3a
       0.00084888405 -0.0021338735 -0.0007328644 0.0009521194
000200 8c 21 4d 3a f8 95 79 3e 5e 05 97 be 62 e1 f0 3d
       0.0007825128 0.24373615 -0.29496282 0.11761738
000210 0b f2 9a 3e ab 4b a0 3e 88 0a bc 3d 33 a9 05 3f
       0.3026279 0.3130773 0.09181696 0.522113
000220 a2 7e de be 22 92 17 be 34 12 f2 bd 64 03 36 bf
       -0.43455988 -0.14801839 -0.11819878 -0.71098924
000230 05 c6 1a bd a6 79 16 3f da 76 83 3f b3 3d 8a 3a
       -0.037786502 0.5877937 1.0270646 0.0010546952
000240 15 6b 9f 3a d4 c6 b7 37 be 5b ba 39 15 92 4e 3a
       0.001216265 2.1907887e-05 0.00035545038 0.0007880044
000250 55 20 31 ba ee 53 ab 38 a0 68 4a 3a 4d ae fc b8
       -0.0006756832 8.1695485e-05 0.0007721279 -0.000120487624
000260 86 bd c7 39 c7 b1 0e b9 90 21 f3 b9 fb 09 2b 3a
       0.00038097444 -0.00013608403 -0.00046373578 0.00065246195
000270 ad 51 4a 3a 70 7d 88 3a 82 2a da 3a f8 3a f1 ba
       0.0007717859 0.001041336 0.0016644748 -0.0018404415
000280 5f 28 a6 b9 53 10 32 b9 7c 38 6d b9 79 b7 a3 39
       -0.00031692066 -0.00016981484 -0.00022623123 0.0003122648
000290 79 c0 04 b9 97 a5 41 3a 75 42 e8 39 89 e7 8d ba
       -0.00012660203 0.00073870405 0.00044300003 -0.0010826449
0002a0 bf f6 99 3a 2b 9a 82 3a 53 e4 8a ba ef 43 b8 3a
       0.001174651 0.0009964159 -0.001059661 0.0014058332
0002b0 a7 84 23 be 5d 3d 54 3e 45 5b b6 b7 d4 a5 82 3d
       -0.15968572 0.20726533 -2.1738591e-05 0.063792855
0002c0 60 2b 43 be 19 5c b9 ba 9f 00 27 bc 5b 81 85 be
       -0.19059515 -0.0014141827 -0.010193019 -0.26075253
0002d0 4c 34 3b ba c8 b5 27 b9 d3 ee aa 39 52 60 43 3a
       -0.0007141277 -0.0001599408 0.00032602865 0.00074530125
0002e0 be c9 8d ba aa 69 55 b9 20 81 6e 3a 96 14 92 3a
       -0.001081757 -0.00020352626 0.00090982206 0.0011145051
0002f0 a2 9a 6e ba e1 c5 a8 b9 25 13 55 ba 37 f6 34 ba
       -0.00091020216 -0.00032190888 -0.0008128158 -0.0006903144
000300 3c 82 69 ba e5 35 13 3a e6 f8 b2 ba 5b e1 c9 39
       -0.0008907651 0.0005615636 -0.00136545 0.0003850561
000310 c5 31 4a 38 7c 73 0d ba 25 f2 4b ba 76 b7 0d 3a
       4.8206904e-05 -0.00053959317 -0.0007779918 0.0005406061
000320 f8 aa d6 39 bd 85 53 ba 72 c3 25 b9 1f 62 e5 39
       0.00040944642 -0.000806894 -0.00015808435 0.0004375139
000330 89 b1 c7 38 26 d2 0a 38 21 fa 15 ba b0 f3 db 3a
       9.522128e-05 3.309748e-05 -0.0005721171 0.0016780999
000340 0a bc 52 3a f8 70 b8 3a 4d 12 9f 3a 6c 0f 57 38
       0.0008038884 0.0014071753 0.0012136191 5.1274357e-05
000350 20 d1 f1 ba 76 8e de 3a 49 fc 99 ba d1 22 a6 be
       -0.0018449165 0.0016979713 -0.001174816 -0.32448438
000360 c7 31 68 be 8b 7b 1e 3e 4d 20 3e 3e 0b 13 42 be
       -0.22675239 0.15476815 0.1856701 -0.18952577
000370 9b 8c 9d bd 74 94 f2 be 04 65 9b be ac 29 82 3e
       -0.07692834 -0.47378886 -0.30350506 0.25422418
000380 0c 7c b1 3d 64 dd 03 bb 85 af 00 3e 94 86 ad be
       0.08666238 -0.0020120973 0.12566955 -0.33891737
000390 be b7 a9 be 9b f4 68 be 11 8d 9b bf 65 31 2f be
       -0.33147997 -0.2274956 -1.2152425 -0.17108686
0003a0 fc 86 98 3d 46 2c 19 be 2b 37 07 be f2 31 a4 3e
       0.07447621 -0.14958295 -0.13204639 0.32069355
0003b0 98 d1 9f 3e 8b e6 fe 3d 2b 66 70 be 50 83 90 3e
       0.31214595 0.12446316 -0.23476474 0.28225183
0003c0 bd b6 76 3e 40 94 19 3e e7 a1 15 3f 70 5e c0 ba
       0.24093147 0.14997959 0.5845017 -0.0014676582
0003d0 2a 02 32 38 b9 aa cd ba 3e 63 25 3a db 91 b7 b9
       4.2440523e-05 -0.0015691138 0.0006309039 -0.0003501315
0003e0 ab 35 9a 3a 1a ff 8f ba d8 37 50 b9 08 71 73 3a
       0.0011765262 -0.001098606 -0.00019857229 0.00092865573
0003f0 39 a5 93 ba 0c a9 af 3a a6 c9 10 3a 47 66 62 ba
       -0.001126445 0.001340182 0.0005523212 -0.00086364563

0.0.mdl.input_to_hidden.0.mask f4 [100, 43]
000000 00 00 80 3f 00 00 80 3f 00 00 80 3f 00 00 80 3f
       1.0 1.0 1.0 1.0
000010 00 00 80 3f 00 00 80 3f 00 00 80 3f 00 00 80 3f
       1.0 1.0 1.0 1.0
000020 00 00 80 3f 00 00 80 3f 00 00 80 3f 00 00 80 3f
       1.0 1.0 1.0 1.0
000030 00 00 80 3f 00 00 80 3f 00 00 80 3f 00 00 80 3f
       1.0 1.0 1.0 1.0
000040 00 00 80 3f 00 00 80 3f 00 00 80 3f 00 00 80 3f
       1.0 1.0 1.0 1.0
000050 00 00 80 3f 00 00 80 3f 00 00 80 3f 00 00 80 3f
       1.0 1.0 1.0 1.0
000060 00 00 80 3f 00 00 80 3f 00 00 80 3f 00 00 80 3f
       1.0 1.0 1.0 1.0
000070 00 00 80 3f 00 00 80 3f 00 00 80 3f 00 00 80 3f
       1.0 1.0 1.0 1.0
000080 00 00 80 3f 00 00 80 3f 00 00 80 3f 00 00 80 3f
       1.0 1.0 1.0 1.0
000090 00 00 80 3f 00 00 80 3f 00 00 00 00 00 00 00 00
       1.0 1.0 0.0 0.0
0000a0 00 00 00 00 00 00 00 00 00 00 00 00 00 00 80 3f
       0.0 0.0 0.0 1.0
0000b0 00 00 80 3f 00 00 80 3f 00 00 80 3f 00 00 80 3f
       1.0 1.0 1.0 1.0
0000c0 00 00 80 3f 00 00 80 3f 00 00 80 3f 00 00 80 3f
       1.0 1.0 1.0 1.0
0000d0 00 00 80 3f 00 00 80 3f 00 00 80 3f 00 00 80 3f
       1.0 1.0 1.0 1.0
0000e0 00 00 80 3f 00 00 80 3f 00 00 80 3f 00 00 80 3f
       1.0 1.0 1.0 1.0
0000f0 00 00 80 3f 00 00 80 3f 00 00 80 3f 00 00 80 3f
       1.0 1.0 1.0 1.0
000100 00 00 80 3f 00 00 80 3f 00 00 80 3f 00 00 80 3f
       1.0 1.0 1.0 1.0
000110 00 00 80 3f 00 00 80 3f 00 00 80 3f 00 00 80 3f
       1.0 1.0 1.0 1.0
000120 00 00 80 3f 00 00 80 3f 00 00 00 00 00 00 00 00
       1.0 1.0 0.0 0.0
000130 00 00 00 00 00 00 00 00 00 00 00 00 00 00 00 00
       0.0 0.0 0.0 0.0
000140 00 00 00 00 00 00 00 00 00 00 00 00 00 00 00 00
       0.0 0.0 0.0 0.0
000150 00 00 00 00 00 00 00 00 00 00 80 3f 00 00 80 3f
       0.0 0.0 1.0 1.0
000160 00 00 80 3f 00 00 80 3f 00 00 80 3f 00 00 80 3f
       1.0 1.0 1.0 1.0
000170 00 00 80 3f 00 00 80 3f 00 00 80 3f 00 00 80 3f
       1.0 1.0 1.0 1.0
000180 00 00 80 3f 00 00 80 3f 00 00 80 3f 00 00 80 3f
       1.0 1.0 1.0 1.0
000190 00 00 80 3f 00 00 80 3f 00 00 80 3f 00 00 80 3f
       1.0 1.0 1.0 1.0
0001a0 00 00 80 3f 00 00 80 3f 00 00 80 3f 00 00 80 3f
       1.0 1.0 1.0 1.0
0001b0 00 00 80 3f 00 00 80 3f 00 00 80 3f 00 00 80 3f
       1.0 1.0 1.0 1.0
0001c0 00 00 80 3f 00 00 80 3f 00 00 80 3f 00 00 80 3f
       1.0 1.0 1.0 1.0
0001d0 00 00 80 3f 00 00 80 3f 00 00 80 3f 00 00 80 3f
       1.0 1.0 1.0 1.0
0001e0 00 00 80 3f 00 00 80 3f 00 00 80 3f 00 00 00 00
       1.0 1.0 1.0 0.0
0001f0 00 00 00 00 00 00 00 00 00 00 00 00 00 00 00 00
       0.0 0.0 0.0 0.0
000200 00 00 00 00 00 00 80 3f 00 00 80 3f 00 00 80 3f
       0.0 1.0 1.0 1.0
000210 00 00 80 3f 00 00 80 3f 00 00 80 3f 00 00 80 3f
       1.0 1.0 1.0 1.0
000220 00 00 80 3f 00 00 80 3f 00 00 80 3f 00 00 80 3f
       1.0 1.0 1.0 1.0
000230 00 00 80 3f 00 00 80 3f 00 00 80 3f 00 00 00 00
       1.0 1.0 1.0 0.0
000240 00 00 00 00 00 00 00 00 00 00 00 00 00 00 00 00
       0.0 0.0 0.0 0.0
000250 00 00 00 00 00 00 00 00 00 00 00 00 00 00 00 00
       0.0 0.0 0.0 0.0
000260 00 00 00 00 00 00 00 00 00 00 00 00 00 00 00 00
       0.0 0.0 0.0 0.0
000270 00 00 00 00 00 00 00 00 00 00 00 00 00 00 00 00
       0.0 0.0 0.0 0.0
000280 00 00 00 00 00 00 00 00 00 00 00 00 00 00 00 00
       0.0 0.0 0.0 0.0
000290 00 00 00 00 00 00 00 00 00 00 00 00 00 00 00 00
       0.0 0.0 0.0 0.0
0002a0 00 00 00 00 00 00 00 00 00 00 00 00 00 00 00 00
       0.0 0.0 0.0 0.0
0002b0 00 00 80 3f 00 00 80 3f 00 00 80 3f 00 00 80 3f
       1.0 1.0 1.0 1.0
0002c0 00 00 80 3f 00 00 80 3f 00 00 80 3f 00 00 80 3f
       1.0 1.0 1.0 1.0
0002d0 00 00 00 00 00 00 00 00 00 00 00 00 00 00 00 00
       0.0 0.0 0.0 0.0
0002e0 00 00 00 00 00 00 00 00 00 00 00 00 00 00 00 00
       0.0 0.0 0.0 0.0
0002f0 00 00 00 00 00 00 00 00 00 00 00 00 00 00 00 00
       0.0 0.0 0.0 0.0
000300 00 00 00 00 00 00 00 00 00 00 00 00 00 00 00 00
       0.0 0.0 0.0 0.0
000310 00 00 00 00 00 00 00 00 00 00 00 00 00 00 00 00
       0.0 0.0 0.0 0.0
000320 00 00 00 00 00 00 00 00 00 00 00 00 00 00 00 00
       0.0 0.0 0.0 0.0
000330 00 00 00 00 00 00 00 00 00 00 00 00 00 00 00 00
       0.0 0.0 0.0 0.0
000340 00 00 00 00 00 00 00 00 00 00 00 00 00 00 00 00
       0.0 0.0 0.0 0.0
000350 00 00 00 00 00 00 00 00 00 00 00 00 00 00 80 3f
       0.0 0.0 0.0 1.0
000360 00 00 80 3f 00 00 80 3f 00 00 80 3f 00 00 80 3f
       1.0 1.0 1.0 1.0
000370 00 00 80 3f 00 00 80 3f 00 00 80 3f 00 00 80 3f
       1.0 1.0 1.0 1.0
000380 00 00 80 3f 00 00 80 3f 00 00 80 3f 00 00 80 3f
       1.0 1.0 1.0 1.0
000390 00 00 80 3f 00 00 80 3f 00 00 80 3f 00 00 80 3f
       1.0 1.0 1.0 1.0
0003a0 00 00 80 3f 00 00 80 3f 00 00 80 3f 00 00 80 3f
       1.0 1.0 1.0 1.0
0003b0 00 00 80 3f 00 00 80 3f 00 00 80 3f 00 00 80 3f
       1.0 1.0 1.0 1.0
0003c0 00 00 80 3f 00 00 80 3f 00 00 80 3f 00 00 00 00
       1.0 1.0 1.0 0.0
0003d0 00 00 00 00 00 00 00 00 00 00 00 00 00 00 00 00
       0.0 0.0 0.0 0.0
0003e0 00 00 00 00 00 00 00 00 00 00 00 00 00 00 00 00
       0.0 0.0 0.0 0.0
0003f0 00 00 00 00 00 00 00 00 00 00 00 00 00 00 00 00
       0.0 0.0 0.0 0.0

0.0.mdl.input_to_hidden.0.cscale.weight f4 [100, 1]
000000 fe 5f 26 ba 15 84 a3 ba 90 1a 81 39 40 ef 58 39
       -0.00063467014 -0.0012475277 0.00024624588 0.00020688493
000010 c2 01 94 3a 25 7b 3c b9 8d 41 3c b8 bb 7c dd 3a
       0.0011292028 -0.00017974952 -4.488374e-05 0.0016898134
000020 55 f4 eb 3a 6d 99 c1 3a 4d f3 74 b9 45 be e7 39
       0.0018001894 0.0014770456 -0.0002336029 0.00044201515
000030 60 cc 3a b8 4d a0 3b 3a 84 d1 a4 39 18 91 6b 3a
       -4.4536195e-05 0.00071573706 0.0003143662 0.0008986159
000040 97 ae f8 b9 dd 5f a8 39 8b 5c df b9 dc 0a 90 3a
       -0.00047432326 0.0003211488 -0.00042602824 0.0010989564
000050 f4 d7 bd 39 8f 38 04 3b 6d 45 df 38 83 b2 40 3a
       0.00036209787 0.0020175313 0.000106464 0.0007350819
000060 af bb 87 b8 d1 c5 5b 3a 50 31 da 39 02 b0 bb 38
       -6.4722604e-05 0.0008383664 0.0004161694 8.949639e-05
000070 a9 22 bc 3a 5a 59 aa 39 1c e3 41 3a 0e 5f a5 3a
       0.0014353591 0.000324915 0.00073962077 0.001261683
000080 25 77 45 b9 72 af 9b 3a 38 7e 02 3a 9c 49 94 ba
       -0.00018831769 0.0011877848 0.00049779145 -0.0011313441
000090 95 69 32 b9 9a 4d 2f 3a 28 40 03 3b 2f 90 78 ba
       -0.00017014735 0.0006687284 0.0020027254 -0.0009481934
0000a0 30 c3 12 3b e4 60 94 3a 94 5c 2f ba 08 5f 9e 39
       0.0022394173 0.001132038 -0.00066895154 0.00030206912
0000b0 c8 d0 c5 ba c2 fe 40 3a 77 1a 3c bb bf 01 96 b8
       -0.0015092129 0.00073621806 -0.0028702298 -7.1528826e-05
0000c0 81 94 cb 39 8d 31 c9 b7 83 6f 4d ba 88 f9 bc ba
       0.0003882982 -2.3984141e-05 -0.0007836746 -0.0014417628
0000d0 a1 5b cd b9 ce bf 87 ba e5 5d 1b bb e4 39 13 bb
       -0.00039168916 -0.0010356845 -0.0023707089 -0.0022464925
0000e0 80 9f 67 3a 5f 66 0a 3b 80 01 15 3a 92 44 36 39
       0.0008835718 0.0021118147 0.00056841224 0.00017382417
0000f0 45 d5 76 39 9a 6c 61 ba 3a b5 b7 ba d0 e2 ee 3a
       0.00023539837 -0.0008599252 -0.0014015802 0.0018225554
000100 14 3a 0b 3a 2f 16 7e 39 45 1e 74 ba 94 99 26 39
       0.00053110835 0.00024231592 -0.0009312372 0.00015888206
000110 86 f1 33 ba 29 fd 8d 3a 97 93 c5 3a 8b 21 40 3a
       -0.0006864298 0.0010832894 0.0015073892 0.0007329217
000120 b3 37 99 ba df a1 b9 ba c7 5b 96 3a 4a c7 a7 ba
       -0.0011689573 -0.0014162621 0.0011471444 -0.0012800482
000130 ed 2b 27 3a 43 65 8b ba a6 35 36 3a c5 64 2c ba
       0.000637709 -0.0010635037 0.0006950743 -0.0006576295
000140 bc 35 d9 37 38 36 52 ba 76 01 c5 38 d2 50 1a ba
       2.5893438e-05 -0.00080189435 9.393964e-05 -0.0005886677
000150 ac 5e 7f 3a 91 ca 33 b9 f6 cb 93 b9 74 f1 26 ba
       0.0009741585 -0.00017146232 -0.00028189988 -0.0006368377
000160 7b 11 c4 3a 50 ec 38 3a 0b bb a9 b9 3a f4 00 3a
       0.0014958823 0.0007054256 -0.0003237355 0.0004919205
000170 62 fd cf 39 fa 64 db 39 d6 62 e1 b9 6a b8 04 ba
       0.00039670902 0.00041846168 -0.00042988983 -0.000506288
000180 80 84 1d bb 43 52 9f b9 b8 2b ee 39 50 18 64 ba
       -0.0024035275 -0.00030388133 0.0004542747 -0.00087011326

0.0.mdl.input_to_hidden.0.cscale.bias f4 [100]
000000 ad c7 89 bf f0 2c a7 3e 3e 4e 70 3f 47 b0 ad bf
       -1.0764061 0.32651472 0.9386939 -1.356942
000010 11 0e 8f 3f 52 52 7d 3f e5 d3 53 3f 2a f6 d7 bf
       1.1176168 0.98953736 0.827452 -1.6871998
000020 17 64 c7 bf 3d 07 c3 3f d2 3c b3 3f bf 2b 84 bf
       -1.557742 1.5236584 1.4002936 -1.032585
000030 c0 77 3b 3f 82 e9 d3 3f d2 3d a8 bf 45 96 2f bf
       0.732296 1.6555636 -1.3143866 -0.6858867
000040 fe f9 8b bf 98 6b d4 bf bd 12 55 bf 0c ac 8e bf
       -1.0935667 -1.6595335 -0.8323172 -1.1146255
000050 ef aa c8 bf 02 47 a0 3f 37 6d 98 bf 1d 8e 82 bf
       -1.5677165 1.252167 -1.190833 -1.019962
000060 1b 50 9c bf 7d 77 83 bf 1c f1 7e 3f 8b 3b 8a 3f
       -1.2211946 -1.027084 0.99586654 1.0799421
000070 bb f6 82 bf b0 05 a0 bf 76 eb 51 bf bb 61 97 bf
       -1.0231546 -1.2501736 -0.8199991 -1.18267
000080 11 6c 65 bf c8 1a 06 3f b9 77 a7 3f d6 6b fd be
       -0.8961802 0.52384615 1.3083411 -0.49496335
000090 7b 34 98 bf ed b8 82 3f 62 19 b1 bf 31 6e a0 bf
       -1.1891016 1.0212685 -1.3835871 -1.2533628
0000a0 6d c9 82 bf 70 60 d1 bf 45 6d 8d bf 55 24 39 bf
       -1.021772 -1.6357555 -1.1048971 -0.72321063
0000b0 fa 31 fb bf 4a 13 70 3f de c0 c0 3f 55 0f cf bf
       -1.9624627 0.9377943 1.5058858 -1.6176554
0000c0 e3 8e 97 bf b4 fd 59 3f 46 37 78 bf f8 5c 8f 3f
       -1.184048 0.85152745 -0.9695934 1.1200247
0000d0 0d 00 b8 bf bc 89 b3 bf 49 46 96 bf 24 46 c7 3f
       -1.4375015 -1.4026408 -1.1740199 1.556828
0000e0 ac 87 9b bf ce f8 94 3f 66 b3 d9 3f 1e 74 ab bf
       -1.2150779 1.1638429 1.7007873 -1.3394811
0000f0 e4 3f d5 be 12 8c 86 be 1c 5d 40 3f 46 b0 ad bf
       -0.41650307 -0.2627874 0.75142074 -1.3569419
000100 ea fb 8c bf 83 fe 83 3f e0 ae bb 3f 8a 62 d1 be
       -1.1014378 1.0312046 1.4662743 -0.40895492
000110 11 98 e1 3f ca 56 ae 3f 73 71 b7 3f c1 af b4 3f
       1.7624532 1.3620236 1.4331497 1.4116136
000120 79 aa b9 3f cf 51 04 3f fa 3c bc 3f 12 50 d5 bf
       1.4505149 0.5168733 1.4706109 -1.666506
000130 68 a8 7e bf 01 99 dd 3f 6d b0 bf bf 9c 4e 86 bf
       -0.9947572 1.7312318 -1.4975716 -1.049274
000140 42 b9 f1 bf ad 18 d4 bf c1 c1 ac 3f 00 ac c4 3f
       -1.8884661 -1.657003 1.3496629 1.536499
000150 a7 2b 88 bf e8 22 ab bf bd 39 b2 3f 95 39 7a be
       -1.0638322 -1.3370028 1.392387 -0.24436028
000160 7f 54 9e 3f d0 fa 3f 3f d2 fa 83 3f 28 f7 b7 bf
       1.2369536 0.74992085 1.0310919 -1.4372301
000170 2b c0 c5 3f 79 01 57 3f bb 2b 7d 3f eb 03 97 bf
       1.544927 0.8398662 0.9889485 -1.1798071
000180 46 b2 b5 3f c8 1f 90 3f 61 11 c4 3f dc a3 a1 bf
       1.419503 1.1259699 1.5317804 -1.2628131

0.0.mdl.input_to_hidden.0.cbias.weight f4 [100, 1]
000000 3b 3d 45 ba 51 ac 16 3b 66 3f b6 ba 0b a0 11 3a
       -0.00075240777 0.0022990892 -0.0013904392 0.00055551593
000010 65 3b 01 ba cd 47 e0 b9 7d 6c 49 ba 9f e8 46 ba
       -0.000492981 -0.00042778105 -0.00076837075 -0.0007587764
000020 f1 22 92 ba 19 33 88 3a 4e de 20 bb 21 bf 5d 39
       -0.0011149329 0.0010391205 -0.0024546566 0.00021147403
000030 62 fb a4 3a fc 5c 3c 3a aa 20 35 ba b4 48 a2 3a
       0.0012587125 0.00071854866 -0.00069094694 0.0012381286
000040 80 06 34 ba 25 a7 01 39 da 44 a6 ba 7d 0c 43 ba
       -0.00068674237 0.00012364665 -0.0012685314 -0.00074405206
000050 5d a2 2e 39 8b 4b e2 3a 38 32 8e b9 58 8a 52 39
       0.00016654418 0.0017264945 -0.00027121766 0.00020078698
000060 b2 df c4 b9 9b 3f 65 3a 84 cf 78 3a 77 d6 96 38
       -0.000375507 0.00087451347 0.00094913715 7.1925046e-05
000070 bb 4b 4f ba 31 7c d2 ba 0d 58 19 3a 56 17 08 ba
       -0.0007907708 -0.001605874 0.00058496074 -0.00051914656
000080 63 ef 2b 39 66 07 79 ba 4d 87 0c ba de b2 66 ba
       0.0001639701 -0.00094996986 -0.00053607376 -0.0008800457
000090 8f ca be 3a 92 7e ac 3a ff e7 02 bb c3 7d 8d ba
       0.0014556217 0.001316028 -0.0019974706 -0.0010794926
0000a0 c0 c6 5a 3a 05 9f 8a ba 29 a4 5f b9 13 7f 89 b8
       0.0008345656 -0.0010575956 -0.00021328092 -6.5563385e-05
0000b0 b6 1f 95 3a e9 f3 68 ba b9 37 67 39 2b d2 5c 3a
       0.0011377248 -0.0008886443 0.00022050635 0.00084236515
0000c0 3c 3c 4b 39 2f 01 b6 3a 5e 4d 75 ba 44 3b 8e ba
       0.00019382028 0.0013885851 -0.0009357537 -0.0010851403
0000d0 1c cd 00 3b b6 10 ef b9 58 3a 3a 3a 6c 0b b9 3a
       0.0019653505 -0.00045598083 0.0007104031 0.0014117784
0000e0 29 fa c6 39 04 39 73 ba 9d bc c6 b9 71 1e 0f 3a
       0.00037951887 -0.00092782103 -0.0003790603 0.0005459553
0000f0 45 af 04 ba 2d 29 38 b9 4c 5a 2a b6 f0 2d 53 3a
       -0.00050615176 -0.00017562947 -2.5384534e-06 0.00080558565
000100 72 95 ff b9 b1 68 18 3a 0d df 25 3a b0 3b 8f 3a
       -0.00048748736 0.000581394 0.00063274876 0.0010927822
000110 a8 d7 8e 3a 20 05 7e b8 f9 6f 02 3b b6 45 be 38
       0.0010898011 -6.0563092e-05 0.0019903167 9.072891e-05
000120 89 a9 7f ba 48 d3 af 3a cd ea ca ba c4 18 af 3a
       -0.0009752741 0.0013414407 -0.0015481353 0.0013358821
000130 a5 ed 6b 3a f0 57 17 39 08 a2 0e bb 59 1c b5 b8
       0.00089999504 0.00014433241 -0.0021764059 -8.636033e-05
000140 fe 12 a7 39 05 ba 8f 39 b7 f0 d2 b9 d6 2b 71 ba
       0.00031866872 0.0002741368 -0.00040233668 -0.00091999525
000150 ec 26 7a ba c3 34 0b 3a c0 90 4e b9 a1 ab 21 bb
       -0.0009542543 0.00053102913 -0.00019699614 -0.002466895
000160 ab 2c d6 3a e5 8a bb b9 aa 78 4a 3a 5e 62 13 ba
       0.0016340216 -0.00035770904 0.0007723669 -0.0005622263
000170 fc 07 a9 b9 ee b9 65 38 b0 f9 e8 3a cc 64 90 39
       -0.0003224014 5.4771015e-05 0.0017774608 0.0002754092
000180 28 98 02 3b 90 fe f4 b8 85 c1 30 39 9a 48 a2 3a
       0.0019927118 -0.000116822426 0.0001685676 0.0012381256

0.0.mdl.input_to_hidden.0.cbias.bias f4 [100]
000000 2c 04 03 bf 61 5d c4 3f 4f a0 bd bf 38 30 03 3f
       -0.5117824 1.5340997 -1.4814547 0.5124545
000010 86 8d cc bf b5 03 2f 3f ec c1 16 bf 0c d7 1e 3f
       -1.598069 0.6836503 -0.5888965 0.62046885
000020 37 a5 1d 3f 7f 1c f9 be 35 b7 b7 3e 79 05 16 3e
       0.6158022 -0.48654553 0.35881963 0.14650525
000030 37 93 9c bf 72 60 8a bf f8 b3 11 3f 83 27 83 bf
       -1.2232426 -1.0810683 0.56915236 -1.0246433
000040 e0 6a b0 bf 24 21 1d 3f 9f f7 15 3e 7c 30 38 be
       -1.3782616 0.61378694 0.14645241 -0.17987245
000050 e5 f6 99 bf 58 e0 29 bf fd ab a5 3e d0 4e c6 bf
       -1.2028471 -0.66357946 0.3235778 -1.5492802
000060 39 11 8c bf 2c 5a 92 bf 73 85 9a 3f 19 73 b6 3f
       -1.0942756 -1.1433768 1.2071975 1.4253875
000070 6c c0 b2 bf 21 12 2a 3f e4 bc 04 bf 6d 93 47 bd
       -1.3964972 0.6643391 -0.51850724 -0.04872458
000080 fa 0c b9 3f 10 db c4 bf 4e 8d 0e 3f 2e 9e d1 3f
       1.4457085 -1.5379353 0.55684364 1.6376398
000090 e9 a8 e7 3e 08 df 8e bf 0a 83 49 bd 43 43 85 3f
       0.45246056 -1.1161814 -0.049197234 1.0411152
0000a0 9d 2a 9e bf df f1 8e 3e 9a ba 86 bf 3f 31 b1 3f
       -1.2356755 0.27918908 -1.0525696 1.3843154
0000b0 ca d2 68 3f 00 8c fe be f1 da 7d 3f db 0b 5a 3d
       0.9094664 -0.49716187 0.99162203 0.053233963
0000c0 81 c3 e9 3f eb 8e 40 3f 49 84 ad 3f 8a 2b 2b 3e
       1.8262788 0.75218076 1.3555995 0.16715828
0000d0 90 b3 38 3f a8 fb 74 3e 3e 64 94 bf 89 32 83 3f
       0.7214899 0.23924124 -1.1593091 1.0249797
0000e0 c3 d9 8c bf c6 1b b2 bf 45 8b 88 3f c1 9d 11 3f
       -1.1003956 -1.3914726 1.0667502 0.5688134
0000f0 58 e2 a7 bf 7e 71 a5 3f 78 66 ab 3f d5 ac 85 bf
       -1.311595 1.292526 1.3390646 -1.0443369
000100 d7 ca bc bf d1 3f a3 be 04 82 a9 3f 22 a7 b0 bf
       -1.4749402 -0.31884626 1.3242803 -1.3801005
000110 35 3a 48 3f c4 26 8f bf 31 c9 4d 3f 60 dc 81 3f
       0.78213817 -1.1183705 0.8038512 1.0145378
000120 35 23 28 3e 88 40 7a bf 0e f3 b1 bf 5f d7 82 3f
       0.1641968 -0.97754717 -1.39023 1.0221976
000130 22 19 ad bf e8 b1 78 3c f8 75 bf 3e f9 a7 e9 3e
       -1.3523295 0.015179135 0.3739469 0.45635965
000140 09 15 9a 3f 58 0b 86 3f f0 96 bd 3f 30 37 3a be
       1.203767 1.0472212 1.4811687 -0.18185115
000150 75 b0 7e 3f 0f 7c 3c 3f e3 9a 17 3f 43 61 dd 3f
       0.99488 0.736268 0.59220713 1.7295307
000160 ad f5 12 3e 43 a1 c3 3f fb 66 88 3e 95 da da 3e
       0.1435153 1.5283588 0.26641068 0.4274489
000170 30 af bb 3e ed 40 b7 bf be cf bc 3f d8 76 7d bf
       0.36657095 -1.4316689 1.4750898 -0.99009466
000180 28 13 37 bf e9 43 d2 3f 85 88 bc be 17 c5 9b 3e
       -0.71513605 1.6426975 -0.36822906 0.30423805

0.0.mdl.hidden_to_output.direction f4 [86, 100]
000000 09 a7 0d 3b 36 05 97 3a ca f8 cc b8 78 d1 2e 39
       0.0021614453 0.0011521939 -9.7738186e-05 0.00016671966
000010 e6 c3 88 3a 83 85 86 ba ae d7 03 ba 41 d4 6f 3a
       0.0010434359 -0.0010263178 -0.0005029392 0.0009148755
000020 0c e6 01 3a 4b 78 08 ba 69 23 b9 39 93 47 70 b8
       0.0004955239 -0.00052059133 0.00035312332 -5.7287118e-05
000030 ac 6f a3 b7 75 8d 8c ba 43 84 cc ba 9d 67 df 39
       -1.9483115e-05 -0.001072331 -0.0015603382 0.00042611072
000040 37 cc 47 b9 56 90 5d b9 8e 52 4d ba df 7b 3c 39
       -0.00019054195 -0.00021129972 -0.0007832431 0.00017975223
000050 84 ca c5 3a 6e b1 cf 3a 20 a7 3f 3a b7 fd 87 ba
       0.0015090262 0.0015845725 0.00073109753 -0.0010375296
000060 b9 ff 20 3a 69 e6 5c ba 72 af c8 ba ba 44 93 3a
       0.0006141621 -0.0008426668 -0.0015311076 0.0011235692
000070 92 b0 81 39 e5 1a 9a b9 4e c1 ae 3a 96 19 ac 39
       0.00024736352 -0.00029393207 0.0013332756 0.0003282546
000080 a6 c2 1a 3b d8 f0 a0 ba 1c f3 0c 3a 84 12 b8 38
       0.0023614555 -0.0012278808 0.00053768023 8.7772525e-05
000090 bf 7d 4c ba f9 3d 8f b9 c5 4b 4e 3a 42 7b 7e 3a
       -0.000780072 -0.0002732126 0.0007869567 0.0009707698
0000a0 a6 7e 32 3a 3c e3 2f 39 d6 20 91 3a bd 98 02 39
       0.0006809033 0.00016773952 0.0011072408 0.00012454666
0000b0 27 d5 11 ba 88 cf ac b8 86 e4 e8 b8 d4 24 9b ba
       -0.0005563073 -8.240255e-05 -0.00011105188 -0.0011836537
0000c0 68 3e 9c 3a ce de d6 b9 b5 a1 71 ba 82 3f 0b ba
       0.0011920454 -0.00040983263 -0.00092175166 -0.00053118926
0000d0 3a be 44 b9 12 75 98 ba 45 c0 80 39 48 37 6b ba
       -0.00018762882 -0.0011631569 0.00024557314 -0.0008972776
0000e0 a2 d9 0c 3b d0 83 03 ba 94 d3 93 39 1c 92 22 ba
       0.0021492024 -0.0005016895 0.00028195663 -0.00062015816
0000f0 0b e0 01 ba db 22 33 ba a2 bb 31 3a d7 71 32 ba
       -0.00049543445 -0.0006833502 0.00067799736 -0.00068071246
000100 d6 96 31 b9 56 87 db 3a a7 a6 2d b9 7b 11 af ba
       -0.00016936226 0.0016748707 -0.00016560649 -0.001335665
000110 b8 90 04 b9 32 d5 03 3a 8c 1b 06 ba d4 ad 83 ba
       -0.00012642413 0.0005029022 -0.0005115799 -0.0010046312
000120 8f e4 0a 3b ad e1 40 3a f8 c6 ab 3a 66 e8 57 ba
       0.002119336 0.0007357847 0.0013105562 -0.0008236229
000130 40 b3 0b ba 15 9e df ba be f8 c3 3a 39 71 d3 ba
       -0.00053291395 -0.0017060662 0.001495145 -0.0016131765
000140 f8 d3 6b ba 7c 89 b1 ba a9 25 7e 3a 7f 48 99 3a
       -0.00089961244 -0.0013545002 0.0009694943 0.0011694579
000150 6a da 9a b9 fb 80 a0 b8 cf 7f ae 39 66 6d bd 3a
       -0.000295359 -7.653419e-05 0.0003328309 0.0014452159
000160 b2 85 7f b9 05 8e 0f 3b 55 2c ea b9 af ac a1 3a
       -0.000243685 0.0021904719 -0.00044664988 0.0012334789
000170 31 b1 93 3a 23 a7 1e 3a 32 e3 12 ba bf 5f 13 3b
       0.0011268017 0.0006052127 -0.0005603313 0.002248749
000180 02 67 86 ba 5a 48 ac ba 81 ca 3a ba 38 19 ab 3a
       -0.0010254087 -0.0013144121 -0.00071255123 0.001305378
000190 af c8 e5 3a 1f 8b ac 38 b9 8b c5 3a 96 c5 13 3a
       0.0017531122 8.2275124e-05 0.0015071548 0.00056370476
0001a0 3c a3 b3 ba 1d 65 97 3a 48 11 20 bb 23 0a 1a ba
       -0.0013705264 0.001155052 -0.0024424363 -0.0005876144
0001b0 ea 7d 9d 3a ac a7 89 3a 04 f4 9f 3a 30 d3 a9 ba
       0.0012015675 0.0010502241 0.001220346 -0.0012956616
0001c0 8f 8a 74 3a de 49 d0 39 94 de 1a 39 7e 91 45 3b
       0.0009328508 0.00039727887 0.00014769501 0.0030146535
0001d0 1b 3f 74 3a 5f ef 85 ba 8c fb 96 ba 43 73 b2 39
       0.0009317265 -0.0010218433 -0.0011519059 0.00034036682
0001e0 b0 40 05 3b b0 1a ea ba 8c 80 09 bb 00 3a c1 b7
       0.0020332746 -0.0017860737 -0.002098116 -2.3034401e-05
0001f0 ec 7b 7d ba 52 b6 9c b9 3d 5f 4d 38 b2 20 be 3a
       -0.000966965 -0.00029890478 4.8964506e-05 0.0014505594
000200 23 58 4a 3a 82 09 66 3a 2f 6e 98 39 70 2a 47 3b
       0.0007718822 0.00087752205 0.00029073792 0.0030390285
000210 d8 fc 7f ba e0 69 ac 39 94 2e b5 3a 00 19 bd b9
       -0.00097651547 0.0003288528 0.0013823085 -0.00036067516
000220 bb ba 17 39 28 be a1 ba 04 31 cc 39 43 72 19 bb
       0.00014470045 -0.0012339996 0.00038946432 -0.0023414053
000230 79 fd 37 3a ba b7 09 ba 60 51 8c b8 5e bf 62 ba
       0.00070186664 -0.00052535126 -6.6908775e-05 -0.0008649732
000240 22 e6 9b 3a 3d d5 86 3a cb af 00 3a 84 f9 89 ba
       0.0011894146 0.0010286939 0.00049090077 -0.0010526632
000250 46 d6 60 ba 55 54 e6 3a 33 83 8e ba c1 49 c4 39
       -0.0008576851 0.001757274 -0.0010872841 0.00037438984
000260 8b 09 ba 3a 66 84 3a 3a 4c ab c5 39 d3 f3 91 ba
       0.0014193518 0.0007115066 0.00037702394 -0.0011135287
000270 1e 69 26 ba 5d 25 35 b9 f3 11 4e ba 7e fc 02 ba
       -0.0006348061 -0.00017275424 -0.0007860951 -0.0004996731
000280 06 8c 21 39 b4 ff a5 b8 56 a4 16 39 f7 c4 6d 3a
       0.0001540632 -7.9154415e-05 0.00014366335 0.00090701826
000290 66 59 af ba fb 18 44 3a 72 36 e1 3a 18 0c d1 3a
       -0.0013378083 0.0007480529 0.0017182364 0.0015949039
0002a0 a0 6a d1 39 a5 5c f4 b9 d9 14 21 3a b4 ce 1b ba
       0.00039943028 -0.00046608332 0.0006144769 -0.0005943582
0002b0 93 7b f3 b9 46 ed ac 39 5c 85 c4 b9 a2 32 4d ba
       -0.00046440642 0.0003298318 -0.00037483394 -0.0007827674
0002c0 15 fd 06 3b 29 2b 0f ba e3 3e c8 ba 7f 30 20 38
       0.0020597626 -0.00054614485 -0.0015277531 3.8192138e-05
0002d0 dd b3 a0 b9 44 79 48 3a bd 82 9c ba e4 86 bc 39
       -0.00030651587 0.00076474645 -0.0011940819 0.00035958656
0002e0 d7 a9 ba 38 e6 25 c9 39 50 49 e7 b9 d1 de 11 ba
       8.900806e-05 0.00038365944 -0.00044114375 -0.0005564513
0002f0 0f 0e 8e 39 b9 f9 c5 3a 7e 5a 21 3a 20 73 b1 39
       0.00027094825 0.001510433 0.0006155147 0.00033845846
000300 c8 6a 89 b9 e1 33 30 3a 4c 45 fc b6 38 69 df 3a
       -0.00026210235 0.0006721598 -7.5182525e-06 0.0017044907
000310 81 cc 91 ba 5c 70 f0 b9 44 8c 03 b9 b9 fd f3 3a
       -0.0011123569 -0.0004586008 -0.00012545387 0.0018615044
000320 4b 05 03 00 d1 4e 04 00 61 9c 00 00 a4 21 00 80
       2.77405e-40 3.95616e-40 5.6098e-41 -1.2068e-41
000330 16 cc 02 80 b3 54 00 80 07 af 01 00 2f 8c 04 00
       -2.56883e-40 -3.0384e-41 1.54623e-40 4.1763e-40
000340 52 28 46 17 1c 73 2d b4 6c 6e 05 80 f7 71 67 8b
       6.402814e-25 -1.6153757e-07 -4.9879e-40 -4.457472e-32
000350 e8 2e 03 80 e1 2c 00 00 1c 73 2d b4 b4 a6 00 00
       -2.92333e-40 1.61e-41 -1.6153757e-07 5.9802e-41
000360 b9 37 a0 8a 93 0e 03 80 cf fd 00 80 21 ba 01 00
       -1.54284e-32 -2.80735e-40 -9.105e-41 1.58606e-40
000370 74 6d 03 aa d6 63 02 00 4d 5f 05 80 43 b2 00 00
       -1.1673111e-13 2.19485e-40 -4.93365e-40 6.3948e-41
000380 b0 fa 02 80 55 bf 03 80 9f ae 01 00 cd 24 03 00
       -2.73601e-40 -3.44143e-40 1.54478e-40 2.88708e-40
000390 8a db c0 3c bb 81 01 80 3a 8e 01 00 66 a8 00 80
       0.023542184 -1.38374e-40 1.42857e-40 -6.041e-41
0003a0 7c 76 c4 36 16 5e 00 80 36 65 02 00 0f 79 04 80
       5.8550486e-06 -3.3752e-41 2.19979e-40 -4.1077e-40
0003b0 0a 67 05 80 b8 de 02 80 66 4b 02 80 49 fc 02 80
       -4.96141e-40 -2.63567e-40 -2.10719e-40 -2.74174e-40
0003c0 b6 d8 ff b6 43 da 0c 35 69 71 00 80 3c ff 00 80
       -7.6248207e-06 5.2471677e-07 -4.0684e-41 -9.1561e-41
0003d0 62 b1 03 00 8e 0e 05 00 d3 1b 02 80 bb 68 02 80
       3.3914e-40 4.64399e-40 -1.93652e-40 -2.21241e-40
0003e0 5d 0f 00 00 2d dc 02 00 53 e4 9f 08 e6 c5 02 00
       5.511e-42 2.62655e-40 9.623143e-34 2.54664e-40
0003f0 60 04 02 00 fa 0c 02 80 74 6d 03 2a e5 0b 00 80
       1.8524e-40 -1.88326e-40 1.1673111e-13 -4.267e-42

0.0.mdl.hidden_to_output.cscale.weight f4 [86, 1]
000000 98 e5 f4 39 3c f4 0d 3a b4 ed 2b 3a 84 ca b8 39
       0.00046710367 0.0005415117 0.0006558553 0.000352461
000010 be 41 7c 3a d6 8e e5 b9 b9 ea 80 ba 4c ee 62 ba
       0.00096228335 -0.00043784705 -0.0009835578 -0.0008656725
000020 20 00 7b 39 4c e0 d6 39 68 04 22 3a 00 30 60 b9
       0.00023937272 0.00040984375 0.0006180466 -0.00021380186
000030 38 e3 2c 3a b8 e7 3f 3a c7 03 2d ba 26 40 9b b9
       0.00065951375 0.00073206006 -0.0006599989 -0.00029611698
000040 a8 22 47 ba 0c 4d 1f 3a 78 87 62 ba 74 19 95 39
       -0.0007596412 0.00060768495 -0.0008641402 0.0002843846
000050 fa d8 93 b9 60 ae 6c 39 ca 1f 2b 3a 80 dc 06 39
       -0.00028199685 0.00022571674 0.0006527869 0.00012861378
000060 38 3a 76 b9 4c 6a ad 39 ea 30 bd b9 19 0a 03 ba
       -0.00023482076 0.0003307633 -0.00036085333 -0.0004998758
000070 20 b3 2b 3a 2a 70 fe b9 5f d8 82 3a 10 96 b4 38
       0.0006549824 -0.00048530224 0.0009982697 8.61102e-05
000080 32 e0 91 b9 04 8e 8f b9 c0 b7 f2 b8 f4 6a 5e 3a
       -0.00027823594 -0.00027380895 -0.00011573685 0.0008484565
000090 50 39 10 b9 5d 71 60 ba c4 f5 e1 39 2c 00 3c ba
       -0.0001375426 -0.00085618143 0.00043098454 -0.00071716565
0000a0 75 74 1a ba 40 4b 5e 39 8e 09 67 ba 0c 83 d5 39
       -0.0005891987 0.00021199603 -0.00088133744 0.00040724163
0000b0 1c 57 c4 b9 56 21 1f ba 06 1f 1c ba 19 4c 35 ba
       -0.00037448935 -0.0006070336 -0.00059555506 -0.00069159415
0000c0 04 66 cd b9 50 ef b6 b8 90 e2 cd b8 50 54 cd 38
       -0.00039176655 -8.723012e-05 -9.817362e-05 9.790866e-05
0000d0 70 0d ff 38 ae 22 65 3a 90 7d 5e 3a 64 27 1c 3a
       0.000121618505 0.00087408244 0.0008487338 0.00059567974
0000e0 86 57 fc b9 36 ca 41 ba 64 fa 72 3a bf a5 2a ba
       -0.00048130396 -0.00073924975 0.00092688785 -0.00065096834
0000f0 be 6f 5f 3a 7c cb 18 ba bb 0e 3f ba d0 3f 22 b9
       0.0008523426 -0.00058286614 -0.0007288267 -0.00015473296
000100 90 22 84 b9 4c 0c 69 b9 a8 ce 8a b9 a6 9f 9d b9
       -0.00025202753 -0.00022225193 -0.00026475382 -0.0003006432
000110 78 02 1a b9 da 4d 26 3a 00 aa 09 39 5e 42 1a ba
       -0.00014687504 0.0006343998 0.00013128668 -0.0005884523
000120 90 8c 1d 39 52 a6 68 3a 50 fb 54 ba 9a f1 8a b9
       0.0001502505 0.00088748813 -0.00081246067 -0.00026501418
000130 bc ea 07 3a 9c 25 43 ba 3a 1b 50 ba 4e e0 d1 b9
       0.00051848195 -0.0007444264 -0.00079386274 -0.00040030706
000140 0d d9 4c ba 3c 85 33 3a 46 3c 36 ba 5c 11 8d b9
       -0.00078143255 0.00068481616 -0.00069517305 -0.0002690655
000150 b8 64 43 39 44 3b 16 3a
       0.0001863417 0.0005730877

0.0.mdl.hidden_to_output.cscale.bias f4 [86]
000000 00 00 00 00 00 00 00 00 fa 4d e1 be e1 40 d6 3f
       0.0 0.0 -0.44004804 1.673855
000010 18 c2 28 bf 02 75 87 3f 4e 17 fd be 5e 7e 94 3f
       -0.65921164 1.0582583 -0.49431843 1.1601064
000020 f6 a8 60 bf 24 1e ed be a5 ba b3 be a0 aa 65 3f
       -0.87757814 -0.46312058 -0.35103336 0.8971348
000030 20 a3 09 3f 79 3b 2f 3f 87 cc 37 3f 44 9c 05 3f
       0.53764534 0.68450123 0.7179646 0.5219157
000040 c8 8d fe 3e bf 96 14 3f 0d 9f fb 3e 11 5f 49 bf
       0.49717546 0.5804252 0.49144784 -0.78660685
000050 8e b8 66 3f 0f 41 2a bf b3 18 03 3f 83 2c 30 bf
       0.9012536 -0.6650552 0.51209563 -0.6881792
000060 cd fd 51 bf 69 7d fb 3e 30 4a 0f 3f b4 be de 3e
       -0.82027894 0.49119118 0.55972576 0.4350487
000070 43 78 15 bf 28 98 d8 be f6 e4 fb be b6 51 c6 be
       -0.5838663 -0.42303586 -0.4919812 -0.38734215
000080 04 35 11 bf 65 7e ce 3e 0c 91 96 3e a1 5c 15 3f
       -0.5672152 0.40330806 0.29407537 0.58344465
000090 dd 51 21 bf 33 28 cf be ee 0b 20 3f 79 c6 d3 3e
       -0.6301554 -0.40460357 0.62518203 0.4136236
0000a0 0a ab 06 3f a6 c3 f2 3e c2 96 99 3e 09 c3 04 3f
       0.52604735 0.47414893 0.29997832 0.518601
0000b0 81 57 07 3f e3 dc d2 be c4 b3 0f bf d8 db bc 3e
       0.52867895 -0.41184148 -0.56133676 0.36886477
0000c0 96 77 f4 3e 2e f7 01 bf 1e d3 04 3f 81 2f fa 3e
       0.47747487 -0.5076779 0.5188464 0.48864368
0000d0 ca 77 36 3f c0 a1 87 be 2f 0b 09 bf 36 92 ed 3e
       0.71276534 -0.26490593 -0.5353269 0.46400613
0000e0 4d 33 2a bf fb 0a c6 be 63 7a 05 bf ec c1 c6 be
       -0.6648453 -0.38680252 -0.5213987 -0.38819826
0000f0 0b 66 fe be c9 47 ba 3e f4 13 f0 be d6 57 c4 3e
       -0.49687228 0.36382893 -0.46890223 0.38348264
000100 10 19 0a 3f 32 b7 ef 3e 3e 62 25 bf 7b 83 b3 be
       0.5394449 0.46819454 -0.6460303 -0.3506125
000110 c1 f9 07 bf 6d 80 be be 8a 63 0a bf 17 46 bf 3e
       -0.5311547 -0.37207356 -0.54058135 0.37358162
000120 ca f5 2a 3f b8 87 cc 3e a6 25 08 bf 1d ae e5 3e
       0.66781294 0.39947295 -0.53182447 0.448594
000130 b4 0f cf be 7b 83 d8 3e d8 26 3d bf dd 4d 9f be
       -0.40441668 0.42287812 -0.73887396 -0.31114092
000140 9d 11 09 bf 8a 5a dc be a9 c0 b0 3e 08 d1 0c bf
       -0.535425 -0.43037826 0.34521988 -0.55006456
000150 0a 24 40 bf 72 b7 b3 3e
       -0.7505499 0.35100895

0.0.mdl.hidden_to_output.cbias.weight f4 [86, 1]
000000 18 53 c7 39 e6 0a 29 ba d8 43 aa 39 30 2f 2c ba
       0.00038018147 -0.00064484624 0.00032475474 -0.0006568311
000010 96 19 5b ba 9e 4b 7d ba 80 f9 ef 38 80 07 29 3a
       -0.00083579996 -0.0009662452 0.00011442881 0.0006447956
000020 c0 13 ba b7 90 1d 89 39 78 93 5c ba 1e f9 15 3a
       -2.2182125e-05 0.00026152702 -0.00084143085 0.000572102
000030 d1 15 80 ba 8c 6b 8a 39 80 ca f1 39 80 17 53 ba
       -0.0009772127 0.0002640154 0.00046117976 -0.0008052513
000040 40 b5 6a 3a 7e dd 71 ba 26 18 2c ba 30 ed d6 38
       0.00089534 -0.00092264253 -0.00065648777 0.00010248495
000050 a4 93 1b ba e8 1e 74 ba 94 30 5f ba 10 ea 65 39
       -0.0005934781 -0.0009312467 -0.00085140136 0.00021926337
000060 ec 54 cb 39 38 98 32 ba 92 11 1f 3a c6 fa b3 b9
       0.0003878245 -0.00068128435 0.0006067987 -0.0003432838
000070 0a ed 61 3a 1c 46 d6 39 f0 ee cb 39 50 4c 43 b8
       0.00086183904 0.00040869496 0.000388972 -4.6562694e-05
000080 c1 3e 0e ba d8 32 f0 39 f6 3c eb b9 6d 1a 6f ba
       -0.0005426221 0.0004581425 -0.00044868112 -0.0009121064
000090 00 57 6f 3a bf 91 47 ba a0 22 f2 39 1f 69 08 ba
       0.00091300905 -0.00076129654 0.00046183635 -0.00052036525
0000a0 56 dd 44 ba 9a b9 51 ba aa 51 61 3a c4 e2 a4 39
       -0.0007509788 -0.0008000374 0.0008595238 0.0003144947
0000b0 a2 05 02 3a 00 62 67 3a bc 47 fc 39 80 34 77 38
       0.0004959946 0.0008826554 0.00048118632 5.8938283e-05
0000c0 80 51 39 38 60 bf 7c 38 84 01 ef 39 74 b4 0f 3a
       4.418334e-05 6.0259714e-05 0.00045586762 0.00054819067
0000d0 60 0e dd b7 da 37 43 ba 8c e7 24 b9 e4 41 42 3a
       -2.6351947e-05 -0.0007446982 -0.00015726517 0.0007410331
0000e0 de 8f 16 ba c0 69 db 38 dc b7 fd b9 4c 40 2e 3a
       -0.0005743484 0.00010462431 -0.00048392906 0.0006647154
0000f0 da cb 15 ba 80 4f 37 3a dc b0 4c b9 4e 06 25 ba
       -0.0005714275 0.00069927424 -0.00019520841 -0.000629519
000100 f8 d7 43 ba 76 36 7e 3a b2 cb 79 3a 3e 8e ad b9
       -0.00074708415 0.00096974464 0.0009528949 -0.0003310311
000110 1f 49 80 ba 80 05 6b b9 80 1a f2 39 30 bf c3 b9
       -0.0009787417 -0.00022413395 0.0004617758 -0.00037335744
000120 0a e7 06 3a 94 14 e5 39 20 2b ba 38 40 da d2 39
       0.0005146122 0.00043693616 8.877204e-05 0.0004021693
000130 be c4 ca b9 6a 36 76 3a bf 33 4b ba 1b e3 04 ba
       -0.00038675027 0.00093922636 -0.0007751546 -0.0005069242
000140 10 2c 22 b9 c8 43 3a 39 10 08 68 3a 2d 00 01 ba
       -0.00015465938 0.00017763593 0.0008851299 -0.00049209857
000150 92 58 0e ba d0 42 01 39
       -0.0005430068 0.00012327288

0.0.mdl.hidden_to_output.cbias.bias f4 [86]
000000 21 ed 1f 3e af ff 1c 40 62 ef e2 bd 13 53 67 40
       0.15617801 2.4531057 -0.11080815 3.6144454
000010 56 84 5b bd 07 39 3f 40 5a 5c 60 bd 78 fd ea 3f
       -0.053593002 2.9878557 -0.054775573 1.8358603
000020 80 c1 b4 3e c8 7c 13 40 f4 d2 66 3e e6 df f2 3f
       0.3530388 2.304491 0.2254141 1.8974578
000030 93 7d bd 3e bb 94 0c 40 b7 07 d0 be 12 9b 0d 40
       0.37009868 2.1965778 -0.40630886 2.2125897
000040 7b 5e f8 3d a0 42 ff 3f 0e c1 52 be 02 80 02 40
       0.12127396 1.9942207 -0.20581457 2.039063
000050 f2 9b 80 3e e4 2d 0c 40 a0 9a 7f 3e ae 00 00 40
       0.25118977 2.190301 0.24961329 2.0000415
000060 56 de 58 bc 4a 06 15 40 ae 46 eb 3d 13 81 14 40
       -0.013236603 2.3285089 0.114880905 2.320378
000070 eb 78 5a bd e7 2b 0a 40 7f 91 67 be 9c 03 0e 40
       -0.053337973 2.1589296 -0.22614096 2.2189703
000080 11 c1 82 3e fa 36 07 40 74 83 c7 3d 38 a6 e7 3f
       0.25537923 2.1127305 0.097418696 1.8097601
000090 2d db 45 bd 72 24 04 40 13 93 6e be be c2 f6 3f
       -0.048304725 2.0647244 -0.23298292 1.9278181
0000a0 54 bd f9 3d d2 7c f8 3f 19 06 3b 3e 60 3f f7 3f
       0.121943146 1.9413092 0.18264045 1.9316216
0000b0 38 28 1f 3d e1 34 04 40 14 6d ac be 4e f7 02 40
       0.038856715 2.0657275 -0.3367697 2.0463443
0000c0 79 0d 75 be 7b 33 f4 3f 1d 8f ff 3d 70 22 01 40
       -0.2393092 1.907821 0.124784686 2.017727
0000d0 a7 65 cf be f2 1f 06 40 a9 da a9 3e 83 2d ff 3f
       -0.40507242 2.0956998 0.33174637 1.9935764
0000e0 5e 52 92 be 50 65 04 40 b9 ce 51 3e 2f 21 05 40
       -0.28578466 2.0686836 0.20489015 2.0801504
0000f0 8e 82 7a 3e 13 d1 01 40 8b ca 81 be bf 91 fe 3f
       0.24463865 2.0283859 -0.2534984 1.9888228
000100 f2 52 b4 be a9 1f 02 40 d9 1a 4c 3e d5 b0 fc 3f
       -0.35219532 2.0331824 0.19932117 1.9741465
000110 13 de cd be 30 3e 02 40 ee 9a bb 3e eb e1 01 40
       -0.40208492 2.0350456 0.3664164 2.029414
000120 c9 32 ef 3e d9 1a fd 3f 64 96 f5 be 24 d5 00 40
       0.46718433 1.9773818 -0.479663 2.013009
000130 92 44 cb be 4d b6 fc 3f f4 51 0c 3f de 50 02 40
       -0.39700752 1.9743134 0.5481255 2.0361857
000140 23 ec fe be af ec ff 3f 89 c0 bd be 7a b7 eb 3f
       -0.49789533 1.9994105 -0.37060955 1.8415368
000150 70 9b 1b 3f e7 d2 f4 3f
       0.60784054 1.9126862

1.0.mdl.input_to_hidden.0.direction f4 [100, 43]
000000 84 5e 6c be 40 08 f9 be a1 d7 8a be d2 62 8f be
       -0.2308293 -0.48639107 -0.27117637 -0.2800508
000010 c6 5b 79 3d b6 c1 05 3e b3 c3 5a be 32 af ad 3d
       0.060878538 0.13062176 -0.21363716 0.084806815
000020 43 da d8 bd b3 f7 90 be 6f bf 84 bd 74 ba b0 3e
       -0.10588505 -0.2831398 -0.064818256 0.34517252
000030 6c d9 2b 3e 69 6f 09 bf f9 3f 30 be b6 34 1d bf
       0.16782159 -0.53685623 -0.17211904 -0.61408556
000040 95 42 d0 be b5 f7 0d bd 02 6d 1a 3d 38 91 8b be
       -0.40675798 -0.03466006 0.037701614 -0.2725923
000050 e1 aa 31 3e f2 6e 1e be 52 24 0b 3d d4 57 da 3e
       0.17350341 -0.1547201 0.033970185 0.42645133
000060 bb cb 7b 3e b3 77 86 be 41 ce 50 3e 1c 84 45 3c
       0.24589436 -0.26263198 0.2039118 0.012055423
000070 b3 72 57 3f 86 75 23 3f 31 e6 87 3e ce 97 98 bc
       0.8415939 0.638512 0.2654281 -0.018627074
000080 47 a9 3c 3f e9 dd 2c 3e 57 7f a5 3d 0a 08 96 be
       0.73695797 0.16881527 0.08080929 -0.29303008
000090 72 c9 28 3f a2 23 e9 3e e5 3f b3 3d 68 05 d5 be
       0.6593238 0.45534998 0.08752421 -0.41605687
0000a0 1c 87 10 3e 2e eb 34 bf 07 f7 ff 3a 13 6c 9f be
       0.1411404 -0.70671356 0.0019528576 -0.31137142
0000b0 bf 51 02 3e b8 d2 12 3f 86 81 da be d4 56 97 be
       0.12726496 0.5735278 -0.42676944 -0.29558432
0000c0 ff 7a e7 3e cd 0a 03 bf 5e 6e f8 be af 41 8f 3e
       0.45211026 -0.51188356 -0.48521703 0.279798
0000d0 bb 96 87 be ef 2c fc 3e 16 96 b4 bd ed e3 c1 3c
       -0.26482186 0.49253032 -0.08817689 0.023668254
0000e0 28 f9 39 3f 2e 5f 03 3a d9 3c 2f b8 b9 f8 cd 39
       0.7264581 0.00050114363 -4.177992e-05 0.0003928596
0000f0 c3 6a 70 3a be da d0 39 79 a7 f8 ba 78 96 46 3a
       0.0009171182 0.00039835827 -0.0018970809 0.0007575522
000100 c1 0e 2d 3a b6 fe 52 3a 44 a8 1b b9 8b 42 57 39
       0.0006601625 0.0008048819 -0.00014844636 0.00020528787
000110 85 36 f7 b9 05 19 54 b8 2b c7 90 3a 10 3c a8 39
       -0.0004715213 -5.056804e-05 0.0011045685 0.00032088207
000120 a9 d8 22 39 87 d8 9f ba 3d bc f6 3a db 69 9f b9
       0.00015530236 -0.0012195267 0.001882441 -0.00030405712
000130 3d a3 c9 ba 34 06 47 3a 0a 2a 0c ba 03 8d 61 39
       -0.0015383732 0.0007592172 -0.00053468405 0.00021510203
000140 92 cf 65 ba 30 53 56 ba 30 de 25 3b fb 1b 10 3a
       -0.0008766587 -0.0008175848 0.0025309436 0.00054973335
000150 3a 86 ec b8 be 1e 8b 3a f7 c6 98 be 01 6f 3d 3e
       -0.000112783586 0.001061402 -0.29839298 0.18499376
000160 e9 5c c6 3e b5 85 2a bf f1 19 8f 3f 77 81 dc b9
       0.3874276 -0.6661027 1.1179792 -0.0004205813
000170 63 ff 04 3a 68 22 bf ba a7 51 d3 ba 48 b8 ce ba
       0.0005073456 -0.0014582397 -0.0016122357 -0.0015771473
000180 43 7b a8 39 7b 73 42 3a ec 3b 6a 3a c6 bf d9 b9
       0.00032135294 0.00074177206 0.00089353207 -0.00041532348
000190 dc 81 fe 38 b5 26 c2 39 45 bf 2d ba 6a 06 66 3a
       0.00012135852 0.00037031402 -0.00066279277 0.00087747595
0001a0 78 bd 6a 39 73 11 8d ba ce 90 2a ba 66 75 12 36
       0.00022386562 -0.0010762647 -0.0006506563 2.182403e-06
0001b0 20 d2 4a 3a 23 c9 f0 3a 0e cf a5 b9 02 0c 35 3a
       0.00077369995 0.001837049 -0.0003162552 0.00069063914
0001c0 d4 06 0d ba 8e ec dd b8 15 f8 b5 3a 55 4f fc b8
       -0.00053797406 -0.00010582163 0.0013883138 -0.00012031073
0001d0 c0 62 6d ba b2 2a dc 38 90 27 af b9 cf c1 6a 3a
       -0.00090555474 0.0001049837 -0.00033408077 0.00089552713
0001e0 01 31 e6 3a 29 92 79 3a ed 9f b5 b9 04 11 3a b9
       0.0017562212 0.0009520376 -0.00034642164 -0.00017744681
0001f0 1e d8 7e 3a f2 a5 66 38 c0 e3 4e 39 53 91 83 3a
       0.0009721535 5.499082e-05 0.00019730534 0.0010037817
000200 15 24 48 3a 1e 17 e5 bd 91 07 90 bd 81 b4 0d 3e
       0.0007634771 -0.1118605 -0.07032693 0.13838388
000210 3f 00 d7 be 70 f6 fd bd 53 5d 17 3e 5c c4 22 3e
       -0.41992375 -0.1240052 0.14781694 0.15895218
000220 c4 a8 dc 3e d9 9d f4 3d 40 cc d5 3e ca 67 bf be
       0.43097508 0.119441696 0.41757393 -0.37383872
000230 d6 e4 9a 3e 37 05 16 bf 29 ad 7c be 4a 8a 43 3e
       0.30252713 -0.5860171 -0.2467543 0.19095722
000240 75 cf 3b 3d 9d 00 5c be 38 31 ce 3e f0 84 49 be
       0.045852143 -0.21484609 0.40271926 -0.19679618
000250 b7 f9 9e 3d 39 fe 11 be e9 71 12 3e 99 d7 85 3d
       0.07762473 -0.14257134 0.14301266 0.065352626
000260 cd fa 2c 3e 80 5d 80 3d ff a3 41 be aa 4e da be
       0.16892548 0.06267834 -0.18910216 -0.4263814
000270 ea b2 1d bc 5f 95 92 ba 9c 1c 8c 3a 86 36 df ba
       -0.009625176 -0.0011183432 0.0010689679 -0.0017029799
000280 e5 93 1f 38 dc 20 b5 39 8f a5 b1 b9 e0 40 0f b8
       3.804629e-05 0.00034547492 -0.00033883422 -3.4154276e-05
000290 a6 68 43 39 1a b9 a1 3a 7c 98 ce 38 c3 9d 49 3a
       0.00018635634 0.001233849 9.851248e-05 0.000769105
0002a0 90 4e d3 39 e9 86 ff b9 81 31 d0 3a 21 a3 a4 3a
       0.0004030359 -0.00048737906 0.0015883894 0.0012560823
0002b0 2f 79 ae bd e7 39 2c bd eb 0f 44 be 65 7b 1a 3e
       -0.08519208 -0.042047407 -0.19146697 0.15086134
0002c0 c1 73 41 bd 0e cf 04 be 3e 30 36 be 07 68 49 bd
       -0.047229532 -0.1296961 -0.1779184 -0.049171474
0002d0 75 f5 7b be 68 3f a1 3c fc 3a eb 3e 95 4c 1f bd
       -0.24605353 0.019683555 0.4594344 -0.038891394
0002e0 05 57 90 bc fd 3c ed 39 98 6b f4 ba d1 6e 8e 3a
       -0.01761962 0.00045249602 -0.0018647788 0.0010866766
0002f0 6b 87 2b b8 b4 b5 c7 39 72 c1 be 3a 88 e8 0b ba
       -4.0895695e-05 0.00038091617 0.0014553501 -0.0005337079
000300 f9 2a 8c ba 09 36 c2 ba 60 a8 bf 3a 1d 23 6b 3a
       -0.0010693959 -0.0014817129 0.0014622323 0.0008969771
000310 90 4c 2b ba 46 ac 09 b9 2d 8f c6 38 98 76 e7 ba
       -0.0006534541 -0.00013129515 9.468044e-05 -0.0017659245
000320 7f ac 02 3a 11 73 9c 38 b7 ba 7e ba 63 71 2c ba
       0.00049848104 7.4600925e-05 -0.0009717154 -0.0006578175
000330 82 92 b1 b9 cc a5 4c ba de 36 5f ba 02 cc b8 ba
       -0.00033869228 -0.0007806688 -0.0008514951 -0.0014098885
000340 c0 76 05 3b 72 3a a6 ba 7e e9 d3 3a 4b b5 06 b8
       0.002036497 -0.0012682213 0.0016167609 -3.2116932e-05
000350 4f 46 63 ba b2 14 43 3a ee fa 4e 3b 9c 1f 07 bf
       -0.00086698396 0.00074417435 0.0031582671 -0.5278261
000360 44 0d 0f 3e c8 04 2a bc 7b fd db be 54 e0 90 3d
       0.13969904 -0.0103771165 -0.42966828 0.07074037
000370 06 5a 55 3e 3c 6f c2 be 69 fe 04 bf 61 42 49 be
       0.20835122 -0.3797549 -0.519507 -0.19654228
000380 98 2a 0b be 27 43 07 3f 09 40 cb 3d 36 77 3e bf
       -0.13590467 0.5283684 0.09924323 -0.7440065
000390 a7 a7 80 3f 7a a5 05 3a 31 5d 6c b9 d5 d4 dc 39
       1.0051163 0.00050982053 -0.0002254143 0.00042120242
0003a0 e8 be 4e 3a e1 c3 5a 3a 90 a7 bc 3a 4d b5 10 3a
       0.00078867236 0.0008345228 0.0014393199 0.000552018
0003b0 b6 05 a1 3a 04 50 d9 b9 27 fa 05 ba 85 bf 82 39
       0.0012285027 -0.00041449082 -0.0005110823 0.00024938225
0003c0 5a 3d c3 39 6a a7 8e ba 1e 09 ba 3a 77 63 15 ba
       0.0003723901 -0.0010883634 0.0014193391 -0.00056987203
0003d0 dd e8 13 b9 4c 86 8b 3a 15 a4 9f b9 a6 0e 88 ba
       -0.00014105761 0.0010644882 -0.00030449094 -0.0010380342
0003e0 0e be 1d 39 a7 bc 11 bb 35 c6 97 ba 7e de ae ba
       0.00015043488 -0.002223769 -0.0011579456 -0.0013341454
0003f0 40 9c 72 b9 0d bd 4d 3a 2c 9d a9 3a f9 41 8c 39
       -0.00023137126 0.00078483 0.0012940518 0.00026752034
