models/vae_lhc_mjj_bin_141263_5of10.pt (torch, 784413 bytes, 24 tensors)

encoder.0.weight f4 [12, 14]
000000 be a4 13 3d 4b ee 8a 3d b3 e2 d4 3c ac 9a 88 3c
       0.036045782 0.06783732 0.025987005 0.016675316
000010 63 d8 2a 3d 44 da 1c bc 99 48 99 bd 97 3d 90 ba
       0.04171027 -0.009573523 -0.0748455 -0.0011004683
000020 f7 b5 86 be 6b 56 ba bd 2d 21 ca 3c 78 6a 02 bd
       -0.26310703 -0.09098514 0.024674023 -0.031839818
000030 46 50 6b bd 56 f5 b4 3c 70 92 a5 3e 55 16 1b bd
       -0.0574496 0.022089642 0.32338285 -0.037863094
000040 b4 7c 31 3e 94 b2 24 3d a4 13 a1 3d 7f 7b 81 bd
       0.17332727 0.040209368 0.07865074 -0.06322383
000050 d9 6f 75 bd 32 48 15 bc 9f 9d 63 3e 78 b4 59 be
       -0.05992112 -0.009111451 0.22228096 -0.2126025
000060 fa 55 27 be 65 5f 84 be 31 70 f0 3d f8 78 fe 3d
       -0.16341391 -0.2585403 0.11740149 0.12425417
000070 d4 29 fc 3c 55 37 b0 bd 25 8e 92 bd 2c 28 e3 3d
       0.030781664 -0.08604304 -0.07156018 0.110916466
000080 d2 8f 35 bd f2 10 75 3d 68 82 21 bd 71 84 fd bc
       -0.04432661 0.059830613 -0.039431006 -0.030946942
000090 cc 63 7b be 0f 8a 86 3d af 99 a2 3c de f3 78 bd
       -0.24549788 0.06569301 0.019848673 -0.060779445
0000a0 95 75 cd 3d a2 d7 94 bd 87 10 60 be 47 3d ff bd
       0.100321926 -0.07267691 -0.21881305 -0.124628596
0000b0 64 96 f0 3d b1 06 c8 3d ff 77 18 3e ed 6c 84 3d
       0.11747435 0.09766901 0.14889525 0.064660884
0000c0 7d 0b 91 bd 96 c2 68 3e fa 65 08 3e c3 28 91 bd
       -0.07082269 0.22730479 0.13320151 -0.07087853
0000d0 a9 c6 1a 3e e1 8f 00 be 05 a6 f0 3d 4e bb 02 bb
       0.15114845 -0.12554885 0.11750416 -0.0019948068
0000e0 86 a3 df bc 25 cb 9b 3e 4b 09 1e 3d 82 7f 86 3c
       -0.027299654 0.30428424 0.03858308 0.016418222
0000f0 34 45 bc 3c 52 bf 92 3d 6d 83 02 be 4a 4e c9 3d
       0.022982217 0.07165398 -0.12745447 0.098293856
000100 c1 d3 55 be 06 42 86 bd 17 c2 9f 39 2d 07 41 bd
       -0.20881559 -0.06555562 0.00030471451 -0.047125984
000110 6d a1 fd bd 5d 26 38 3e 90 36 58 bc 82 c8 01 be
       -0.12384305 0.17983384 -0.013196602 -0.12674144
000120 2d 87 86 bd 2d 43 4a bc f7 42 b5 3c c2 3e bc bc
       -0.065687515 -0.0123451175 0.022126658 -0.022979144
000130 38 65 66 3d f7 14 51 be cc 37 5f 3e cd 3d c0 3d
       0.056248873 -0.20418154 0.21798629 0.093867876
000140 53 05 f0 bd 2d 0c 4c 3e f4 f2 a0 bc 56 80 98 3c
       -0.117197655 0.1992652 -0.0196471 0.018615883
000150 50 ef 70 3d ac ab 9f 3d a5 0f ea bc 25 c6 a9 3d
       0.058821976 0.07796416 -0.028571913 0.08289746
000160 06 5e c9 bd 22 ed 2e 3e 39 32 30 3d 61 6f a3 be
       -0.09832387 0.17082646 0.043016646 -0.31920913
000170 39 93 cc bd 48 52 97 3d 51 2a fb 3d 4c b2 8c bd
       -0.09989018 0.07388741 0.122639306 -0.06869945
000180 bc 73 3a 3e 7b e7 7e bc 78 f8 31 be 58 56 0e be
       0.18208212 -0.015558119 -0.1737994 -0.13900125
000190 11 f8 28 3d dc d5 ed bc 43 ce 08 be c1 86 d6 bd
       0.0412522 -0.02903264 -0.13359933 -0.10474921
0001a0 7f b6 27 3e 35 ef 62 3e 2f 1b da bd 4f 41 ee 3b
       0.1637821 0.22161563 -0.10649716 0.007270969
0001b0 0a b2 5c bb 20 c0 31 3d 82 3a 2c be 25 16 7b bd
       -0.0033675455 0.043396115 -0.16819194 -0.061300416
0001c0 d6 9e 64 bb 0e 83 84 3d 8a 51 00 3e 7c 32 0c 3e
       -0.0034884713 0.06470309 0.12531105 0.13691133
0001d0 00 95 1c bb 0d f1 c8 bd d8 6e 9f 3d ff e4 39 be
       -0.0023892522 -0.09811602 0.07784814 -0.18153761
0001e0 6f fd c4 3b 2c d3 bc 3d a7 ee 77 bd e7 a9 80 3c
       0.006011657 0.09219965 -0.06053033 0.015706016
0001f0 1f c4 07 3e 36 c2 66 3c 0f af 87 3e aa 67 a3 3d
       0.13258408 0.014084389 0.26500747 0.07978757
000200 e3 95 0c 3d a7 4a d4 3c 9b c9 08 be 32 fd aa 3a
       0.03432263 0.025914503 -0.13358156 0.0013045429
000210 c0 c9 c9 3d 02 fe 54 be 5c 7a 23 be 9c 7f d9 3b
       0.09852934 -0.20800021 -0.15964645 0.0066375267
000220 aa 53 e5 3d 00 cf 8c bd 0e 20 13 3e 12 74 08 be
       0.11197598 -0.068754196 0.14367697 -0.13325527
000230 d4 9c 0f 3d 0d 4f 58 3e 20 86 4d 3d 62 66 d1 3d
       0.035061672 0.21123905 0.05017674 0.10224606
000240 89 16 87 3c 28 a1 c4 3c 32 74 42 be 17 7e d1 bc
       0.016490238 0.024002627 -0.18989637 -0.02557282
000250 3b 9b d0 be f1 c3 3f be 8d db 27 3d 4a 44 81 bd
       -0.4074343 -0.1872709 0.040980864 -0.06311853
000260 1f 16 19 bd 1b b3 2f bd dd 2e 4e be 18 7f 07 be
       -0.037374612 -0.042895418 -0.20135064 -0.13232076
000270 1a 42 5f bd b7 43 12 be a4 c0 21 3c ed a8 2e be
       -0.0545064 -0.14283644 0.009872589 -0.17056628
000280 8e 95 7e 3d 07 28 b9 3d c4 fc bb 3d 07 ce 11 bd
       0.062154345 0.09040838 0.091790706 -0.035596874
000290 4f a9 10 bd e1 1f c0 bd 8c f8 0d 3d e4 c1 48 3c
       -0.035317715 -0.093810804 0.03466086 0.012253258

encoder.0.bias f4 [12]
000000 2c 3c 90 bc a9 a3 bc bd 46 ef 43 3e 02 14 e4 3e
       -0.017606817 -0.09210903 0.19134244 0.44546515
000010 da 95 ac 3e 98 df f1 3e 56 f4 07 be 78 b2 65 3e
       0.33708078 0.472409 -0.132768 0.22431362
000020 ef 2c 99 be 11 39 e2 3e f1 92 77 bc 89 a5 61 3e
       -0.29917094 0.44184163 -0.015110717 0.22035803

encoder.2.weight f4 [6, 12]
000000 23 1b 36 3c 31 b6 f2 bc 12 09 71 bd 36 44 3b bd
       0.011114868 -0.029627891 -0.05884654 -0.045719348
000010 0e 6d ce bd 7b fa c7 bd 75 28 5e 3d 30 fd 54 bd
       -0.10079394 -0.09764572 0.0542378 -0.05199927
000020 06 d1 2c 3d bb f2 ca bd 09 db 96 3c bc ff 68 bd
       0.042191528 -0.099095784 0.018414991 -0.056884512
000030 69 83 c9 bd f7 0d bf 3c 08 63 9b 3d 4d 06 17 be
       -0.098395176 0.023322089 0.07587248 -0.14748497
000040 e6 03 b3 be b0 7b bb bd 16 c0 4a be cc 01 20 be
       -0.34963912 -0.09154451 -0.19799837 -0.15625685
000050 49 14 0d 3e 66 8d 19 be bc 66 36 3e 86 bf 65 3d
       0.1377727 -0.14995345 0.17812628 0.056090854
000060 b9 74 d9 bc 54 4b 48 3b f2 68 43 be 5e de 5a bd
       -0.026544916 0.0030562477 -0.19083002 -0.053434722
000070 6d c3 89 3d b0 7c 08 3e 1a 4b 4e be b7 85 80 be
       0.06726728 0.13328815 -0.20145836 -0.25102016
000080 1c b0 3b 3e 98 30 88 bc 6f d6 01 be 19 c8 46 bd
       0.18328899 -0.016624734 -0.12679456 -0.04853067
000090 1f d0 f1 3d ec c0 e2 bb 64 a6 90 bd 59 b6 00 3e
       0.11807274 -0.0069199707 -0.070629865 0.1256956
0000a0 0b 88 4b 3b d2 99 5b be cb 1a 7c bd 05 33 24 be
       0.003105643 -0.21445397 -0.06154899 -0.16035087
0000b0 75 5a 3d bd e2 02 49 bd ef d3 40 3d 85 cd 14 3d
       -0.046228845 -0.049075015 0.047077116 0.03632881
0000c0 9c e5 ff bc cb 7b aa 3d cb 4e 29 3e d2 8a 03 3e
       -0.031237416 0.08324393 0.16533963 0.12845924
0000d0 e9 ff 90 3e d2 78 8c 3e 56 0d 1c be f6 9a 15 3e
       0.28320244 0.2743593 -0.15239462 0.14609894
0000e0 63 c4 f2 bd 60 8e 8e 3e d2 ed 53 bd 19 a9 23 3e
       -0.11853864 0.27842999 -0.051740475 0.15982474
0000f0 26 dc 0f be bc a0 2d be d3 80 97 be c7 a9 3d be
       -0.14048824 -0.16955847 -0.29590473 -0.18521796
000100 60 1a b6 bd 81 dd 26 be cd 17 d3 3d 96 10 44 be
       -0.088917494 -0.16295435 0.10307274 -0.19146952
000110 01 a4 f7 bc a4 d2 82 3c 55 29 06 3e 02 e0 66 be
       -0.03022957 0.015969582 0.13101704 -0.2254639

encoder.2.bias f4 [6]
000000 5c 74 8b 3e a5 19 38 bd c4 ac 5c be 63 89 b4 be
       0.27237213 -0.04494633 -0.2155028 -0.35261068
000010 b1 fa 1e 3e c7 27 4c be
       0.15525319 -0.19937049

mu.0.weight f4 [3, 6]
000000 fd bc a4 3e 93 67 3b 3e 73 b5 e3 bd 7d 77 dd bd
       0.32175437 0.18301229 -0.11118593 -0.10813806
000010 88 86 ea 3d b2 0f a6 3d 6d 1b ab be 89 8e 99 be
       0.11451441 0.081084624 -0.33419362 -0.29991558
000020 14 e6 97 be 32 a4 43 3e b1 97 f3 bd 7e b9 b0 be
       -0.29667723 0.19105604 -0.11894167 -0.3451652
000030 c4 61 64 3d c1 62 88 bc ae 83 d6 bd 98 3c a1 3e
       0.0557573 -0.016648652 -0.10474335 0.31491542
000040 2c 90 a2 3c 66 d8 7e be
       0.019844137 -0.24887237

mu.0.bias f4 [3]
000000 78 e4 d7 bd 2e 3d e0 3d c6 a6 95 bc
       -0.10541624 0.10949169 -0.018268

logvar.0.weight f4 [3, 6]
000000 ac f7 57 3e 2b 5b 9d be 1c 3c 93 bc 74 5a 53 be
       0.21090573 -0.30733618 -0.017972998 -0.20639974
000010 6c ba 99 3d 29 66 9a be 82 4d 4d bd 8e cf a1 3e
       0.0750626 -0.30156067 -0.050122745 0.31603664
000020 5c c0 ba 3d 60 05 9b bc 9d 22 92 bc 8b a6 80 be
       0.09118721 -0.018923461 -0.01783877 -0.25127062
000030 23 5d 29 3e ff 47 01 3e d0 6b 1e bd c1 f1 98 bd
       0.16539435 0.1262512 -0.038677037 -0.07467986
000040 34 1c 71 3d f1 72 76 3e
       0.058864787 0.24067284

logvar.0.bias f4 [3]
000000 c0 83 8d bd 34 87 86 3c 5f f4 5d bd
       -0.06909895 0.016421892 -0.05418813

exp_avg f4 [12, 14]
000000 64 99 8f 2b 9d 74 80 2d a2 df 7a 2c b1 07 4c 2c
       1.0203336e-12 1.4603702e-11 3.5651278e-12 2.8994413e-12
000010 aa da 28 2c 9b 40 af ab f9 c0 13 aa 6d a4 5a ab
       2.3995619e-12 -1.245243e-12 -1.3123174e-13 -7.7677345e-13
000020 9d 57 83 ad 09 27 a2 ac 62 b3 ff ab 83 28 e8 ab
       -1.4931884e-11 -4.6086507e-12 -1.8168628e-12 -1.6495836e-12
000030 6c ae d1 ab b0 67 b0 ab f5 a0 88 2d 4d df 23 ad
       -1.4898755e-12 -1.2534331e-12 1.553289e-11 -9.31506e-12
000040 ef a8 f3 2c 9f b6 c4 2c 61 7e c2 2c ba ca 31 2c
       6.925231e-12 5.59093e-12 5.5278425e-12 2.5265749e-12
000050 88 39 71 2c 16 96 82 ad db c1 1d 2d 9a 28 10 ad
       3.4280096e-12 -1.484594e-11 8.967461e-12 -8.194468e-12
000060 02 36 31 ac c9 b6 ae ab 8e 0e 84 2c 47 b0 b1 2c
       -2.5183193e-12 -1.2414177e-12 3.7532815e-12 5.0502133e-12
000070 71 0e 89 2c 3e f6 70 2d 1b fe 7b ac 89 6a 03 2d
       3.8953775e-12 1.3697097e-11 -3.5810302e-12 7.470143e-12
000080 62 f6 01 2d ad ea 01 2d ed 27 e6 2c 43 e9 83 ac
       7.387509e-12 7.3849095e-12 6.541426e-12 -3.749141e-12
000090 a9 80 7e ad 64 d2 a7 2c 34 a3 3f 2b f4 1c 22 2b
       -1.4466797e-11 4.7697835e-12 6.808332e-13 5.759414e-13
0000a0 d5 d3 3c 2c 32 da 96 2b 1d f3 9d ad 92 81 e1 ac
       2.6833997e-12 1.0718702e-12 -1.7956798e-11 -6.40927e-12
0000b0 a5 ed 2a 2c ab 49 2d 2d 76 be 37 2d 70 72 05 2d
       2.4290372e-12 9.850269e-12 1.04446365e-11 7.585585e-12
0000c0 4f ab da 2c 39 0f a2 2d 76 a2 dc 2c fb db 0c ab
       6.2149517e-12 1.8424028e-11 6.270813e-12 -5.0043276e-13
0000d0 b2 72 df 2c 50 3e bd 2c 30 15 0e 2d d6 43 f1 2c
       6.350775e-12 5.378621e-12 8.07647e-12 6.8571633e-12
0000e0 68 dc 18 ad 36 48 fd 2d a3 2b 31 2c 13 98 c7 2b
       -8.68914e-12 2.8794838e-11 2.5177436e-12 1.418201e-12
0000f0 b3 c2 27 2c 87 e5 f3 2b 90 c1 c1 2a 1c 0d 25 2d
       2.3840207e-12 1.7329895e-12 3.4417998e-13 9.382075e-12
000100 c5 f9 fb ad 1c 38 4c ac 15 51 51 ab d9 8e 51 ab
       -2.8646316e-11 -2.902129e-12 -7.436424e-13 -7.4449957e-13
000110 1a fe 23 2a ce a5 c6 2a b3 23 af 2c de a7 0a ad
       1.4565467e-13 3.5286916e-13 4.9777626e-12 -7.881666e-12
000120 a8 97 39 ac 5e 58 c7 2c 45 7e ce 2c 38 d7 e2 2c
       -2.6374267e-12 5.665731e-12 5.868891e-12 6.4472004e-12
000130 ad 65 c1 2c 0c 08 bd ac d7 65 03 2d 69 dd d9 2c
       5.496678e-12 -5.3725965e-12 7.469101e-12 6.1920924e-12
000140 a3 e2 c8 2c 27 ba d4 2c 46 18 e8 2c c6 79 99 2c
       5.7095036e-12 6.0460695e-12 6.5965315e-12 4.362041e-12
000150 9a 3b 79 2d 92 bf ad 2c 96 3c 6d 2b 8f 05 f1 2c
       1.41672455e-11 4.9382243e-12 8.4283394e-13 6.850249e-12
000160 81 06 d5 2c 25 27 a1 2c 62 97 c5 2c fd e6 77 ad
       6.054546e-12 4.580241e-12 5.6158836e-12 -1.4091614e-11
000170 19 e9 b6 ac 8b ac 43 ab 15 39 0a 2d 44 ef 15 2d
       -5.19863e-12 -6.951737e-13 7.8570666e-12 8.522797e-12
000180 78 ef 2c 2d a7 d0 29 2d 83 1b c2 ad 0c d4 29 ab
       9.830241e-12 9.652868e-12 -2.2067464e-11 -6.0335135e-13
000190 06 62 a4 2c 70 24 ad ac 1e c9 b0 ac bd 49 4b ac
       4.672043e-12 -4.921001e-12 -5.0245494e-12 -2.8888968e-12
0001a0 8a bb 4d ac 59 18 c5 2d 60 6a 2d a8 9a 4a 2a ab
       -2.9236357e-12 2.240712e-11 -9.6264956e-15 -6.0499663e-13
0001b0 19 6d dd ac 93 69 b3 ac b2 14 cf ac 12 39 c7 ac
       -6.29331e-12 -5.099207e-12 -5.8855915e-12 -5.6622563e-12
0001c0 6f e8 27 2d 77 34 12 2c 0c a8 11 2d c0 83 05 2d
       9.544462e-12 2.0776972e-12 8.27961e-12 7.589429e-12
0001d0 49 e9 f2 2c ad 13 a6 2b e4 0d 17 2c 60 d7 2e ad
       6.9039535e-12 1.180047e-12 2.1466101e-12 -9.938578e-12
0001e0 6f f5 34 ac 60 c1 6a 2c b1 72 f5 2c fa 0d 13 2d
       -2.5715782e-12 3.3360745e-12 6.976052e-12 8.359086e-12
0001f0 5f 7c 5c 2d e4 db 64 2d 13 bd ad 2d 60 86 5c 2d
       1.2533168e-11 1.3009125e-11 1.9751789e-11 1.2535389e-11
000200 45 9a 45 2c 02 f2 9e 2c d0 c8 93 2c 1a 7c bb 2c
       2.808102e-12 4.5174984e-12 4.200286e-12 5.3286377e-12
000210 3a ad ca 2c c3 c4 ad ad 44 e9 65 ad ba a3 cd ab
       5.7604173e-12 -1.9755203e-11 -1.3068938e-11 -1.4611569e-12
000220 2e ae 9b 2c 7f e0 a7 2c d3 9a e6 2c ea 04 b9 2c
       4.424703e-12 4.7713495e-12 6.554182e-12 5.258562e-12
000230 1a dd 1a 2b 33 f6 c1 2d dd 7c 18 ab ee a8 e0 ab
       5.501863e-13 2.2050894e-11 -5.417453e-13 -1.5963045e-12
000240 24 20 bc aa 5a e1 8f 2b e2 6d 71 ab 4f a3 dd aa
       -3.341781e-13 1.0223309e-12 -8.577289e-13 -3.9370804e-13
000250 22 8d c0 ad d4 d2 97 ac 75 88 d8 ab 80 0c f0 ab
       -2.1890548e-11 -4.3150847e-12 -1.5385598e-12 -1.7056495e-12
000260 cf 98 2a ac bc fa 54 ac 12 d0 a2 ad 56 ff 2a ad
       -2.4243279e-12 -3.0266198e-12 -1.850967e-11 -9.720077e-12
000270 63 81 db 2b a2 79 23 ad 73 0e 21 ad 8a 34 1a ad
       1.5596798e-12 -9.292485e-12 -9.154999e-12 -8.7655525e-12
000280 ed a7 19 ad 32 f2 a4 2d 25 b9 1d 2d a1 bc 28 ac
       -8.73433e-12 1.8752198e-11 8.965527e-12 -2.3978946e-12
000290 3c 81 a6 ac 3c 1a 85 ac a9 4c cc ab 76 a5 c2 ab
       -4.7323517e-12 -3.783e-12 -1.4516349e-12 -1.3830454e-12

exp_avg_sq f4 [12, 14]
000000 39 14 c4 1e 5d 94 f9 1e ec 40 ba 1f 79 28 2d 20
       2.0760671e-20 2.6425262e-20 7.888147e-20 1.4667061e-19
000010 7e 45 90 20 f9 ef ed 20 48 b6 e0 1e aa cd e5 1e
       2.4440535e-19 4.0308162e-19 2.3792312e-20 2.4331379e-20
000020 61 28 01 1f 55 d2 18 1e 7e 05 c8 1d 5b 24 91 1d
       2.7350213e-20 8.090309e-21 5.294524e-21 3.841877e-21
000030 9b 75 f9 1d 04 b2 8e 1d 60 b7 10 1f ec 63 2a 20
       6.6031352e-21 3.777115e-21 3.064487e-20 1.4432621e-19
000040 4f 2c 67 1f 6d f9 3d 1f 05 6f 13 1f 2a 4e 3c 1f
       4.8952804e-20 4.0228627e-20 3.1220294e-20 3.9875204e-20
000050 cf 70 38 1f 83 ea 1b 1f db c5 21 20 cf 4e 3e 20
       3.905683e-20 3.301651e-20 1.3702695e-19 1.6119702e-19
000060 1a cf 73 20 93 f2 bb 20 cb f6 44 21 e4 cd 86 1f
       2.0651425e-19 3.1839554e-19 6.673401e-19 5.7091825e-20
000070 2f 9f fe 25 a7 c0 71 26 ee d0 9f 26 8e a2 e4 22
       4.4169843e-16 8.3874764e-16 1.1089472e-15 6.1971635e-18
000080 76 62 cc 23 a8 1b d0 23 02 4e 96 23 ff 5a 58 25
       2.2159424e-17 2.2563118e-17 1.629607e-17 1.8765844e-16
000090 77 d0 78 25 34 3f 4c 25 22 92 da 21 e6 52 86 23
       2.1581202e-16 1.7715594e-16 1.4810936e-18 1.4563418e-17
0000a0 ea 2f cb 24 57 17 07 25 5c 62 9a 25 55 78 12 26
       8.8118386e-17 1.1717291e-16 2.6781392e-16 5.0817006e-16
0000b0 b2 a3 41 26 f1 64 8c 22 36 2e 79 23 d7 ea 7d 23
       6.7182175e-16 3.805395e-18 1.3508103e-17 1.3764887e-17
0000c0 b7 59 36 23 83 80 03 25 c5 39 17 25 c3 b7 f9 24
       9.885238e-18 1.140598e-16 1.3116735e-16 1.0829784e-16
0000d0 e6 13 95 21 99 48 23 23 72 e0 76 24 a8 be a3 24
       1.01019e-18 8.851621e-18 5.353286e-17 7.1012966e-17
0000e0 ed 12 db 21 ab 14 95 20 18 b4 e3 22 21 4d 56 23
       1.4845027e-18 2.525526e-19 6.1719155e-18 1.1617296e-17
0000f0 af c1 b3 23 cd 05 15 24 08 da 05 22 9f ad 04 22
       1.9489247e-17 3.2314138e-17 1.8140286e-18 1.798125e-18
000100 44 1e bf 20 d3 9b e0 20 1f 89 b3 20 59 3a 77 20
       3.2376687e-19 3.8050192e-19 3.0414519e-19 2.094102e-19
000110 99 62 15 21 01 23 b2 20 b7 a0 af 26 3a a2 26 27
       5.0613657e-19 3.0177537e-19 1.2186626e-15 2.312507e-15
000120 39 4c 5c 27 2d d5 9d 23 68 0a 8d 24 94 66 8f 24
       3.0572454e-15 1.7112258e-17 6.116663e-17 6.219014e-17
000130 6e 28 4f 24 02 94 15 26 30 08 2c 26 d6 06 0e 26
       4.4920215e-17 5.189535e-16 5.9685584e-16 4.927541e-16
000140 51 72 a9 22 ec cc 39 24 59 5e 8c 25 aa 48 ba 25
       4.592858e-18 4.0289056e-17 2.435006e-16 3.2315096e-16
000150 88 c0 07 21 db bb 0d 21 df 53 08 22 3e 7a 7a 22
       4.599459e-19 4.8021283e-19 1.8475838e-18 3.3946032e-18
000160 98 96 cf 22 e6 44 2d 23 3f 2b 39 21 fc 0c 24 21
       5.626691e-18 9.392939e-18 6.2737674e-19 5.5582546e-19
000170 4b 3e 0a 21 f5 5b 22 21 7a 5b 5c 21 b3 6b a3 21
       4.6838663e-19 5.500944e-19 7.465997e-19 1.1073817e-18
000180 a6 9d 2c 22 62 0c 83 20 32 97 c7 25 87 73 3d 26
       2.3393805e-18 2.2200457e-19 3.462345e-16 6.5729116e-16
000190 bf 24 7a 26 3f 93 fa 21 a3 f2 5f 23 44 dd 24 23
       8.6785974e-16 1.6979635e-18 1.21402345e-17 8.937313e-18
0001a0 45 a5 61 23 de a1 29 25 3d 3d 43 25 30 0d 21 25
       1.2232272e-17 1.4713256e-16 1.6934302e-16 1.3968992e-16
0001b0 94 72 3a 21 f3 b5 40 23 ec b5 9a 24 58 7e d3 24
       6.3170894e-19 1.044687e-17 6.709504e-17 9.17207e-17
0001c0 b6 1e b8 1e a8 98 34 1e f8 38 dc 1e 33 71 0d 1f
       1.949446e-20 9.560689e-21 2.3316968e-20 2.9951548e-20
0001d0 ba 18 15 1f 26 b2 c5 1e 50 6b c8 1e 5a 00 b7 1e
       3.157243e-20 2.0931867e-20 2.1220207e-20 1.9376024e-20
0001e0 73 9c 35 1e b8 76 9a 1e 0d 77 d9 1e d1 bc 05 1f
       9.614413e-21 1.6354485e-20 2.3025007e-20 2.832003e-20
0001f0 15 f7 73 1f ba 35 4d 1f af 0b c7 20 44 23 f2 21
       5.1661633e-20 4.345488e-20 3.3719643e-19 1.6407893e-18
000200 4b ec 36 21 cd 55 03 21 e0 a4 c3 20 53 24 11 21
       6.197673e-19 4.4498083e-19 3.314339e-19 4.9175986e-19
000210 d6 9d 14 21 85 d0 d9 20 8e 0d e5 21 33 b0 05 22
       5.0353245e-19 3.6899217e-19 1.5521231e-18 1.811814e-18
000220 bb f1 33 22 ab e5 89 22 49 57 0b 23 0a 4a 47 21
       2.4386995e-18 3.7377095e-18 7.5536884e-18 6.752181e-19
000230 e6 2e 59 1f 4d 76 c4 1e e3 11 69 20 6c 82 de 20
       4.599033e-20 2.0801235e-20 1.9741786e-19 3.769457e-19
000240 7a 54 3b 21 9d be 9b 21 c7 0f 86 1f 91 43 83 1f
       6.346987e-19 1.0553663e-18 5.677731e-20 5.559244e-20
000250 77 b7 d6 1e fa 99 2b 1e 6e 3b 01 1e a8 21 6f 1d
       2.273401e-20 9.084506e-21 6.841493e-21 3.1648786e-21
000260 3b f9 5e 1e 04 45 9b 1d bf e5 ee 25 e7 df 62 26
       1.1804122e-20 4.109952e-21 4.14421e-16 7.8712945e-16
000270 42 b3 95 26 77 45 1b 22 31 3f 86 23 4d 98 46 23
       1.038754e-15 2.1043191e-18 1.4555072e-17 1.07658525e-17
000280 4f aa 87 23 3b 14 4b 25 82 2e 6a 25 69 54 41 25
       1.4708858e-17 1.7614298e-16 2.0312022e-16 1.6768681e-16
000290 fc d4 dc 21 08 39 7c 23 cc e7 be 24 55 8e fd 24
       1.4964156e-18 1.3673024e-17 8.2792044e-17 1.0996238e-16

exp_avg f4 [12]
000000 49 5e a5 2d 15 c5 c6 2d c0 14 3e 2e da 4e 2a 2e
       1.88002e-11 2.2597516e-11 4.3219428e-11 3.872356e-11
000010 49 f4 41 2e 92 51 59 2e aa 1b 8a 2d 1f a8 10 2e
       4.4100088e-11 4.9412537e-11 1.5701069e-11 3.289113e-11
000020 f3 03 24 2d 82 14 42 2e 8b 6c c1 2d b0 7f 10 2e
       9.323198e-12 4.4128708e-11 2.1989762e-11 3.285522e-11

exp_avg_sq f4 [12]
000000 5a 3e 27 1f 20 c9 9b 1f ba 0a 30 25 7a 70 d5 24
       3.54152e-20 6.597779e-20 1.5269201e-16 9.256457e-17
000010 2f ed 4d 21 04 c8 f2 25 35 57 b9 20 c7 d0 09 25
       6.977061e-19 4.2115844e-16 3.1397928e-19 1.1953592e-16
000020 bc 65 d3 1e 8a 52 41 21 f3 a3 31 1f 7d 1a 25 25
       2.238257e-20 6.5500183e-19 3.7616824e-20 1.4320443e-16

exp_avg f4 [6, 12]
000000 56 5a 4c 35 d8 74 e8 b4 8d 0a 6d 35 60 78 ac 33
       7.612738e-07 -4.3298382e-07 8.8304733e-07 8.03127e-08
000010 b1 53 ad 35 00 7d 89 31 b2 48 8f b3 40 6b 0e b3
       1.2913862e-06 4.0014356e-09 -6.6721796e-08 -3.3159495e-08
000020 61 88 ee b4 99 51 8b 35 d9 44 c5 35 00 45 2b b2
       -4.4430183e-07 1.0380055e-06 1.4697681e-06 -9.969199e-09
000030 04 00 00 00 04 00 00 00 04 00 00 00 04 00 00 00
       6e-45 6e-45 6e-45 6e-45
000040 04 00 00 00 04 00 00 00 04 00 00 00 04 00 00 00
       6e-45 6e-45 6e-45 6e-45
000050 04 00 00 00 04 00 00 00 04 00 00 00 04 00 00 00
       6e-45 6e-45 6e-45 6e-45
000060 04 00 00 80 04 00 00 00 04 00 00 00 04 00 00 00
       -6e-45 6e-45 6e-45 6e-45
000070 04 00 00 00 04 00 00 00 04 00 00 00 04 00 00 00
       6e-45 6e-45 6e-45 6e-45
000080 04 00 00 00 04 00 00 00 04 00 00 00 04 00 00 00
       6e-45 6e-45 6e-45 6e-45
000090 04 00 00 00 04 00 00 00 04 00 00 00 04 00 00 00
       6e-45 6e-45 6e-45 6e-45
0000a0 04 00 00 00 04 00 00 80 04 00 00 80 04 00 00 00
       6e-45 -6e-45 -6e-45 6e-45
0000b0 04 00 00 00 04 00 00 00 04 00 00 00 04 00 00 00
       6e-45 6e-45 6e-45 6e-45
0000c0 c2 77 91 34 43 73 25 b4 2c bd a8 34 c0 eb f5 32
       2.709549e-07 -1.5408754e-07 3.143008e-07 2.862896e-08
0000d0 a3 c5 f6 34 00 cc c8 30 70 df cb b2 c0 53 4a b2
       4.596487e-07 1.4609896e-09 -2.3733918e-08 -1.177699e-08
0000e0 d6 c9 29 b4 18 5c c6 34 d8 6c 0c 35 00 1e 72 b1
       -1.5812779e-07 3.694738e-07 5.231245e-07 -3.5232688e-09
0000f0 04 00 00 00 04 00 00 00 04 00 00 00 04 00 00 00
       6e-45 6e-45 6e-45 6e-45
000100 04 00 00 00 04 00 00 00 04 00 00 00 04 00 00 00
       6e-45 6e-45 6e-45 6e-45
000110 04 00 00 00 04 00 00 00 04 00 00 00 04 00 00 00
       6e-45 6e-45 6e-45 6e-45

exp_avg_sq f4 [6, 12]
000000 31 cc a5 2f 2e 5f ff 2f 8c c6 25 30 af d1 6d 31
       3.0158412e-10 4.645186e-10 6.03088e-10 3.460723e-09
000010 ad e2 2e 31 b1 ef 45 31 a7 09 b9 2f 72 6c b3 30
       2.5449183e-09 2.8803522e-09 3.3658162e-10 1.3054786e-09
000020 58 cc 53 2d 7f ed 62 31 73 10 9c 30 b6 d7 a3 30
       1.2039335e-11 3.302233e-09 1.1355169e-09 1.192112e-09
000030 72 db 82 0c 80 89 21 0e ba 31 46 0b 24 64 3c 09
       2.0161745e-31 1.9910986e-30 3.8170823e-32 2.2676763e-33
000040 1a c6 29 08 22 59 8a 0c e0 c9 05 06 91 a1 02 07
       5.1089455e-34 2.1315911e-31 2.5162834e-35 9.827593e-35
000050 85 22 04 00 b7 26 68 0d 67 20 c1 0d 26 09 38 0c
       3.79725e-40 7.153712e-31 1.1902344e-30 1.4177597e-31
000060 02 0c 9f 00 29 4d 15 10 16 13 7a 0c 04 3a 1a 0f
       1.4606151e-38 2.944451e-29 1.9265043e-31 7.6039596e-30
000070 25 0d 62 00 46 66 99 13 11 19 58 0b 93 16 2a 08
       9.004594e-39 3.872348e-27 4.1618945e-32 5.118405e-34
000080 84 55 4f 07 8b 2e 56 11 a3 e2 81 06 14 fa 64 11
       1.559808e-34 1.6895966e-28 4.885742e-35 1.806309e-28
000090 f9 7b 96 1b bf 1c 6a 1a cd 57 08 1c 42 55 1b 1e
       2.4895534e-22 4.8413287e-23 4.5112105e-22 8.2232626e-21
0000a0 7e 63 13 1d 4c a5 40 19 d1 af 1b 19 27 7e 84 14
       1.9506724e-21 9.959549e-24 8.048818e-24 1.3378352e-26
0000b0 f3 5f 04 10 64 58 74 0c ad b9 98 1c 20 c6 28 18
       2.6106326e-29 1.8823675e-31 1.0106512e-21 2.1813519e-24
0000c0 ff 02 28 2e 0d 64 81 2e 5e fd a7 2e bb ff f0 2f
       3.820144e-11 5.8840134e-11 7.639288e-11 4.3837453e-10
0000d0 a6 38 b1 2f fe 94 c8 2f 46 82 3b 2e a5 d3 35 2f
       3.2236364e-10 3.6485653e-10 4.2634583e-11 1.6537045e-10
0000e0 7a a0 d6 2b 3c f5 e5 2f d7 25 1e 2f 2a 0a 26 2f
       1.5250156e-12 4.1829107e-10 1.438346e-10 1.5101223e-10
0000f0 f4 01 00 00 46 4f 04 00 2f b7 03 00 61 0d 00 00
       7e-43 3.9578e-40 3.4122e-40 4.8e-42
000100 42 67 00 00 1c b1 04 00 8c 87 f2 01 f4 01 00 00
       3.7042e-41 4.30877e-40 8.909126e-38 7e-43
000110 ad 81 18 00 07 56 9b 01 f4 01 00 00 f4 01 00 00
       2.250571e-39 5.706145e-38 7e-43 7e-43

exp_avg f4 [6]
000000 46 29 99 35 04 00 00 00 04 00 00 00 04 00 00 00
       1.14114e-06 6e-45 6e-45 6e-45
000010 48 16 da 34 04 00 00 00
       4.0621876e-07 6e-45

exp_avg_sq f4 [6]
000000 80 84 51 32 63 13 83 0d 11 9b b5 12 f7 e4 bc 1c
       1.2195528e-08 8.0781655e-31 1.1460933e-27 1.2499982e-21
000010 ec 50 d4 30 a8 10 a1 00
       1.544803e-09 1.479149e-38

exp_avg f4 [3, 6]
000000 64 3e 97 33 04 00 00 80 04 00 00 00 04 00 00 80
       7.042834e-08 -6e-45 6e-45 -6e-45
000010 a6 ac a0 35 04 00 00 80 a0 8a 85 b3 04 00 00 00
       1.1971176e-06 -6e-45 -6.218511e-08 6e-45
000020 04 00 00 80 04 00 00 00 a6 c4 98 b5 04 00 00 00
       -6e-45 6e-45 -1.1382115e-06 6e-45
000030 68 55 32 33 04 00 00 80 04 00 00 80 04 00 00 00
       4.152153e-08 -6e-45 -6e-45 6e-45
000040 8c 5b 20 35 04 00 00 80
       5.9737863e-07 -6e-45

exp_avg_sq f4 [3, 6]
000000 e8 a5 af 2e 45 58 03 07 c5 74 cd 09 56 07 10 15
       7.9875495e-11 9.881285e-35 4.9461764e-33 2.9086355e-26
000010 e7 24 17 32 64 2e 00 00 09 d6 b6 2e ab f8 b0 07
       8.797747e-09 1.6642e-41 8.314422e-11 2.662769e-34
000020 18 00 81 0c cc 65 bd 15 dc 58 1d 32 e5 0d 00 00
       1.9875653e-31 7.64971e-26 9.158807e-09 4.984e-42
000030 c7 4a e2 2d 07 23 cf 05 3b 9c 5b 0a cd c7 46 16
       2.5726433e-11 1.9479053e-35 1.057385e-32 1.6057359e-25
000040 b4 a3 41 31 7e 3f 00 00
       2.817825e-09 2.2777e-41

exp_avg f4 [3]
000000 60 4b cb 35 f0 53 bf b5 6c 1e 50 35
       1.5146616e-06 -1.4255038e-06 7.753031e-07

exp_avg_sq f4 [3]
000000 74 50 8f 32 51 31 95 32 f2 d3 b7 31
       1.6683977e-08 1.736831e-08 5.3500964e-09

exp_avg f4 [3, 6]
000000 28 90 04 32 04 00 00 80 04 00 00 00 04 00 00 00
       7.716189e-09 -6e-45 6e-45 6e-45
000010 60 47 8a 34 04 00 00 80 b8 f9 59 b2 04 00 00 80
       2.5756435e-07 -6e-45 -1.2687842e-08 -6e-45
000020 04 00 00 00 04 00 00 80 28 cc 53 b4 04 00 00 80
       6e-45 -6e-45 -1.9725178e-07 -6e-45
000030 f8 82 61 32 04 00 00 80 04 00 00 00 04 00 00 80
       1.31265026e-08 -6e-45 6e-45 -6e-45
000040 60 04 98 34 04 00 00 80
       2.831539e-07 -6e-45

exp_avg_sq f4 [3, 6]
000000 b1 27 6c 2d 34 e3 1c 09 e3 68 bc 0c 9d 2b 8a 16
       1.342386e-11 1.8884647e-33 2.9029113e-31 2.2322626e-25
000010 2d e1 ca 30 f5 38 01 00 d7 3a db 2c cf fc 09 07
       1.4761433e-09 1.12268e-40 6.230887e-12 1.0381028e-34
000020 e4 c0 40 09 78 26 34 11 4f 77 3b 30 17 16 00 00
       2.3201856e-33 1.421135e-28 6.819975e-10 7.924e-42
000030 d9 53 43 2d 21 dc 81 05 ba 3e ca 07 a8 c3 67 13
       1.1103085e-11 1.2211964e-35 3.043045e-34 2.9252765e-27
000040 ae b5 a7 30 24 04 00 00
       1.2202486e-09 1.485e-42

exp_avg f4 [3]
000000 58 b3 a2 34 58 bc 87 b4 cc 81 ba 34
       3.030534e-07 -2.5282748e-07 3.473964e-07

exp_avg_sq f4 [3]
000000 b6 6f 40 31 59 fe b1 30 d7 18 1f 31
       2.8003178e-09 1.2950735e-09 2.3151665e-09
