models/vae_lhc_mjj_bin_141263_9of10.pt (torch, 784413 bytes, 24 tensors)

encoder.0.weight f4 [12, 14]
00000000: 24bc 2a3e a280 3abe 03c7 f3bd af47 dbbc
00000010: 705d 843c 97a6 383d 0a82 f6bc f4e4 213e
00000020: 1ab3 43be 419f d0bd 45eb cc3d a1c3 1cbe
00000030: bf64 20bd a737 3d3d 282d 313d e232 1cbe
00000040: f2d8 c8bd a19b a23d ba48 a9bc 552a 9739
00000050: e993 1cbe 024b 2e3d 9bb5 4fbe 63f2 a5bd
00000060: 2154 1f3e f9b4 753e 1b38 b0bd 846e 243e
00000070: 4246 0ebc cd97 1fbc 4896 ecbd a7a6 6e3e
00000080: 0a59 72be 9b8c 95bd 7af3 b63d 6a68 3f3d
00000090: 18f0 153d 34a6 abbd d83e 303d 2b5c babd
000000a0: 4dd8 9c3d f9e8 a8bd cd22 e7bd ee70 a93d
000000b0: c5f6 d53d 935b b0bd a604 103e 1f91 9abd
000000c0: ec6d 493d 6e38 ebbd 5264 a63d 9755 bf3d
000000d0: 1eaa 06be 930d 9a3e 4324 25be fedb c13d
000000e0: 77a3 423e f693 453c 8192 aa3d 71d5 003e
000000f0: 1b75 e2bd ee37 a13b 20bb 31be 7d13 553e
00000100: 7787 4d3d fbce c3bc ba51 863d 1b9b 033e
00000110: 1b7f 2e3e 3584 3bbe bd84 373e fd1c 8bbe
00000120: 7ebc 033e 0788 4d3d 4542 47bc 183d a3bd
00000130: a2f9 08be 34bf 613e 49ac 66be af87 ad3c
00000140: 0ab0 6b3d e729 7e3e f3b3 73bd 6f4d a7bc
00000150: ca8d a7bd 6c2e 43be 9e64 edbd b6a2 eebc
00000160: 5225 64bd b94f 85bc 8923 88bd 4395 7f3d
00000170: ae85 e7bd 35b2 58bd 4f58 263e 45a7 b73d
00000180: 43d1 353d 4793 ccbb 76de 6b3e 3c92 0d3e
00000190: 4ef1 363e 5427 193d 73aa c43d d0bf 923c
000001a0: 2f29 d33d dbd9 4f3c 9b57 a83c eed0 a73d
000001b0: 5d2d 87be 835e dfbd d4f8 e0bd 20ca 293d
000001c0: fd41 183d eb82 5c3b ce52 94bd 8b68 76bd
000001d0: ab7d 173b b3ce 1bbe 248e 363d 906e 2d3e
000001e0: 3282 863d 51da d1bc 9690 a23b 6f68 613e
000001f0: eae9 abbd 34cd 4e3d 5f19 7d3c bfc0 72bd
00000200: fdfc 95bd 09bb 063d d744 9dbd 9ca7 f63c
00000210: 52ad 16bd 6c5f 4a3d 2de7 26bd 6063 5bbd
00000220: 6567 c63d a412 ebbd 589a b23d d53f 43bd
00000230: 4545 da3d 4624 ddbb 5970 b5bd 3db0 0fbe
00000240: e28e 2f3d 9825 333e d95b 35be 53ab e0bd
00000250: 751c f9bd 9f32 40bb 49c1 113e b1df 31bd
00000260: 21d4 4f3e 50d7 79bd 90ca 353d 452f 1bbe
00000270: a245 c2bd f615 9d3d 99d2 a1bc 156b 8f39
00000280: e784 17be af4e 333d e008 4dbe ff97 a0bd
00000290: 40ef 193e 2d11 6e3e 5b93 acbd 91e7 1f3e
0.16673332 -0.18213132 -0.11903193 -0.02676758 0.016157836 0.045080747 -0.030091304 0.15809995
-0.1911129 -0.10186625 0.100058116 -0.15309002 -0.03915858 0.046195652 0.043255955 -0.15253785
-0.09807004 0.0793984 -0.020664562 0.00028832504 -0.15290798 0.042552 -0.2028412 -0.08102872
0.15559436 0.23994817 -0.08604451 0.16057783 -0.008683743 -0.009740782 -0.115521014 0.2330576
-0.23666778 -0.07302209 0.08933158 0.046730436 0.036605924 -0.0838131 0.043028682 -0.09099611
0.076584436 -0.08247561 -0.112859346 0.08273493 0.10447458 -0.086112164 0.14064273 -0.07547211
0.049177095 -0.114853725 0.08124603 0.09342497 -0.13150832 0.3008848 -0.16127114 0.09465788
0.1900767 0.012059202 0.08328725 0.12581421 -0.11057492 0.0049199974 -0.17356539 0.20808215
0.050178017 -0.023902407 0.06558557 0.12852137 0.17040674 -0.18312152 0.1792173 -0.27170554
0.12864873 0.050178554 -0.012161796 -0.07970637 -0.13376477 0.22045594 -0.22526659 0.021182863
0.05754093 0.24820672 -0.059497785 -0.020422665 -0.08181341 -0.19060677 -0.11591457 -0.029130321
-0.055699654 -0.016273366 -0.06647403 0.062398206 -0.11304794 -0.052904326 0.16244625 0.08967451
0.04438902 -0.0062431428 0.23034081 0.13825315 0.17865488 0.03739102 0.09602823 0.017913729
0.103105895 0.012686218 0.020549586 0.08194147 -0.26401797 -0.109066986 -0.1098496 0.041452527
0.037172306 0.003364737 -0.07242356 -0.060158294 0.0023115675 -0.15215568 0.04456915 0.16936707
0.065678015 -0.025616797 0.0049610836 0.22012495 -0.08394225 0.050488666 0.0154479435 -0.05926585
-0.07323644 0.032893214 -0.07679146 0.03010922 -0.036786385 0.049407408 -0.04074781 -0.05356157
0.0968769 -0.11478165 0.08720845 -0.047668297 0.10657743 -0.006748709 -0.08859319 -0.14032073
0.042860873 0.1749481 -0.17710818 -0.109701775 -0.12163631 -0.0029327048 0.14233889 -0.04342622
0.20295765 -0.060996354 0.04438263 -0.1515475 -0.09485938 0.07670204 -0.019753741 0.00027354868
-0.14796792 0.04377621 -0.20022917 -0.07841491 0.15032673 0.2324874 -0.08426543 0.1561568

encoder.0.bias f4 [12]
00000000: 4e56 89be 49cb dabd 4cf9 b43d 8013 c63e
00000010: 547e 043d 2137 9b3d f7aa 0dbe 8590 573e
00000020: 23f4 1abe c597 f23e 0054 6e3d cbac d3bd
-0.26823658 -0.10683305 0.08836612 0.38686752 0.03234704 0.075788744 -0.13834749 0.21051224
-0.15132193 0.47381416 0.058185577 -0.10335692

encoder.2.weight f4 [6, 12]
00000000: 9c6d 243e 1fca f33c a121 f83c daf0 49bc
00000010: 51ad 8dbc 9189 043e 900a ecbc f4ea 2c3e
00000020: 674d 38be 84ef 273d 167c 0e3e 298d df3d
00000030: 1a67 a03d 665c 113e 1fc3 de3d a36a 103e
00000040: f27d 17be c040 6a3e 64d8 a03c 32f5 193e
00000050: 55a0 9bbd 6ffe 1e3e aaa6 853e 82e3 36be
00000060: a545 413e 47de ca3c b152 e43c 018c 5dbd
00000070: 23c6 00bc 8de2 083e b51c 9abc 7d26 353e
00000080: deab 53be d877 febc 9d98 133e 1530 103e
00000090: 13b9 14be c302 b9bd 85e4 cd3d 04a6 823e
000000a0: e8e2 32be 81fa ea3d 0397 343d 0eeb 10bd
000000b0: b3ef 2d3e c977 823e f1c4 113e 87d4 23be
000000c0: e3d8 ff3d 59b8 a53c cb4d 9b3c fa28 04bc
000000d0: 5e50 a53d 211e f93d c8c3 38bd dc53 a9bd
000000e0: f025 12be 1ebf 74be 2b6e f53d 0565 1fbe
000000f0: 573e a13c caee b0be cddd 1b3e 71de 443c
00000100: 4cf9 3b3c b90f 91bd 0e69 083d 2a29 a8bd
00000110: c83a 1abe db4a 66be 0b87 c43d 7c0b fa3d
0.16057438 0.029759465 0.030289473 -0.01232549 -0.017294558 0.12943102 -0.02881363 0.16886503
-0.17998277 0.040999904 0.13914523 0.10915596 0.07832165 0.14195403 0.1087706 0.14103179
-0.14794138 0.22876263 0.019634433 0.15034941 -0.0759894 0.15526746 0.26103717 -0.17860225
0.18874224 0.024764193 0.027871462 -0.054088596 -0.0078597395 0.13367672 -0.018812517 0.17690463
-0.20671031 -0.031063005 0.14413686 0.14080842 -0.14523725 -0.0903373 0.10053352 0.25517285
-0.1746937 0.11473561 0.04408933 -0.035380416 0.16985969 0.25482014 0.14235283 -0.15999041
0.1249254 0.020229505 0.018957993 -0.00806641 0.080719694 0.1216395 -0.045108587 -0.08267948
-0.14272285 -0.2390103 0.119839035 -0.1556588 0.019683046 -0.34557182 0.15221329 0.012015925
0.011473011 -0.07083077 0.033303313 -0.082109764 -0.15061486 -0.22489493 0.0959607 0.12209222

encoder.2.bias f4 [6]
00000000: 2ea1 133e 21ad d6bd 5398 cb3d a076 b43e
00000010: 7600 6bbe 4cee 8b3c
0.14416954 -0.104822405 0.09941163 0.35246754 -0.22949395 0.017081402

mu.0.weight f4 [3, 6]
00000000: f5d0 023d a717 14be 2e2d f33d 2512 e93d
00000010: aa94 e73d bfb1 083c 725a 2ebc 491f 753e
00000020: b8dd 70be a514 43be f410 7b3e e199 923d
00000030: cf85 993e b7c9 adbe 8bcb 943d c5ef 823e
00000040: 3a60 203e 9d5a 4b3e
0.03193756 -0.14462148 0.11873852 0.11380414 0.11307652 0.008343159 -0.010641681 0.23937716
-0.23522079 -0.19050844 0.24518186 0.07158256 0.299849 -0.3394296 0.07265385 0.25573555
0.15661708 0.19858785

mu.0.bias f4 [3]
00000000: 1190 98bd 152f f63d 9dea 43be
-0.074493535 0.12020699 -0.19132467

logvar.0.weight f4 [3, 6]
00000000: 418a 263c 524c 84bd 20a2 683d 0a10 513d
00000010: fca8 b03e fc03 503d 695e bebd cf2c eb3d
00000020: 7b8b 04bd 5f11 b2bd e9fc 453d ea9f 74bc
00000030: e715 94bd ebce 0f3e bbab 9ebd 480e debd
00000040: f0d2 153e 0eb6 b13d
0.010164798 -0.064598694 0.05679524 0.051040687 0.34503925 0.05078505 -0.09295351 0.11483156
-0.03235958 -0.086947195 0.048336897 -0.014930705 -0.0723074 0.14043777 -0.07747599 -0.10842568
0.14631248 0.08677302

logvar.0.bias f4 [3]
00000000: 990f 07bd 1248 833d d058 9a3d
-0.03297386 0.06410231 0.07536471

exp_avg f4 [12, 14]
00000000: cb0b 2233 f001 f5b3 2b05 59b5 ef01 46b4
00000010: 83ca dbb3 6214 b9b3 8e71 e4b3 cee6 98b2
00000020: 504e 8233 eb84 b933 db04 65b1 f671 90b3
00000030: e2ac 5f32 3665 be33 3823 99b4 5dd3 d6b5
00000040: 0ef6 12b7 3c13 b8b5 fc54 8cb5 51e4 69b6
00000050: 1e04 5cb4 7e61 8235 344d d735 aabb a1b6
00000060: a0c2 4434 11a5 9d35 d2c7 2535 e46b 7e36
00000070: 4759 9d31 f353 1eb2 5f8d 19b2 7bd7 bf31
00000080: b619 9731 ab39 3730 ee74 b431 51b5 d831
00000090: 4e46 9f31 c52c 19b2 9bce 1f32 6997 1832
000000a0: 61f5 0d32 84ca 8732 01e2 42b5 30bc 1535
000000b0: 26ff 44b5 7536 93b5 bf8e b1b5 d1f6 41b5
000000c0: 1724 aab5 53cd cbb4 70ef c6b4 f855 0c36
000000d0: 4c4c 35b5 ade1 2db5 e073 75b5 2376 ceb5
000000e0: dad7 f832 64b1 bc31 9fe5 0d32 cff8 2133
000000f0: 7ae1 be32 dff3 9f32 e493 6d32 9f55 14b2
00000100: d1a2 72b2 844a 80b2 f438 9eb2 04ab 3cb1
00000110: fb47 df32 fa9d 0633 026a 2bb2 75f1 3132
00000120: 8856 9a32 9e8b e1b2 af39 7db2 aae9 b7b2
00000130: 6a87 b9b2 3db1 51b2 ea5b a030 1294 a232
00000140: 8a44 cfb0 861a deb1 4619 d8b2 2669 0eb3
00000150: 29d5 5035 e840 67b5 7afa 6fb5 9e74 7734
00000160: 2ec7 6834 2169 7934 f460 d034 c2a5 8234
00000170: 6ac6 4db4 15a9 c134 5034 e8b4 e629 2fb3
00000180: 2df9 c9b4 384c 1735 d543 5634 30d7 96b4
00000190: 8dc1 1cb5 6d98 53b4 0f47 97b4 846e b3b3
000001a0: 4812 49b4 1514 5333 2692 8cb4 3001 0235
000001b0: eb8d f3b4 1df0 46b4 ec2c 12b5 9b82 46b4
000001c0: 44f6 a2b2 0f18 d432 bae4 8432 57ac 8bb1
000001d0: 80a3 c1af ee0c 55b1 d448 f7b1 fcc2 20b2
000001e0: 62e3 0f32 d9b7 7ab1 1004 59b2 e8a4 6cb2
000001f0: aff9 a5b2 c8be 34b3 197f 1fb6 d597 8335
00000200: 134c d7b5 a830 4bb6 ef64 6bb6 3fb6 02b6
00000210: ec6d 52b6 7cb8 23b4 2b9e 0eb5 796f 4036
00000220: e3f8 dfb5 74bc f6b5 c2e2 1ab6 1bfb 82b6
00000230: d980 0831 e8c2 0baf 6a9f a0b0 3882 3630
00000240: 8e2b fc2f be33 422e a529 40b0 a2f2 79b0
00000250: a4fa 4fb0 6da4 1930 62a7 d6af 3cb9 c9ae
00000260: f065 0931 d2bc 1231 58f1 8c34 91de ec35
00000270: 3ff3 1a37 f4d0 af35 f678 8335 4c7a 6b36
00000280: 5044 db33 f8db 81b5 4fc8 edb5 e389 a436
00000290: e452 61b4 0c76 a6b5 9244 27b5 bfe5 80b6
3.772929e-08 -1.1409054e-07 -8.084632e-07 -1.844089e-07 -1.0234819e-07 -8.6184414e-08 -1.0637733e-07 -1.7800087e-08
6.067842e-08 8.6389115e-08 -3.3326646e-09 -6.726252e-08 1.3019617e-08 8.8659746e-08 -2.8524096e-07 -1.6005757e-06
-8.759567e-06 -1.3714666e-06 -1.0455547e-06 -3.4852603e-06 -2.0490594e-07 9.714129e-07 1.6041217e-06 -4.820021e-06
1.8324727e-07 1.1745452e-06 6.1758067e-07 3.791175e-06 4.579451e-09 -9.215898e-09 -8.937916e-09 5.583329e-09
4.3976014e-09 6.6656963e-10 5.251983e-09 6.3070407e-09 4.6355018e-09 -8.9159515e-09 9.301995e-09 8.881991e-09
8.263073e-09 1.5808162e-08 -7.259951e-07 5.5780674e-07 -7.338698e-07 -1.0968203e-06 -1.3229072e-06 -7.225727e-07
-1.267649e-06 -3.796109e-07 -3.7054588e-07 2.0911666e-06 -6.753878e-07 -6.4775924e-07 -9.143823e-07 -1.5382578e-06
2.8969158e-08 5.491687e-09 8.25949e-09 3.7712024e-08 2.2221446e-08 1.8620936e-08 1.3828842e-08 -8.634202e-09
-1.4123274e-08 -1.4935047e-08 -1.841952e-08 -2.7454812e-09 2.599335e-08 3.1342985e-08 -9.977613e-09 1.0357657e-08
1.796731e-08 -2.6256938e-08 -1.4739654e-08 -2.1410262e-08 -2.1598414e-08 -1.22057005e-08 1.1667656e-09 1.8926617e-08
-1.5080712e-09 -6.4640657e-09 -2.5157203e-08 -3.3157583e-08 7.7796227e-07 -8.6148657e-07 -8.939893e-07 2.3046093e-07
2.1679145e-07 2.3228178e-07 3.8813562e-07 2.4334992e-07 -1.9164295e-07 3.6072075e-07 -4.325143e-07 -4.078347e-08
-3.7620467e-07 5.6362796e-07 1.995498e-07 -2.8096247e-07 -5.839618e-07 -1.9706359e-07 -2.8177644e-07 -8.35544e-08
-1.8726234e-07 4.914553e-08 -2.618337e-07 4.84305e-07 -4.5365536e-07 -1.852754e-07 -5.445461e-07 -1.8487701e-07
-1.897127e-08 2.4690989e-08 1.5470835e-08 -4.065025e-09 -3.522267e-10 -3.100293e-09 -7.1969257e-09 -9.35756e-09
8.375396e-09 -3.6484293e-09 -1.2631986e-08 -1.3774503e-08 -1.9322071e-08 -4.208303e-08 -2.3766827e-06 9.80445e-07
-1.6040889e-06 -3.027768e-06 -3.507648e-06 -1.947759e-06 -3.1356421e-06 -1.5247673e-07 -5.3129287e-07 2.8675115e-06
-1.668723e-06 -1.8383275e-06 -2.3079779e-06 -3.9035344e-06 1.9863846e-09 -1.2711221e-10 -1.168684e-09 6.6396266e-10
4.586948e-10 4.415645e-11 -6.9908374e-10 -9.0930474e-10 -7.5662343e-10 5.589474e-10 -3.9045306e-10 -9.173326e-11
1.9994069e-09 2.1353128e-09 2.6252633e-07 1.7648146e-06 9.23575e-06 1.3099329e-06 9.795465e-07 3.5088915e-06
1.0210408e-07 -9.675268e-07 -1.7716173e-06 4.903633e-06 -2.0984913e-07 -1.240232e-06 -6.231213e-07 -3.8414432e-06

exp_avg_sq f4 [12, 14]
00000000: 9f38 392b 808b 632b 14c0 802c 0353 6c2b
00000010: 3358 812b d653 0c2c a7c4 462b 7f01 2c2b
00000020: cdb8 502b 16b1 8e2b 3c0e bd2a 3081 912a
00000030: a528 c92a 4440 d42a d2b9 d030 b05f ca30
00000040: 9890 3831 e8eb ff30 7c66 f330 7eac 0f31
00000050: 9596 ac30 a414 c330 6a74 bc30 12a6 a430
00000060: 02ca b731 5dc8 bb31 efc7 f731 28bf 8731
00000070: 865d c82a 22c8 792a 9f32 fa29 4203 572a
00000080: 45fa 792a a363 1c2b 8205 782b 9077 bb2a
00000090: 4ace 0f2a ee17 212a 164e a12a 320b 0b2b
000000a0: ccf8 c62b f799 b72a c96b 422e 4483 182e
000000b0: 9422 892e 2059 372e 4fd8 322e 42da 4d2e
000000c0: f4de 292e 64ab 2e2e 9c79 ff2d 408a 1e2e
000000d0: 6ee7 702e f7b6 802e c93e 7a2e c278 7e2e
000000e0: 8fd1 172b c79f 832a 9b4f 0329 332c 362a
000000f0: 9209 082a c7be d829 2581 ff29 1551 112b
00000100: 8a88 9128 402c 852a ce3f 1d29 a4d8 c429
00000110: 7628 bb2a 49b0 0f2b b212 4028 e515 3a28
00000120: 0a82 5028 69da 1528 addf 0228 1e6a d027
00000130: 67cf da27 473b 3728 9ba7 1528 a022 5528
00000140: 5bae c728 c5df ca28 a223 2e29 ff11 9b28
00000150: 47bb 342d 0412 382d 5b83 d22d 29b1 ff2c
00000160: 9f9d cc2c fbb0 c12c 410d cc2c 88dd 2a2d
00000170: 62c8 1d2d efe9 1b2d 8705 d72d 9acf d92d
00000180: 1160 292e e130 972d 0d6b 4b2c 2c89 3a2c
00000190: 2f19 db2c c599 a32c 4a3d af2c 12b3 062d
000001a0: 237a 892c 07e9 322c 227f 2a2c 5c78 5a2c
000001b0: 843d 522c 1519 4a2c 0591 352c e21e 412c
000001c0: c500 712c a758 072c 8e99 6c2c 72bc 132b
000001d0: 3740 182b 8676 fc28 98e7 c02a 8038 4e2c
000001e0: 7061 522c 1b6f 5f2b ed5c 722b 015e 5d2b
000001f0: 852f 952a b4cd 4d2b a7a9 a62f a8ab 9f2f
00000200: d385 4030 1863 a82f 4ff1 a22f a10c e12f
00000210: 87c5 8e2f 1bf3 972f 9680 8e2f 1d8e a12f
00000220: a491 e62f a399 e92f 1335 3c30 adb5 ca2f
00000230: d154 2025 a719 ca28 931e f327 04da 2c29
00000240: 8895 8829 6d2d 652a ce4b b82a 5f18 2325
00000250: 1af1 de28 ff9d ae26 2624 e929 ee33 472a
00000260: 7486 0c2b 49a1 aa28 f67c df30 bd03 d930
00000270: d5d0 4431 6cf3 0831 3141 0231 6383 1931
00000280: f5d1 b730 dbf6 d030 b56f c930 2034 af30
00000290: ed88 c431 6abd c831 045c 0432 3e42 9131
6.580378e-13 8.0840196e-13 3.6593038e-12 8.3959245e-13 9.190481e-13 1.9941735e-12 7.061664e-13 6.110875e-13
7.4152907e-13 1.0138858e-12 3.358302e-13 2.5846816e-13 3.5732975e-13 3.7703358e-13 1.5186805e-09 1.472463e-09
2.6857716e-09 1.862074e-09 1.7709705e-09 2.090729e-09 1.2557445e-09 1.4193984e-09 1.3711887e-09 1.197977e-09
5.3489666e-09 5.465195e-09 7.211376e-09 3.950749e-09 3.5592032e-13 2.2185078e-13 1.11110116e-13 1.9096966e-13
2.2202472e-13 5.5560607e-13 8.8114943e-13 3.3300836e-13 1.2772522e-13 1.4307975e-13 2.8653528e-13 4.9398257e-13
1.4137801e-12 3.2614165e-13 4.4206225e-11 3.4677386e-11 6.236181e-11 4.168854e-11 4.0664635e-11 4.6805455e-11
3.8624173e-11 3.9715245e-11 2.9044149e-11 3.604783e-11 5.4775233e-11 5.853267e-11 5.6899183e-11 5.7860168e-11
5.39368e-13 2.3381142e-13 2.915689e-14 1.6180182e-13 1.2082547e-13 9.6254215e-14 1.1346678e-13 5.162687e-13
1.6157448e-14 2.365625e-13 3.4916345e-14 8.74173e-14 3.3245948e-13 5.104845e-13 1.0662195e-14 1.0329822e-14
1.1574517e-14 8.318522e-15 7.264952e-15 5.784665e-15 6.073202e-15 1.0171394e-14 8.307505e-15 1.1831383e-14
2.2169053e-14 2.252355e-14 3.8666668e-14 1.7216261e-14 1.0273399e-11 1.0463189e-11 2.393257e-11 7.2672046e-12
5.815528e-12 5.5050387e-12 5.7995e-12 9.712571e-12 8.968911e-12 8.862674e-12 2.4445125e-11 2.4762237e-11
3.8511475e-11 1.7188419e-11 2.890746e-12 2.6508335e-12 6.2271503e-12 4.6498105e-12 4.9806036e-12 7.65678e-12
3.907334e-12 2.5424678e-12 2.4229026e-12 3.1046476e-12 2.9876943e-12 2.871985e-12 2.580215e-12 2.7444093e-12
3.4248587e-12 1.9233866e-12 3.3622857e-12 5.248641e-13 5.4090364e-13 2.8029022e-14 3.4266752e-13 2.9305725e-12
2.9896884e-12 7.9379705e-13 8.610463e-13 7.864543e-13 2.650069e-13 7.31161e-13 3.031577e-10 2.90439e-10
7.003937e-10 3.0629432e-10 2.9639088e-10 4.0936235e-10 2.597e-10 2.7639477e-10 2.5921015e-10 2.9386707e-10
4.194024e-10 4.2491619e-10 6.8469425e-10 3.6872674e-10 1.3906525e-16 2.243763e-14 6.7479197e-15 3.838077e-14
6.065553e-14 2.0355046e-13 3.2737566e-13 1.4146254e-16 2.4751512e-14 1.21165e-15 1.03535493e-13 1.7692767e-13
4.992458e-13 1.8943738e-14 1.6260902e-09 1.578989e-09 2.8640461e-09 1.9928974e-09 1.8954547e-09 2.2339115e-09
1.3374676e-09 1.5204152e-09 1.4656424e-09 1.2747741e-09 5.7199174e-09 5.8423e-09 7.704333e-09 4.2275863e-09

exp_avg f4 [12]
00000000: 9a1d b234 a719 d036 4213 61b1 e935 95b4
00000010: b860 ee30 51cc 0631 edaa 2b33 0436 49b4
00000020: c962 e1b2 e092 fdb2 085b e030 504a d4b6
3.3176622e-07 6.2018694e-06 -3.2752756e-09 -2.7792638e-07 1.7344268e-09 1.9615707e-09 3.9969496e-08 -1.8739235e-07
-2.623837e-08 -2.9519867e-08 1.6324018e-09 -6.3267435e-06

exp_avg_sq f4 [12]
00000000: 0cd8 372b 4490 3e31 bdb4 322a c90b 1b2f
00000010: 1a9a 672a 8b53 9c28 a7e0 7b2d 05c6 062d
00000020: 8f2c ba2b 0a76 5c30 d652 5628 668e 4b31
6.5314486e-13 2.7730644e-09 1.5872282e-13 1.4101355e-10 2.0570386e-13 1.735571e-14 1.4317581e-11 7.660987e-12
1.3228462e-12 8.020328e-10 1.18973485e-14 2.9621332e-09

exp_avg f4 [6, 12]
00000000: d594 8db6 8467 22b7 609f 93b6 4e75 a5b5
00000010: 9c2b 8cb5 af09 12b6 15d7 9ab6 9547 4e36
00000020: 0257 1db6 18c5 af34 2942 c8b6 dbd8 1eb7
00000030: de01 b936 4b8e 0137 f842 ab35 36e7 4136
00000040: f068 0534 7ef7 8336 3a1d 3a36 7ae8 6bb6
00000050: 469a 5f36 9651 e5b6 a0cf 12b4 8561 fb36
00000060: 687b eeb5 35b5 8135 b0de 3636 b620 f5b5
00000070: f8d3 5e35 2f44 08b6 a28a ba35 0406 5235
00000080: 6154 a9b5 11a7 e036 372e bc36 3847 8735
00000090: ce7e 8cb6 9f5c beb6 509e 55b5 5784 16b6
000000a0: d0ed 45b3 ae3b 4bb6 84dd 04b6 6de3 3136
000000b0: a27d 2ab6 5b7d b636 08c3 dc34 5a8d b8b6
000000c0: 0400 0000 0400 0080 0400 0000 0400 0080
000000d0: 0400 0080 0400 0080 0400 0000 0400 0080
000000e0: 0000 0000 0400 0000 0400 0080 0400 0080
000000f0: 0400 0000 0400 0000 0400 0000 0400 0000
00000100: 0400 0000 0400 0080 0400 0000 0400 0080
00000110: 0400 0000 0400 0000 0400 0000 0400 0000
-4.219454e-06 -9.680054e-06 -4.399495e-06 -1.2327598e-06 -1.0443505e-06 -2.1761332e-06 -4.6145965e-06 3.0738058e-06
-2.3445468e-06 3.2739695e-07 -5.9681665e-06 -9.4680245e-06 5.513647e-06 7.722129e-06 1.2759983e-06 2.8893824e-06
1.2424766e-07 3.932916e-06 2.7733172e-06 -3.5153048e-06 3.3319388e-06 -6.8342297e-06 -1.3672843e-07 7.4917357e-06
-1.7768298e-06 9.663987e-07 2.7249735e-06 -1.8263443e-06 8.30099e-07 -2.0305267e-06 1.3898427e-06 7.823985e-07
-1.2616039e-06 6.6951693e-06 5.6082167e-06 1.0079011e-06 -4.187087e-06 -5.6732238e-06 -7.957906e-07 -2.2428774e-06
-4.6083926e-08 -3.0284095e-06 -1.9798472e-06 2.6507435e-06 -2.5405102e-06 5.438616e-06 4.1120097e-07 -5.500083e-06
6e-45 -6e-45 6e-45 -6e-45 -6e-45 -6e-45 6e-45 -6e-45
0.0 6e-45 -6e-45 -6e-45 6e-45 6e-45 6e-45 6e-45
6e-45 -6e-45 6e-45 -6e-45 6e-45 6e-45 6e-45 6e-45

exp_avg_sq f4 [6, 12]
00000000: 6e98 8f2f 7afe 2732 a43f b131 08f2 9732
00000010: feac f531 cd7e 0532 0b87 d631 45e8 8132
00000020: 734d f930 ecee 0833 b3f9 5e32 9be6 1c32
00000030: d2c7 0530 ad3b d232 828d 3d32 5d88 5a33
00000040: be54 8e32 3f0a b032 80c3 7032 29d3 3833
00000050: 2ddf 9831 2ce1 b133 c77f 0333 f666 c432
00000060: ffcd 862e 634d ce31 5cf1 0c31 953e 7f32
00000070: 4b0f 7631 cdc9 b831 e698 4531 3927 5332
00000080: 449e 9230 975f b932 cc3e e931 5ad3 c031
00000090: 3e1a 9b2f 82de 7732 39b3 dd31 d0b6 0133
000000a0: 0030 2732 49ff 4f32 a02b 0d32 2a17 db32
000000b0: 4e51 3431 6340 5233 8785 9a32 1090 6732
000000c0: f401 0000 e90c 0000 f401 0000 c52e 0000
000000d0: 4696 0100 cc28 0a00 f401 0000 c3d4 0000
000000e0: 0000 0000 f401 0000 361a 0400 f401 0000
000000f0: d3e6 c811 b622 b929 a7c4 4329 9e7e 432a
00000100: 3bac 2f2b 9516 8815 f886 2a29 35b6 8925
00000110: 1dbf a012 0e57 f32a 2473 1b2c c23e a429
2.6119856e-10 9.778541e-09 5.158613e-09 1.7688777e-08 7.1501054e-09 7.77045e-09 6.2435723e-09 1.51232e-08
1.8139147e-09 3.1882266e-08 1.2978876e-08 9.132829e-09 4.866908e-10 2.4474355e-08 1.1033423e-08 5.0881102e-08
1.6569512e-08 2.0493756e-08 1.401429e-08 4.3032887e-08 4.4491544e-09 8.283163e-08 3.0617027e-08 2.2864224e-08
6.130207e-11 6.004187e-09 2.0509878e-09 1.4857183e-08 3.5806405e-09 5.378047e-09 2.8754186e-09 1.2290735e-08
1.066788e-09 2.1580304e-08 6.7883317e-09 5.6119633e-09 2.8212982e-10 1.4427885e-08 6.452322e-09 3.020142e-08
9.731593e-09 1.2107031e-08 8.217199e-09 2.550549e-08 2.6239664e-09 4.8952995e-08 1.798868e-08 1.3478726e-08
7e-43 4.631e-42 7e-43 1.6778e-41 1.45743e-40 9.3299e-40 7e-43 7.6325e-41
0.0 7e-43 3.76745e-40 7e-43 3.1696693e-28 8.221672e-14 4.3469267e-14 1.7363408e-13
6.2411507e-13 5.496559e-26 3.786465e-14 2.388918e-16 1.0144533e-27 4.3225878e-13 2.209074e-12 7.29395e-14

exp_avg f4 [6]
00000000: f037 08b6 5746 aeb6 97d5 f036 4a97 8e36
00000010: 0400 0080 0400 0000
-2.029814e-06 -5.1937927e-06 7.1774225e-06 4.249542e-06 -6e-45 6e-45

exp_avg_sq f4 [6]
00000000: b236 f633 0b89 aa34 4c3a c033 0b26 4a34
00000010: aba0 0700 81c8 b12b
1.1465217e-07 3.176468e-07 8.951301e-08 1.8826556e-07 7.00485e-40 1.2632257e-12

exp_avg f4 [3, 6]
00000000: b207 3337 5bcb d036 74f4 0137 903a a437
00000010: 0400 0080 0400 0000 8252 e4b6 5003 98b6
00000020: 8450 b8b6 9bd7 22b7 0400 0080 0400 0000
00000030: c5ca 06b7 9a27 c1b6 aa80 12b7 6048 16b5
00000040: 0400 0000 0400 0000
1.0671023e-05 6.2225567e-06 7.745915e-06 1.9577594e-05 -6e-45 6e-45 -6.8045347e-06 -4.5303386e-06
-5.4930006e-06 -9.706152e-06 -6e-45 6e-45 -8.034233e-06 -5.7564584e-06 -8.732235e-06 -5.5984674e-07
6e-45 6e-45

exp_avg_sq f4 [3, 6]
00000000: 920c c132 2f49 0032 ada8 3e32 1ff1 c333
00000010: f401 0000 df6c 1720 fc0a 2333 9e34 5b32
00000020: 59ea a132 a88b 2434 f401 0000 f2d3 0723
00000030: 991e a333 d6bb e932 f632 2533 aee0 a934
00000040: f401 0000 f076 aa24
2.2473873e-08 7.467221e-09 1.1097808e-08 9.124255e-08 7e-43 1.282622e-19 3.7961385e-08 1.27594415e-08
1.8849436e-08 1.5324497e-07 7e-43 7.363246e-18 7.595845e-08 2.7210188e-08 3.8463405e-08 3.164218e-07
7e-43 7.3927236e-17

exp_avg f4 [3]
00000000: 2c50 1138 8a4a 93b7 b43e f9b6
3.464536e-05 -1.7558476e-05 -7.428078e-06

exp_avg_sq f4 [3]
00000000: a87f 9434 d833 f934 1e5c 7c35
2.766003e-07 4.6417586e-07 9.4011364e-07

exp_avg f4 [3, 6]
00000000: 7678 ddb4 0300 18b4 64e9 4fb4 2392 b9b5
00000010: 0400 0080 0400 0000 544e 8936 8ffc 2f36
00000020: db2d 5f36 1e2b ca36 0400 0000 0400 0080
00000030: 228e 0435 1c43 df34 a9f1 1935 c076 5132
00000040: 0400 0080 0400 0000
-4.1252105e-07 -1.4156107e-07 -1.9363284e-07 -1.3826105e-06 -6e-45 6e-45 4.0920368e-06 2.622404e-06
3.325628e-06 6.0250886e-06 6e-45 -6e-45 4.938066e-07 4.1585815e-07 5.7348603e-07 1.2192402e-08
-6e-45 6e-45

exp_avg_sq f4 [3, 6]
00000000: 577f 6831 551b 9530 48b4 e230 8a1a 6e32
00000010: f401 0000 558f 3b21 e93d ad31 2018 ea30
00000020: e70b 2c31 134b b132 f401 0000 ea82 c820
00000030: 7fbe bd31 986e ff30 1443 3c31 0226 c132
00000040: f401 0000 7d2e d421
3.3832828e-09 1.0848945e-09 1.6494903e-09 1.3859458e-08 7e-43 6.3547763e-19 5.042001e-09 1.7032598e-09
2.503606e-09 2.0639652e-08 7e-43 3.396795e-19 5.522281e-09 1.8585125e-09 2.739573e-09 2.2485441e-08
7e-43 1.4377984e-18

exp_avg f4 [3]
00000000: 635e 1db6 8b6f 3c37 d83f d734
-2.3449763e-06 1.1231644e-05 4.0093323e-07

exp_avg_sq f4 [3]
00000000: da82 3533 78b0 8533 86e8 9133
4.2261355e-08 6.2253946e-08 6.7943844e-08
